TDQN/Sliding/TDQN/model/actor_model.ckpt (torch, 85963 bytes, 10 tensors)

lstm.weight_ih_l0 f4 [96, 1]
000000 f4 13 31 3e 00 d9 15 bb b8 c7 36 3d e0 ef 2f bc
       0.17292768 -0.0022864938 0.04462406 -0.010738343
000010 8c e7 e6 bd 24 ab a4 3d e8 fc 5c 3d 13 76 bf bd
       -0.11274633 0.08040455 0.053952128 -0.09348693
000020 4e 5e 15 be 40 fe 99 3d 29 fd d3 bd 4e 84 21 be
       -0.14586756 0.075191975 -0.10351021 -0.15773126
000030 84 9a 4b 3e 28 5b ad 3c 23 d7 18 be a9 68 3f be
       0.19883162 0.02116163 -0.14925818 -0.18692268
000040 80 19 ea bd 50 db 68 bc 10 2a 6e 3c f4 84 e5 3d
       -0.11430645 -0.014212444 0.014536396 0.112069994
000050 79 1f c5 bd d8 c8 c6 3d e8 31 08 bd 38 76 31 3e
       -0.096251436 0.09706277 -0.03325072 0.17330253
000060 20 a5 e1 3d 80 b8 3d 3d ec 5d d0 3d 01 6e d4 bd
       0.11017823 0.04631853 0.10174164 -0.10372544
000070 ee 70 43 3e f0 44 2d be 3e d9 24 3e 70 35 11 bd
       0.19086048 -0.16920829 0.16098496 -0.035451353
000080 7e 7e 04 3e 00 41 bc ba c0 cb fc bd f2 3f d0 bd
       0.12938878 -0.0014362633 -0.1234355 -0.101684466
000090 42 e2 22 3e 60 67 2b bd 80 86 9c 3d f8 11 f9 bd
       0.15906623 -0.041846633 0.07642841 -0.121616304
0000a0 80 1e 4d be 40 8c 4d bc 42 6c b8 bd 44 35 cf 3d
       -0.20031166 -0.012545645 -0.090050235 0.101175815
0000b0 8e 25 4d 3e 9a 82 9f bd 3c da 11 3e 70 93 18 3e
       0.20033857 -0.07788582 0.14243406 0.14899993
0000c0 a0 ac e7 bc 58 39 96 3c dc ab 22 3e a0 6d 13 bc
       -0.028280556 0.01833789 0.15885872 -0.008998305
0000d0 58 e8 a8 3d 74 30 30 be ca f2 12 3e c4 d9 4a bd
       0.08247441 -0.17205983 0.14350429 -0.049524084
0000e0 8a 3e 9c bd 4c 2e ac 3d 40 f1 73 bb e8 c9 96 bd
       -0.07629116 0.08407268 -0.0037222654 -0.07362729
0000f0 78 94 94 3d 87 56 1e be 00 4c c8 3c f5 24 47 be
       0.07254881 -0.15462695 0.024450302 -0.19447692
000100 28 db 3f 3d 04 a9 13 bd 60 0c ae 3b 9c e8 31 3e
       0.046839863 -0.036049858 0.005311534 0.1737389
000110 c2 6c 32 be 48 c0 48 bd de 6b 0a 3e 45 7e be bd
       -0.174243 -0.0490115 0.1351771 -0.09301428
000120 8c 53 9d 3d 98 7b f5 3c b2 94 0f 3e 78 1d 39 3d
       0.07681951 0.02996616 0.14021567 0.04519412
000130 90 34 82 3d c8 1e c9 bc d2 ba 38 3e 5c 59 90 bd
       0.06357682 -0.02455081 0.18040016 -0.07048294
000140 54 62 c7 3d 6b 43 ab bd 0e 40 34 3e 36 e2 40 3e
       0.097355515 -0.08362468 0.1760256 0.18836293
000150 0d df cf bd 20 2d c2 3d 35 1a 2a be da 5b 43 be
       -0.101499654 0.09481263 -0.1661156 -0.19078007
000160 a6 56 2a be 5c cd 39 be 43 43 d1 bd ca 43 f9 bd
       -0.16634616 -0.18144745 -0.10217907 -0.12171133
000170 b0 98 5e 3d fc d4 b3 3d 70 63 f8 3d 7e 6d 23 be
       0.054344833 0.08780858 0.12128341 -0.15959737

lstm.weight_hh_l0 f4 [96, 24]
000000 d8 c0 2b 3e 52 f3 2d 3e 78 a0 15 3e 98 43 1b 3e
       0.16772783 0.1698735 0.14611995 0.15162504
000010 cf be 2e be 48 f3 1c bd 44 74 cc 3d e0 b6 8c bd
       -0.17064975 -0.03831795 0.099831134 -0.06870818
000020 64 b8 de bd b8 bd 84 bc 01 e8 c7 bd 20 65 b9 bc
       -0.108750135 -0.016203746 -0.09761048 -0.022631228
000030 75 79 1c be 36 63 1d be 3e fe 30 be 32 21 00 3e
       -0.15280707 -0.15369877 -0.17284486 0.12512663
000040 88 91 c8 bc 28 a6 76 bd 2e af a8 bd 84 19 75 bd
       -0.024483457 -0.060217053 -0.08236538 -0.059838787
000050 e0 dc 99 3d 4e 3f 92 bd 80 06 64 bc 23 50 a3 bd
       0.07512832 -0.07140981 -0.013917565 -0.07974269
000060 40 70 3c 3c 48 d8 e0 3d a8 35 8a 3c 4c 39 06 be
       0.011501372 0.109787524 0.016871288 -0.13107795
000070 72 10 45 3e 40 4b 12 be 30 37 14 3c 80 f9 b8 3c
       0.19244555 -0.14286518 0.009046361 0.022579908
000080 7e 39 4d be e0 11 8a bb b0 76 33 be 54 f7 00 be
       -0.20041463 -0.0042135566 -0.17525744 -0.12594348
000090 f4 3b 37 3e 8a c9 e2 bd 50 06 63 bd 6c 90 2c 3d
       0.17893964 -0.11073597 -0.055425942 0.04212992
0000a0 16 7b 08 3e 48 9b 42 bd b4 19 84 3d d0 7f 1f 3e
       0.13328204 -0.04751137 0.06450215 0.155761
0000b0 c4 1a 1c 3e 30 c3 14 bd a8 4b 1c bd 28 14 e7 bc
       0.15244585 -0.036318958 -0.03815809 -0.028207853
0000c0 80 95 8a 3d 2c b3 0f 3e 09 ec 4e be 93 a3 c6 bd
       0.06766796 0.14033192 -0.20207228 -0.09699168
0000d0 62 45 a2 bd 7c 91 25 3e d4 8b 1c be 65 06 fa bd
       -0.0792339 0.16168779 -0.15287715 -0.12208251
0000e0 f4 1c 0e bd e6 a1 3b 3e dc 8f 41 be 84 e7 31 be
       -0.03469558 0.18323478 -0.18902534 -0.17373472
0000f0 7d dd c8 bd 98 41 26 3e 38 ae 82 3d 60 40 51 3d
       -0.098078705 0.1623596 0.06380886 0.051086783
000100 80 92 4f bd fa 44 dc bd 0c b7 01 3e 68 0e 7a 3d
       -0.050676823 -0.10755344 0.12667483 0.061048895
000110 0e 50 a9 bd 64 e6 98 bd aa 6d 3c 3e c6 2e 50 be
       -0.08267222 -0.074658185 0.18401209 -0.20330343
000120 58 e9 29 3e 78 89 53 3d 80 e8 ce ba 16 7c 07 3e
       0.1659292 0.051644772 -0.0015785843 0.13230929
000130 a5 60 20 be 1c da 19 bd d8 47 3e 3d 82 c0 8a bd
       -0.15661867 -0.03756152 0.046455234 -0.06774999
000140 11 12 08 be 86 38 47 be 12 4c 03 3e d0 03 30 be
       -0.13288142 -0.19455156 0.12821987 -0.17188954
000150 84 95 02 3d ca 9e 46 3e 58 11 55 bd b2 92 fd bd
       0.03188087 0.1939651 -0.052018493 -0.123814955
000160 a0 16 6b bc e0 fc 17 3e 10 bf dc 3d 14 6c 95 bd
       -0.014348656 0.14842558 0.1077863 -0.07296005
000170 40 dc 26 bc 7c 0f 2d 3d cd d8 dc bd 22 b4 81 bd
       -0.010184348 0.042251095 -0.10783539 -0.06333186
000180 e5 9b c2 bd 00 34 18 bb cc d5 0f 3e 38 a6 5b 3d
       -0.09502391 -0.0023224354 0.14046401 0.053625315
000190 94 e5 2f 3d ce e1 1d 3e c0 79 a8 3c 40 98 81 bb
       0.042943552 0.15418169 0.020565867 -0.003954917
0001a0 1a bf 1f 3e ac b6 a2 3d 50 43 af 3d c0 07 58 3d
       0.15600243 0.07944998 0.08557761 0.052741766
0001b0 82 96 48 3e 2f cd 04 be 90 1c b5 bc 6e cf 4e 3e
       0.19588664 -0.12968896 -0.022108346 0.20196316
0001c0 66 f2 07 3e 2e 4e e9 bd a0 77 94 3d b8 6b 5e bd
       0.13276061 -0.11391865 0.07249379 -0.054301947
0001d0 df df 2a be 58 75 c2 3d 10 d1 34 bd a0 f7 7c 3d
       -0.16686963 0.09495038 -0.04414469 0.06175959
0001e0 68 03 86 3d 86 a8 2e 3e 7d 10 1e be 00 6f 79 3d
       0.065436184 0.17056474 -0.15435977 0.060896873
0001f0 a0 52 35 bd 7e 9d 1f be 2f 79 1c be 80 7a e0 3b
       -0.04426825 -0.15587422 -0.15280603 0.0068505406
000200 2e 8f ee bd a4 58 2f bd c8 94 7b 3d f6 df 3c be
       -0.11648403 -0.042809144 0.061421186 -0.1844481
000210 da 52 29 3e 7b ed 06 be ac fa 6d bd 84 b2 04 be
       0.16535512 -0.13176529 -0.058100387 -0.12958723
000220 3e 21 11 be 32 e5 23 be 78 90 6e 3d b2 c6 b4 bd
       -0.14172837 -0.160054 0.058243245 -0.088269606
000230 50 f6 18 3d 12 d8 3e be e8 53 4f 3e aa 5a 9c bd
       0.037344277 -0.18637112 0.20246851 -0.0763448
000240 3a a3 0b 3e f0 e7 69 3c 01 33 49 be d3 d8 a7 bd
       0.13636485 0.01427649 -0.19648363 -0.08195653
000250 4f 9f b1 bd 70 55 62 3d 78 b5 89 bc 44 11 6e bd
       -0.08672964 0.05525726 -0.016810164 -0.058121935
000260 6c b1 1e be 60 fc 68 bc b0 39 53 3d bc ba 3c bd
       -0.15497369 -0.014220327 0.051568687 -0.04607652
000270 28 93 0d bd 08 78 42 3d 5c 21 15 bd 80 42 f8 3d
       -0.034564167 0.047477752 -0.036408767 0.12122059
000280 d0 cf 46 3d cd ba e3 bd 11 cd c0 bd d6 51 0f be
       0.04853803 -0.11119614 -0.09414113 -0.13996062
000290 fc 2d 13 3e 78 74 b1 3d f8 13 be 3d 47 ec 48 be
       0.1437301 0.08664793 0.092811525 -0.19621383
0002a0 20 0d 9b bc b6 84 31 3e 6e ce 31 3e c4 9b e7 bd
       -0.018927157 0.17335781 0.17363903 -0.11309007
0002b0 40 d8 1f bb ca d7 47 be 7a 82 46 3e 5b 10 10 be
       -0.002439037 -0.1951591 0.1938571 -0.14068739
0002c0 a0 29 e9 3b 10 6a f4 3d 41 a0 2e be 30 c9 96 3d
       0.007115558 0.11934292 -0.1705332 0.07362592
0002d0 dc 6b b3 3d 44 71 df 3d 78 20 4a 3e cc 83 1c be
       0.08760807 0.109102756 0.19738948 -0.15284652
0002e0 fa 15 ea bd 72 d2 46 be ae 72 15 3e a8 4c 3d 3e
       -0.11429973 -0.19416216 0.14594528 0.18486273
0002f0 b0 8f 96 3c 40 b7 38 3d f1 d1 47 be ba 77 8b bd
       0.018379062 0.045096636 -0.1951368 -0.068099454
000300 8c c8 44 bd d4 69 46 bd ae dc 02 3e 7c 99 8f 3d
       -0.04804282 -0.04844077 0.12779495 0.07011697
000310 c0 f4 51 bb c6 0d 22 3e 3f 3c d0 bd 8b ba ed bd
       -0.0032036752 0.15825567 -0.10167741 -0.11607846
000320 52 4d 1e 3e 59 a9 db bd a2 95 3b 3e 45 b3 3c be
       0.15459183 -0.1072566 0.18318799 -0.18427761
000330 70 56 73 bd 62 76 31 be 56 70 26 3e 74 0c cd 3d
       -0.059408605 -0.17330316 0.1625379 0.10012141
000340 68 e1 cf 3d 00 de 17 3e a0 1f 3f 3c a0 58 32 3d
       0.10150415 0.1483078 0.011665255 0.04354155
000350 85 c5 ec bd cc ec 18 be 52 24 81 bd 88 ed 08 3e
       -0.11561111 -0.14934081 -0.06305756 0.13371861
000360 ee 95 24 3e f4 59 33 be 3a 2d 46 be 08 3a f8 3c
       0.16072819 -0.17514783 -0.1935319 0.030301109
000370 32 32 2e be eb 2c f3 bd 30 cd d5 bd ba 16 1a be
       -0.17011335 -0.11873802 -0.10439527 -0.15047732
000380 80 54 27 3c cc 72 22 3e 54 5c 43 3e f0 97 0a 3c
       0.010213017 0.15864104 0.19078189 0.008459076
000390 dd 7d b4 bd 30 3c 3e be f4 02 88 3d b9 64 50 be
       -0.08813069 -0.18577647 0.06641188 -0.20350923
0003a0 70 91 27 3e 4c 82 b3 3d 5c a3 1a be 48 0c 09 be
       0.16364074 0.087650865 -0.15101379 -0.13383591
0003b0 80 23 9a 3d a8 2f 3d 3d 48 ad 34 3e 98 8a 6f 3d
       0.07526302 0.046188027 0.17644227 0.058481783
0003c0 e0 a7 3f bd f0 10 29 bc 60 ff df 3b 08 88 93 3d
       -0.046790957 -0.01031898 0.006835863 0.0720368
0003d0 88 f1 59 3d 78 01 be bc b0 28 14 bd 90 0c fc 3c
       0.053208858 -0.02319406 -0.036171615 0.030767709
0003e0 de 77 a2 bd 44 8a 0e be 2e 0c 31 be fc 94 a9 bd
       -0.07933019 -0.13919932 -0.17289802 -0.0828037
0003f0 c8 fb e7 3d 35 86 c6 bd ae a1 36 be 22 09 12 3e
       0.1132732 -0.09693567 -0.17835113 0.14261296

lstm.bias_ih_l0 f4 [96]
000000 c0 13 e3 bc 00 e9 0a be d8 a0 d1 3d 74 6f 38 bd
       -0.027719378 -0.13565445 0.10235757 -0.045028165
000010 c8 25 d2 3d f8 c8 60 3d 14 0f d5 3d cd 87 dd bd
       0.102611125 0.05487916 0.104032665 -0.108169176
000020 40 0f d0 bc 4c bb 19 be 9d 65 03 be 01 1b 2a be
       -0.025397897 -0.15012854 -0.12831731 -0.16611864
000030 b0 5a 19 bc 58 a7 76 3d 00 d3 d1 3c fc 9c 02 bd
       -0.0093600005 0.060218185 0.025613308 -0.031887993
000040 a0 22 39 3e c8 f1 8c 3d 8e 88 33 3e 94 5d fc 3d
       0.18079615 0.068820536 0.1753256 0.12322536
000050 14 f8 22 3e 00 79 25 bd 5a 28 09 3e 00 7b 8f 3a
       0.15914947 -0.040398598 0.13394299 0.0010946691
000060 ac 94 2f bd d4 76 09 bd e8 65 c8 3c 00 86 2d 3a
       -0.042866394 -0.03356059 0.024462655 0.0006619394
000070 10 3a b1 3d d0 be f7 3c 72 ae e6 bd e2 78 20 3e
       0.08653653 0.030242354 -0.112637416 0.15671113
000080 81 55 24 be ca 93 06 be 00 8a f2 3d d6 1e df bd
       -0.16048242 -0.13142315 0.11842728 -0.10894553
000090 b6 eb c0 bd 20 ee 5e bc 20 a0 e1 3d e0 66 7d 3c
       -0.09419958 -0.013606578 0.110168695 0.015466422
0000a0 74 cc 09 be ca bc 31 3e 82 29 28 be d8 39 0c 3e
       -0.13456899 0.17357174 -0.16422084 0.1369394
0000b0 c8 51 cc 3c 58 19 5e 3d 9c 42 e6 3d d0 ab 3b 3c
       0.02494134 0.05422339 0.112431735 0.0114545375
0000c0 a9 88 09 be a0 41 d4 3b fb 0f 0d be ec 3e af 3d
       -0.13431038 0.0064775497 -0.13775627 0.08556923
0000d0 28 c2 dc 3d bc fe bc 3d da 88 14 3e e0 53 44 bc
       0.1077922 0.09228274 0.1450533 -0.011982888
0000e0 b8 42 fa 3d 70 75 51 3d f0 2b 1d 3c 8c b6 ea 3d
       0.12219757 0.051137388 0.009592995 0.11460599
0000f0 f8 37 c5 bc d8 c7 c8 bc f0 e3 d7 3d cc fa ae 3d
       -0.02407454 -0.024509355 0.105415225 0.085439295
000100 dd 61 2c be 7c 8b 0e be 62 86 39 be 99 98 cc bd
       -0.16834207 -0.13920397 -0.18117669 -0.09990043
000110 b0 58 22 be 54 95 21 be 02 8b 00 3e 40 7d 38 3d
       -0.15854144 -0.1577962 0.12553027 0.045041323
000120 fc 6c c1 3d b4 60 e9 3d b8 cb 1d 3e 52 c8 29 be
       0.09444615 0.11395398 0.15409744 -0.16580322
000130 ba 14 47 3e 18 7a 86 bc c0 e4 fd bc c0 9b c9 3d
       0.194415 -0.01641564 -0.030992866 0.0984416
000140 ba 91 b4 bd c0 79 ee 3d 50 d4 a5 bd 30 56 98 bc
       -0.08816858 0.11644316 -0.08097136 -0.018595785
000150 94 05 3b 3d ec 14 0f 3e d5 2a 27 be 08 c9 ac 3c
       0.045659617 0.13972825 -0.16324933 0.021091953
000160 b0 f4 c8 bc c8 18 79 3d c8 c0 60 bd 40 e5 23 3e
       -0.024530739 0.06081465 -0.05487135 0.1600542
000170 00 95 17 bd 40 94 4c bc d4 dc e0 3d bd a5 2a be
       -0.03700733 -0.012486517 0.109796196 -0.16664787

lstm.bias_hh_l0 f4 [96]
000000 ce 5c 2f 3e 5c 2b 19 3d 18 f8 12 3e 00 23 3f ba
       0.17125246 0.037394866 0.14352453 -0.0007291287
000010 9e c9 83 bd e8 0b 5a 3d bc 1b c3 3d 0c a9 17 be
       -0.0643494 0.05323401 0.09526774 -0.1481058
000020 d0 36 85 3c d8 dc 81 bc 30 ff f2 3d 30 d3 55 bc
       0.016261488 -0.015852377 0.118650794 -0.013050839
000030 80 03 c0 3a a8 bd be 3c ce d8 47 be d0 21 30 3e
       0.001464948 0.023283795 -0.19516298 0.17200398
000040 7a 3f 34 3e 52 bf 30 be 4b 23 09 be cc 20 01 be
       0.1760234 -0.17260483 -0.1339237 -0.12610167
000050 b4 75 23 3d b8 9e e5 3d a8 e3 43 3e 48 75 1e 3e
       0.039907172 0.11211914 0.19129813 0.15474427
000060 f8 e6 fa bd e0 48 55 3c 2c be 6c bd 98 90 40 3e
       -0.12251085 0.013017863 -0.05779855 0.18805158
000070 88 59 9b 3d 40 67 84 bd 61 94 42 be 74 29 33 bd
       0.07585436 -0.06465006 -0.19001915 -0.043740705
000080 00 28 b1 bd 28 85 17 be d2 7c 3d 3e 60 9d 6e bc
       -0.086502075 -0.14796889 0.18504646 -0.014563888
000090 68 7e 94 3d a6 f7 1f 3e 6c 28 f4 3d e6 4f 32 3e
       0.072506726 0.15621814 0.11921772 0.17413291
0000a0 44 77 35 3d b8 7c bb bd b8 fc 92 bd c0 08 6f bd
       0.044303194 -0.091546476 -0.071771085 -0.058357954
0000b0 3f 1f 1d be 00 45 6d 3d b4 d3 0e be d0 22 cb bc
       -0.1534395 0.05792713 -0.13947946 -0.024796873
0000c0 00 64 90 39 e6 21 db bd 00 d9 16 bb c0 a9 f8 bc
       0.00027540326 -0.10699825 -0.0023017526 -0.03035438
0000d0 70 d0 76 3d d9 06 bc bd ad 05 39 be 4e 1b 2f 3e
       0.060257375 -0.091809936 -0.18068571 0.1710026
0000e0 ca 97 0b 3e 90 f4 3d 3d dc b8 2e be f6 80 44 be
       0.13632122 0.04637581 -0.17062706 -0.1918982
0000f0 c0 09 2b bb 31 89 4f be 40 d3 c4 3d 18 a9 3c 3d
       -0.002609834 -0.20267178 0.09610605 0.046059698
000100 3a 68 42 3e 58 ff a5 3c 74 9e a5 3d b3 40 49 be
       0.18985072 0.020263359 0.08086863 -0.19653587
000110 e8 7e 55 bd 00 40 94 38 50 ba 4a 3e 28 e2 61 bd
       -0.05212298 7.069111e-05 0.19797635 -0.05514732
000120 90 9b 4c bd 30 9d 16 bd e4 83 f2 3d 1c 3b 01 be
       -0.049953043 -0.036771 0.118415624 -0.12620205
000130 5c 71 03 bd 30 cf c5 3d 61 50 c2 bd 28 fd ed 3d
       -0.03209053 0.096586585 -0.09487987 0.11620551
000140 c4 3a 2d 3e b0 4b cd 3d 9c 28 e9 3d 50 98 3c bd
       0.16916949 0.10024202 0.11384699 -0.046043694
000150 6a a3 10 3e cd 09 0a be a4 08 23 be fc ee d0 bd
       0.14124838 -0.13480301 -0.15921265 -0.10201833
000160 92 88 2d 3e 70 db b0 3c 90 67 97 3c f0 54 a7 3c
       0.16946629 0.021589011 0.018482 0.020426244
000170 0c 78 d7 3d 90 2b 46 3e 6a 2b 47 3e d7 e1 08 be
       0.10520944 0.19352555 0.19450155 -0.13367401

linear1.weight f4 [128, 10]
000000 ed b7 4e 3d 20 10 10 3f 2b 2e 31 3d ad 16 5a 3d
       0.050468374 0.56274605 0.04325692 0.05324428
000010 f3 dd 5c be a8 ba 91 be 47 50 2e 3f de b6 8e 3e
       -0.21569042 -0.2846272 0.68091244 0.27873892
000020 f3 26 83 3e c5 85 0d bd ef da dd 3e de 26 80 3e
       0.25615653 -0.0345514 0.43331096 0.25029653
000030 a0 69 8e bd 9b 4a 73 be 4c c9 25 3e 0b ff 31 bf
       -0.0695374 -0.23758928 0.1619007 -0.6952979
000040 58 ab ca 3c 61 a2 f7 3d bd 67 a0 3c f1 59 6b 3e
       0.024739906 0.12091518 0.019580716 0.22983529
000050 9f ba 6d be 77 d8 61 be 42 e8 8a 3d 53 5b 1e be
       -0.23215722 -0.22055231 0.06782581 -0.15464525
000060 0c a8 88 3b 37 24 bb be 9a 53 cc be 3c 95 8e 3e
       0.0041704234 -0.36551067 -0.39907533 0.27848232
000070 74 c7 7a 3d 0f 2e 2b bd d0 9b 8b 3d 80 b1 a6 bd
       0.06122537 -0.04179197 0.06816828 -0.08139324
000080 96 33 c3 3d c6 6e 02 be 98 fa a4 3e 76 9f 9c bd
       0.095313236 -0.12737569 0.32222438 -0.07647602
000090 91 26 b8 bd 03 ac 86 3e 1f ee 8f 3e 43 c6 ad 3d
       -0.08991731 0.2630311 0.2811136 0.08485081
0000a0 c0 64 ab bc f8 ee b7 3c 78 ad 3d 3d 93 4f a5 be
       -0.020922065 0.022452816 0.04630801 -0.32287273
0000b0 82 6d 47 3e 58 9b d5 3d 48 18 06 bf d5 37 a9 bd
       0.19475368 0.1043002 -0.523808 -0.08262602
0000c0 77 61 d6 bd 51 79 b8 3e ea 74 0e 3f bb 9c 4e 3b
       -0.10467809 0.36030057 0.55647147 0.0031526524
0000d0 ae 92 0c bd df 1b d0 bd 01 2b f1 be 59 b2 c4 be
       -0.034319572 -0.10161566 -0.47103122 -0.38417318
0000e0 29 8d 04 3d e7 f9 2b 3e 49 cb ee 3d b6 07 28 3e
       0.032361183 0.16794549 0.11659867 0.16409191
0000f0 38 a2 dc bd 4f ac 09 bf a3 92 63 3e 3f d2 35 3e
       -0.10773128 -0.5377855 0.22223906 0.17755984
000100 88 86 56 bd 79 8c 02 bf 4d 6f 5b 3e be 65 3e bf
       -0.052374393 -0.50995594 0.21429177 -0.74373996
000110 dc 93 7b 3e af 29 d2 be 99 45 be be bf 4a 18 be
       0.24568123 -0.41047427 -0.37162474 -0.14872263
000120 b1 73 86 3e e1 93 8f 3e 73 00 91 3e 4c e9 31 bd
       0.2626014 0.2804251 0.28320655 -0.04343538
000130 dc 66 3d 3e 17 45 32 3f bc 10 98 ba af 54 1e bf
       0.18496269 0.6963667 -0.0011601667 -0.61847967
000140 9d a3 f6 3d aa 75 52 be ea 8d 69 3d bd 63 a1 3e
       0.120429255 -0.20552698 0.057020105 0.31521407
000150 18 7d 86 bd 68 b9 0b 3f c6 b3 a6 bd b5 c2 19 3f
       -0.065668285 0.5457978 -0.08139758 0.60062724
000160 ea 08 13 3e 46 b9 ec bb da 9b 2a be fa 35 05 bf
       0.14358869 -0.0072242348 -0.16661015 -0.52035487
000170 56 ec 43 bc a1 e6 ee be 1f 8b 03 3d 70 42 fd bc
       -0.011958202 -0.4666033 0.032115098 -0.030915469
000180 50 be 0f 3f 16 df 6d bd e7 f2 9f be 84 dd 80 3d
       0.5614977 -0.05807408 -0.31240007 0.06292251
000190 e4 08 0b bd e5 51 db be e9 bb bc 3b 2f 05 d4 3e
       -0.033944026 -0.42835918 0.0057597053 0.41410205
0001a0 e1 fa ae 3d ec 1e 19 be 47 d9 fb bd 7b ba 68 be
       0.08543945 -0.14953202 -0.12297302 -0.22727387
0001b0 0f 1f c2 bd 42 23 d5 3e 8f f2 00 bf 6a 95 f7 bd
       -0.0947858 0.41628462 -0.50370115 -0.12089045
0001c0 42 d6 28 bd 39 4f 90 3e 11 ee 51 be 54 ef a7 3e
       -0.041219957 0.28185442 -0.20500971 0.3279978
0001d0 bb 77 a8 3d cc 69 15 3e ed e9 1a 3d 0a 7a 62 3e
       0.08225962 0.1459114 0.037820745 0.22116867
0001e0 5f 28 a2 3e 68 8d e1 3e 61 ab 04 3e 54 4e ba 3e
       0.31671426 0.44053197 0.12956001 0.36387885
0001f0 74 c3 c4 bd cb 45 74 3e 10 3c 32 3f ec 25 cf be
       -0.09607592 0.23854749 0.696229 -0.4045862
000200 64 bc c6 be 67 69 95 3d d3 c5 ab be 78 c7 82 be
       -0.38815606 0.072954945 -0.33549365 -0.25542808
000210 35 ed 8a bd 33 cb eb be 71 58 b5 3e b7 10 02 3f
       -0.06783525 -0.46053466 0.35419038 0.50806755
000220 48 2b 89 3e 53 32 22 bc 78 74 ce 3d ed 77 de bd
       0.26790833 -0.009899694 0.100808084 -0.10862718
000230 b3 6f 84 3e 59 4a ec be 1b 52 86 3e 3c b1 00 bd
       0.2586647 -0.46150473 0.26234517 -0.031419024
000240 ee 5e 07 bf 3a c4 6e be 4c eb 48 be b4 ba a3 be
       -0.52879226 -0.23317042 -0.19621009 -0.3197838
000250 92 8a 46 be 6f 10 06 3d 13 e6 b3 3d d7 b7 a7 3e
       -0.19388798 0.032730516 0.087841175 0.32757446
000260 90 77 31 3d a1 f5 87 bd c0 61 bc be 1d fd d3 3d
       0.043326914 -0.06638647 -0.36793327 0.10351012
000270 bb 19 82 be ee eb bb bd 2d 99 69 be 62 41 76 be
       -0.25410256 -0.091758594 -0.22812338 -0.24048379
000280 45 9c 44 3b e3 0c 3f bf cc 97 48 be c0 19 45 3e
       0.003000037 -0.7462904 -0.19589156 0.19248104
000290 aa 92 cf 3e 1e fc f8 bd cd ab dd 3e bc 4f 2f 3d
       0.40541583 -0.121574625 0.43295136 0.04280065
0002a0 42 f5 f5 3d 96 ef 82 3e 76 0f 4f be 46 2e cb bd
       0.1200967 0.25573415 -0.20220742 -0.09920935
0002b0 4e 8b 68 3e b3 f1 73 3e cf 20 84 3e bb 44 90 be
       0.2270939 0.2382267 0.2580628 -0.28177437
0002c0 91 d1 90 3b fb 10 cc 3d 29 67 a0 be 28 39 53 be
       0.0044195135 0.09964176 -0.31328705 -0.20627272
0002d0 ef 15 32 be 70 e8 df 3e 29 06 a2 3e 08 57 89 be
       -0.1739118 0.43732023 0.31645325 -0.26824212
0002e0 98 1e 21 3e af de 1c 3f 1d 7a 7a 3e 6d 20 64 bd
       0.15734327 0.6127729 0.24460645 -0.055694986
0002f0 64 3a 63 be 0b 92 5b 3e fc 58 6c 3e 33 16 b3 be
       -0.22190243 0.2144243 0.2308082 -0.34977874
000300 ae 0b 14 bd 90 fb ba 3e c6 72 ea 3e 07 28 92 be
       -0.03614395 0.36520052 0.4579069 -0.28546163
000310 18 87 f5 3e da 5a 6d 3e cc 37 d3 be ac fa 50 3e
       0.4795463 0.23179188 -0.41253507 0.20408124
000320 3d 17 c8 bb 27 ea 01 be f9 09 58 3e df 92 66 be
       -0.006106286 -0.12686978 0.21097554 -0.22516964
000330 87 9b b3 3e 6e 08 31 3f cc 1d c5 3d d8 ed a9 3c
       0.35079595 0.6915349 0.09624824 0.020743296
000340 5e 4b 9c 3e e8 4b 70 bb 86 3a e7 3e a8 b5 a9 be
       0.3052625 -0.0036666337 0.45161837 -0.33146405
000350 a8 82 1e 3d fd 84 3d be 94 e6 f4 be ca fd f6 bd
       0.038698822 -0.18507762 -0.47832167 -0.12060125
000360 3c 6b ea bd 2c c9 06 be 79 5f b1 bd e1 e8 0e 3e
       -0.114462346 -0.13162678 -0.08660788 0.13956024
000370 f5 ea ce 3e 01 cc 02 bf cc 3d 80 3e 7e ea d4 3c
       0.40413633 -0.51092535 0.25047147 0.02599072
000380 dc 1c 92 bd 9a c6 7a bc 97 5c 01 bf 35 e1 b6 bd
       -0.07134411 -0.015306139 -0.50531906 -0.089296736
000390 1d 7c f5 bd 22 05 1a 3f 71 36 f5 be c4 ec f5 3c
       -0.11986563 0.6016408 -0.47893098 0.030020125
0003a0 80 fd dc 3d ba 58 cc 3d 92 ce 82 3e 73 fe c2 be
       0.10790539 0.09977861 0.25548226 -0.38084754
0003b0 76 23 91 3e 30 c2 e9 bd de 1a 0d 3c fe 73 bc 3e
       0.28347367 -0.114139915 0.008612363 0.36807245
0003c0 9d d1 fa 3e 44 18 88 3d 67 44 82 3e 30 8e cf bd
       0.48988047 0.06645253 0.25442812 -0.10134542
0003d0 9d ad f2 be f1 a5 b4 be 42 f9 0c bf fd 5b 76 bd
       -0.4739808 -0.35282853 -0.5506784 -0.06014632
0003e0 02 43 cf bd ef 0a 8d be 2f e4 ef ba e3 08 f4 3d
       -0.101202026 -0.27547404 -0.0018302257 0.119157575
0003f0 ef b5 de bc c8 aa 93 3e 15 80 96 be d0 d8 be 3e
       -0.027186362 0.28841233 -0.29394594 0.3727479

linear1.bias f4 [128]
000000 32 c7 d0 bd 81 cb 86 3e 99 65 c8 bd b1 fb 86 3e
       -0.101942435 0.26327136 -0.09785003 0.263639
000010 8b d1 4f 3d fa 6d 87 3e 36 92 0e be fe 66 63 3e
       0.050736945 0.26451093 -0.13922963 0.22207257
000020 98 1a 58 3e f8 8f af bd f4 74 92 3e 4c 41 cf 3c
       0.21103895 -0.08572382 0.28604853 0.02529969
000030 dd 97 d5 bc 4a fe 2c 3e d2 3f 96 3c 45 ad 00 3f
       -0.02607339 0.16893879 0.018340979 0.5026439
000040 95 c7 1f 3e 91 89 9c 3e 58 e2 49 3d 5b 06 b5 3d
       0.15603478 0.30573705 0.049288124 0.08839103
000050 78 b3 e6 3e 75 96 18 be c0 d8 03 be 7d 97 a5 3d
       0.450588 -0.14901145 -0.12875652 0.08085535
000060 3b 87 67 3d 41 4d a8 3e 51 e5 e3 3c 5a 2f 8b 3c
       0.05652545 0.3287144 0.027819308 0.016990352
000070 38 50 e0 3e 20 2b a7 3e 5b cb 9d 3e 46 34 05 3f
       0.43811202 0.3265009 0.3081921 0.5203289
000080 1c 5c 38 3e 95 8e 90 3d 0e 3e e8 3d 07 4f 57 3d
       0.18003887 0.07058445 0.11339961 0.0525656
000090 15 4a ae 3e c4 82 8d 3e cf f2 4b 3e 80 c2 3c 3e
       0.34040895 0.2763883 0.19916843 0.18433571
0000a0 f8 7d 64 be 3a 7e 96 3e d2 31 7b be f2 5a 41 3d
       -0.22313678 0.29393178 -0.24530724 0.047205873
0000b0 5c 3a a6 3c 7f c2 ff 3d ad 4c 3e bd 6f f5 9d 3e
       0.0202915 0.12488269 -0.046459842 0.30851313
0000c0 1a be 6e bd ae d7 a6 3e 92 fd 36 3e 48 49 91 3e
       -0.058286764 0.32586426 0.17870167 0.28376222
0000d0 fa 9d d6 bd 98 2d 28 3e 94 c1 2f bd 2c 1f 5d be
       -0.104793504 0.16423643 -0.04290922 -0.21593922
0000e0 10 be 5b bd b8 4b 9a be dc 60 6d 3e 37 23 a3 bd
       -0.053648055 -0.30135894 0.2318148 -0.07965701
0000f0 b5 53 93 bd 62 88 15 bc 6f f7 80 be 4b d1 5f be
       -0.071937 -0.0091267545 -0.25188777 -0.21857183
000100 cc 7d 5a 3e b8 ac c9 3d 44 04 c7 be a4 5e 9e be
       0.2133705 0.098473966 -0.38870442 -0.3093158
000110 07 de 05 3e c1 6d 86 3e 54 11 b0 3e 57 58 80 bd
       0.13072978 0.2625561 0.3438822 -0.062668495
000120 c0 22 1e 3f 03 3b 6d 3e bd e8 ef 3d 8e c3 32 3e
       0.61771774 0.23167042 0.11714313 0.1745741
000130 7a 6d d0 3d a8 0b 2d 3e 68 0f 3a be 12 45 f3 bd
       0.10177131 0.16898978 -0.1816994 -0.118784085
000140 4a 18 b7 3c 9b 79 a0 3d 44 3c bf bd 6a c0 2c 3e
       0.02235045 0.078356944 -0.09337667 0.16870275
000150 a7 f4 94 be f3 50 b9 3e 2b 27 71 3d a5 35 a9 bd
       -0.29092905 0.36194572 0.058875244 -0.08262185
000160 19 1d 2b 3e a6 2b 86 3e 22 a7 49 3e ee b0 8f bd
       0.16710319 0.26205176 0.19692662 -0.070161685
000170 96 1a 26 be e8 cb 17 bc be 20 14 be 88 6e 4e be
       -0.16221079 -0.009264924 -0.14465615 -0.20159352
000180 96 c1 52 bd 8a 3a 87 3c 5d 12 0e 3e 1a 0e b3 be
       -0.05145415 0.016507406 0.13874193 -0.34971696
000190 91 75 09 3e ce cf ef 3e d8 47 81 3e 38 9a 86 3e
       0.13423754 0.4683823 0.25250125 0.26289535
0001a0 e9 33 44 be 1d 63 80 bd 67 8b 07 bd 6f f7 40 be
       -0.19160427 -0.06268904 -0.03309193 -0.18844388
0001b0 c9 0a 42 3e 4c 11 b0 3e ed 5d 00 3d b5 f4 34 3e
       0.18949427 0.34388196 0.031339575 0.17671473
0001c0 ec 06 20 3e 2f ac b0 3d 35 d1 d6 3b 3d ad 08 be
       0.1562764 0.086265914 0.006555701 -0.13347335
0001d0 e3 45 5d 3e b7 75 71 be d6 18 76 bd 99 bd 17 be
       0.21608691 -0.23580061 -0.06008228 -0.1481842
0001e0 0f c4 bb 3e 2e 03 cd 3e f0 c1 66 3e b0 9e 5c 3e
       0.36673018 0.40041488 0.22534919 0.2154491
0001f0 49 89 fc 3d 91 04 76 3c 76 6d db 3d 98 36 4f 3d
       0.123308726 0.015015737 0.107142374 0.050589174

linear2.weight f4 [128, 128]
000000 ef 1c 84 3e ba f7 b6 be 4b 05 fc 3c 15 5b 8b 3c
       0.25803325 -0.35735875 0.030764243 0.017011205
000010 4d 41 5b 3e a7 b5 f6 3d c0 58 6b bd d4 59 76 3d
       0.21411629 0.12046366 -0.057457685 0.06014426
000020 5a e2 d0 bd 4d 2b 5c 3e 00 98 c2 bc 1b 6a 4f bd
       -0.10199423 0.21500893 -0.02375412 -0.0506383
000030 eb 55 c9 3a 02 e1 93 3d 43 41 1c bd 37 a5 9e be
       0.0015360689 0.07220651 -0.038148176 -0.30985424
000040 29 81 84 bd 60 9d 26 3d ce 1a ae 3d 9d 0d ab be
       -0.06469948 0.04067743 0.08501206 -0.33408824
000050 8d fd 18 3d 13 b7 5f 3e 2f cd c0 3d 4b ec 57 3d
       0.03735118 0.21847181 0.09414136 0.05271558
000060 06 88 e1 bd 31 52 5b 3d 8f d9 f3 bd 99 45 dd 3d
       -0.110122725 0.05354518 -0.119067304 0.1080429
000070 16 5f 0b 3e 01 3a 0d 3e 0c cf 84 be 13 24 a1 bd
       0.13610491 0.13791658 -0.25939214 -0.07868209
000080 93 14 23 3d 0c 53 b1 3d ba 13 d5 3e 57 9f 78 3e
       0.039814543 0.08658418 0.41616613 0.24279533
000090 d5 e8 bd be fe 97 4f be 9f ef d4 3c 5a 23 21 be
       -0.370917 -0.20272824 0.025993166 -0.15736142
0000a0 49 3a 88 be f5 28 fb 3d 49 2a 33 3e 19 93 76 bd
       -0.26606968 0.12263671 0.174966 -0.060198877
0000b0 6f 21 06 3e a9 61 11 3d 41 f8 94 3d 0d c6 78 bd
       0.13098691 0.035493527 0.07273913 -0.06073575
0000c0 14 f5 b0 bd 52 0e 26 3e 94 ef 24 3d d9 46 bf 3e
       -0.08640495 0.162164 0.040267542 0.3735874
0000d0 be da 88 be c2 99 91 be 7b 72 65 bb 6a 71 11 be
       -0.26729387 -0.2843762 -0.0035010863 -0.1420342
0000e0 0b 1e 84 bc 5c 56 d2 bd 20 d3 b3 3d 8b b4 0d 3e
       -0.016127607 -0.10270378 0.08780503 0.13838403
0000f0 f2 fd 9c bd 6c 3f 2e be 15 32 07 bc be fc 04 3d
       -0.07665624 -0.17016381 -0.008251687 0.032467596
000100 14 ba cf 3e 1f be d3 3d 72 7e 2f be 82 97 1b 3e
       0.40571654 0.10338997 -0.17138079 0.15194514
000110 46 79 37 bb 92 21 4c bd ca e2 0b 3e 07 f4 2f bf
       -0.0027995869 -0.049836703 0.13660732 -0.6873173
000120 c0 3f 27 bd f2 56 8b 3c f5 f1 9f 3d b4 15 a6 3d
       -0.04083228 0.017009232 0.078098215 0.08109608
000130 48 7d 79 be b3 5b 14 bf bd 3f 00 bf d0 e3 20 bd
       -0.24364197 -0.5795242 -0.50097257 -0.03927976
000140 84 da 8c bd 62 30 82 3d 67 02 e4 be 12 e5 b1 3c
       -0.06877616 0.063568845 -0.44533083 0.021715675
000150 e0 65 48 bd 75 d6 17 bd 98 b7 ba be 65 41 c3 3d
       -0.04892528 -0.037069757 -0.36468196 0.095339574
000160 db 2c 32 bd 6a c3 0d 3e f3 f2 40 3d 5e bd d1 3d
       -0.04349981 0.13844076 0.047106694 0.10241197
000170 35 03 89 3e 7b 86 1e 3e b8 5a 6f bf 3e bb 1a be
       0.2676026 0.15480988 -0.934978 -0.1511049
000180 77 ce db bc 78 48 d6 bc 53 ef 3b be b2 5d 3e be
       -0.026831849 -0.026157603 -0.18353014 -0.1859043
000190 ce d7 65 3e 13 5c a8 bd 19 98 09 bc 02 ac a1 3d
       0.22445604 -0.08220687 -0.008398079 0.07894136
0001a0 25 cd ba bc ce 50 99 bd 07 32 eb bd e2 2c 98 bd
       -0.022802899 -0.074861154 -0.11484151 -0.07430436
0001b0 89 71 17 3d 6a de cc bd 41 42 39 3d fd 68 02 bf
       0.03697351 -0.100033596 0.0452292 -0.5094145
0001c0 0f 2c e1 3c 41 4b cd bd d0 ba 99 3e df 32 85 3c
       0.02748683 -0.10024119 0.3002534 0.016259609
0001d0 9b 5c db bd d7 5d 5f 3c 56 e9 f9 be 96 08 46 3d
       -0.107110225 0.013633213 -0.48810834 0.048348032
0001e0 b0 bc d5 3d 13 64 89 3d ab 91 08 bd 4c c9 c6 bd
       0.1043638 0.06708541 -0.033342045 -0.09706363
0001f0 15 3b 13 3e 14 a7 27 be b7 fe be 3d 84 9a 3f bd
       0.14378007 -0.16372329 0.09325927 -0.046778217
000200 07 e9 a7 3e a8 f5 2d 3d 34 b4 4f 3d b3 d9 bc bd
       0.32794973 0.042470604 0.050708964 -0.0922121
000210 d1 89 8e bb b4 3f 0a 3d da 0d ed 3d 44 0b e4 bd
       -0.004349925 0.03375216 0.115749076 -0.11134961
000220 28 f6 a0 3d 37 ed a7 bd 13 0a f7 3d e2 ee f1 3d
       0.078594506 -0.08199542 0.120624684 0.118131414
000230 ce 5f 3f 3a c8 de 8e be 0f c7 e2 3d 41 d2 4a 3e
       0.0007300348 -0.27904344 0.11073124 0.19806768
000240 47 88 a8 ba 49 da c5 bc 78 4c 14 bd 04 4c 2c be
       -0.0012857997 -0.024151938 -0.03620574 -0.16825873
000250 79 6a a1 bd df 8f 8a bb bf 67 18 3c 34 98 2a 3e
       -0.07881636 -0.0042285766 0.009302079 0.16659623
000260 46 2d c7 3d 16 2e fb 3c a0 4e 8c 3c 13 e5 19 3c
       0.09725432 0.030661624 0.017127335 0.009392994
000270 7d 67 4a be aa 12 f2 3d ba 98 55 3d 07 9d 10 bf
       -0.1976604 0.11819966 0.052147605 -0.56489605
000280 71 bc f1 bd 7b 2f b4 bd 06 66 b4 be b1 9f 27 be
       -0.118035205 -0.08798119 -0.35234088 -0.16369511
000290 05 29 3e 3e 5f b2 1d bf a9 74 4f 3d ea 28 c6 3d
       0.18570335 -0.616003 0.050648365 0.096757725
0002a0 ce f4 1f 3e 12 f8 b6 3d 5b 80 92 3b 94 0a 04 be
       0.1562073 0.089340344 0.0044708676 -0.1289466
0002b0 a2 e6 3a 3e 86 3b 01 3e c3 40 4a bd c7 c8 db 3b
       0.18252042 0.12620363 -0.049378168 0.006707284
0002c0 6d 12 ae 3d af 1d 27 3e 7f 4f 57 bd b8 31 3e bd
       0.08499608 0.16319917 -0.052566048 -0.046434134
0002d0 95 3e 9f 3d 5e 1b a2 bb 5d 84 be 3e 2c 3d 0e 3e
       0.077756085 -0.00494711 0.3721036 0.13890523
0002e0 a5 64 64 3b d8 ac 01 bd ad bd 11 3d 0d 59 0c be
       0.0034850028 -0.031658977 0.03558128 -0.13705845
0002f0 fe 7c 9e 3c 7b 8b fc 3b a4 3d 0c 3e 1d f6 23 3d
       0.01934671 0.007707057 0.13695389 0.040029634
000300 fe f8 5a bd be 2f 12 3e 20 c1 b5 3e bc 3f d3 ba
       -0.053460114 0.14276025 0.35498905 -0.0016117017
000310 ce 60 11 3e ea 4d 99 bd 29 c6 09 3e 62 8e ab 3d
       0.14197084 -0.07485564 0.13454498 0.08376767
000320 22 96 fc bd c4 49 c6 3d a9 bb fe 3d 8a 8b 74 bc
       -0.12333323 0.096820384 0.12438137 -0.014925847
000330 ef 3d 89 3e 77 12 8d 3d 6f 61 e8 be 98 4a 64 bc
       0.26805064 0.068882875 -0.45386836 -0.0139338
000340 00 a9 55 3d 4a 88 13 be e0 6a a4 bd 4a e8 fb b9
       0.052163124 -0.14407459 -0.08028197 -0.0004804752
000350 6e f9 ad 3d ac fc 0a 3e 27 55 77 be 76 dd a4 bb
       0.084948406 0.13572949 -0.24153577 -0.005031283
000360 66 b7 a8 3d ee c4 d5 bd 86 03 a9 bd 3d 13 a8 3d
       0.082381055 -0.10437952 -0.08252625 0.082067944
000370 3e e8 0f 3b d4 ba 2f bd 84 d1 fd bb 6f 7e 21 3e
       0.0021958495 -0.042902783 -0.0077459235 0.15770887
000380 0e eb 89 bd 3a 2b 91 bd 26 a9 b3 bd 05 9b fc bd
       -0.06734286 -0.07088323 -0.08772497 -0.12334255
000390 da 31 cb bd 47 2f 68 3e 91 4a c3 bc 1b 23 f1 be
       -0.09921618 0.22674285 -0.023839267 -0.47097096
0003a0 86 72 5f 3d 8b 68 32 be 68 4d 53 be 9c 5f 06 bd
       0.054552577 -0.17422692 -0.20634997 -0.032806024
0003b0 7e 59 08 3c 58 e3 5f 3e 08 81 c6 3d ef e6 aa 3e
       0.008322118 0.21864069 0.096925795 0.33379313
0003c0 53 44 37 3e 21 e9 0f be c0 07 67 3d 22 47 9f 3c
       0.17897157 -0.14053775 0.056403875 0.019443098
0003d0 26 c5 75 bd e7 62 40 3d 53 40 90 3e fa 3b c9 bb
       -0.06000247 0.04696932 0.28174075 -0.006141183
0003e0 1b 8e ca bd 0a 39 ff bd 12 f8 b8 3e 80 41 fb 3e
       -0.09890386 -0.12462051 0.36126763 0.4907341
0003f0 1c f8 6c bc 91 51 f5 3d a6 a8 7b bd 90 6f c4 bc
       -0.014463451 0.11978448 -0.061440133 -0.023978978

linear2.bias f4 [128]
000000 60 58 fa 3d 38 a6 ac 3d 30 60 3e 3c 69 a2 a1 3c
       0.122238874 0.08430141 0.011619613 0.019730764
000010 3a a2 0b 3d 0d cf a4 3d f3 7f dc bc d9 d1 bb bb
       0.03409026 0.08047304 -0.02691648 -0.005731803
000020 c6 05 9d 3d 76 9f 14 3e be 71 5a 3c 46 25 27 bd
       0.07667117 0.14513955 0.013332782 -0.04080703
000030 9a 3d e9 3d 30 51 bd 3c 05 e9 d5 3d 29 07 bb bd
       0.11388703 0.023110002 0.104448356 -0.09132225
000040 91 c8 8c 3c 9c 09 20 3e 91 92 ce 3c e1 28 bb 3d
       0.017185481 0.15628666 0.025216373 0.091386564
000050 6f 39 4d 3c 2c ad d6 3d 5c 80 8c bd b7 9f 83 3d
       0.0125259 0.10482249 -0.0686042 0.064269476
000060 30 b6 73 bd bf b1 91 bc 2b d7 f5 3b ce 76 38 3d
       -0.05949992 -0.017784951 0.0075024567 0.045035176
000070 22 56 1c bd 13 f1 8a 3b 18 bc cb bd c0 b0 86 3d
       -0.03816808 0.004240164 -0.099479854 0.06576681
000080 9b db b5 bd 71 ab 83 3d 84 1c 86 3d 84 ab d2 bc
       -0.08879777 0.06429184 0.06548408 -0.02571655
000090 1c 44 1a 3d f0 14 c1 3d 3f 37 df 3a ba 0e a8 3d
       0.03766261 0.09427822 0.0017030014 0.08205934
0000a0 60 8d c2 3b d9 2b e3 3b 85 fb 34 3d f1 5c 35 3d
       0.0059372634 0.0069327173 0.04418518 0.04427809
0000b0 74 7e a1 bd d4 e5 8c bd b2 bb 97 bc be 44 4a 3d
       -0.07885447 -0.06879774 -0.018522117 0.049381964
0000c0 ec 25 15 3e fc 7d 3f 3d 12 c0 05 3d a9 0d 09 be
       0.14565247 0.046751007 0.032653876 -0.13384117
0000d0 45 70 76 bd 11 78 8e 3d 72 82 37 bd da b8 2c bd
       -0.060165662 0.069564946 -0.044802137 -0.042168476
0000e0 79 b5 d8 3d 17 9a df 3d aa 8f 87 3d 3b 80 0b 3e
       0.10581488 0.10918062 0.066191986 0.13623135
0000f0 88 b0 a2 3d 12 cb 29 bd 06 6f ce 3c 4f f9 8a 3d
       0.07943827 -0.04145343 0.025199424 0.06785833
000100 e1 64 e7 3d db 52 0d bd f7 4c 80 bd 02 20 a5 3d
       0.11298538 -0.034502845 -0.0626468 0.08062746
000110 93 d8 2c bc 63 38 81 3d 30 1c 99 bc 77 b9 07 3d
       -0.010549682 0.06309583 -0.018690199 0.033135857
000120 b9 ef 4c bd c3 18 99 bd 86 3f 90 3d 0a d6 16 3e
       -0.050033305 -0.07475426 0.07043366 0.14730087
000130 01 15 5e bc 4c bc 98 3c b0 37 c0 3d 29 80 42 bd
       -0.013554812 0.018644474 0.093856215 -0.047485504
000140 1d df 12 bd 72 da fc bc 60 de 05 bd ad 8f c4 3c
       -0.03585731 -0.030865882 -0.032682776 0.023994291
000150 ad 24 62 bc 27 4e b9 3d 80 8f f6 3b f9 02 ff 3d
       -0.0138026895 0.090481095 0.0075244308 0.12451739
000160 c3 df 2f bd b0 f5 ed 3d 5e 2d f8 bc 5b 74 15 bd
       -0.042938005 0.11619127 -0.03029507 -0.03648792
000170 5a bb 6f 3d ca 7f 9c 3d 4c 7e 2d 3d 25 6d 76 3d
       0.05852828 0.07641561 0.042356774 0.060162682
000180 73 d3 36 3e 5c 42 72 3c 62 3d 77 bd ff b9 0f 3e
       0.17854099 0.014786329 -0.060361274 0.14035796
000190 0f b0 07 be 8a 24 71 3d 2d b1 6f be 59 32 fd 3d
       -0.13250755 0.058872737 -0.23407431 0.12363119
0001a0 69 f1 7d bd e7 25 b0 3d 3d 4a eb 3d 6b 6d 6c bc
       -0.061997805 0.08600979 0.11488769 -0.014430384
0001b0 18 9b 0b bd 91 df 68 3c f5 96 ab 3d d6 a9 16 be
       -0.034083456 0.014213459 0.08378402 -0.14713225
0001c0 42 45 1e 3d b2 b8 dc 3d 2f 96 15 be 37 e0 c3 bc
       0.03864027 0.10777415 -0.14608072 -0.023910625
0001d0 63 04 96 3d ca 77 48 bd 3d 52 a6 3d fb 94 bd bd
       0.073250555 -0.048942365 0.081211545 -0.092569314
0001e0 c8 60 bd 3d f9 aa bb 3c e8 71 cf bc fa bd cd bd
       0.09246975 0.022908675 -0.02532287 -0.10046001
0001f0 f6 0a e3 3c 89 92 51 bd 9a ff 8a bd 94 73 34 3d
       0.027715188 -0.051165137 -0.067870334 0.044055536

linear3.weight f4 [1, 128]
000000 3a ed a7 be 3d 8d 2f be b6 5d 4d 3f 07 11 17 be
       -0.32798177 -0.17143722 0.80221117 -0.14752589
000010 c7 17 50 3f 11 c8 b3 bd fa 18 4a bf a5 0e 10 bd
       0.8128628 -0.08778394 -0.7894436 -0.035170216
000020 49 bb ad 3d 3b da 53 be 4b 89 c3 3e e0 02 41 bb
       0.084829874 -0.20688717 0.38190684 -0.0029451177
000030 b7 cb e6 bd 69 a6 0b be 56 06 8a 3c 68 52 29 3e
       -0.11269324 -0.13637699 0.016848724 0.16535342
000040 8b 9a 54 be 88 62 1a 3f c9 91 80 3d c1 1e 1a 3d
       -0.20762078 0.60306597 0.06277806 0.037626985
000050 76 bb 43 3e 87 49 59 3e 2b b1 2b 3f 56 05 fa 3d
       0.1911448 0.21219455 0.6706721 0.12208049
000060 b4 0f 86 be 27 cb 50 bc e7 04 1d 3f 1d 66 58 3e
       -0.26183856 -0.012743748 0.61335605 0.21132703
000070 c4 b5 35 3f a0 19 52 3d d3 6e 4d 3f 8e 5a 2c bf
       0.7098048 0.05129397 0.8024723 -0.67325675
000080 50 23 67 3e b6 b3 df 3d f5 7f fb be 9c a9 a9 be
       0.22572064 0.10922949 -0.4912106 -0.33137214
000090 06 f4 ab 3d a8 11 39 3e 5b ea 45 be f0 23 eb be
       0.08396153 0.18073142 -0.19327681 -0.45925856
0000a0 64 03 54 be 56 a7 a4 3d 03 1a 21 3c 42 40 d4 3e
       -0.20704418 0.08039729 0.009832862 0.41455275
0000b0 5b 50 1b bc 73 0c 8a be ab 86 e2 3d 57 63 32 bd
       -0.009479607 -0.26962623 0.11060842 -0.04355177
0000c0 63 26 a8 bd b7 ad ad bd 60 e9 f9 3d d5 66 26 3e
       -0.08210447 -0.08480399 0.12202716 0.16250165
0000d0 7c f3 52 3e dd b9 3d 3f 74 0b b0 3d b3 3b 9a 3e
       0.20600694 0.7411173 0.085959345 0.30123672
0000e0 a7 be 25 3f 04 16 6c be 8b 79 b6 be 5e 20 2e bf
       0.6474404 -0.23055273 -0.35639605 -0.6801814
0000f0 71 33 c1 3d 5b 3e de 3d 61 8e c6 3e c1 84 9d 3e
       0.0943364 0.10851737 0.387805 0.30765346
000100 12 33 96 be 0f 14 6a bf b9 ed 9e bc 7d b9 00 bf
       -0.2933584 -0.91436857 -0.019400464 -0.5028303
000110 d0 50 66 3f 15 e5 3f bb 20 4c 07 be ba 01 f0 3e
       0.8996706 -0.002928083 -0.13212633 0.46876317
000120 d3 e9 6a bd 34 82 9b be 5c 5c 36 3c 33 63 14 bf
       -0.0573519 -0.30372775 0.011130419 -0.57963866
000130 30 b7 f8 3d 6f 54 4a 3f 18 15 98 bf fb 38 b5 bd
       0.12144315 0.79035085 -1.1881437 -0.08848759
000140 2f 19 7a be 87 42 86 3c 05 05 e7 be 77 bc b2 be
       -0.2442367 0.016389145 -0.45121017 -0.34909412
000150 bd 43 a9 bd 91 ad 0d 3f 50 1e c3 be 2f ad c0 3e
       -0.08264873 0.55342966 -0.38109064 0.3763213
000160 53 a3 46 bf b4 5c c7 bd b2 45 85 be 96 75 ec be
       -0.77592963 -0.097344786 -0.26029736 -0.4618346
000170 a2 de ce 3c 11 49 43 3f 51 74 35 3d b0 50 a3 3e
       0.025252644 0.76283365 0.04430038 0.31897497
000180 85 a4 1d bf d8 38 80 be 8a 70 ac 3d c0 56 43 bf
       -0.6157916 -0.25043368 0.084199026 -0.76304245
000190 be 65 4f be 80 6b ee 3e 1a d3 66 3f 31 25 33 bf
       -0.20253655 0.4656639 0.90165865 -0.69978625
0001a0 d1 7f 17 bf a6 cd 5c bf d4 a2 c9 be 41 2e b7 3e
       -0.5917941 -0.86251295 -0.3938204 0.35777476
0001b0 8b c1 8f 3c 31 c6 e8 3e 45 fb 82 3f a9 95 64 bf
       0.017548343 0.45463708 1.0232931 -0.89290863
0001c0 5f 1a b0 3e 0d 94 ed bd e1 6b a5 be cf 0c 86 3d
       0.3439512 -0.11600504 -0.32308868 0.06545412
0001d0 7e 4d 86 bd 08 19 5d 3d ca 63 0a bf 8c 2a c1 bd
       -0.06557749 0.05397895 -0.54058516 -0.09431943
0001e0 01 e5 e9 3e c2 0e 8c bc 31 c5 1b bb 4c 24 b5 be
       0.4568253 -0.01709688 -0.0023768658 -0.35379255
0001f0 74 e2 d6 3b 95 ff 28 3d fd 7b b5 be 68 db c6 3d
       0.006557757 0.041259367 -0.35446158 0.09709817

linear4.weight f4 [1, 128]
000000 0c 2a 39 bf 2e 3f 33 3e 09 3a 79 be 9e c3 ad be
       -0.72329783 0.1750457 -0.24338545 -0.33938307
000010 56 f4 de be 2d a0 c4 be 14 20 5a be b5 74 33 bf
       -0.4354579 -0.38403454 -0.213013 -0.70099956
000020 f7 77 0f 3e 1d 58 b0 be 50 7f 16 bf 93 18 1b 3e
       0.14010607 -0.34442225 -0.58788013 0.15146093
000030 7d d6 8c be 1f 78 39 3e 57 26 15 3e 52 fc ff be
       -0.27507392 0.18112229 0.14565407 -0.49997193
000040 87 ef e5 3e 18 f1 a9 be e1 6f 02 3f e7 06 fc 3d
       0.44909307 -0.33191752 0.50951964 0.12306004
000050 50 77 f2 3e 62 bc 89 bf a1 81 2c bf 89 12 0b bf
       0.47356653 -1.0760615 -0.673853 -0.5432516
000060 09 80 89 be 71 cf 40 3e 61 cb 83 be ac ec 12 bf
       -0.26855496 0.18829133 -0.25741103 -0.5739238
000070 ac 2d 55 be 43 f0 45 bf f5 43 0e 3e e5 fe a5 bd
       -0.20818204 -0.77319735 0.13893111 -0.08105258
000080 9b 3c f6 be 1b ba dd 3d 8c 1c f4 bc 18 39 b0 bf
       -0.48093113 0.108265124 -0.029798768 -1.3767424
000090 fe 0b f2 bf 37 8c a9 bf 94 34 a2 be 30 24 ec 3e
       -1.890991 -1.3245915 -0.3168074 0.4612136
0000a0 80 b3 f3 bf 34 2a a0 be b9 b2 13 3e 95 41 89 bf
       -1.9039154 -0.31282198 0.14423646 -1.0723139
0000b0 2a a3 95 3e 2b 47 58 be db 80 86 bf d3 4b 43 3e
       0.29226047 -0.21120898 -1.0508074 0.19071893
0000c0 c8 17 fe be 76 78 08 3e 5a ee e5 be b9 75 96 be
       -0.4962752 0.13327202 -0.4490841 -0.2938669
0000d0 df d6 2a be 4e 02 92 bf 9a bc df be 3f 51 93 be
       -0.1668353 -1.1406953 -0.4369858 -0.28772923
0000e0 4c a4 c4 be 23 79 0c bf 81 c4 4f be a9 ab 04 be
       -0.384066 -0.5487234 -0.20289804 -0.12956108
0000f0 1f 21 ff 3d f6 72 e2 be 9b 7f d8 bf 5e 03 c4 be
       0.12457489 -0.44228333 -1.6913942 -0.3828382
000100 0e a7 f5 be 52 fd e0 be 82 9d 0a 3e 29 fd 41 be
       -0.47979015 -0.43943268 0.13536647 -0.18944229
000110 1b 44 8b be f5 28 15 3e 99 48 e6 bf 12 f4 42 be
       -0.27200398 0.14566405 -1.7990905 -0.19038418
000120 92 cb 36 3e 32 0b 66 bf 02 14 06 3e 35 0d 32 3e
       0.17851093 -0.8986083 0.1309357 0.1738785
000130 71 5a fa 3d d0 cc eb be 15 93 f4 be 34 83 52 3e
       0.122242816 -0.46054697 -0.47768465 0.20557863
000140 ff 32 93 bf 7f 37 1d 3e ca 7a 96 be af 1d 1d bf
       -1.1499938 0.15353201 -0.29390556 -0.6137342
000150 71 d4 21 3e 42 17 6d be c7 7e e2 3e 23 92 d3 be
       0.15803696 -0.23153403 0.44237348 -0.4132243
000160 df 0b 61 be 2d d1 4a 3e 80 11 e8 be 10 9f c6 3e
       -0.21977185 0.19806357 -0.4532585 0.3879323
000170 c6 07 d3 bf ae 9d 08 bf 7b 64 3c 3e 14 14 80 be
       -1.6486747 -0.533656 0.18397705 -0.25015318
000180 3c dc fa 3d c7 63 b6 3e ea bd 1c 3e 54 a6 81 be
       0.122490376 0.35623 0.15306821 -0.2532221
000190 48 00 c2 bf 7e dc ec be 2a 40 9e bd fa c5 18 be
       -1.5156336 -0.46261972 -0.07727082 -0.14919272
0001a0 f6 ab 2a bf 44 67 e0 be fb 23 c8 3d 93 50 ed be
       -0.6666864 -0.43828785 0.09772488 -0.46350536
0001b0 f9 ec ec be 76 4d 11 bf 41 ad 13 bf 18 4f 84 bf
       -0.46274546 -0.5675882 -0.5768624 -1.0336637
0001c0 b7 78 0f bf 27 07 d2 be 9d 00 9b be 05 1f 16 3e
       -0.5604357 -0.41021082 -0.30273905 0.1466027
0001d0 4c b8 18 3e 87 a3 0d 3e f7 f5 f0 be 7d fa 8d 3e
       0.14914054 0.13831912 -0.47062656 0.2773017
0001e0 2b 34 32 be 68 7e 0e bf 8e 2c 8d bb 52 aa dd be
       -0.17402713 -0.5566163 -0.00430829 -0.43294007
0001f0 18 6d 23 3e 0e c1 22 3e a7 d6 55 bf 94 ad 00 3e
       0.15959585 0.15893957 -0.8353066 0.12566215
