TDQN/Sliding/TDQN/model/critic_model.ckpt (torch, 431578 bytes, 26 tensors)

lstm.weight_ih_l0 f4 [96, 1]
-0.0174205 -0.0687733 0.1595464 -0.13821119 0.1050863 -0.16003093 0.16704589 0.09118104
-0.05746983 0.053432643 0.10913205 0.041709602 -0.10485627 0.1680499 0.089573145 0.17009467
-0.17506126 0.13633552 -0.19239725 0.1498104 -0.017518267 0.060270607 -0.16146739 0.03212616
-0.022481188 -0.14902346 -0.023026258 -0.0527993 -0.036727294 -0.0010486543 0.1530056 -0.13698506
0.017391592 -0.1818442 -0.013703167 0.038508564 -0.11255677 0.030197382 0.10551587 -0.081735454
-0.043790773 0.1269804 0.19130242 -0.0070560277 -0.027345449 -0.106772214 -0.09302783 0.17287606
-0.010147631 0.05404097 -0.14728035 0.12957034 -0.1352239 -0.067476764 0.0710434 0.039616093
0.02829042 0.14744902 0.038897216 0.09373215 -0.022948682 0.08654407 -0.07395533 -0.063356
-0.19843167 -0.0003709644 -0.07947288 -0.14928387 -0.10229451 0.02550681 -0.10625659 -0.063934356
-0.14854398 0.10892907 -0.13209102 0.059556365 -0.191508 0.19759113 -0.14379947 -0.20046744
0.13473296 0.19273621 -0.029465795 0.03920926 -0.05463785 0.025761679 0.18649462 -0.021996707
-0.11418705 -0.009494439 0.20252785 0.17816195 0.06076017 -0.028163582 0.076131225 0.031834945
00000000: 70b5 8ebc 04d9 8cbd 2260 233e 3c87 0dbe
00000010: 7c37 d73d 26df 23be 140e 2b3e 20bd ba3d
00000020: 7c65 6bbd 30dc 5a3d a080 df3d b0d7 2a3d
00000030: e2be d6bd 4615 2c3e 2072 b73d 4c2d 2e3e
00000040: 4243 33be 8a9b 0b3e c903 45be e667 193e
00000050: 7882 8fbc 50de 763d b557 25be b896 033d
00000060: 782a b8bc 9b99 18be 90a1 bcbc 1444 58bd
00000070: 5c6f 16bd 0073 89ba 80ad 1c3e d045 0cbe
00000080: d078 8e3c 5e35 3abe 4083 60bc 28bb 1d3d
00000090: 2a84 e6bd 8060 f73c b418 d83d eb64 a7bd
000000a0: f45d 33bd 2607 023e c8e4 433e 4036 e7bb
000000b0: 9003 e0bc 64ab dabd 6085 bebd 6c06 313e
000000c0: 4042 26bc 105a 5d3d a9d0 16be 16ae 043e
000000d0: 2278 0abe 4231 8abd 347f 913d 7c44 223d
000000e0: 50c1 e73c e0fc 163e b052 1f3d a4f6 bf3d
000000f0: e0fe bbbc 043e b13d e475 97bd cac0 81bd
00000100: ac31 4bbe 007e c2b9 adc2 a2bd dfdd 18be
00000110: c97f d1bd a8f3 d03c 0e9d d9bd 04f0 82bd
00000120: ea1b 18be 3416 df3d de42 07be 60f1 733d
00000130: ac1a 44be 5455 4a3e 2b40 13be 5647 4dbe
00000140: 70f7 093e a45c 453e 4062 f1bc e499 203d
00000150: f0cb 5fbd 280a d33c 72f8 3e3e 7032 b4bc
00000160: e6da e9bd 908e 1bbc 7663 4f3e 1670 363e
00000170: a8df 783d 50b7 e6bc b0ea 9b3d 5c65 023d

lstm.weight_hh_l0 f4 [96, 24]
-0.10974487 -0.027805641 0.032678127 -0.11862871 -0.10203728 -0.19204916 0.059804052 0.018311784
-0.2006094 0.19142103 -0.06738724 -0.15340488 0.09554538 0.14717487 -0.06910528 0.07077652
0.09624007 0.09997764 0.007361099 -0.11781918 0.012771338 -0.14265239 0.103836834 -0.004541695
0.076653 -0.15543826 -0.1501387 -0.1931122 -0.04643622 -0.10356192 0.021222875 0.16906291
-0.055411413 0.119781256 -0.05476798 0.07057735 0.029048711 0.118243754 0.10135919 0.19668972
-0.14699969 0.07215014 0.092766196 0.036849573 -0.12605405 -0.013136029 0.17051557 -0.0724116
-0.1619617 0.06317055 0.027855426 0.19982743 -0.15349248 -0.13493475 0.06923002 -0.03581345
-0.01890698 -0.12245153 0.07621345 0.16389626 -0.19913177 0.1430068 0.11530462 -0.15052798
-0.1144196 0.044787288 -0.1836746 0.13134867 -0.19402587 0.08495104 -0.15245587 0.011047021
0.08148405 0.17002654 0.08289671 0.024270564 -0.17981064 0.03056173 -0.08734727 0.017681912
-0.051481813 -0.15677068 0.010116279 0.014725998 0.011522427 0.12567961 0.13977948 0.14110914
0.1431798 0.041359887 -0.05049081 -0.003302738 -0.048597634 -0.015763775 -0.15657058 0.08135477
0.03500758 -0.018832147 -0.15815626 0.114789814 0.119398266 0.14243612 0.09898499 0.05154127
-0.11046034 -0.029465556 -0.18502626 -0.030335665 -0.10784936 -0.11248185 -0.018257618 -0.09936113
0.16010511 0.14166632 0.1955168 0.15747035 -0.012910694 -0.13940856 -0.01862754 -0.00491789
0.00030311942 0.09709579 0.073167026 0.13581702 0.18870103 0.01676923 0.10065785 -0.15880747
0.15240118 -0.056720957 0.04199387 -0.09834647 0.06989014 0.111923724 0.043846816 -0.055621654
0.19012868 0.1817255 -0.037103295 0.16959402 0.16906378 -0.09484357 -0.18589807 0.14029521
0.12767088 0.09185544 -0.16525498 0.027708218 0.14674342 -0.008052409 0.19063455 -0.113644674
0.093043804 -0.032395184 -0.09403424 0.12967145 0.18335336 0.15269732 -0.08895243 -0.15466815
0.02046749 0.20375714 -0.08833538 0.09300861 0.0016402751 -0.045289963 -0.128367 0.18726772
-0.1885564 -0.04954134 0.20243454 -0.118442096 0.15818313 0.046480298 -0.023642257 0.15909192
0.12938774 0.14520976 0.17239815 0.012460649 0.1205872 0.13978848 0.016917422 0.08055863
0.15008077 0.018841624 0.09634051 -0.12629664 0.19159138 -0.08938029 -0.058540568 -0.14097272
0.09403503 -0.021549359 0.15166882 -0.005345002 -0.10403718 -0.18365178 0.15677702 -0.13131803
0.105905 -0.1824176 -0.078226954 0.18408197 0.023653299 -0.118381746 -0.093080245 -0.048022255
0.08483049 -0.08399178 -0.18348993 0.072664976 -0.16614754 0.01087603 0.18228704 -0.1603277
-0.18544933 0.09201309 -0.1335648 -0.06558943 -0.20140696 0.055686742 0.18683225 0.028777942
0.048838437 0.18159643 0.14157748 0.116449684 0.19130865 0.041825727 -0.16598201 0.09969333
-0.076153785 0.0760611 0.041098937 0.014267817 0.13754049 -0.15622832 -0.14261985 0.036362097
0.08139643 -0.18693288 -0.11595599 0.047545105 0.15524238 0.12764403 0.061587602 0.10169208
-0.114765204 -0.17992605 0.13270587 0.07858643 0.099066675 -0.19159885 0.11062798 0.06425053
00000000: ebc1 e0bd a8c8 e3bc 80d9 053d 9cf3 f2bd
00000010: ecf8 d0bd 89a8 44be 18f5 743d 9802 963c
00000020: 8d6c 4dbe e003 443e 5202 8abd 2b16 1dbe
00000030: 4cad c33d 02b5 163e 1287 8dbd 48f3 903d
00000040: 8419 c53d 14c1 cc3d 6035 f13b 2f4b f1bd
00000050: e03e 513c 7813 12be 68a8 d43d 80d2 94bb
00000060: 40fc 9c3d 352b 1fbe f6bd 19be 34bf 45be
00000070: e833 3ebd 4618 d4bd 98db ad3c d41e 2d3e
00000080: 14f7 62bd e04f f53d 6454 60bd dc8a 903d
00000090: 90f7 ed3c c829 f23d 6895 cf3d 0869 493e
000000a0: 1687 16be 74c3 933d 34fc bd3d 94ef 163d
000000b0: 5014 01be 8038 57bc a29b 2e3e 884c 94bd
000000c0: 4ad9 25be 905f 813d 1031 e43c 909f 4c3e
000000d0: 222d 1dbe 562c 0abe 78c8 8d3d 20b1 12bd
000000e0: d0e2 9abc dec7 fabd cc15 9c3d 6cd4 273e
000000f0: 33e9 4bbe 6070 123e d424 ec3d 0224 1abe
00000100: d354 eabd e072 373d 3215 3cbe 4480 063e
00000110: b8ae 46be d0fa ad3d 641d 1cbe 90fe 343c
00000120: 1ce1 a63d 701b 2e3e c0c5 a93d 10d3 c63c
00000130: 4820 38be 985c fa3c 20e3 b2bd a8d9 903c
00000140: 98de 52bd 7e88 20be c0be 253c 5045 713c
00000150: 90c8 3c3c 28b2 003e 5a22 0f3e ea7e 103e
00000160: ba9d 123e fc68 293d 74cf 4ebd c072 58bb
00000170: 500e 47bd 0823 81bc 0a54 20be 549d a63d
00000180: 1c64 0f3d e045 9abc b7f3 21be ec16 eb3d
00000190: 1487 f43d c6da 113e a4b8 ca3d f01c 533d
000001a0: 0839 e2bd c061 f1bc 8677 3dbe 8082 f8bc
000001b0: 20e0 dcbd e25c e6bd 0091 95bc d97d cbbd
000001c0: 98f2 233e fa10 113e 8e35 483e e83f 213e
000001d0: 6087 53bc 1ec1 0ebe c898 98bc 4026 a1bb
000001e0: 00ec 9e39 28da c63d 98d8 953d 9e13 0b3e
000001f0: d83a 413e a05f 893c b425 ce3d 6d9e 22be
00000200: 0e0f 1c3e 3c54 68bd c401 2c3d e069 c9bd
00000210: 9022 8f3d 4438 e53d b898 333d 88d3 63bd
00000220: 18b1 423e 4016 3a3e a0f9 17bd 0eaa 2d3e
00000230: 0e1f 2d3e 583d c2bd 105c 3ebe 8ca9 0f3e
00000240: 28bc 023e b41e bc3d 9a38 29be 58fc e23c
00000250: e843 163e 40ee 03bc b435 433e 8abe e8bd
00000260: c08d be3d d0b0 04bd 0695 c0bd 98c8 043e
00000270: fcc0 3b3e b05c 1c3e b12c b6bd 5461 1ebe
00000280: 70ab a73c b6a5 503e 2ee9 b4bd 4c7b be3d
00000290: 80fe d63a f881 39bd a472 03be 1cc3 3f3e
000002a0: ee14 41be dceb 4abd 004b 4f3e c591 f2bd
000002b0: c2fa 213e 2062 3e3d 68ad c1bc fee8 223e
000002c0: 387e 043e deb1 143e 2489 303e c027 4c3c
000002d0: 6cf6 f63d b624 0f3e 6896 8a3c ecfb a43d
000002e0: c6ae 193e c059 9a3c 2c4e c53d e853 01be
000002f0: 8830 443e 030d b7bd 3cc8 6fbd 275b 10be
00000300: 7095 c03d 4888 b0bc 124f 1b3e 2025 afbb
00000310: 7211 d5bd 360f 3cbe 288a 203e 3c78 06be
00000320: b8e4 d83d aecb 3abe 7435 a0bd fc7f 3c3e
00000330: 90c4 c13c 2172 f2bd dba0 bebd fcb2 44bd
00000340: 9cbb ad3d e203 acbd c9e4 3bbe 60d1 943d
00000350: 9522 2abe 6031 323c 74a9 3a3e f22c 24be
00000360: 6ee6 3dbe 5c71 bc3d 36c5 08be c053 86bd
00000370: a03d 4ebe c817 643d f450 3f3e b8bf eb3c
00000380: d00a 483d 6af4 393e b0f9 103e 2c7d ee3d
00000390: 6ae6 433e 7451 2b3d 30f7 29be 042c cc3d
000003a0: 84f6 9bbd ecc5 9b3d 5c57 283d 90c3 693c
000003b0: 6ad7 0c3e 51fa 1fbe f00a 12be 6cf0 143d
000003c0: 2cb3 a63d 556b 3fbe 567a edbd a8be 423d
000003d0: dcf7 1e3e 1eb5 023e 4843 7c3d f043 d03d
000003e0: 050a ebbd 893e 38be 0ce4 073e ecf1 a03d
000003f0: 78e3 ca3d 7d32 44be ec90 e23d c895 833d

lstm.bias_ih_l0 f4 [96]
0.13580129 -0.19074951 -0.0056931674 -0.1780881 -0.1422012 0.04260145 0.005911574 0.1965113
0.18377161 -0.19316612 0.16999081 -0.017614678 0.05915743 -0.10836246 0.03034757 -0.13924974
0.1680027 -0.10051505 -0.14104144 0.0466896 -0.046553478 0.1681701 -0.047979474 0.087250024
-0.09636879 0.15385991 0.1368022 -0.07814437 -0.114557475 0.1562486 -0.061309382 0.1434038
-0.10334202 -0.049552977 -0.04312411 -0.12676024 -0.100080624 -0.034055963 -0.099258885 0.1621466
-0.14011365 0.10793641 0.09453681 0.04214646 -0.17514189 -0.024982572 -0.0458965 -0.042864934
-0.075582996 -0.053889513 0.19263864 -0.18599446 -0.021984845 -0.07758482 0.1805026 -0.05139585
0.07057235 0.13333306 -0.025552452 0.1833454 0.06632891 -0.16880964 0.12307483 -0.0142419785
-0.05708775 -0.18967201 0.1283907 -0.13943169 0.12286934 -0.036567867 0.09110752 -0.17278919
-0.16218556 0.13223708 -0.0986858 0.11578134 -0.18472795 0.115364075 -0.004231006 -0.076989084
-0.008002877 0.16390142 0.17543098 -0.15787828 -0.12668149 -0.0025577247 -0.13477476 -0.16169031
-0.07562201 0.17554516 -0.18252552 0.060346544 -0.20080915 -0.023398474 0.085091114 0.1102145
00000000: 7e0f 0b3e d753 43be c08d babb ba5c 36be
00000010: 319d 11be dc7e 2e3d e0b5 c13b 423a 493e
00000020: a02e 3c3e 57cd 45be 1212 2e3e a84c 90bc
00000030: 104f 723d 23ed ddbd 789b f83c 7c97 0ebe
00000040: e608 2c3e d6da cdbd 2b6d 10be 983d 3f3d
00000050: dcae 3ebd c834 2c3e 2086 44bd 24b0 b23d
00000060: 005d c5bd 748d 1d3e e015 0c3e 280a a0bd
00000070: 1c9d eabd a2ff 1f3e 8c1f 7bbd 72d8 123e
00000080: fba4 d3bd 10f8 4abd e8a2 30bd 70cd 01be
00000090: 12f7 ccbd 447e 0bbd 3e48 cbbd c209 263e
000000a0: f479 0fbe c40d dd3d 849c c13d c4a1 2c3d
000000b0: 6558 33be 40a8 ccbc f8fd 3bbd 2493 2fbd
000000c0: 42cb 9abd 40bb 5cbd 1043 453e 5575 3ebe
000000d0: 9019 b4bc cae4 9ebd acd5 383e 7484 52bd
000000e0: 3c88 903d 7688 083e 6053 d1bc e6be 3b3e
000000f0: 74d7 873d 6fdc 2cbe a80e fc3d 3057 69bc
00000100: d8d4 69bd 6139 42be da78 033e 2ec7 0ebe
00000110: eca2 fb3d 30c8 15bd 9496 ba3d a6ef 30be
00000120: f913 26be 2869 073e c81b cabd c41e ed3d
00000130: 5329 3dbe 0044 ec3d 40a4 8abb 74ac 9dbd
00000140: 801e 03bc c6d5 273e 2ea4 333e d8aa 21be
00000150: cbb8 01be 809f 27bb 6502 0abe 2592 25be
00000160: b6df 9abd 1cc2 333e f8e7 3abe f02d 773d
00000170: eaa0 4dbe 28ae bfbc 4044 ae3d 24b8 e13d

lstm.bias_hh_l0 f4 [96]
-0.11602473 0.124299765 -0.024993181 -0.12852708 0.16593227 0.122032195 -0.072841614 -0.025354996
0.060829222 0.018629238 0.013705254 -0.18370329 -0.1464033 0.12881249 0.1961683 0.10281712
-0.1963864 -0.1764987 -0.13144341 0.14529803 0.029627293 0.100145936 -0.1986971 0.102989465
0.07998577 -0.00136289 0.065775126 0.10723439 0.1651803 0.034264207 0.054723233 -0.11526127
-0.16889921 -0.17396787 0.15626186 -0.10407217 -0.0022439808 -0.08175254 -0.09965978 0.065847546
0.1307728 0.0006548315 -0.12456742 -0.12383698 0.19321015 0.14082488 0.16017014 0.19831523
0.17229643 0.19672713 0.05817142 0.13244349 -0.18959528 0.07850075 -0.15799576 0.036801517
-0.1897574 -0.12298866 0.060657322 0.040733665 0.16250384 0.20118034 0.12011486 0.17338431
0.11744791 0.12268636 -0.1524122 -0.17711098 0.014531553 -0.06327179 0.18102178 0.064337164
0.02422911 -0.13668528 -0.07382496 0.030566618 -0.16260964 0.14114189 -0.053142965 0.19340524
0.011072904 -0.113621145 0.1833103 -0.051926896 -0.07486816 0.16753024 -0.18960173 -0.08207355
0.102754354 0.107480854 -0.02033022 0.11248654 -0.19122003 0.025844797 -0.06924322 -0.09967294
00000000: 609e edbd e090 fe3d 80be ccbc 9a9c 03be
00000010: 26ea 293e 04ec f93d fc2d 95bd 48b5 cfbc
00000020: 1028 793d 589c 983c 008c 603c b71c 3cbe
00000030: bfea 15be 6ce7 033e 58e0 483e c891 d23d
00000040: 8419 49be 13bc 34be 1a99 06be 02c9 143e
00000050: f0b4 f23c 5019 cd3d 4177 4bbe 24ec d23d
00000060: 94cf a33d 00a3 b2ba 1cb5 863d b49d db3d
00000070: 0625 293e a058 0c3d 7825 603d 1a0e ecbd
00000080: eaf3 2cbe a224 32be 1c03 203e ca23 d5bd
00000090: c00f 13bb e06d a7bd 6d1a ccbd 14db 863d
000000a0: 4ee9 053e 00a9 2b3a 341d ffbd 3e9e fdbd
000000b0: e2d8 453e 6634 103e a403 243e 2613 4b3e
000000c0: 7a6e 303e d672 493e 2845 6e3d 449f 073e
000000d0: 4425 42be 00c5 a03d a4c9 21be 30bd 163d
000000e0: c44f 42be 7be1 fbbd d073 783d 58d8 263d
000000f0: 6867 263e 3802 4e3e c8fe f53d a88b 313e
00000100: 8888 f03d fc42 fb3d f211 1cbe 955c 35be
00000110: c015 6e3c a494 81bd c65d 393e 34c3 833d
00000120: 207c c63c 3af7 0bbe 8a31 97bd d866 fa3c
00000130: 2483 26be 8087 103e 70ac 59bd 060c 463e
00000140: 206b 353c 34b2 e8bd b2b5 3b3e 4cb1 54bd
00000150: 7a54 99bd 0c8d 2b3e f526 42be 2d16 a8bd
00000160: e070 d23d ec1e dc3d 908b a6bc 585f e63d
00000170: 2fcf 43be 78b8 d33c 64cf 8dbd 5421 ccbd

linear1.weight f4 [128, 12]
-0.6649425 0.8332516 -0.26218012 -0.109082974 -0.18934692 0.557438 -1.1315533 -0.17215466
-0.9853007 0.69903827 -0.121932365 0.0145785045 0.26638675 -0.900576 -0.2874313 -0.36833826
-0.47639745 0.42644772 0.6881681 0.033535525 0.50696164 0.4711648 -0.28464866 0.2522629
0.036674015 0.73892003 -0.12911193 0.08149225 0.12484149 0.32734025 -0.9346756 0.09990496
-0.33287767 1.301851 0.020085072 0.025673803 0.8765928 1.0606736 -0.22722895 -0.54378694
-0.685808 -0.6036251 -0.5074617 -1.2129362 0.41778585 -0.14324968 -0.0341641 0.106343575
0.7220278 0.2678265 0.12553568 -0.036136184 0.1604156 -0.8370338 -1.0297716 -0.100796975
-0.2144117 -0.31056052 -0.038771052 0.017813902 -0.08930482 0.24071541 0.07528036 0.0004921684
-0.0076084794 -0.6150082 0.49821785 -1.8258076 0.40219525 0.24620435 0.051145367 -0.039595764
-0.6661995 0.6665236 0.006851573 -0.056370333 -0.47515967 0.49061862 0.28626746 -1.1632799
0.24258402 -0.19944209 -0.121833876 0.25543433 -0.44332436 0.2356323 -0.9117682 0.2039487
0.22502367 -0.46772993 -0.46601388 -1.9645355 1.1945477 0.5302839 -0.012888068 0.02489707
-0.28030923 0.9100796 -0.05676369 0.23782673 -0.4729135 0.90190434 -1.0402163 -0.5307187
0.24677488 -0.36824584 0.071775846 0.012084105 -1.2245326 -0.15157308 -0.23508613 0.037967548
-0.07196884 1.1746936 0.001839878 -1.3855815 -0.37164688 0.015107681 0.059658214 -0.021580003
-0.44836965 0.13410485 -0.36022416 -0.14054462 -0.0072504603 0.25768998 -0.7608708 -1.924224
1.2473664 0.60714215 -0.013851857 -0.02969499 -0.119754516 0.8425302 0.070799775 0.1430566
0.3292072 -0.024422202 -0.1890266 -0.1471845 -2.3421862 -1.0961827 -0.13456249 -0.1069741
-1.5547619 0.339934 -0.25114325 -0.44368082 0.38800406 0.01583789 -0.111742206 0.34821934
0.48352626 -0.11084648 -0.27404505 0.10548998 -1.2582129 0.28887105 -0.69381464 -0.18058431
0.020499943 -0.48994124 -0.90416425 -0.6453083 0.55795306 -0.80333287 0.071111836 0.12503026
0.6596412 1.6099466 -0.0672604 -0.105608925 0.046426132 0.42595744 1.5976679 -0.4133165
0.06389016 0.29151034 0.063131385 0.0017831872 0.24612273 -0.19663598 0.020216294 -0.55529207
-0.22109011 0.31363344 1.037626 -0.2745496 -0.4559497 -0.3946608 -0.0011667396 -0.4034576
-0.20845546 -0.18713412 -0.3659949 -0.18706964 -0.24329033 0.0038469457 0.42615828 -1.5658598
-0.40136665 0.6657992 -0.09265684 0.29027864 -0.074733526 -0.13299212 -0.05225307 -0.1304093
0.12130629 -0.07440484 -0.13621534 0.09769081 -0.14744882 -0.22454672 0.104932144 0.08706518
-0.75377893 0.3254199 -1.1297977 -0.011242451 -0.10713739 -0.37750897 -0.20163374 -0.2877862
-1.6877056 1.2934449 0.0790301 -0.05025718 0.9586482 0.14236899 0.15495877 0.029162524
-0.00039002352 0.08027865 0.9118866 0.72886324 -0.62699974 0.68679637 0.08540115 -0.03784747
-0.019412665 -0.8577076 0.448985 -0.048238352 0.011829841 -0.41617748 -0.80271536 -0.6988578
-0.11867014 -0.62340355 0.05371881 -0.0061085178 1.2004337 -1.1028546 -0.083459064 0.14780346
00000000: ac39 2abf fa4f 553f 793c 86be e566 dfbd
00000010: 29e4 41be 42b4 0e3f bdd6 90bf 5049 30be
00000020: ab3c 7cbf 2cf4 323f adb7 f9bd aeda 6e3c
00000030: d863 883e 268c 66bf 322a 93be d596 bcbe
00000040: 5eea f3be 5b57 da3e c92b 303f 8c5c 093d
00000050: 3dc8 013f 833c f13e 78bd 91be 9a28 813e
00000060: 7e37 163d dd29 3d3f eb35 04be 69e5 a63d
00000070: e5ac ff3d 2499 a73e e646 6fbf f99a cc3d
00000080: f16e aabe 0ea3 a63f 7389 a43c de51 d23c
00000090: 6368 603f 27c4 873f b5ae 68be 9f35 0bbf
000000a0: 1d91 2fbf 2d87 1abf 03e9 01bf 7e41 9bbf
000000b0: 07e8 d53e 0bb0 12be a8ef 0bbd a9ca d93d
000000c0: d0d6 383f 8e20 893e 6d8c 003e 8903 14bd
000000d0: fd43 243e d947 56bf 8ecf 83bf a56e cebd
000000e0: be8e 5bbe ca01 9fbe 65ce 1ebd 76ee 913c
000000f0: 72e5 b6bd 1a7e 763e 972c 9a3d dd04 013a
00000100: 8d50 f9bb 2d71 1dbf 6916 ff3e 10b4 e9bf
00000110: 89ec cd3e fe1c 7c3e ce7d 513d 2b2f 22bd
00000120: 0d8c 2abf 4aa1 2a3f 2983 e03b 94e4 66bd
00000130: 2148 f3be 5d32 fb3e a691 923e 5be6 94bf
00000140: f267 783e 8c3a 4cbe 0a84 f9bd 4ac8 823e
00000150: 69fb e2be 9849 713e a469 69bf eed7 503e
00000160: 9b6c 663e 4c7a efbe 5f99 eebe e675 fbbf
00000170: f0e6 983f b0c0 073f 7a28 53bc f1f4 cb3c
00000180: b184 8fbe fafa 683f 0b81 68bd da88 733e
00000190: b821 f2be 34e3 663f cf25 85bf 2edd 07bf
000001a0: 8eb2 7c3e b88a bcbe 37ff 923d 69fc 453c
000001b0: 7cbd 9cbf f935 1bbe 6bba 70be dc83 1b3d
000001c0: 6664 93bd 5c5c 963f 1028 f13a bc5a b1bf
000001d0: 8048 bebe 3586 773c 2c5c 743d 8cc8 b0bc
000001e0: b590 e5be c852 093e 4d6f b8be eeea 0fbe
000001f0: 4595 edbb f1ef 833e 6ec8 42bf f94c f6bf
00000200: b4a9 9f3f ab6d 1b3f e6f2 62bc e842 f3bc
00000210: db41 f5bd 0fb0 573f 79ff 903d 6e7d 123e
00000220: d98d a83e 1211 c8bc 3090 41be 89b7 16be
00000230: 61e6 15c0 b74f 8cbf c0ca 09be 3d15 dbbd
00000240: 7002 c7bf d40b ae3e d995 80be 222a e3be
00000250: 78a8 c63e 76be 813c 19d9 e4bd ce49 b23e
00000260: c190 f73e 7b03 e3bd a24f 8cbe 210b d83d
00000270: 1f0d a1bf e8e6 933e d69d 31bf 18eb 38be
00000280: 7fef a73c 94d9 fabe 4f77 67bf ed32 25bf
00000290: 03d6 0e3f 39a7 4dbf 15a3 913d ef07 003e
000002a0: 3fde 283f bb12 ce3f d2bf 89bd 7e49 d8bd
000002b0: 5429 3e3d 1817 da3e 6280 cc3f 389e d3be
000002c0: d8d8 823d d840 953e 074b 813d d5b9 e93a
000002d0: 9907 7c3e f15a 49be a49c a53c 9f27 0ebf
000002e0: 7265 62be 9094 a03e eed0 843f c491 8cbe
000002f0: 3d72 e9be fb10 cabe 49ed 98ba ff91 cebe
00000300: 5975 55be 16a0 3fbe af63 bbbe 2f8f 3fbe
00000310: 1a21 79be 0a1d 7c3b 6b31 da3e 186e c8bf
00000320: ee7f cdbe d171 2a3f dfc2 bdbd 679f 943e
00000330: e40d 99bd 162f 08be 5107 56bd 048a 05be
00000340: 6f6f f83d 9161 98bd 097c 0bbe 1f12 c83d
00000350: d3fc 16be 93ef 65be aae6 d63d 3b4f b23d
00000360: a8f7 40bf 709d a63e 369d 90bf 4232 38bc
00000370: d96a dbbd db48 c1be 1379 4ebe b658 93be
00000380: bd06 d8bf 9a8f a53f 88da a13d 79da 4dbd
00000390: f869 753f 2dc9 113e 83ad 1e3e 3fe6 ee3c
000003a0: 127c ccb9 2269 a43d 6671 693f c896 3a3f
000003b0: 0e83 20bf e3d1 2f3f cce6 ae3d f305 1bbd
000003c0: 4f07 9fbc ba92 5bbf 5de1 e53e 9495 45bd
000003d0: f3d1 413c 3715 d5be c17e 4dbf 58e8 32bf
000003e0: 5509 f3bd 6097 1fbf 4108 5c3d f629 c8bb
000003f0: d0a7 993f 572a 8dbf 96ec aabd ca59 173e

linear1.bias f4 [128]
-0.35553735 -0.16080026 -0.46914425 -0.12702422 -0.09232738 0.7311093 -0.15521912 0.30529135
-0.3043055 0.9229536 0.17056365 0.57586646 -0.44153774 0.07351178 -0.68918777 -0.10191513
0.4030427 -0.72481185 0.4499625 -0.6213376 -0.7660092 -0.19217978 -0.049818978 -0.33160332
-0.8281311 0.05400202 0.06706548 -0.09015569 0.9058385 0.9249504 -0.0963862 -0.6288596
-0.21691288 -0.40614852 -0.15199316 -1.2426974 0.17949343 -1.1214151 -0.2779741 -0.8277564
-0.47416803 -0.45768565 0.880819 0.27149355 0.3967114 -0.3074646 -0.06150396 0.37440848
0.6560647 -0.82201314 0.35824814 -0.019658249 -0.5470562 -0.6070317 0.31965333 -0.09970796
0.075997315 -0.34418476 0.13004167 0.13973589 0.5537735 0.11058045 -0.0489839 0.12699413
-1.1407353 -0.10746994 -0.67567986 0.6360285 0.45929256 0.018607778 -0.023866676 -0.39022708
0.7311422 -0.36890343 -0.09380925 1.1608583 -0.26719436 -0.4609146 -0.26030505 -0.058612127
-0.48337892 0.2735961 -0.87033373 0.021777427 -0.5916402 0.11583243 -1.1971086 0.21256518
-0.72802186 0.21630716 0.40900478 0.09933573 0.18318984 -0.97626895 -0.42626074 -0.45856962
-0.84591246 0.3715935 -0.40729666 0.24377085 0.2965304 0.7681783 0.22087193 -1.1328809
-0.4138561 -0.5440446 -0.28571412 0.26175722 -0.10448493 0.14259471 -0.31379297 -0.09374327
-0.16553614 -0.1324569 0.48250324 -0.3665333 -0.25470635 -0.3251858 -0.76386815 0.62288827
-0.23996045 0.65412587 -0.694345 -0.4439342 0.33064625 0.66857594 0.21525373 -0.44530758
00000000: fe08 b6be d3a8 24be ad33 f0be a312 02be
00000010: 2316 bdbd fb29 3b3f c3f1 1ebe 264f 9c3e
00000020: eecd 9bbe b046 6c3f 3da8 2e3e fc6b 133f
00000030: 3c11 e2be 588d 963d 9c6e 30bf e1b8 d0bd
00000040: 9d5b ce3e 458d 39bf 7c61 e63e fb0f 1fbf
00000050: 2e19 44bf c7ca 44be fc0e 4cbd e9c7 a9be
00000060: 6600 54bf 3931 5d3d a059 893d 8ca3 b8bd
00000070: 08e5 673f 8dc9 6c3f 2166 c5bd f1fc 20bf
00000080: 691e 5ebe b3f2 cfbe 18a4 1bbe b510 9fbf
00000090: 20cd 373e 888a 8fbf 9f52 8ebe d8e7 53bf
000000a0: 27c6 f2be c655 eabe 5b7d 613f 3401 8b3e
000000b0: c21d cb3e 006c 9dbe 94eb 7bbd 78b2 bf3e
000000c0: dbf3 273f 746f 52bf 4d6c b73e 560a a1bc
000000d0: e00b 0cbf 6e66 1bbf 9aa9 a33e b033 ccbd
000000e0: 7ba4 9b3d fc38 b0be a529 053e ed16 0f3e
000000f0: 1ac4 0d3f 0178 e23d 58a3 48bd c00a 023e
00000100: 9d03 92bf 3319 dcbd 5bf9 2cbf c4d2 223f
00000110: 6528 eb3e 576f 983c 0c84 c3bc d8cb c7be
00000120: 232c 3b3f e9e0 bcbe 101f c0bd 0197 943f
00000130: b3cd 88be 00fd ebbe b446 85be 4513 70bd
00000140: 717d f7be ca14 8c3e 31ce 5ebf 9366 b23c
00000150: bb75 17bf 8e39 ed3d db3a 99bf b0aa 593e
00000160: a45f 3abf a07f 5d3e 1369 d13e 8870 cb3d
00000170: 1e96 3b3e c3ec 79bf d93e dabe a3c9 eabe
00000180: b88d 58bf 8141 be3e 3089 d0be 119f 793e
00000190: d5d2 973e 55a7 443f 402c 623e 3e02 91bf
000001a0: f2e4 d3be 8246 0bbf 1f49 92be 0b05 863e
000001b0: 32fc d5bd 5904 123e 79a9 a0be 79fc bfbd
000001c0: 4e82 29be c8a2 07be aa0a f73e 41aa bbbe
000001d0: df68 82be c17e a6be dd8c 43bf 9b75 1f3f
000001e0: 31b8 75be cb74 273f 98c0 31bf 584b e3be
000001f0: 774a a93e cb27 2b3f 796b 5c3e 5bff e3be

linear2.weight f4 [128, 128]
-1.7613739 -0.3368616 -0.08107508 -0.2770489 0.1297047 0.532045 -0.60613704 -0.30653417
0.4439483 -1.2049831 -0.464644 -0.069891624 0.5357584 -0.0588256 0.7502378 0.3009068
-0.5190701 -0.03198374 0.42814916 -0.2737991 -0.02674645 -0.7109926 -0.15176035 -1.1622428
-0.1210173 -0.49039096 -0.42185342 0.023490991 0.12921293 -0.04239351 0.928598 0.20764913
0.66214275 -0.9782892 0.3996383 0.7711216 0.1525644 -0.7568935 0.16206712 -0.3692591
-1.3385721 0.75423044 0.73472154 -0.77023476 -1.2875724 0.40823045 -1.136469 0.033842333
0.5547093 0.016291924 -0.24599041 0.14040074 0.17924109 0.3798729 -0.06568535 0.18353811
-0.30173767 1.0204469 -1.1811899 -0.02163614 0.046509646 0.31640702 -1.3928546 -0.23780689
0.9709102 1.0569552 -1.3659296 -0.71946925 0.3215715 -0.11016574 -0.11266392 0.08434181
0.74066955 -0.59922534 -0.3441132 0.13412543 -0.22642195 -0.45566255 -0.32949615 0.044033412
0.09472803 -1.0867239 0.23385996 -0.76134366 -1.1401877 -0.05068043 0.20858195 -0.25270426
0.5348568 0.34120733 -0.825212 0.38239256 0.19605419 -0.058798328 0.42104378 -0.25624287
-1.5677307 0.20975295 -0.2212641 -1.060519 -0.17783572 -0.44620588 -0.7152021 0.28994766
-0.79357 -0.53239024 -1.072351 -0.63799375 -0.13615684 -0.71798927 0.12845236 -0.5848044
0.83633375 -0.055799477 -0.5659097 -0.8627026 -0.042617723 -0.2657926 0.09268351 -0.8964678
0.18324772 -0.72664773 0.28635347 0.86399 -0.23168547 0.13399178 -0.13383205 0.062015705
-0.22354868 -0.5502504 -0.15878916 -0.3226315 0.034411434 -0.49017408 -0.16827326 -0.06179979
-0.09570336 -0.20967415 -0.654008 0.031749323 -0.021516649 0.3606656 0.71751827 -0.20832185
-0.048227284 -0.18996231 0.68379605 0.54379416 0.0007433489 -0.11328314 -0.12515509 -0.0626564
1.1136179 0.2727214 -0.05639409 0.4840212 0.50830567 0.070225656 -0.27416736 -0.17620541
-0.063109055 0.06006158 -0.45872593 0.5661475 0.30155924 1.5782295 -0.03806204 0.5115071
-0.27317268 0.33560073 -0.753923 0.3708552 -0.32805893 0.56419766 -0.084355205 -0.056444425
-0.004399611 0.5465395 -0.40892762 0.10173527 -0.73021364 0.26620135 -0.1616953 -0.21485162
-0.18508 0.3422819 -0.044685986 0.09290223 -0.5315945 -1.622481 0.0885219 -0.10379713
-0.47845334 0.35703933 0.44785354 0.033069137 0.22158936 -0.03338276 0.6895541 0.30504957
-0.12742078 -0.10420945 0.2654043 -0.501701 -1.0413166 -0.1999534 0.27036524 -0.31015173
-0.3642386 -0.08769525 0.2772953 -0.14589982 -0.9110969 -0.07518874 0.47692353 -0.506578
0.36065862 0.2094563 -0.36725637 -0.20985374 0.26224506 0.3933024 0.20294814 0.75543714
0.115632914 -0.673821 0.23753996 -0.05995698 -0.09999506 0.028303131 -0.5091762 -0.77053607
-0.25535768 0.12437945 0.2306195 -0.26168096 -0.44714147 0.45568797 0.31641355 0.57271516
0.8632908 -0.35636094 -0.112202935 0.040598266 -0.0035484135 -0.17764425 0.62222224 -0.030804697
-0.69775534 -1.2344344 0.23799457 0.58588237 0.021024296 -1.3439955 -0.010460649 0.13968422
00000000: b374 e1bf 2079 acbe b10a a6bd 5ad9 8dbe
00000010: 4fd1 043e 1a34 083f cc2b 1bbf 0cf2 9cbe
00000020: 314d e33e e33c 9abf d2e5 edbe 5723 8fbd
00000030: 7627 093f 1df3 70bd 960f 403f 7510 9a3e
00000040: c7e1 04bf 6201 03bd 5e36 db3e 652f 8cbe
00000050: 5f1b dbbc 9c03 36bf 1167 1bbe 5fc4 94bf
00000060: ebd7 f7bd 8614 fbbe 2cfd d7be 2e70 c03c
00000070: 6550 043e d1a4 2dbd 99b8 6d3f f9a1 543e
00000080: 3082 293f 2971 7abf 649d cc3e 3a68 453f
00000090: d839 1c3e c6c3 41bf ecf4 253e 870f bdbe
000000a0: 5556 abbf 3f15 413f b616 3c3f 1b2e 45bf
000000b0: 2ccf a4bf 9503 d13e d177 91bf 429e 0a3d
000000c0: 6e01 0e3f a476 853c e9e4 7bbe 36c5 0f3e
000000d0: fa8a 373e b37e c23e 0a86 86bd 6af1 3b3e
000000e0: 5c7d 9abe 019e 823f 3b31 97bf 463e b1bc
000000f0: e680 3e3d 1a00 a23e 0f49 b2bf a683 73be
00000100: 928d 783f 4f4a 873f c8d6 aebf 232f 38bf
00000110: 05a5 a43e 939e e1bd 57bc e6bd 66bb ac3d
00000120: 859c 3d3f d566 19bf 9b2f b0be 2d58 093e
00000130: 28db 67be 9a4c e9be b8b3 a8be 615c 343d
00000140: c500 c23d c519 8bbf fc78 6f3e 6be7 42bf
00000150: acf1 91bf 4896 4fbd 8296 553e 7462 81be
00000160: 60ec 083f bab2 ae3e 1841 53bf f5c8 c33e
00000170: 6ec2 483e 84d6 70bd 0d93 d73e 4432 83be
00000180: 66ab c8bf 7ac9 563e 0e93 62be 16bf 87bf
00000190: 911a 36be 1975 e4be 7c17 37bf 0574 943e
000001a0: 6727 4bbf ba4a 08bf cc42 89bf 8f53 23bf
000001b0: b36c 0bbe 25ce 37bf 0489 033e beb5 15bf
000001c0: f819 563f fe8d 64bd 75df 10bf 14da 5cbf
000001d0: ec8f 2ebd f815 88be dad0 bd3d ea7e 65bf
000001e0: 4aa5 3b3e 9605 3abf ec9c 923e 732e 5d3f
000001f0: f53e 6dbe 2435 093e 450b 09be 2e04 7e3d
00000200: f2e9 64be 36dd 0cbf a099 22be f52f a5be
00000210: 01f3 0c3d 19f8 fabe d34f 2cbe c721 7dbd
00000220: 2000 c4bd d2b4 56be 116d 27bf 940b 023d
00000230: af43 b0bc 29a9 b83e 47af 373f 5352 55be
00000240: f989 45bd 7b85 42be 420d 2f3f 1836 0b3f
00000250: 4ddd 423a fe00 e8bd a828 00be 0052 80bd
00000260: 088b 8e3f 24a2 8b3e 7dfd 66bd a0d1 f73e
00000270: 5220 023f 78d2 8f3d aa5f 8cbe 316f 34be
00000280: 523f 81bd 2203 763d 20de eabe 0bef 103f
00000290: f965 9a3e 6d03 ca3f f1e6 1bbd 21f2 023f
000002a0: 4add 8bbe dcd3 ab3e 1901 41bf bce0 bd3e
000002b0: 57f7 a7be 426f 103f 6cc2 acbd 4532 67bd
000002c0: 9d2a 90bb 03ea 0b3f f65e d1be 955a d03d
000002d0: 48ef 3abf 8b4b 883e 7493 25be 1002 5cbe
000002e0: 9d85 3dbe 933f af3e a708 37bd 8643 be3d
000002f0: 9416 08bf 75ad cfbf f84a b53d 9793 d4bd
00000300: d6f7 f4be dccd b63e 0f4d e53e 8173 073d
00000310: 52e8 623e 5cbc 08bd 9e86 303f 752f 9c3e
00000320: 987a 02be c46b d5bd 13e3 873e 7a6f 00bf
00000330: dd49 85bf 96c0 4cbe 506d 8a3e 35cc 9ebe
00000340: 7b7d babe 9199 b3bd a6f9 8d3e c366 15be
00000350: a53d 69bf 8efc 99bd 522f f43e 19af 01bf
00000360: 3fa8 b83e b67b 563e 0709 bcbe e6e3 56be
00000370: fc44 863e ef5e c93e a3d1 4f3e 5464 413f
00000380: f3d0 ec3d 887f 2cbf ad3d 733e 7395 75bd
00000390: 36ca ccbd f8db e73c 5f59 02bf da41 45bf
000003a0: 3ebe 82be a7ba fe3d 8527 6c3e 0cfb 85be
000003b0: baef e4be ef4f e93e f500 a23e 769d 123f
000003c0: a000 5d3f f174 b6be a7ca e5bd 5e4a 263d
000003d0: 808c 68bb 60e8 35be f549 1f3f 225a fcbc
000003e0: 18a0 32bf f201 9ebf d9b4 733e 63fc 153f
000003f0: 253b ac3c 0b08 acbf 2463 2bbc 6109 0f3e

linear2.bias f4 [128]
-0.8436145 -0.3968893 -0.05455823 -0.3158158 -0.2742092 -0.1884933 -0.10957811 -0.8831171
-0.47632977 0.1703703 -0.22887231 -0.3003829 0.07367286 -0.6356779 -0.14901344 -0.22494753
-0.022966374 0.21300933 -0.012576811 -0.36905822 -0.47617263 -0.2883688 -0.68968654 -0.12473861
-0.06580325 -0.44200593 -0.042947803 -0.064707555 0.20082532 0.21228439 0.07961381 -0.112919345
-0.36874577 -0.31500214 0.0011122888 -0.39822727 -0.48567048 -0.3572949 -0.69024146 -0.1547228
0.4565425 0.03768758 0.039478976 -0.34551686 0.17058648 -0.046905905 0.4771108 -0.262044
-0.084402345 -0.20473252 -0.85882837 -0.1012039 -0.10451371 -0.27018568 -0.10318587 -0.334955
-0.010576502 0.14808144 -0.13769276 -0.2407862 -0.449982 -0.07834205 -0.07676494 0.05436979
0.012868466 -0.2851706 -0.27050954 -0.13945642 -0.85751516 -0.333775 -0.41152725 -0.41350985
-0.050753016 -0.16084567 -0.026570383 0.25787756 0.27286872 -0.2572364 0.013890081 -0.084107645
0.7472427 -0.14595245 -0.07654318 -0.16704012 0.3349916 -0.1132973 -0.22633706 -0.10420796
-0.051478114 -0.6525295 0.58117217 -0.07874045 0.48144013 -0.1643809 -0.032434147 0.10849927
0.06613654 0.15687947 -0.16358823 0.5812185 0.10079076 -0.16279209 -0.040683955 -0.11014658
-0.12023964 -0.10794727 0.25618845 0.20282911 -0.17365547 -0.27839908 0.39314452 -0.42372897
0.26053005 -0.31973708 -0.09870689 -0.007173364 -0.57333493 0.042969875 -0.027513595 -0.096147776
-0.3183409 -0.099094726 -0.025117276 -0.21883996 -0.061712664 -0.20285322 -0.08735376 -0.053019624
00000000: 1ff7 57bf 1335 cbbe 7378 5fbd 9cb2 a1be
00000010: 2665 8cbe 6304 41be 7d6a e0bd f613 62bf
00000020: 7fe1 f3be 8d75 2e3e 815d 6abe cacb 99be
00000030: cce1 963d c9bb 22bf fb96 18be a558 66be
00000040: fa23 bcbc 1e1f 5a3e f80e 4ebc 33f5 bcbe
00000050: e6cc f3be 13a5 93be 4c8f 30bf f576 ffbd
00000060: dbc3 86bd 9a4e e2be 09ea 2fbd 6585 84bd
00000070: 27a5 4d3e 1461 593e 910c a33d 4242 e7bd
00000080: 3fcc bcbe f647 a1be 38ca 913a 72e4 cbbe
00000090: cda9 f8be 5bef b6be aab3 30bf a76f 1ebe
000000a0: f0bf e93e 4b5e 1a3d b5b4 213d 96e7 b0be
000000b0: 39ae 2e3e 6820 40bd de47 f43e a22a 86be
000000c0: 23db acbd 67a5 51be 2ddc 5bbf fe43 cfbd
000000d0: 490b d6bd c755 8abe 1d53 d3bd 397f abbe
000000e0: 1149 2dbc a9a2 173e 55ff 0cbe a890 76be
000000f0: 0a64 e6be cc71 a0bd f036 9dbd dbb2 5e3d
00000100: 42d6 523c e201 92be 3a80 8abe aacd 0ebe
00000110: 1d86 5bbf 8fe4 aabe b3b3 d2be 90b7 d3be
00000120: 65e2 4fbd bab4 24be 22aa d9bc 8708 843e
00000130: 73b5 8b3e 7db4 83be 3993 633c a140 acbd
00000140: 4c4b 3f3f 8f74 15be acc2 9cbd 910c 2bbe
00000150: 0584 ab3e 6a08 e8bd e7c4 67be fc6a d5bd
00000160: b7da 52bd 2c0c 27bf b3c7 143f ac42 a1bd
00000170: 527f f63e 7753 28be abd9 04bd de34 de3d
00000180: 9872 873d 03a5 203e ac83 27be bcca 143f
00000190: 636b ce3d f8b2 26be 38a4 26bd 8894 e1bd
000001a0: 3340 f6bd 7513 ddbd 222b 833e 6fb2 4f3e
000001b0: bdd2 31be 538a 8ebe 3d4a c93e 01f3 d8be
000001c0: 3264 853e 94b4 a3be d726 cabd 8a0e ebbb
000001d0: 14c6 12bf 2e01 303d 3164 e1bc 20e9 c4bd
000001e0: 94fd a2be 2df2 cabd bfc2 cdbc 9517 60be
000001f0: 6bc6 7cbd c1b8 4fbe 87e6 b2bd 1b2b 59bd

adv1.weight f4 [128, 128]
0.12409414 -0.18722814 -0.017821897 -0.029800562 0.036295436 -0.114838704 -0.106853396 -0.07283615
-0.08606369 0.12172762 -0.12106117 -0.117007256 -0.070991255 0.02239996 0.0016967442 -0.23357916
-0.04833162 -0.18351866 0.076288484 -0.16225868 -0.19231786 -0.19549511 0.054151785 -0.015686497
-0.17021129 -0.14459114 -0.036442693 0.04934195 -0.23035723 -0.013940266 -0.07701454 -0.08964976
-0.14700148 -0.00139418 -0.03590286 -0.16289549 -0.023886444 0.024198553 0.034209535 -0.17261124
0.2198691 -0.14095321 -0.0490139 0.015327034 -0.09464632 -0.11684052 -0.19071959 -0.017520584
-0.009774512 -0.025946531 -0.22357349 -0.06832855 -0.0054890476 -0.1717539 0.009867381 -0.19475305
0.014898251 -0.13787337 0.05493677 0.16643457 0.014999145 0.058479864 -0.17750162 0.09918832
-0.06607818 0.06084584 -0.030840345 -0.096342586 -0.10193932 -0.2842997 -0.022699077 0.15986502
-0.10201081 0.095042475 -0.30014327 0.0238814 -0.107987545 -0.16665225 -0.12487504 0.0039505837
-0.123618364 -0.34535637 0.05498369 -0.024146214 -0.029828625 -0.069933176 -0.20940885 -0.121124625
0.16865046 -0.051872935 -0.31939325 -0.07682248 -0.23062545 -0.01518736 -0.14013565 -0.2545901
-0.26180336 -0.048876192 -0.03546906 -0.11705825 -0.4049968 -0.014779562 -0.00852671 -0.28556886
-0.0329075 0.077931486 -0.25920132 -0.19140846 -0.064912625 0.008379896 0.092063196 0.040774338
-0.066136524 -0.090495385 -0.030610211 -0.1520361 -0.11679943 -0.06078447 -0.043960083 -0.019762674
0.13863331 -0.121879235 -0.07081789 -0.0099051725 0.09104539 0.045164984 -0.039190043 0.020418778
-0.028543377 -0.28495428 0.35540006 0.050341196 0.14744979 0.106266476 -0.44437283 -0.44153476
0.5367465 -0.4223545 0.14090405 -0.05597517 -0.39923757 -0.12735271 0.04126002 -0.53261626
-0.04726479 -0.28190798 -0.6106379 -0.64569503 -0.3828919 0.115418345 0.09291285 0.034965098
-0.078997344 0.05605899 -0.029023435 0.057493623 -0.51745534 -0.18659934 -0.10255634 -0.04562852
0.12433537 -0.15030444 -0.072495535 -0.20294347 0.49772027 -0.12510256 -0.17443645 -0.1872957
0.3534523 0.30086738 -0.06086414 -0.33395097 0.50518477 0.23623581 0.19403137 0.16049992
-0.108190514 -0.15538044 -0.17543781 -0.5522447 0.08661744 0.12188698 0.014187589 -1.0407624
-0.014507075 0.1639894 -0.07062262 -0.34679076 -0.38857666 0.07650625 0.30218035 -0.36937603
0.2621545 -0.4684737 -0.54278064 -0.09195078 -0.09377922 0.20486283 -0.34811884 -0.33708432
-0.24758165 0.0704581 -0.11471217 -0.2726248 0.2359913 -0.057305846 -0.37675384 -0.016579375
-0.2761993 -0.33072215 0.19015676 0.032555386 -0.705424 -0.015022835 -0.1679673 -0.05689621
-0.116106115 -0.020383546 -0.24324574 -0.030775059 -0.07511803 -0.18608005 -0.08752147 0.007033515
-0.6783092 -0.33614203 -0.7829374 -0.35860026 -0.4108055 -0.16545409 -0.019899018 0.36360165
-0.022372998 -0.007195643 -0.036872678 -1.5964876 -0.24403036 -0.9638036 0.07125074 0.02958249
0.30009675 -0.16000016 0.04328651 -0.11871217 -0.32066995 -0.7629123 0.02939106 -0.48846743
-0.4419421 -0.12476912 -0.04412275 -0.3103295 -0.012159854 -0.0025613687 0.026370019 -0.054119702
00000000: 1225 fe3d bcb8 3fbe 3aff 91bc 4f20 f4bc
00000010: 86aa 143d 8e30 ebbd f4d5 dabd 1f2b 95bd
00000020: 2942 b0bd 554c f93d ebee f7bd 80a1 efbd
00000030: dd63 91bd 1f80 b73c 4a65 de3a 602f 6fbe
00000040: 60f7 45bd 51ec 3bbe 233d 9c3d 2427 26be
00000050: f9ee 44be df2f 48be 43ce 5d3d f880 80bc
00000060: de4b 2ebe b30f 14be ef44 15bd c91a 4a3d
00000070: c4e2 6bbe b765 64bc cdb9 9dbd 4b9a b7bd
00000080: 8e87 16be ebbc b6ba e10e 13bd 13ce 26be
00000090: 81ad c3bc 0b3c c63c 4c1f 0c3d 00c1 30be
000000a0: 5e25 613e 0a56 10be cdc2 48bd 3d1e 7b3c
000000b0: eed5 c1bd 154a efbd ff4b 43be 5487 8fbc
000000c0: 4625 20bc d28d d4bc 73f0 64be d7ef 8bbd
000000d0: 78dd b3bb 41e0 2fbe ccaa 213c 586d 47be
000000e0: cb17 743c ad2e 0dbe 6105 613d d36d 2a3e
000000f0: f9be 753c 9588 6f3d fcc2 35be 3f23 cb3d
00000100: ff53 87bd 7d39 793d e4a4 fcbc 434f c5bd
00000110: 90c5 d0bd bb8f 91be 6af3 b9bc a8b3 233e
00000120: 0beb d0bd a1a5 c23d 61ac 99be eda2 c33c
00000130: 9328 ddbd e3a6 2abe 7cbe ffbd e673 813b
00000140: a02b fdbd 8dd2 b0be 9436 613d 48ce c5bc
00000150: 295b f4bc 2039 8fbd 466f 56be 3010 f8bd
00000160: b5b2 2c3e b778 54bd 8387 a3be 1b55 9dbd
00000170: 1429 6cbe 68d4 78bc b87f 0fbe a259 82be
00000180: 170b 86be 6732 48bd 0148 11bd 3cbc efbd
00000190: be5b cfbe fa25 72bc 9db3 0bbc 1536 92be
000001a0: 04ca 06bd 8b9a 9f3d 09b6 84be 9400 44be
000001b0: e9f0 84bd d54b 093c a18b bc3d fe02 273d
000001c0: 9672 87bd a555 b9bd 44c2 fabc 5aaf 1bbe
000001d0: 8a34 efbd 23f9 78bd 7d0f 34bd 55e5 a1bc
000001e0: e4f5 0d3e d29b f9bd f808 91bd 4e49 22bc
000001f0: 0176 ba3d ebfe 383d bd85 20bd 4845 a73c
00000200: cdd3 e9bc 87e5 91be fff6 b53e 9232 4e3d
00000210: 14fd 163e 3da2 d93d d684 e3be d810 e2be
00000220: 3868 093f d93e d8be 2749 103e 3846 65bd
00000230: de68 ccbe c068 02be 4400 293d 8a59 08bf
00000240: b998 41bd 3e56 90be c452 1cbf 454c 25bf
00000250: 680a c4be 7460 ec3d 1849 be3d 9037 0f3d
00000260: 5cc9 a1bd 1d9e 653d 8ec2 edbc 6f7e 6b3d
00000270: f477 04bf e613 3fbe 0f09 d2bd f9e4 3abd
00000280: 8ba3 fe3d 68e9 19be 8a78 94bd 6ad0 4fbe
00000290: 31d5 fe3e e31a 00be 789f 32be 72ca 3fbe
000002a0: b3f7 b43e 4a0b 9a3e ad4c 79bd 9ffb aabe
000002b0: ca53 013f cde7 713e 29b0 463e 175a 243e
000002c0: fd92 ddbd 0d1c 1fbe f8a5 33be e95f 0dbf
000002d0: 7c64 b13d e29f f93d 1073 683c b437 85bf
000002e0: 15af 6dbc d6ec 273e 98a2 90bd 8f8e b1be
000002f0: 85f3 c6be 4faf 9c3d 62b7 9a3e db1e bdbe
00000300: 1d39 863e c9db efbe acf3 0abf b150 bcbd
00000310: 520f c0bd 90c7 513e a23c b2be 5196 acbe
00000320: 0b86 7dbe 564c 903d 37ee eabd 7a95 8bbe
00000330: b4a7 713e 89b9 6abd e1e5 c0be 78d1 87bc
00000340: ff69 8dbe 6a54 a9be 74b8 423e cc58 053d
00000350: ab96 34bf 5622 76bc 9fff 2bbe 000c 69bd
00000360: 0bc9 edbd 65fb a6bc 6915 79be fa1b fcbc
00000370: 7bd7 99bd c58b 3ebe 753e b3bd 6679 e63b
00000380: aca5 2dbf cf1a acbe 966e 48bf 749a b7be
00000390: 1955 d2be cc6c 29be 4403 a3bc ff29 ba3e
000003a0: 9447 b7bc 6ec9 ebbb ce07 17bd b559 ccbf
000003b0: 18e3 79be d5bb 76bf e8eb 913d fa56 f23c
000003c0: 48a6 993e 15d7 23be 324d 313d 5e1f f3bd
000003d0: da2e a4be 384e 43bf 85c5 f03c 6718 fabe
000003e0: 3c46 e2be f486 ffbd 0fba 34bd 82e3 9ebe
000003f0: 203a 47bc a3dc 27bb f005 d83c 9fac 5dbd

adv1.bias f4 [128]
-0.18730742 -0.16750951 -0.124739684 -0.17836648 -0.07551679 -0.37009603 -0.15619235 -0.12067104
-0.019542543 -0.2840289 0.1379072 -0.7443923 -0.54358727 -0.050519925 -0.013633511 -0.21328422
-0.20708017 -0.28946486 -0.18822666 -0.15731752 -0.02342124 -0.35807723 -0.0016997562 -0.2581056
-0.21460642 -0.3587608 -0.2890731 -0.28186715 0.4298713 -0.48211324 -0.35576487 -0.70110977
-0.13082106 -0.2579637 -0.36192793 -0.19449636 -0.17539178 -0.23229674 -0.3776199 -0.21874048
-0.06156551 -0.16428685 -0.23083158 -0.3354488 -0.5988444 -0.22332852 -0.22936945 -0.19886355
-0.35778055 -0.1496154 -0.068904735 -0.30323663 -0.25021276 -0.14009824 -0.14707723 -0.30015734
-0.022859227 -0.20207722 -0.16229244 -0.5627814 -0.14831407 -0.037353948 -0.0933895 -0.20496236
-0.1599806 -0.35507804 -0.22722685 -0.28832132 -0.6624159 -0.14216825 -0.13384296 -0.35840702
-0.18205364 -0.40421906 -0.17479095 -0.2217608 -0.35583982 -0.42017758 -0.31397292 -0.08293159
-0.42259103 -0.26681855 -0.32115006 -0.3085487 -0.5861193 -0.02108859 -0.26190493 -0.13811707
-0.36368415 -0.31683567 -0.095743805 -0.44999456 -0.20693164 -0.08602948 -0.29587758 -0.320533
-0.20098144 -0.18638274 -0.22950318 -0.19173259 -0.2607722 -0.26741746 -0.16029927 -0.34409165
-0.19285965 -0.16473202 -0.10310584 -0.049248315 -0.04492863 -0.5218304 -0.17590931 -0.16458492
0.0076588807 -0.10899409 -0.36272052 -0.17995937 -0.35355148 -0.0849204 0.009351188 -0.17265254
-0.2505812 -0.40876275 -0.36247826 -0.07976334 -0.18847457 0.14020927 -0.25794342 -0.21241127
00000000: 84cd 3fbe 9d87 2bbe 8577 ffbd b4a5 36be
00000010: 8ca8 9abd 3a7d bdbe e3f0 1fbe 6122 f7bd
00000020: af17 a0bc 3c6c 91be 8c37 0d3e 7e90 3ebf
00000030: 8928 0bbf fbed 4ebd 175f 5fbc 2e67 5abe
00000040: d30c 54be bd34 94be 7dbe 40be d817 21be
00000050: e6dd bfbc e655 b7be 5bca deba 6b26 84be
00000060: c9c1 5bbe 7faf b7be 6401 94be e450 90be
00000070: 1718 dc3e 8cd7 f6be d026 b6be ee7b 33bf
00000080: f5f5 05be d113 84be 9e4e b9be 0e2a 47be
00000090: e799 33be 32df 6dbe 6557 c1be 81fd 5fbe
000000a0: 1e2c 7cbd d03a 28be 1d5f 6cbe f2bf abbe
000000b0: de4d 19bf 3bb0 64be d3df 6abe e3a2 4bbe
000000c0: 032f b7be c834 19be ed1d 8dbd d541 9bbe
000000d0: e31b 80be ea75 0fbe 6a9b 16be 39ae 99be
000000e0: 4643 bbbc 55ed 4ebe fd2f 26be 7112 10bf
000000f0: a5df 17be 7400 19bd ff42 bfbd a7e1 51be
00000100: f4d1 23be cacc b5be 28ae 68be da9e 93be
00000110: 1794 29bf 8e94 11be 210e 09be 2081 b7be
00000120: 456c 3abe cdf5 cebe 66fc 32be 4315 63be
00000130: a330 b6be 8421 d7be 0fc1 a0be 0ad8 a9bd
00000140: da5d d8be 719c 88be c86d a4be 18fa 9dbe
00000150: ea0b 16bf fbc1 acbc 6718 86be 906e 0dbe
00000160: cf34 babe 4938 a2be 5415 c4bd b065 e6be
00000170: e3e5 53be 3930 b0bd 447d 97be e71c a4be
00000180: 14ce 4dbe 1edb 3ebe e202 6bbe 8c55 44be
00000190: ef83 85be f1ea 88be 7e25 24be c82c b0be
000001a0: 007d 45be 83af 28be 2829 d3bd 9ab8 49bd
000001b0: 1507 38bd ad96 05bf 9221 34be f388 28be
000001c0: 59f7 fa3b 4b38 dfbd 81b6 b9be 4547 38be
000001d0: b304 b5be bfea adbd ba35 193c d4cb 30be
000001e0: 2e4c 80be 5a49 d1be c096 b9be f65a a3bd
000001f0: 7aff 40be 0593 0f3e 2911 84be 5782 59be

adv2.weight f4 [3, 128]
0.032957856 -0.10242577 0.11336214 -0.1514572 0.12182357 0.022815831 0.028781017 0.1429764
-0.00798013 -0.10291486 -0.061736457 0.11070406 0.23115835 0.054752834 0.050378703 0.32089934
-0.0147309 0.12200139 -0.12186016 -0.005504861 -0.01869036 -0.03930667 -0.19344163 0.006539897
0.029029116 0.0028883233 -0.38263944 0.03738893 0.097321056 0.076465 -0.16998833 -0.029849553
0.03921244 0.07760041 -0.27336925 0.032969035 0.062022284 0.0471067 0.062952615 -0.025164368
-0.20799793 0.11868193 0.11547447 -0.3399928 -0.0041756746 -0.03262832 0.2156852 0.22210576
0.08199515 -0.010812241 -0.033604976 -0.012845601 0.23210108 -0.02763467 0.07081307 -0.03881243
0.025535164 0.015650164 -0.22561155 0.0027325808 0.050827242 0.026510091 0.040420175 -0.07271081
0.3142671 0.05428405 0.11267455 0.15909599 0.046299007 0.05222452 -0.08255701 -0.07860588
0.35184473 0.17049198 -0.178949 -0.011787812 0.06548005 0.019968217 -0.06291299 -0.10262164
0.10981231 -0.08067603 -0.024966678 0.015267564 0.324654 -0.13018133 -0.06645675 -0.012823949
-0.11081411 0.04318943 -0.02202184 0.22127385 -0.004166245 -0.034654383 0.02087892 0.044727676
0.5051244 0.30592087 0.008556026 -0.13350186 -0.07736659 -0.03719599 0.17505871 0.1218381
0.0854444 0.086936526 0.2612083 -0.001390341 -0.12316781 -0.004913211 0.2959153 -0.04657784
0.20599467 -0.0032971043 0.041734543 -0.06504175 0.024597485 0.103668965 0.054326795 -0.02796586
0.046966247 -0.09709997 0.28803524 0.101402104 -0.0067547546 -0.10227225 -0.103134915 -0.17897019
0.031734567 0.054514047 0.23247923 0.14067103 -0.087940164 0.017587883 -0.01857069 -0.023154765
0.016790949 0.1694147 0.010278067 -0.048677396 -0.013344479 0.0024008998 0.002749008 0.022160366
-0.036849204 0.11647666 0.06046811 0.053859003 0.018187635 0.024642503 -0.21180002 0.056909375
-0.025572231 -0.046667427 0.26959673 0.031979274 0.1118794 -0.077451296 0.10929834 0.03199528
-0.026697628 0.13839063 0.054154556 -0.013219567 -0.4185978 0.006042189 0.0048685283 -0.08700066
0.17070559 0.1000139 -0.15005524 0.029665062 0.052990086 0.075186096 -0.22430463 -0.2041418
-0.111810856 0.009069751 0.046299744 -0.076496944 0.24003305 0.013905784 0.064132504 -0.0009442377
0.06992817 0.0113621205 0.1559518 -0.019268708 -0.08395465 0.048929688 0.033080347 0.0018188561
-0.44684365 -0.028046956 0.1196969 -0.2685835 -0.09455958 -0.14137691 0.05793389 0.06798511
0.15790555 0.1101912 0.17192574 -0.016629184 -0.046808463 -0.0123212105 -0.033636335 0.23332188
-0.13770927 -0.007959021 -0.113878556 0.060441155 -0.117988266 0.02077117 -0.020129865 -0.0013950822
0.058654997 0.0898683 0.0026523806 -0.04137403 -0.04895922 -0.020323224 0.018772362 -0.008572319
-0.32862082 -0.20779422 0.0009770953 -0.0002900734 -0.04576806 0.011696446 0.48647898 -0.058800686
-0.013228384 0.056608047 -0.20554812 -0.060411707 -0.07859363 0.079337075 0.29650128 0.027409881
-0.22869372 -0.042418398 0.056492854 -0.022125078 0.02138949 0.074630626 -0.13477883 0.1392936
0.044705037 0.071528435 -0.0555001 0.019932428 -0.007658037 0.042271223 -0.04895974 0.14439252
00000000: d1fe 063d 9ac4 d1bd 692a e83d 9917 1bbe
00000010: a37e f93d 44e8 ba3c 2bc6 eb3c 6868 123e
00000020: 17bf 02bc 07c5 d2bd 5edf 7cbd cfb8 e23d
00000030: c6b4 6c3e 8244 603d e659 4e3d eb4c a43e
00000040: df59 71bc dddb f93d d291 f9bd 1f62 b4bb
00000050: 871c 99bc 0800 21bd 9015 46be a24c d63b
00000060: 78ce ed3c 064a 3d3b 51e9 c3be 2225 193d
00000070: 4350 c73d af99 9c3d 6c11 2ebe 0d87 f4bc
00000080: 399d 203d f7ec 9e3d 0ef7 8bbe 8a0a 073d
00000090: 140b 7e3d f4f2 403d 4ded 803d 8125 cebc
000000a0: 69fd 54be 830f f33d e17d ec3d 8913 aebe
000000b0: 19d4 88bb 46a5 05bd 95dc 5c3e b16f 633e
000000c0: 13ed a73d d325 31bc 5fa5 09bd 5b76 52bc
000000d0: e8ab 6d3e 1a62 e2bc 7106 913d c8f9 1ebd
000000e0: 1f2f d13c c634 803c b706 67be 1915 333b
000000f0: 3a30 503d b12b d93c a08f 253d 68e9 94bd
00000100: 9ee7 a03e f458 5e3d eac1 e63d 0fea 223e
00000110: 07a4 3d3d 61e9 553d a613 a9bd 1ffc a0bd
00000120: fe24 b43e 7395 2e3e 683e 37be ab21 41bc
00000130: 681a 863d 6394 a33c 87d8 80bd 4b2b d2bd
00000140: 47e5 e03d 7939 a5bd eb86 ccbc ce24 7a3c
00000150: 0d39 a63e 414e 05be 7a1a 88bd 8a1b 52bc
00000160: 82f2 e2bd 66e7 303d 2567 b4bc 9d95 623e
00000170: ff84 88bb c1f1 0dbd 450a ab3c 5e34 373d
00000180: d54f 013f a9a1 9c3e 932e 0c3c b6b4 08be
00000190: 6072 9ebd d35a 18bd 9742 333e 4186 f93d
000001a0: 79fd ae3d c70b b23d 18bd 853e 1a3c b6ba
000001b0: 683f fcbd 00ff a0bb 3682 973e 68c8 3ebd
000001c0: 44f0 523e 3b14 58bb d7f1 2a3d 9c34 85bd
000001d0: aa80 c93c 6550 d43d c685 5e3d a918 e5bc
000001e0: ae5f 403d 59dc c6bd 5b79 933e e8ab cf3d
000001f0: fd56 ddbb 1d74 d1bd 6638 d3bd f643 37be
00000200: 1bfc 013d 1f4a 5f3d 090f 6e3e 110c 103e
00000210: f919 b4bd 7714 903c 8f21 98bc 10af bdbc
00000220: 2c8d 893c 0c7b 2d3e 5665 283c f361 47bd
00000230: cda2 5abc 6a58 1d3b b328 343b a889 b53c
00000240: 31ef 16bd 518b ee3d 69ad 773d 429b 5c3d
00000250: 3cfe 943c 13df c93c 1be2 58be ce19 693d
00000260: db7c d1bc 5826 3fbd 9508 8a3e b3fc 023d
00000270: 0721 e53d c99e 9ebd cfd7 df3d 7c0d 033d
00000280: fcb4 dabc 46b6 0d3e 2bd1 5d3d e296 58bc
00000290: 7352 d6be 8efd c53b 2d88 9f3b 672d b2bd
000002a0: 72cd 2e3e 16d4 cc3d 15a8 19be 2504 f33c
000002b0: 220c 593d 2bfb 993d 1db0 65be 8c0a 51be
000002c0: 17fd e4bd 4b99 143c cda4 3d3d 6eaa 9cbd
000002d0: 39cb 753e 16d5 633c e757 833d b886 77ba
000002e0: 8036 8f3d 3028 3a3c d4b1 1f3e 69d9 9dbc
000002f0: 6af0 abbd 7f6a 483d 427f 073d af66 ee3a
00000300: b1c8 e4be bbc2 e5bc a623 f53d c783 89be
00000310: 74a8 c1bd 1cc5 10be 164c 6d3d c73b 8b3d
00000320: feb1 213e edab e13d 4d0d 303e ed39 88bc
00000330: 3bba 3fbd e7de 49bc 41c6 09bd eeeb 6e3e
00000340: a903 0dbe 8e66 02bc 2939 e9bd 2591 773d
00000350: d5a3 f1bd 4d28 aa3c 63e7 a4bc 31db b6ba
00000360: 3940 703d df0c b83d 90d3 2d3b d177 29bd
00000370: 7789 48bd e47c a6bc 7fc8 993c e972 0cbc
00000380: fd40 a8be 02c8 54be e111 803a fe14 98b9
00000390: 4a77 3bbd 73a2 3f3c c613 f93e fdd8 70bd
000003a0: ddbb 58bc d7dd 673d 357b 52be 4472 77bd
000003b0: b2f5 a0bd 7a7b a23d 04cf 973e b08a e03c
000003c0: b02e 6abe eabe 2dbd 0d65 673d a73f b5bc
000003d0: 0339 af3c f1d7 983d 7603 0abe fba2 0e3e
000003e0: a11c 373d 807d 923d 1354 63bd 5549 a33c
000003f0: 45f0 fabb 9724 2d3d 028a 48bd a2db 133e

adv2.bias f4 [3]
0.00059692515 0.0010047253 -0.0032238003
00000000: f87a 1c3a fdb0 833a 6546 53bb
