算法对比/PDQN/model/actor_model.ckpt (torch, 95812 bytes, 11 tensors)

lstm.weight_ih_l0 f4 [96, 1]
00000000: 2024 c53c 4ccc ac3d 9e04 3b3e f08c 9d3c
00000010: b36e 24be e167 1cbe 0737 45be 5db0 42be
00000020: c0f4 a03b 6f71 20be 8b54 25be 8556 46be
00000030: a4f1 d63d 585c 223e a0fb 893d 1459 0abd
00000040: 9498 71bd dc7e 123e e2da 3f3e 9036 19bd
00000050: 8c58 383e 809e 363e 18f8 2fbe 289f aa3d
00000060: d2c9 b4bd e2ee 34be c3b7 4ebe 165a 413e
00000070: 30dc dc3c a0fd 423c 5eb2 163e 496a b2bd
00000080: c807 1c3d 7c8c d8bd a014 dcbc 6ce4 73bd
00000090: 901f 603d d025 03bd 8438 08be 60a0 3abe
000000a0: a861 393e a0cb 44be 10ab 8cbd fef0 073e
000000b0: 80ac 133d 2455 e83d de8f 043e 90d6 1c3e
000000c0: 8864 9dbc bc95 403e b3e9 41be 6025 bbbb
000000d0: 2075 fa3d 3c9c 1ebe 90c6 133c b000 63bc
000000e0: 065e 50be 6bd5 fdbd 3cd5 ea3d 811b 19be
000000f0: 0e39 0bbe a0bf 39bc 1605 9ebd ab5e 44be
00000100: e402 913d 28d3 31bd b9a6 e2bd a0ee cabb
00000110: ae95 0f3e 36e5 49be 284c 42be 9cfd f03d
00000120: 5a6f 18be c01a 53bb 502d 4d3d c67a 163e
00000130: 3ef5 213e d086 63bc 5455 12be 4e5f 07be
00000140: ece8 f43d c0b6 6e3d 42fd 003e 4cc1 3abd
00000150: 008a 663b 704e 193e 13eb e0bd c44b 09be
00000160: 485d c5bd 5d96 42be 6479 c23d 08fa ee3d
00000170: 30f9 97bc 403a 50be 5b6d 38be 96a2 3e3e
0.024065077 0.08437404 0.1826348 0.019232243 -0.16057853 -0.15274002 -0.19259273 -0.1901259
0.004911989 -0.15668271 -0.16145532 -0.19368942 0.10495308 0.15855539 0.06737447 -0.033776358
-0.0589834 0.14306206 0.18735841 -0.03740555 0.18002528 0.178339 -0.17184484 0.08331138
-0.08827557 -0.17669252 -0.20187287 0.18882021 0.026960462 0.011901289 0.14716479 -0.087116785
0.03809336 -0.1057367 -0.026865304 -0.059544012 0.0547176 -0.032018483 -0.13302809 -0.1822524
0.18103659 -0.19218302 -0.06868565 0.13275525 0.03605318 0.11344364 0.12945506 0.15316224
-0.019212976 0.18807119 -0.18936805 -0.0057112426 0.12229371 -0.15489286 0.009019509 -0.013855144
-0.20348367 -0.12394222 0.114664525 -0.14951898 -0.13595983 -0.011337191 -0.07715814 -0.19176738
0.070806295 -0.043414265 -0.11066956 -0.006192997 0.14021942 -0.19716343 -0.18974364 0.11767122
-0.14886227 -0.003221199 0.05009204 0.14695272 0.15816209 -0.013887122 -0.14290363 -0.1321995
0.11958489 0.058279753 0.1259661 -0.0455945 0.003517747 0.14971328 -0.10982337 -0.13407809
-0.096369326 -0.19002672 0.0949581 0.116687834 -0.018551439 -0.2033472 -0.18010466 0.18616709

lstm.weight_hh_l0 f4 [96, 24]
00000000: 6239 04be 406b f13b 925b 0fbe 5cbd b13d
00000010: 4e8c 4b3e e122 f6bd 7083 d53c 4e0d 343e
00000020: 0ffd 11be e81d c8bd 3823 df3d f83e f23d
00000030: c6ab 25be 29e5 3ebe 60f8 ff3b ca6d 303e
00000040: 88c8 5bbd ac1f 313e 886e cd3d 1029 ae3d
00000050: d451 143d 28d3 0b3d 4c5d 183e 509a ea3d
00000060: d756 41be 0c32 333d b02c 8d3c 246d f63d
00000070: b4b5 843d 9843 6e3d 14a3 8bbd 6625 2f3e
00000080: ecf1 16be 6cb7 9f3d 2849 1cbe cc24 4c3e
00000090: 3895 d6bc 14da d73d 52f9 443e f29a 02be
000000a0: a0e9 1ebc ee18 4c3e 8053 08bc fc8c e5bd
000000b0: bc99 3a3e 5ef9 dabd 3876 84bc 50a8 9bbc
000000c0: c75c bfbd 54d5 0f3e e4fe 983d d04e 5ebd
000000d0: 4c8e 013e c2cc 303e c454 14be ea7e 3c3e
000000e0: 3d59 c5bd 844d 2c3e e0d7 26be c530 1fbe
000000f0: a88c 5ebd e05b 213c 04c3 483e ec45 d53d
00000100: c0ad e4bb 6c48 1cbe 224d 06be c4bf 04bd
00000110: 94e8 47bd 269a 1fbe 0024 2d3a d418 cb3d
00000120: 88d5 0d3e 5542 37be 2f9b 32be 88f8 183d
00000130: 3cfb 9f3d 5953 4dbe 8cb7 283e 9476 de3d
00000140: 4017 473c 40d9 6fbb 4005 4abb 5809 f5bd
00000150: 447c 2abe 0014 3aba f221 b7bd 70e8 c83c
00000160: 7076 943c 5802 573d 5e19 98bd 2ee5 2dbe
00000170: ec9e aebd 80ce 3b3c e29b 80bd c823 d8bd
00000180: 80a2 a53c 48f8 11be 48c6 3c3e 50a7 0c3e
00000190: 905b 15bd a8cd 2cbd 18c0 bfbc 7a38 173e
000001a0: a85b 823d 622b 483e 303d ee3d 78f8 073d
000001b0: 67ba 29be 963f 2e3e 38db 7e3d 4892 50bd
000001c0: 844a 29bd 8497 8c3d 1cce 393e 1c48 c53d
000001d0: e409 0d3e dc13 22bd b6a8 38be 8843 ebbd
000001e0: d88c 39bd 2cf3 8d3d 4e70 3c3e 0f1a 4abe
000001f0: e04b 593d 3837 90bc 807a 3ebb e373 0fbe
00000200: 80ce 87ba 3ff7 36be 0c01 5abd 47c0 4ebe
00000210: accb a43d cfe0 3ebe 18a0 ea3c 50d6 a23d
00000220: 50fa 9b3c 261f fdbd f867 d13d f49e 15bd
00000230: 9885 4f3d 506c b03c 9693 82bd ca81 e2bd
00000240: a0df afbb 43b2 30be a034 60bc 10ad e7bd
00000250: 2612 02be 788c 20bd 3417 0e3e 0030 73b9
00000260: 78e2 6b3d 202b 59bd 4210 253e ac01 fd3d
00000270: cac9 283e 5a48 393e 19db fdbd 2067 2b3c
00000280: 76db 1c3e b8c5 c23c 4ec6 d7bd 0840 e8bd
00000290: 5c20 963d 705c 19bc 7e03 00be 674d dabd
000002a0: 8cd3 3b3e a8d6 f8bd 044a 1cbe 40b7 433d
000002b0: c04d 2f3e b601 2b3e 93dd 2abe 40b3 1abd
000002c0: 6028 6c3c 99b1 f7bd 8086 5c3d 52ef 48be
000002d0: 8eea 143e d9cf c0bd 0e1d 123e ac83 413e
000002e0: 086f 4fbe aca2 ba3d f24a 4d3e 2ca0 a73d
000002f0: 58aa bf3c 2c58 2e3e daa1 493e c80e 363e
00000300: 8489 25be 01e4 b7bd a064 57bd 8c65 9c3d
00000310: 850f f4bd 04f8 3dbd 8027 723d 905e 1c3c
00000320: 642f 4b3e 28b3 4ebe 3c8c f13d 5ee6 3a3e
00000330: c497 e9bd cc5b 4ebe f83d 4a3d 206e 2a3c
00000340: 8045 093b 503c 8e3d ead0 0e3e 9c72 cd3d
00000350: 3886 cf3d d602 163e 6445 153e e0f2 f1bb
00000360: d460 f63d 3897 b73c c538 1abe 7417 373d
00000370: 6a60 27be 90ad e33c c9a1 23be b023 ef3c
00000380: f022 6dbd c0f6 91bd c4da e63d a0fd c63d
00000390: c53c 43be 76aa 10be 6dcc 1fbe f891 9c3c
000003a0: a825 403e 1819 3c3e 9c86 2ebe 6e18 373e
000003b0: b4a7 16be 8fec 4cbe 7c26 be3d acc9 4cbd
000003c0: b881 b53d 5cbf 1e3d 3425 a13d e864 13bd
000003d0: f8ac 123e c492 f93d a0ed 8fbb f02b 8d3c
000003e0: 930f 01be 5c12 143d da26 27be 9c57 0bbd
000003f0: 28e4 b93d e281 98bd 3323 dbbd 40a5 13bc
-0.12912515 0.0073675215 -0.13999775 0.086786956 0.1987774 -0.120183714 0.02606365 0.175832
-0.1425669 -0.09771329 0.10895389 0.118284166 -0.16178808 -0.18642105 0.007811591 0.17229381
-0.05365804 0.17297238 0.10030848 0.08503926 0.03621085 0.03413692 0.1487934 0.11455214
-0.18880783 0.0437489 0.017233223 0.12032536 0.064799696 0.05816993 -0.06818214 0.1710411
-0.14740723 0.07798657 -0.15262282 0.19935912 -0.0261942 0.10539642 0.19235733 -0.1275442
-0.009699255 0.19931385 -0.008320689 -0.11208531 0.18222708 -0.10692094 -0.016169652 -0.019001156
-0.09343868 0.14046222 0.074704915 -0.05427438 0.12651938 0.17265609 -0.1448546 0.18407789
-0.096361615 0.16826445 -0.16293287 -0.15545948 -0.05433336 0.009848565 0.19605643 0.10413727
-0.0069787204 -0.15262002 -0.13115361 -0.032409444 -0.04880579 -0.15586147 0.00066047907 0.09916845
0.13850987 -0.17896397 -0.1744201 0.037346393 0.07811591 -0.20051326 0.16476268 0.10862461
0.012151539 -0.0036597997 -0.0030825883 -0.11964673 -0.16648966 -0.0007098317 -0.089420214 0.024524897
0.018122882 0.05249247 -0.074267134 -0.16981956 -0.08526406 0.011462808 -0.06279732 -0.105537
0.020219088 -0.14254868 0.18435013 0.137357 -0.036464274 -0.042188317 -0.023407027 0.14767638
0.06365138 0.19547799 0.11632764 0.033195943 -0.16575013 0.17016444 0.062220782 -0.050920755
-0.04133083 0.06864837 0.1814503 0.096328944 0.13773304 -0.03956972 -0.18033108 -0.1148749
-0.045300335 0.06931147 0.18402216 -0.19736503 0.053050876 -0.017604455 -0.0029064715 -0.14009051
-0.0010361224 -0.17867754 -0.053223655 -0.20190535 0.0804666 -0.18640445 0.028640792 0.07951033
0.019040257 -0.12359457 0.102249086 -0.036528543 0.050664514 0.021536022 -0.06375806 -0.110599115
-0.0053672343 -0.17255501 -0.013684422 -0.11312306 -0.12702236 -0.03919646 0.13876039 -0.00023192167
0.057589024 -0.053019643 0.16119483 0.123538345 0.16483226 0.18094006 -0.12395305 0.010461599
0.15318093 0.02377592 -0.105358705 -0.11340338 0.07330391 -0.009360418 -0.12501332 -0.106592946
0.18342417 -0.121503174 -0.1526261 0.047782183 0.17119503 0.16699871 -0.16686086 -0.037768602
0.014413923 -0.12094421 0.053839207 -0.19622543 0.145426 -0.09414644 0.14268896 0.18897885
-0.20257199 0.091130584 0.2004812 0.08184847 0.023396656 0.17025822 0.19690648 0.17779076
-0.1616574 -0.08979035 -0.052586198 0.07636556 -0.119170226 -0.046379104 0.0591197 0.00954403
0.19842297 -0.2018553 0.11794326 0.1825194 -0.114059 -0.20152205 0.049375504 0.010402232
0.0020945966 0.069450974 0.13946882 0.10031626 0.10133022 0.1464952 0.14577252 -0.0073836893
0.12030187 0.022410974 -0.15060718 0.0447001 -0.16345373 0.027792722 -0.15979685 0.029191822
-0.057894647 -0.07127142 0.11272195 0.09716344 -0.1906615 -0.14127526 -0.15605326 0.019112572
0.18764365 0.18368948 -0.17043537 0.17880413 -0.14712411 -0.20012115 0.09284684 -0.049997017
0.088626325 0.038756713 0.07868424 -0.035984904 0.14323795 0.121861964 -0.004392341 0.017232865
-0.12603597 0.03615032 -0.16323414 -0.034019098 0.090767205 -0.07446648 -0.10700073 -0.009011567

lstm.bias_ih_l0 f4 [96]
00000000: 3828 f7bc 8465 29bd 049d 423e c674 c8bd
00000010: 0091 d93c 3413 ea3d b075 22bd b0ec 4bbe
00000020: e89c 343e 281d e93d 56e2 3c3e fa2c 1c3e
00000030: 10a8 d9bd 0806 43bd 40a5 95bc ee6b adbd
00000040: a5cb f5bd a8da e23d e0f5 e1bd a815 6fbd
00000050: e46a ab3d 6c9e 01bd e0c6 ebbb 78d2 053e
00000060: 684e 8f3d 8028 a5bb ffaf f5bd c079 fa3d
00000070: bc5a cb3d 48a4 973c d443 2a3d f861 a13d
00000080: ae70 3c3e 6787 1cbe d22d 01be 354b f6bd
00000090: 8040 0f3b e4bd c43d 3aa0 103e 4a20 03be
000000a0: 3095 4f3e 0739 ffbd 1153 4dbe 6cd3 e23d
000000b0: fa9a 203e c88f 103e 16e2 1f3e 48bb 9cbd
000000c0: 8cbe 423e 285a 653d ecf7 55bd 8e29 e7bd
000000d0: 00e4 62b9 93ff cabd 785f 82bc b4b2 d23d
000000e0: 9efe 003e c42d ac3d 9509 ffbd 6c06 063e
000000f0: a0f8 e4bd e59e eebd 0821 733d f0ca 173e
00000100: e400 e93d 59bb dbbd e2b2 2fbe 2314 ecbd
00000110: 08a9 1d3d 845e 0d3e 2c50 f33d b4b6 7abd
00000120: a774 afbd 0ce0 a1bd cc0c 4bbe ade6 d6bd
00000130: a8b8 48bd a0c6 d3bc d8d4 abbc 2693 113e
00000140: fc89 7abd 7613 23be 0396 4fbe ba93 05be
00000150: ddc3 40be 60ef 58bd d440 c53d b835 8a3c
00000160: d57b ecbd 4996 b3bd 40c3 46bd 91aa 08be
00000170: be52 0b3e 24e7 0d3d 30d7 7b3c 4a13 2a3e
-0.030170545 -0.04135658 0.19005209 -0.09787898 0.0265584 0.11429444 -0.039663017 -0.19914508
0.1763798 0.11382514 0.18445715 0.15251532 -0.106277585 -0.047613174 -0.018267274 -0.084678516
-0.12001733 0.110768616 -0.11033225 -0.058370262 0.08369997 -0.031645223 -0.0071953386 0.13068569
0.06997377 -0.0050402284 -0.11996459 0.12230253 0.099294156 0.018510953 0.041568592 0.07880014
0.18402359 -0.15286027 -0.12615135 -0.12026063 0.0021858513 0.09606531 0.14123622 -0.12805286
0.20271754 -0.12462049 -0.20051219 0.11075482 0.15684119 0.14117348 0.15613589 -0.076529086
0.19018 0.055994183 -0.05223839 -0.11287223 -0.00021637976 -0.09912028 -0.015914664 0.10287991
0.12597129 0.084071666 -0.124529995 0.13088387 -0.11180234 -0.116514005 0.059357673 0.14823508
0.11377123 -0.10729093 -0.17158082 -0.11527278 0.03849128 0.13805586 0.11880526 -0.061209396
-0.085671715 -0.07904062 -0.198291 -0.10493217 -0.049004227 -0.025851548 -0.020975515 0.14216289
-0.06116675 -0.15925393 -0.20272069 -0.13044634 -0.18824716 -0.05296266 0.096315056 0.016871318
-0.115470566 -0.08768899 -0.04852605 -0.13346316 0.13605782 0.03464426 0.015371129 0.1660892

lstm.bias_hh_l0 f4 [96]
00000000: 3ae1 29be 5050 6c3d d059 af3c 3d03 c5bd
00000010: b860 31be ec0c 2abe e407 3fbe a8ee c93d
00000020: 0896 583d 4405 263e 50ce 443d 1829 003e
00000030: ae6f 253e 4471 8e3d eccc 64bd 4c5d 053e
00000040: 70cb 0b3e 4ce2 26be 784f 2b3d 6233 39be
00000050: 405b febc e097 fc3c 80cd 99bc ba74 443e
00000060: 3ba0 4ebe a085 053c 5548 b3bd fd6b 02be
00000070: 12d5 313e 70ff e83d 5480 7ebd 0ce0 9cbd
00000080: 8214 373e 47a2 2ebe aa49 433e f44a 1fbd
00000090: 1e22 423e 8c04 063e 3c8c ae3d e120 b6bd
000000a0: 26d6 0d3e 5e14 0a3e b6ef febd fce8 0bbe
000000b0: 0036 023b c694 1b3e 9004 483d f842 003e
000000c0: 4fe8 d1bd d869 843d 6c24 983d a0e1 c63c
000000d0: 28b5 a6bc 505b 1c3c 009d 073e 7027 683d
000000e0: f035 d7bc 2000 de3d 34a5 993d 4282 83bd
000000f0: 649a a93d 8058 07bb d50e cbbd d5ed ecbd
00000100: c1e7 eabd 5960 b2bd 22fb d3bd 706d 09be
00000110: 245b db3d 722c 2abe e0f4 e83b e81f cfbc
00000120: 1bbc 4ebe 6af8 453e e40a e6bd 08ea d5bc
00000130: d4ae bcbd 9a6e 2e3e 1c0c 16be 6018 d43b
00000140: 82c7 1b3e e93d aebd 800f a73d fa4d 1bbe
00000150: d06d 9abd 58cb 483d 38f9 db3c e89f bc3c
00000160: 2053 abbb e411 f53d c8d8 263e 7094 f4bc
00000170: c78e 39be 8569 c8bd fa36 2f3e 908a ed3c
-0.16589823 0.05769378 0.02140513 -0.09619758 -0.17322052 -0.16606492 -0.18655354 0.09859973
0.052877456 0.16212946 0.048048317 0.12515676 0.16155884 0.069551975 -0.05585949 0.13023871
0.13651824 -0.16297263 0.041823834 -0.18086007 -0.03104937 0.030834138 -0.018774748 0.19185153
-0.2017831 0.008149534 -0.087540306 -0.12736507 0.17366436 0.11376846 -0.062134102 -0.07659921
0.17878917 -0.17054091 0.1907107 -0.03888984 0.18958327 0.13087672 0.08522841 -0.0889299
0.13851222 0.13484332 -0.12448065 -0.13663095 0.0019868612 0.15193471 0.048832476 0.12525547
-0.102493875 0.064655006 0.07428822 0.024277508 -0.020350054 0.009543255 0.13243484 0.056678236
-0.026270837 0.108398676 0.07502213 -0.06421329 0.08281401 -0.0020652115 -0.09914938 -0.115688
-0.11469985 -0.08709783 -0.10350634 -0.13420653 0.10710743 -0.16618517 0.0071092695 -0.025283769
-0.20188944 0.19333044 -0.11232546 -0.026112571 -0.09213033 0.17034379 -0.14653057 0.0064726323
0.15212825 -0.08507902 0.08157253 -0.15166464 -0.07540476 0.04902205 0.026852235 0.023025468
-0.005228415 0.11966303 0.16293633 -0.029855937 -0.18120871 -0.09785751 0.17110816 0.028996736

linear1.weight f4 [128, 27]
00000000: f8ee a93c 46c4 bc3d 1ed9 fe3d 18cc 5d3d
00000010: d672 cc3d 9080 a7bd 4e9f febd 73a9 adbd
00000020: 4c01 3cbe b0ab fdbc 9380 213e 43c4 193e
00000030: 4096 48bd af5f 9fbd 50ce 50bd 8e58 e33d
00000040: 20c1 843b 2066 89bd 7a6f 883d d5aa f4bd
00000050: 9078 fb3c 16e2 f43d c22c 10be 9e82 0bbe
00000060: ae8c 94bd 88b1 3dbe 08cd 57bd 6c97 1d3e
00000070: a89c 243e 4e55 4dbe 477f 3b3c a0d5 e6bd
00000080: 225b 2abe 0813 b0bd c7fd 933d 1d92 11be
00000090: bcd6 ecbd 591c 8bbd f2d4 f03d 2b42 713e
000000a0: ceeb 8bbd 4dfc 0ebe 1dea 2dbe 9b6b aabd
000000b0: d6fa c43d 3ad6 8fbd 0915 023e bf9c c63c
000000c0: 9e56 35be dea3 f8bd 8a34 d83d 68df 693d
000000d0: 8fe6 43be 1e8c 733e e872 2fbe a13c f1bd
000000e0: 946d fc3d 7065 a73c d7ce 803d c5cb 32be
000000f0: 4c58 5a3d bd5d 263e cf68 aa3d 1a01 95bd
00000100: dee7 c53d 7b59 e33c 2c9f 91bd 784c 7fbe
00000110: 0003 553d b7b1 5dbe 7ff3 0b3c f106 313e
00000120: 9d2d 97bd 753e 9a3d 948e f73d d1e2 8b3d
00000130: c281 acbd b94b 02be 489f 1d3e 607d 2f3e
00000140: 51e6 b6bd 2ed2 523e 803a e03d 4706 3fbe
00000150: 532e f03d 90cb c03d 7ff3 bcbd 7d2f 483e
00000160: 6286 fbbd 44c3 ef3d db9e 52bc 796e 6a3d
00000170: 6cc5 12be c752 0dbe cd3b 3abe aa09 3cbe
00000180: aa87 8a3d 7c8d a2bc 9550 a43c 73a3 163c
00000190: b113 33be 9129 40bd 2676 4abd 5334 403e
000001a0: ebbc 513e 9154 323e e5bf 063e cdd7 dcbd
000001b0: 2774 113e 40c0 17be 49a5 363c 268b 113e
000001c0: e64f de3d 8387 e2bb 6fd0 4ebd 8152 39be
000001d0: d6ab 51be 8d51 d9bc 3acc 3cbe 716f 013e
000001e0: 8857 65bd 60d0 613e 2e41 973d c524 8abd
000001f0: aa70 c4bd 6e14 53be ab38 c33d a084 ac3d
00000200: 82a3 7a3c 0007 2cbc b7f6 67bd 53ea 453e
00000210: 5ab2 353e b6b5 1dbc 4010 d03c 83e8 edbd
00000220: 30b0 38be 2b4d 19be e7c3 38be a026 193c
00000230: cdbc 97bd 2405 0bbd 884e 3cbd 74bb 7c3d
00000240: 0878 ff3c c77a 17be b78b 11be a51f 16be
00000250: d210 833d cb7e debd f0eb 3fbe 8303 353e
00000260: 543a 5d3d 0b0d 40be 4078 5d3d b396 293e
00000270: 5c3f 323d e8fa 30be 6f11 033e 8b08 eebd
00000280: cada d6bd 48a9 b8bc f800 54bd d15c 2b3e
00000290: 9534 573e 851c 643d 686a b9bd 1eed 2d3e
000002a0: 8519 533d 46b8 37bc d94e 9e3d abe3 863d
000002b0: 9970 513e ff84 64bc db7a e1bc 0444 a7bc
000002c0: 6096 f43d 3404 31be 968e 17be e15e 993d
000002d0: 3cf6 293e 9861 2cbe 26c3 393e 9144 a23d
000002e0: bcf1 f6bc 4caa 45be 7b17 003d 7af4 16bd
000002f0: 21d5 38bd 98da 14be cec7 10be 7ac0 ef3d
00000300: ec87 b5bd 9cdd 19be 3748 423e 0975 44be
00000310: 26d9 e13d 7497 84bd 5836 163d 8764 033e
00000320: 88c7 bb3c c407 193d 1452 19bd 6074 603d
00000330: 680d c4bd 96b5 863d 329e fd3d 2030 fd3c
00000340: 4bca 93bd d04b 8bbd cb78 1c3e 1a50 f83d
00000350: 799d 27be 328e 2cbe e6dd 34be 7429 f9bd
00000360: 596f 21bb 914e 06bd 243c 0b3e ce6d 863d
00000370: 88e9 dc3c c6fc 033e a62a c73c 9350 8a3d
00000380: dbbb 1abd a9a8 49be eec8 31be 5bfc 41be
00000390: 8395 1d3e fbba f53d 686f dd3d 48b8 1b3d
000003a0: b5c7 18be cd83 efbd 4abf 78bd ff47 4cbe
000003b0: 87d9 c4bd 4674 323e 9c16 27be 0b85 643e
000003c0: d2ee a83d 3866 753d be78 86be bc16 2fbc
000003d0: be0d 103e 550b 9c3d de51 493d 3801 02be
000003e0: 58e6 1e3d 657b 10bd 961c b93d ade2 6bbe
000003f0: 2931 993d 6367 bd3a 2d37 63bd 6ece 1a3d
0.020743832 0.09217124 0.124437556 0.054149717 0.09982841 -0.08178818 -0.12432729 -0.084795855
-0.1835987 -0.030965656 0.15771703 0.15016274 -0.048971415 -0.07781922 -0.050978005 0.11100875
0.0040513426 -0.06708932 0.066618875 -0.11946646 0.030697137 0.11957185 -0.14079574 -0.13624045
-0.07253395 -0.18524754 -0.052685767 0.15389794 0.16075385 -0.20052072 0.0114439195 -0.112712145
-0.16636327 -0.0859738 0.072261386 -0.14215894 -0.11564395 -0.06792516 0.11759366 0.23560397
-0.068320855 -0.13963433 -0.16983838 -0.08321305 0.09618156 -0.07023282 0.12703337 0.024244664
-0.17708823 -0.1214063 0.10556896 0.057097822 -0.1913092 0.23783919 -0.17133677 -0.11779142
0.12325588 0.020434111 0.062894516 -0.17460544 0.053306863 0.16246696 0.08320772 -0.07275601
0.09663366 0.027752629 -0.07110438 -0.24931514 0.052004814 -0.21649824 0.008541941 0.17287804
-0.07381747 0.07531444 0.120877415 0.06830371 -0.08423187 -0.12724198 0.15392792 0.1713767
-0.08930648 0.2058799 0.10948658 -0.18654738 0.11727586 0.094138265 -0.09226131 0.19549365
-0.12281491 0.11707166 -0.012855257 0.05723426 -0.14333123 -0.13801108 -0.18186875 -0.18363062
0.06764157 -0.019842856 0.020057956 0.009194243 -0.1748798 -0.04691464 -0.04942908 0.1876996
0.20482223 0.17415072 0.1315914 -0.10783348 0.14204465 -0.14819431 0.0111478055 0.14213237
0.10855083 -0.006913127 -0.050491747 -0.18097879 -0.20475706 -0.026528144 -0.18437281 0.12640168
-0.05599168 0.22052145 0.07385479 -0.067452945 -0.095918015 -0.20613262 0.09532293 0.08423734
0.015297772 -0.010499716 -0.05663177 0.19327669 0.17743817 -0.009625843 0.025398374 -0.11616614
-0.1803596 -0.14970843 -0.18043481 0.009347588 -0.07409058 -0.03394045 -0.04597333 0.061702207
0.031185165 -0.1479293 -0.14213453 -0.14660509 0.063996926 -0.108640276 -0.18742347 0.17677121
0.054010704 -0.18754975 0.054069757 0.16561393 0.043517455 -0.17283213 0.12799619 -0.11622723
-0.104909495 -0.022541657 -0.051758736 0.16734625 0.21016152 0.05569126 -0.090534985 0.16984984
0.05153801 -0.011213368 0.07729883 0.06586393 0.20453109 -0.013947724 -0.027524402 -0.020418175
0.11942744 -0.1728676 -0.14800486 0.074888 0.16597837 -0.16834104 0.1814085 0.07923234
-0.030144565 -0.19303244 0.031272393 -0.036854245 -0.04512513 -0.14536512 -0.1413872 0.11706634
-0.08863816 -0.15025944 0.1897286 -0.1918527 0.11027746 -0.064742 0.03667292 0.12831317
0.022922292 0.03736092 -0.03743179 0.054798484 -0.095728695 0.065776035 0.12383689 0.030906737
-0.07216319 -0.068015695 0.15280454 0.12124653 -0.16368665 -0.16851118 -0.17662773 -0.1216611
-0.0024633019 -0.03278977 0.1359716 0.06563912 0.026966825 0.12889394 0.024312329 0.067536496
-0.03777681 -0.19693245 -0.17361805 -0.18943922 0.15389065 0.11998554 0.10812265 0.03801754
-0.14919932 -0.11695061 -0.060729302 -0.1994934 -0.096118025 0.17427167 -0.16317219 0.22316377
0.08248676 0.059911937 -0.26263994 -0.010686573 0.14067742 0.07619349 0.04915034 -0.12695777
0.03879389 -0.03527393 0.090386555 -0.23035689 0.0748008 0.0014450367 -0.05547254 0.037794523

linear1.bias f4 [128]
00000000: 5e6f eb3d 45aa 223e f609 2b3e a906 343e
00000010: 1479 a13d 70c2 27bd d7af 2b3e 7d42 92bd
00000020: c573 9bba 83a0 24be 6180 ee3d 661e 8d3d
00000030: 6b77 16be 14a6 14be 6c35 483d f7da d53d
00000040: e345 893d 1cc6 c7bd f1ff 0abd 84af 14be
00000050: e3f3 243e 930b 91bd 0641 88bd ae2d 023e
00000060: a7e9 a23d 776b 2b3e 36ed de3d 05f3 d8bd
00000070: 9b25 013e ba4a 3abd e4eb 913d c3f8 21be
00000080: 1bff 67bd 28e9 36bd ecc0 aabd 4624 713c
00000090: 745e 0bbe a20e b73d 5ece 423d 6045 6ebd
000000a0: a31c 243e f481 953d a476 bbbd 10e3 84bd
000000b0: 4640 39bd 26cb 2bbd 8a57 213e 3deb 0c3e
000000c0: 00d3 baba c1c8 9dbd e145 a1bc 55b0 9fbd
000000d0: 078d 77bc 3cd3 6f3d 42e9 86bd 14f6 3abd
000000e0: 275f 29bd f82a 53bd eeb3 b1bd 2024 fb3c
000000f0: 56bd c23d e2a6 8a3d 1297 3cbe d6f9 99bd
00000100: 8395 93bd 0019 41be 5c2e 4bbe 6f2a f83d
00000110: b763 11bd cf08 cdbc 6591 1abe 4326 3a3e
00000120: bf1f ee3a e668 113e 54c0 1c3e 5c29 b9bd
00000130: 60eb f7bc 8d4c 03be b545 033e fc0b 033e
00000140: 380c bbbb b581 3bbe 37ff 23be d8fc 063e
00000150: 04bc 07bd f170 dabd 54f1 b4bd 0296 06be
00000160: 7aa4 1fbd 9dd4 1dbe 59d4 253e 8279 203e
00000170: 9e48 973d ae28 8c3c 9605 183e cb4d 073e
00000180: 0cd6 853b 8633 e13d 1a42 93bd 80bc a63b
00000190: 70b7 29be 695c 04be a59a 1d3e cad3 31bd
000001a0: 6497 623d c26c 46bd 9122 f13d 77dd 223d
000001b0: 5f09 e8ba ce34 d03d b034 03be 01c9 06bc
000001c0: 0fe7 273e 04b8 6cbd 9d22 1fbe 0862 8fbd
000001d0: 821c dc3d a075 7fbc 7fcd 193e f1e3 0f3d
000001e0: a004 44be f47b 9c3c d0fb acbd 288a 063d
000001f0: ca26 37be ee3a 0a3e a883 813e 1a63 933d
0.11495851 0.15885265 0.16703019 0.17580666 0.07884422 -0.040956914 0.16766296 -0.07141588
-0.0011860064 -0.16076855 0.1164558 0.06890564 -0.14693992 -0.14516479 0.048879072 0.10442155
0.06702783 -0.09754583 -0.03393549 -0.14520079 0.1610866 -0.07082286 -0.06653027 0.12712738
0.07954722 0.16740213 0.10885088 -0.10593227 0.12612002 -0.04548142 0.07125071 -0.15817551
-0.056639772 -0.04465595 -0.08337578 0.014718121 -0.1361025 0.08938338 0.04756009 -0.05817163
0.16026549 0.07300177 -0.09153488 -0.06488621 -0.04522731 -0.041941784 0.1575605 0.13761611
-0.0014253557 -0.077043064 -0.019686641 -0.077973045 -0.015109307 0.05855106 -0.06587459 -0.045644835
-0.04135051 -0.05155465 -0.08676897 0.030656874 0.09508769 0.067701116 -0.18417004 -0.075183555
-0.072062515 -0.18857193 -0.19841903 0.121174686 -0.035495486 -0.025028614 -0.15094526 0.18178658
0.001816742 0.14200172 0.15307742 -0.09041092 -0.030263603 -0.1282217 0.1281956 0.1279754
-0.0057082437 -0.18311198 -0.16015325 0.1318239 -0.03313829 -0.10666073 -0.08835092 -0.13143161
-0.038975216 -0.15413137 0.16194285 0.15671352 0.073868975 0.017109241 0.14845881 0.1321327
0.0040843543 0.109961554 -0.07190342 0.005088389 -0.16573882 -0.12925877 0.15391023 -0.04341487
0.05532016 -0.048443563 0.11774171 0.039761987 -0.0017702988 0.10166322 -0.12813067 -0.008226634
0.16396736 -0.05779268 -0.15540548 -0.0700112 0.10747625 -0.015592009 0.15019797 0.03512949
-0.1914239 0.019102074 -0.08446467 0.0328466 -0.1788589 0.13499042 0.25295758 0.071966365

linear2.weight f4 [128, 128]
00000000: 50e2 643c 2af8 af3d 4b30 b53d 87a1 783c
00000010: 6485 5e3d 58db d03c 7b1a 383d 7a0b 29bd
00000020: 4cfc 6abe 3fe6 0cbc b83c 823d b319 3dbd
00000030: cc37 1fbd 3776 22bd 483c bf3d aa60 d73d
00000040: 8bb1 1b3e 46c6 f9bc 48a8 3a3c 6fdb 92ba
00000050: 97d0 b43d e8ce bcbc 4c26 9cbc d013 63bc
00000060: 7071 703b b354 a43d 9d31 aa3d 3a5c ef3b
00000070: bf58 0cbd b925 fcbd 9b78 b43b 6198 9f3d
00000080: 5337 b0bc a0f6 cb3c d3b1 2cbb 8715 fd3b
00000090: 9e02 1c3d 53b3 edbc f572 75bd 926e 53bd
000000a0: 0a54 0e3d 67b7 3dbe 01b2 80be 9a03 0a3d
000000b0: 5820 cdbd 27c0 6b3d 3dd2 03be 0eef c43d
000000c0: 1e5f 24bd 7205 963d bfe5 61bd 5acb b3bd
000000d0: 593d 203e 93c0 4bbd 64ff 3c3c 25eb 9f3d
000000e0: f7d7 f03d 2191 34bd 76cc 5b3d d9ba a6bd
000000f0: ef05 bdb6 1da7 863d 8f69 66bd aaa4 15be
00000100: 3ac4 5c3d 816c 14bd 7cc6 4abb e316 2bbc
00000110: 90e8 873d cee1 033b d859 3b3d 6fcf 32bd
00000120: f250 863d 1537 31be d5eb bdbe 7a72 d8bc
00000130: cf18 77bc 0262 363d 5c93 89bd a0ec 66bc
00000140: efb5 71bd 02d3 513d dc3d 9fbc d960 27bd
00000150: 02d5 703d 35a9 0fbe c635 cfbc 1eca 97bd
00000160: 790d 94b9 2f3a 0c3d 266c 04be 47ad 7ebc
00000170: 7d86 35bd 3fec d2bc eb82 fabc 0100 8cbd
00000180: 9b12 24bd 731c a1bd 96d1 f3bd a0aa 223c
00000190: 62bf b83d 3821 f73c 887e e0bd 72c8 8ebd
000001a0: ccd4 dfbc 7aad 88bc 836a 2a3d 2388 4cbe
000001b0: 0f48 46bd 926c 10bd 00cf 323d 556a 5a3e
000001c0: 34a3 87bc d55a 24bd e1cd 073d 32a5 fdbc
000001d0: 9ebe 663d 0e1c 3a3d 6373 c33c e1f4 20bd
000001e0: 17ce c73c 5de2 95bd 5ebc 643d 4fab 503b
000001f0: 8bb1 9e3c d243 0abe 7e8a b7be 6ea3 693d
00000200: aaa6 b1bd 319a ffbb 939c 28bd 49be b53d
00000210: 3367 12bd 3270 453d 723b 1bbe 853e 92bd
00000220: 9fbb de3c 4473 7b3d b314 09bd 03fe 91bd
00000230: ca30 b33d d5d5 8bbc 19ee bc3d 6221 773c
00000240: 4254 bbbb 4a88 303d 65fb 23bc 8987 e53c
00000250: bf63 8f3d 3145 a93d bff1 a93d 3802 063e
00000260: cbec 51bd 3cd4 af3c abd6 813d 605f a1bd
00000270: 6981 9b3d e918 25bb fd7c c03a eee1 9ebd
00000280: 4ae1 28bc f0db 22bc d419 4f3c 5e23 8b3d
00000290: 7067 21bc acc0 acbd f856 8bbd 9a01 11bd
000002a0: 36a1 6e3d 03b6 e7bd 016b 7ebd 160d a4bc
000002b0: d9be 5cbd b3d2 d53c f80f af3b 8208 b0bc
000002c0: c086 843a dbdd a0bd 5afe a33d 3ad3 52bd
000002d0: 00e4 02bd e358 403d fdc5 8f3d 9bd1 a63d
000002e0: 5f10 67bd 38fb d33c da7b 193d 6642 25bd
000002f0: c817 9b3d 4041 543b 4b18 09bd 73f7 53bd
00000300: 51bb d0bd 937a 9e3d 281b 123d 24d8 343d
00000310: 9885 943d 79a8 bc3c 571d dabb fcbf 91bd
00000320: 810e b53d b68a e63d ed99 523c b486 873c
00000330: 089d 74bd 8098 0abc 5b7c 9ebd 6cfa c13d
00000340: c906 cfbc 10c7 963c 66ff 433d 8353 0fbd
00000350: ad1c ae3d 0e82 d93c f4cf b93c 7042 d4bc
00000360: 9b25 00bd 9c28 993d 5b62 d5bc ae6e 91bc
00000370: c8ad a93c 8eda a43b 639d 7ebc aadf 9abd
00000380: e356 1f3d 91a5 a43d d679 e73d cd44 4abd
00000390: ebfd b8bd bc84 fdbc a016 c9bd f2da 303d
000003a0: fc15 013d 3515 b33c 47af b9bd ed0b c7bb
000003b0: 777b b9bd 49a6 943d bb18 903d 5b56 a6bd
000003c0: bc04 4fbd 666d dcbc 0030 8cbd 006c 61bb
000003d0: dbbd 8f3d 5878 52bc 633a 2d3c 1a1d 643d
000003e0: 7dff 8a3c 0b8f 56bd 59b0 933d faa5 07bd
000003f0: d58b 703d 6cbe 1dbe 0f21 22be f89a 8ebc
0.013969973 0.085922554 0.08847102 0.01517523 0.05432643 0.025495216 0.04494713 -0.04127071
-0.22947806 -0.008599817 0.063592374 -0.046167087 -0.03887157 -0.03966352 0.093376696 0.10516484
0.15204446 -0.030490052 0.01139266 -0.0011204312 0.08828848 -0.02304788 -0.01906123 -0.013859704
0.0036688708 0.080239676 0.08310244 0.0073046954 -0.034264322 -0.123118825 0.0055075414 0.07792736
-0.021510756 0.024897873 -0.0026351109 0.0077235135 0.038088433 -0.029016173 -0.059924085 -0.05161912
0.034748115 -0.18526994 -0.25135806 0.03369484 -0.10015935 0.057556298 -0.12873168 0.096159086
-0.040129773 0.07325257 -0.055150744 -0.087790206 0.15648402 -0.0497442 0.011535499 0.07808522
0.11759942 -0.04408372 0.053661786 -0.08141107 -5.6333297e-06 0.06574843 -0.056253012 -0.14613596
0.053898074 -0.03623629 -0.003094106 -0.010442468 0.06636155 0.0020123604 0.04573998 -0.043654855
0.06558408 -0.17306168 -0.37093988 -0.026421774 -0.015081598 0.04452706 -0.0671756 -0.014094502
-0.059011396 0.051226623 -0.019438677 -0.040863845 0.05879689 -0.14029391 -0.025294196 -0.07411598
-0.00028238798 0.034235176 -0.1293188 -0.015544242 -0.04431771 -0.025747417 -0.030580005 -0.06835938
-0.040056806 -0.078667544 -0.1190521 0.0099283755 0.090208784 0.030167207 -0.10961634 -0.06971826
-0.02732315 -0.016684283 0.041605484 -0.19973807 -0.048408564 -0.03525979 0.04365444 0.21329625
-0.016557314 -0.040125687 0.033155326 -0.03096256 0.05633413 0.04543691 0.023858732 -0.039296035
0.024390263 -0.07318566 0.055843703 0.003184039 0.019371768 -0.13502434 -0.3584785 0.057040624
-0.08674367 -0.0078003635 -0.041164946 0.08874185 -0.03574295 0.0482027 -0.15159395 -0.07140831
0.027189074 0.061389223 -0.033467006 -0.07128527 0.0874954 -0.017069736 0.09225101 0.015083643
-0.0057168314 0.043098725 -0.010008668 0.02801873 0.07001447 0.0826515 0.082980625 0.13086784
-0.051251214 0.021463506 0.06339773 -0.078795195 0.075930424 -0.002519185 0.0014685687 -0.077579364
-0.010307619 -0.0099401325 0.012640435 0.06793855 -0.009851322 -0.08435187 -0.06803697 -0.035401918
0.05825921 -0.11314013 -0.062113766 -0.020025771 -0.053892944 0.026101446 0.00534248 -0.021488432
0.0010110959 -0.078548156 0.08007498 -0.051470973 -0.03195572 0.04695977 0.07020185 0.08145448
-0.056412097 0.025876626 0.03747163 -0.040346526 0.07572895 0.0032387525 -0.033470433 -0.051749658
-0.10191978 0.07738223 0.03567043 0.04415144 0.072520435 0.023029553 -0.0066563296 -0.07116696
0.08840657 0.11256926 0.012854082 0.016543724 -0.05972007 -0.00845921 -0.07738563 0.09471592
-0.02527179 0.018405467 0.04785099 -0.034991752 0.08501563 0.026551273 0.022682168 -0.025910586
-0.031285863 0.07478449 -0.026047876 -0.017752972 0.020712748 0.0050309366 -0.015540454 -0.07562192
0.03890122 0.08039392 0.11302535 -0.04938202 -0.09032806 -0.030947082 -0.098187685 0.043177553
0.031515107 0.021860698 -0.090666346 -0.0060744197 -0.09056752 0.07258279 0.07035967 -0.0812194
-0.050541624 -0.026907634 -0.06845093 -0.0034396648 0.07018634 -0.012846075 0.0105730025 0.055691816
0.01696753 -0.05238251 0.0721137 -0.033117272 0.058727104 -0.15404671 -0.15832923 -0.01740788

linear2.bias f4 [128]
00000000: a593 b6bc 820d afbd e6d5 a4bd 11cb fbbc
00000010: 45e5 8abc 3e10 f8bc f0ab 173c ffd7 10bd
00000020: 5217 94bd 1e67 2d3d 9224 f2bb ed57 80bb
00000030: c11b 8cbd d716 45bb 884b 613c b5f5 7f3d
00000040: 71c8 f6bb 4ece 75bd aa11 1e3d d549 983d
00000050: bee0 b6bd e8ee 133c 512c 3cbd 727c 7d3d
00000060: dbfe 43bc 27d7 6f3d f377 943c ce1e 1b3d
00000070: 09bd 2dbd dd8c b4bd 6c03 25bd 742e f73c
00000080: 6867 43bd 9a86 783d dd38 53bc 5026 d33c
00000090: 0074 8dbb ef02 123c 09e5 c9bc 7883 babd
000000a0: 4fbb 7dbd 41ab b5bc e476 0d3d fb1d 7cbd
000000b0: cd81 95bd 2bb9 bfbc b87a 45bd 30a7 da3b
000000c0: 7a14 eebc c693 debc d9db 953b 8f2c b43d
000000d0: 603e f23a cd36 adbd 065d 80bd ca15 b43d
000000e0: c579 9a3d db12 9d3d c5c0 38bd 2cd9 0bbc
000000f0: 32c6 60bd e09e a6bb 56cf 6dbd 95a0 d63c
00000100: 425a 553d d86a 9cbd d8f5 543d fa0f b13d
00000110: 76c6 e33c 1436 9c3d f78d 87bd 1ee6 b03d
00000120: a2c5 5e3b 4dad 8abd 4228 25bd 61bf d63c
00000130: 289a a93d cf99 a63d b76b 6a3d e596 9ebd
00000140: 99da 88b9 5c26 c23d 915a cf3c e6b3 453d
00000150: 0199 363d 121c eeba bf79 843d 64b3 813c
00000160: 7c29 c9bc 2810 1dbc a4dd 123d bef9 203d
00000170: 7981 c03c d0f7 20bd 6069 ebbb 9ff8 efbc
00000180: 024d 9d3d af30 4fbd 4697 04bd c789 1cbc
00000190: 2fc3 86bd 3618 2d3d 149f bb3d cef5 9b3a
000001a0: f15e 44bd 3833 58bb 3f1e 6dbd a25a 4d3d
000001b0: 985d 3b3d 4bb3 20bb 2ac5 c5bc f7e9 a43d
000001c0: 05b5 52bd 2ca3 acbd d4af d4bc 8379 00bd
000001d0: 021a d03c 69e8 b4bd 7d01 1e3d 3a09 2a3d
000001e0: 5af0 693d e41a afbd 0d05 893c c5c4 823c
000001f0: 83b2 943d a62d 20bd 0d96 54bd a4b4 99bd
-0.0222872 -0.08547498 -0.080486104 -0.030736478 -0.016955027 -0.030281182 0.009257302 -0.03536224
-0.072310105 0.04233467 -0.0073896134 -0.0039167316 -0.06841231 -0.0030073428 0.013750918 0.062490184
-0.0075312187 -0.0600112 0.038591065 0.07435957 -0.08929585 0.009029128 -0.0459407 0.06188626
-0.011962618 0.058554795 0.018123602 0.037871175 -0.042416606 -0.0881593 -0.040286466 0.030173518
-0.047706038 0.06067524 -0.012891975 0.025775105 -0.004316807 0.008911832 -0.024645345 -0.09107107
-0.06194621 -0.022176387 0.03453721 -0.06155203 -0.07300148 -0.023403725 -0.048212737 0.0066727623
-0.029062498 -0.027170073 0.004573327 0.087975614 0.0018481724 -0.08457718 -0.06267743 0.087932184
0.07542757 0.07669612 -0.045105714 -0.0085356645 -0.054876514 -0.0050848573 -0.05805906 0.026199618
0.05208803 -0.07637566 0.051992267 0.086456254 0.027804594 0.07627502 -0.066188745 0.08637641
0.003399231 -0.06771336 -0.040321596 0.026214303 0.08281356 0.081348054 0.05723163 -0.077436246
-0.0002610281 0.09479973 0.02531174 0.048267268 0.04457951 -0.0018166325 0.06468534 0.01583261
-0.024555914 -0.0095863715 0.035855904 0.039300673 0.023499237 -0.039298832 -0.0071841925 -0.029293356
0.07680704 -0.050583538 -0.032370828 -0.009554333 -0.06580197 0.042259417 0.09161201 0.0011898817
-0.047942106 -0.0032989513 -0.057890173 0.050135262 0.045743555 -0.002452093 -0.024141867 0.08052438
-0.051442165 -0.0842956 -0.025962748 -0.031365883 0.025403026 -0.08833391 0.038575638 0.041512705
0.057113983 -0.08550051 0.016726041 0.015962968 0.07260611 -0.039106034 -0.051900912 -0.075051576

linear3.weight f4 [1, 128]
00000000: b86c ebbd 28d9 8f3c 9abf bc3c f161 c83c
00000010: 48f6 3e3c ad8c 7b3b c155 23bb 4f4b 2d3d
00000020: ddd4 983c 59ca 9a3a fcd3 4fbc ace8 13bb
00000030: 3c6c 07bd 6794 5fbd b4ab 0bba dad7 36bd
00000040: f8f1 813b ccd2 5b3a 7a72 36bb d4d0 973a
00000050: ee63 53bd 2e18 33bd a23b 3c3e 1d9a c3bc
00000060: e47d 12bd cb57 de3c 0fd2 a23d e3a7 12bd
00000070: 93e8 723e a9a3 e1ba 4921 6d3b c5ad 6abd
00000080: 4096 453a f0da e739 a5e6 763d ec6d 1d3b
00000090: 48be ffb9 0aa3 a63b 1189 243d 85e6 5c3e
000000a0: 78f5 a2bc c3b2 8abc 2d63 cb3c 08f9 ffb9
000000b0: d088 7dba bfe5 423d 8278 29bb 5739 21bb
000000c0: 5f44 86bd a280 b63d 4dec e23d 1ae3 b7bd
000000d0: dcaa 44bc 705a 073e 9065 f6b9 3f58 f8bd
000000e0: fcb9 a4ba 8622 023b c02c 60ba 8376 56bc
000000f0: db01 3fbe c0ea e338 cda5 7ebd 7b98 83bc
00000100: 6e07 b33d 9be8 d53c b277 483d d6ce 8bbd
00000110: a75b 68ba 206f fbba d915 e0bd 4cd6 f73c
00000120: bd14 8fbd 9274 aa3d e049 57b9 4723 66bc
00000130: 594d 78bd baa1 943a e1a4 1bbd 27f7 403d
00000140: a67e 0b3e f79e 1e3d 58ae 03ba b03c d33d
00000150: 2014 a2bd 1e53 803d d858 343b 880c 083b
00000160: 4ca8 0f3b 0437 213b 8082 12bb dafd 1c3b
00000170: 44b8 7c3b e971 7bbd c40d 0bbb 8410 94bc
00000180: e336 22bb e32e 38bc 0dee 913d 7daf 21bc
00000190: e998 82bd 2914 cc3d 7cfb e03b ea95 9cbd
000001a0: 8f08 3cbd 14b4 ec3b 17e2 8b3d 40f7 02ba
000001b0: aa35 0e3c 47a6 60bd 9b77 cebd f9fa e83d
000001c0: 9efa ceba b27f 2abb eff2 a53d 76f4 ecbd
000001d0: bba4 293d d880 a73a 6014 053e bcab 96bc
000001e0: 34ae 433d 680f 53bb d153 633b fac1 833b
000001f0: 3a42 32bb 753f a53d 3030 1e3b 8428 df3d
-0.11495346 0.017559603 0.023040581 0.024460765 0.011655398 0.003838341 -0.002492294 0.042308148
0.018656189 0.0011809572 -0.012684818 -0.0022569103 -0.033062205 -0.054584887 -0.0005328015 -0.044639446
0.0039656125 0.0008385598 -0.002783923 0.0011582621 -0.051608972 -0.04372423 0.18382123 -0.023877198
-0.03576459 0.027141472 0.07950222 -0.03580464 0.23721533 -0.0017214912 0.003618317 -0.057294626
0.00075373426 0.00044222875 0.060278554 0.0024021817 -0.0004877916 0.0050853537 0.04016978 0.21572311
-0.01989244 -0.016930943 0.024827564 -0.00048822933 -0.0009671571 0.047582384 -0.0025859182 -0.0024600828
-0.065560095 0.089112535 0.11080227 -0.08978863 -0.012003627 0.13218093 -0.00046996446 -0.121262066
-0.0012567635 0.0019857003 -0.000855159 -0.013089779 -0.18653052 0.00010867929 -0.06216984 -0.01606392
0.087416515 0.026111891 0.048942275 -0.0682656 -0.0008863755 -0.0019182898 -0.10941667 0.030253552
-0.069863774 0.08323015 -0.00020531518 -0.014046497 -0.06062064 0.0011339702 -0.037999038 0.047110703
0.13622531 0.03872582 -0.00050232327 0.103143096 -0.07913995 0.06265853 0.0027518775 0.0020759422
0.002192038 0.0024599442 -0.0022355616 0.0023955018 0.003856198 -0.06138793 -0.0021217922 -0.018074282
-0.0024751953 -0.011241647 0.07125483 -0.0098685 -0.063768215 0.09964783 0.006865917 -0.07645781
-0.0459066 0.0072236154 0.068302326 -0.00049959496 0.008679787 -0.054846074 -0.10081407 0.11375994
-0.0015791242 -0.0026016054 0.081029765 -0.11570065 0.041416865 0.0012779487 0.12996054 -0.018392436
0.047773555 -0.0032205228 0.003468741 0.0040209265 -0.0027200119 0.08068744 0.0024137609 0.108963996

linear4.weight f4 [1, 128]
00000000: 5393 85bd 37bf 0c3d 0a02 12bc 6f29 423c
00000010: d080 4cbd 7579 61bd 7efc 403b f13b 9e3b
00000020: 6db0 ba3b 56f0 40bb 19ac a33c 39f1 0b3b
00000030: bf9b 4f3d f07a 513d ec54 ce3a dac6 873c
00000040: 1736 323c 60b1 d8b9 6df8 f0ba d8fc 2dbb
00000050: 54eb 483d 77af 963d 0302 a9bd 5c2f ff3c
00000060: 18a9 213d 3766 85bd 18d8 793e 983d 313d
00000070: c495 a13c ca00 423b 65ac 6fbd a438 3e3c
00000080: 9830 ca3a 587d 32bb de81 10bd ce8c 103b
00000090: c9ec 08bb 5d42 44bc e77c dd3d 39c4 243b
000000a0: 10d0 91bd b35c 3bbd d9a2 bbbd 6876 a9b9
000000b0: 9c70 bbba 5c57 adbc 80aa 383a cf40 3cbb
000000c0: 893f 033d c4c8 ab3a c63e 33bc e96b 083d
000000d0: 1d5b 2ebc 074c 9b3d 2003 13ba a497 73bd
000000e0: 4d07 3bbc 48a9 083b 8073 f238 7f68 3c3d
000000f0: dd68 f3bd b823 a739 984c cd3c 5c47 463d
00000100: a747 433d 253c f6bc d96e dabc 8873 10bd
00000110: 8401 46bc f36b 51bb 70e4 b13d 8b2c dd3d
00000120: fe4d f4bd a2ba 883d 7cf5 56ba 46f1 efbc
00000130: c76b 693d 29ec 043a e5c8 b33b 6a21 e53d
00000140: e330 f0bd 51be c53c 18e0 36b9 f04b 593e
00000150: 7c6a 743d 0601 74bb 5f11 eeba da1b 413b
00000160: 100d db39 384b e83a 8ec0 033b 2c40 3abb
00000170: da57 6a3a 95b0 ce3d 9720 a3ba fccb 9d3c
00000180: 7782 2cbd ac8a 38bc 8d17 43bd b362 c93b
00000190: 81fb afbd 5a73 8cbc 1f67 40bd 78a9 73bd
000001a0: f1db 44bd e9a6 1bbc 2c62 efbc 16aa 1f3b
000001b0: ba52 ab3d b198 d53c df3e 083c 27e6 063e
000001c0: e4ca 143b 003b d7b8 cd95 e8bd 9f3e 2aba
000001d0: 0686 db3d 0c06 b7ba 00c9 0c3d ed9c 7238
000001e0: 25ea 25bd 6688 65bb 9bc5 cb3d a8bd 593b
000001f0: 44bd 223b df46 043c 49d8 1ebb 4e54 5f3e
-0.065222405 0.034362044 -0.008911619 0.011850699 -0.049927533 -0.05504747 0.0029447372 0.004828923
0.005697301 -0.0029440126 0.019979523 0.0021353497 0.05068564 0.051142633 0.0015741861 0.016574312
0.010877154 -0.00041330885 -0.0018384584 -0.0026548412 0.04905255 0.07357686 -0.08252337 0.031150512
0.0394679 -0.065136366 0.2439884 0.04327163 0.019724734 0.002960252 -0.058514018 0.011610184
0.0015425859 -0.0027235355 -0.0352801 0.0022056582 -0.0020893088 -0.011978713 0.10814839 0.0025141372
-0.07119763 -0.0457427 -0.0916192 -0.0003232241 -0.0014300528 -0.02115982 0.00070444494 -0.0028725152
0.032043014 0.0013106097 -0.010940259 0.033306036 -0.01064184 0.075828604 -0.00056080706 -0.059470788
-0.011415315 0.0020852853 0.00011560973 0.045998093 -0.118852355 0.00031879335 0.025060937 0.048407897
0.047675755 -0.030057976 -0.026664184 -0.03526643 -0.012085322 -0.0031955212 0.08686149 0.107995115
-0.11928938 0.066762224 -0.0008200032 -0.029289853 0.05698755 0.0005070591 0.005486595 0.11188014
-0.117280744 0.024138601 -0.00017440354 0.21220374 0.059671864 -0.0037232055 -0.0018163136 0.0029466064
0.00041780667 0.0017722612 0.0020103785 -0.0028419597 0.00089394825 0.10092274 -0.0012445626 0.019262306
-0.04211661 -0.011263531 -0.04762988 0.006145799 -0.085928924 -0.017144848 -0.046973344 -0.05948779
-0.048061315 -0.009500244 -0.029221617 0.0024362854 0.08365388 0.026073785 0.008315771 0.13173734
0.002270394 -0.000102629885 -0.11356697 -0.00064943166 0.10718922 -0.0013963594 0.034371376 5.7843445e-05
-0.0405065 -0.0035023927 0.099497996 0.0033224616 0.002483205 0.008073538 -0.0024237803 0.21809503

linear5.weight f4 [1, 128]
00000000: 5106 bdbd c0d3 8bbd ee8d 26ba 42d4 32bd
00000010: 1e1b 23bd 672b 7e3c 4e94 103b 9586 e1bc
00000020: 1fc3 0a3c cd7e c7ba daac 303c 9721 00bb
00000030: 9876 19bd 85fe babc f8ef c539 637a c1bb
00000040: 4748 8abc 004d bd3a 0cbc 0ebb 0028 8b3a
00000050: 933f 51bd 4076 0bbe e8ce a53b 828c 89bc
00000060: b5c3 28bd 56a3 0a3d 8e72 2ebd 61e2 1dbd
00000070: 8944 cbbd 6775 cf39 ecb2 4dbd f707 7ebc
00000080: c41d d23a 72dd 333b 017a 4bbc a023 003b
00000090: 0020 f33a 85db 92bb 6b40 373d 04f9 afbd
000000a0: 46b3 2fbd 932d 81bd d3b0 293d 58c8 e83a
000000b0: b334 6a3a f6dc a83d da05 07bb c432 b83a
000000c0: e82b 0abd 61ab 30bd 0e6c eabd 1e51 eebc
000000d0: d77e 73bd 4c81 4ebd 20d6 9cb8 f226 b03d
000000e0: f432 0fbd 4cbd 1ebb 9063 983a a53e c4bd
000000f0: 6f70 22bd 00b2 64b9 7546 96bd 66c7 8bbb
00000100: b23b 8bbc 9841 323d 53e6 dd3b e0a3 35be
00000110: fa30 c53c a09b b53c e06e 003e c861 423d
00000120: 4b8c febd 3835 443c f846 1ebb 93ed 1abd
00000130: 0715 aebc 779c 29bb 8899 aabc b758 36bc
00000140: 42e4 08bc 3ef2 b53c 392a 93b9 3149 5abc
00000150: 60ac 29bd 2169 293d c0eb e13a 4cf9 9f3a
00000160: c891 a13a 00a6 62b9 e81f 36ba 6ef5 3b3b
00000170: 9854 203a 2a93 dcbc e47f 333b 5e59 793d
00000180: 9d77 fabc 9b14 48bc d307 33bb 0d00 643b
00000190: 6ac6 38bb fd17 e7bc 048a df3c d38d 743d
000001a0: ffd9 a3bc 542f bfba 980b fbbb a401 c7ba
000001b0: 3189 76bd 0e4d a2bc f09a cbbc 7070 20bd
000001c0: 60fc 573a 507c 713a a0ca 323b 344d a2bd
000001d0: 8b9c 053e 745c 0e3a 5f33 0f3c b42c c5bb
000001e0: 63e2 25bd 698c feb9 dc17 47bd cf28 b7bb
000001f0: 52ea d0ba 43f2 02bd 0e73 263b b700 d73c
-0.092297204 -0.068274975 -0.00063535466 -0.043659456 -0.039820783 0.015513278 0.0022061053 -0.027529994
0.008469372 -0.0015220285 0.0107833985 -0.001955127 -0.037466615 -0.022826442 0.0003775356 -0.005904482
-0.016880168 0.0014442503 -0.0021779565 0.0010616779 -0.05108602 -0.13619328 0.0050600655 -0.016790632
-0.041202266 0.033847176 -0.042589717 -0.03854597 -0.099251814 0.00039569588 -0.05021946 -0.015504829
0.0016030599 0.0027445224 -0.012419225 0.0019552484 0.0018548965 -0.004481735 0.044739168 -0.08592418
-0.042895578 -0.06307521 0.0414284 0.0017759902 0.00089342444 0.0824527 -0.0020602853 0.0014053215
-0.03373328 -0.04313219 -0.11446391 -0.029091414 -0.059447136 -0.050416276 -7.4785436e-05 0.08601178
-0.034960702 -0.0024221716 0.0011626352 -0.09582261 -0.039658006 -0.00021810085 -0.07337657 -0.0042657135
-0.016996238 0.043519586 0.0067718416 -0.17738295 0.024071205 0.022168934 0.12542295 0.047456533
-0.124291025 0.011975579 -0.0024151187 -0.037824225 -0.021250261 -0.0025880614 -0.020825163 -0.01112955
-0.008355202 0.022210237 -0.00028069483 -0.013323114 -0.041424155 0.041360024 0.0017236397 0.0012205034
0.0012326771 -0.0002161488 -0.00069475034 0.0028680223 0.0006116121 -0.026925642 0.0027389461 0.060876243
-0.030574614 -0.012211944 -0.0027317896 0.003479007 -0.0028194436 -0.02820968 0.02728749 0.059705567
-0.02000141 -0.0014586248 -0.007661294 -0.0015182984 -0.06018943 -0.019812133 -0.024854153 -0.03916973
0.0008239206 0.00092119444 0.0027281418 -0.079248816 0.13047998 0.00054306467 0.008740275 -0.006017292
-0.040499102 -0.0004855127 -0.04860674 -0.0055895816 -0.0015938974 -0.03196932 0.0025398168 0.026245458
