算法对比/PDQN/model/critic_model.ckpt (torch, 291262 bytes, 15 tensors)

lstm.weight_ih_l0 f4 [96, 1]
00000000: 70b5 8ebc 04d9 8cbd 2260 233e 3c87 0dbe
00000010: 7c37 d73d 26df 23be 140e 2b3e 20bd ba3d
00000020: 7c65 6bbd 30dc 5a3d a080 df3d b0d7 2a3d
00000030: e2be d6bd 4615 2c3e 2072 b73d 4c2d 2e3e
00000040: 4243 33be 8a9b 0b3e c903 45be e667 193e
00000050: 7882 8fbc 50de 763d b557 25be b896 033d
00000060: 782a b8bc 9b99 18be 90a1 bcbc 1444 58bd
00000070: 5c6f 16bd 0073 89ba 80ad 1c3e d045 0cbe
00000080: d078 8e3c 5e35 3abe 4083 60bc 28bb 1d3d
00000090: 2a84 e6bd 8060 f73c b418 d83d eb64 a7bd
000000a0: f45d 33bd 2607 023e c8e4 433e 4036 e7bb
000000b0: 9003 e0bc 64ab dabd 6085 bebd 6c06 313e
000000c0: 4042 26bc 105a 5d3d a9d0 16be 16ae 043e
000000d0: 2278 0abe 4231 8abd 347f 913d 7c44 223d
000000e0: 50c1 e73c e0fc 163e b052 1f3d a4f6 bf3d
000000f0: e0fe bbbc 043e b13d e475 97bd cac0 81bd
00000100: ac31 4bbe 007e c2b9 adc2 a2bd dfdd 18be
00000110: c97f d1bd a8f3 d03c 0e9d d9bd 04f0 82bd
00000120: ea1b 18be 3416 df3d de42 07be 60f1 733d
00000130: ac1a 44be 5455 4a3e 2b40 13be 5647 4dbe
00000140: 70f7 093e a45c 453e 4062 f1bc e499 203d
00000150: f0cb 5fbd 280a d33c 72f8 3e3e 7032 b4bc
00000160: e6da e9bd 908e 1bbc 7663 4f3e 1670 363e
00000170: a8df 783d 50b7 e6bc b0ea 9b3d 5c65 023d
-0.0174205 -0.0687733 0.1595464 -0.13821119 0.1050863 -0.16003093 0.16704589 0.09118104
-0.05746983 0.053432643 0.10913205 0.041709602 -0.10485627 0.1680499 0.089573145 0.17009467
-0.17506126 0.13633552 -0.19239725 0.1498104 -0.017518267 0.060270607 -0.16146739 0.03212616
-0.022481188 -0.14902346 -0.023026258 -0.0527993 -0.036727294 -0.0010486543 0.1530056 -0.13698506
0.017391592 -0.1818442 -0.013703167 0.038508564 -0.11255677 0.030197382 0.10551587 -0.081735454
-0.043790773 0.1269804 0.19130242 -0.0070560277 -0.027345449 -0.106772214 -0.09302783 0.17287606
-0.010147631 0.05404097 -0.14728035 0.12957034 -0.1352239 -0.067476764 0.0710434 0.039616093
0.02829042 0.14744902 0.038897216 0.09373215 -0.022948682 0.08654407 -0.07395533 -0.063356
-0.19843167 -0.0003709644 -0.07947288 -0.14928387 -0.10229451 0.02550681 -0.10625659 -0.063934356
-0.14854398 0.10892907 -0.13209102 0.059556365 -0.191508 0.19759113 -0.14379947 -0.20046744
0.13473296 0.19273621 -0.029465795 0.03920926 -0.05463785 0.025761679 0.18649462 -0.021996707
-0.11418705 -0.009494439 0.20252785 0.17816195 0.06076017 -0.028163582 0.076131225 0.031834945

lstm.weight_hh_l0 f4 [96, 24]
00000000: ebc1 e0bd a8c8 e3bc 80d9 053d 9cf3 f2bd
00000010: ecf8 d0bd 89a8 44be 18f5 743d 9802 963c
00000020: 8d6c 4dbe e003 443e 5202 8abd 2b16 1dbe
00000030: 4cad c33d 02b5 163e 1287 8dbd 48f3 903d
00000040: 8419 c53d 14c1 cc3d 6035 f13b 2f4b f1bd
00000050: e03e 513c 7813 12be 68a8 d43d 80d2 94bb
00000060: 40fc 9c3d 352b 1fbe f6bd 19be 34bf 45be
00000070: e833 3ebd 4618 d4bd 98db ad3c d41e 2d3e
00000080: 14f7 62bd e04f f53d 6454 60bd dc8a 903d
00000090: 90f7 ed3c c829 f23d 6895 cf3d 0869 493e
000000a0: 1687 16be 74c3 933d 34fc bd3d 94ef 163d
000000b0: 5014 01be 8038 57bc a29b 2e3e 884c 94bd
000000c0: 4ad9 25be 905f 813d 1031 e43c 909f 4c3e
000000d0: 222d 1dbe 562c 0abe 78c8 8d3d 20b1 12bd
000000e0: d0e2 9abc dec7 fabd cc15 9c3d 6cd4 273e
000000f0: 33e9 4bbe 6070 123e d424 ec3d 0224 1abe
00000100: d354 eabd e072 373d 3215 3cbe 4480 063e
00000110: b8ae 46be d0fa ad3d 641d 1cbe 90fe 343c
00000120: 1ce1 a63d 701b 2e3e c0c5 a93d 10d3 c63c
00000130: 4820 38be 985c fa3c 20e3 b2bd a8d9 903c
00000140: 98de 52bd 7e88 20be c0be 253c 5045 713c
00000150: 90c8 3c3c 28b2 003e 5a22 0f3e ea7e 103e
00000160: ba9d 123e fc68 293d 74cf 4ebd c072 58bb
00000170: 500e 47bd 0823 81bc 0a54 20be 549d a63d
00000180: 1c64 0f3d e045 9abc b7f3 21be ec16 eb3d
00000190: 1487 f43d c6da 113e a4b8 ca3d f01c 533d
000001a0: 0839 e2bd c061 f1bc 8677 3dbe 8082 f8bc
000001b0: 20e0 dcbd e25c e6bd 0091 95bc d97d cbbd
000001c0: 98f2 233e fa10 113e 8e35 483e e83f 213e
000001d0: 6087 53bc 1ec1 0ebe c898 98bc 4026 a1bb
000001e0: 00ec 9e39 28da c63d 98d8 953d 9e13 0b3e
000001f0: d83a 413e a05f 893c b425 ce3d 6d9e 22be
00000200: 0e0f 1c3e 3c54 68bd c401 2c3d e069 c9bd
00000210: 9022 8f3d 4438 e53d b898 333d 88d3 63bd
00000220: 18b1 423e 4016 3a3e a0f9 17bd 0eaa 2d3e
00000230: 0e1f 2d3e 583d c2bd 105c 3ebe 8ca9 0f3e
00000240: 28bc 023e b41e bc3d 9a38 29be 58fc e23c
00000250: e843 163e 40ee 03bc b435 433e 8abe e8bd
00000260: c08d be3d d0b0 04bd 0695 c0bd 98c8 043e
00000270: fcc0 3b3e b05c 1c3e b12c b6bd 5461 1ebe
00000280: 70ab a73c b6a5 503e 2ee9 b4bd 4c7b be3d
00000290: 80fe d63a f881 39bd a472 03be 1cc3 3f3e
000002a0: ee14 41be dceb 4abd 004b 4f3e c591 f2bd
000002b0: c2fa 213e 2062 3e3d 68ad c1bc fee8 223e
000002c0: 387e 043e deb1 143e 2489 303e c027 4c3c
000002d0: 6cf6 f63d b624 0f3e 6896 8a3c ecfb a43d
000002e0: c6ae 193e c059 9a3c 2c4e c53d e853 01be
000002f0: 8830 443e 030d b7bd 3cc8 6fbd 275b 10be
00000300: 7095 c03d 4888 b0bc 124f 1b3e 2025 afbb
00000310: 7211 d5bd 360f 3cbe 288a 203e 3c78 06be
00000320: b8e4 d83d aecb 3abe 7435 a0bd fc7f 3c3e
00000330: 90c4 c13c 2172 f2bd dba0 bebd fcb2 44bd
00000340: 9cbb ad3d e203 acbd c9e4 3bbe 60d1 943d
00000350: 9522 2abe 6031 323c 74a9 3a3e f22c 24be
00000360: 6ee6 3dbe 5c71 bc3d 36c5 08be c053 86bd
00000370: a03d 4ebe c817 643d f450 3f3e b8bf eb3c
00000380: d00a 483d 6af4 393e b0f9 103e 2c7d ee3d
00000390: 6ae6 433e 7451 2b3d 30f7 29be 042c cc3d
000003a0: 84f6 9bbd ecc5 9b3d 5c57 283d 90c3 693c
000003b0: 6ad7 0c3e 51fa 1fbe f00a 12be 6cf0 143d
000003c0: 2cb3 a63d 556b 3fbe 567a edbd a8be 423d
000003d0: dcf7 1e3e 1eb5 023e 4843 7c3d f043 d03d
000003e0: 050a ebbd 893e 38be 0ce4 073e ecf1 a03d
000003f0: 78e3 ca3d 7d32 44be ec90 e23d c895 833d
-0.10974487 -0.027805641 0.032678127 -0.11862871 -0.10203728 -0.19204916 0.059804052 0.018311784
-0.2006094 0.19142103 -0.06738724 -0.15340488 0.09554538 0.14717487 -0.06910528 0.07077652
0.09624007 0.09997764 0.007361099 -0.11781918 0.012771338 -0.14265239 0.103836834 -0.004541695
0.076653 -0.15543826 -0.1501387 -0.1931122 -0.04643622 -0.10356192 0.021222875 0.16906291
-0.055411413 0.119781256 -0.05476798 0.07057735 0.029048711 0.118243754 0.10135919 0.19668972
-0.14699969 0.07215014 0.092766196 0.036849573 -0.12605405 -0.013136029 0.17051557 -0.0724116
-0.1619617 0.06317055 0.027855426 0.19982743 -0.15349248 -0.13493475 0.06923002 -0.03581345
-0.01890698 -0.12245153 0.07621345 0.16389626 -0.19913177 0.1430068 0.11530462 -0.15052798
-0.1144196 0.044787288 -0.1836746 0.13134867 -0.19402587 0.08495104 -0.15245587 0.011047021
0.08148405 0.17002654 0.08289671 0.024270564 -0.17981064 0.03056173 -0.08734727 0.017681912
-0.051481813 -0.15677068 0.010116279 0.014725998 0.011522427 0.12567961 0.13977948 0.14110914
0.1431798 0.041359887 -0.05049081 -0.003302738 -0.048597634 -0.015763775 -0.15657058 0.08135477
0.03500758 -0.018832147 -0.15815626 0.114789814 0.119398266 0.14243612 0.09898499 0.05154127
-0.11046034 -0.029465556 -0.18502626 -0.030335665 -0.10784936 -0.11248185 -0.018257618 -0.09936113
0.16010511 0.14166632 0.1955168 0.15747035 -0.012910694 -0.13940856 -0.01862754 -0.00491789
0.00030311942 0.09709579 0.073167026 0.13581702 0.18870103 0.01676923 0.10065785 -0.15880747
0.15240118 -0.056720957 0.04199387 -0.09834647 0.06989014 0.111923724 0.043846816 -0.055621654
0.19012868 0.1817255 -0.037103295 0.16959402 0.16906378 -0.09484357 -0.18589807 0.14029521
0.12767088 0.09185544 -0.16525498 0.027708218 0.14674342 -0.008052409 0.19063455 -0.113644674
0.093043804 -0.032395184 -0.09403424 0.12967145 0.18335336 0.15269732 -0.08895243 -0.15466815
0.02046749 0.20375714 -0.08833538 0.09300861 0.0016402751 -0.045289963 -0.128367 0.18726772
-0.1885564 -0.04954134 0.20243454 -0.118442096 0.15818313 0.046480298 -0.023642257 0.15909192
0.12938774 0.14520976 0.17239815 0.012460649 0.1205872 0.13978848 0.016917422 0.08055863
0.15008077 0.018841624 0.09634051 -0.12629664 0.19159138 -0.08938029 -0.058540568 -0.14097272
0.09403503 -0.021549359 0.15166882 -0.005345002 -0.10403718 -0.18365178 0.15677702 -0.13131803
0.105905 -0.1824176 -0.078226954 0.18408197 0.023653299 -0.118381746 -0.093080245 -0.048022255
0.08483049 -0.08399178 -0.18348993 0.072664976 -0.16614754 0.01087603 0.18228704 -0.1603277
-0.18544933 0.09201309 -0.1335648 -0.06558943 -0.20140696 0.055686742 0.18683225 0.028777942
0.048838437 0.18159643 0.14157748 0.116449684 0.19130865 0.041825727 -0.16598201 0.09969333
-0.076153785 0.0760611 0.041098937 0.014267817 0.13754049 -0.15622832 -0.14261985 0.036362097
0.08139643 -0.18693288 -0.11595599 0.047545105 0.15524238 0.12764403 0.061587602 0.10169208
-0.114765204 -0.17992605 0.13270587 0.07858643 0.099066675 -0.19159885 0.11062798 0.06425053

lstm.bias_ih_l0 f4 [96]
00000000: 7e0f 0b3e d753 43be c08d babb ba5c 36be
00000010: 319d 11be dc7e 2e3d e0b5 c13b 423a 493e
00000020: a02e 3c3e 57cd 45be 1212 2e3e a84c 90bc
00000030: 104f 723d 23ed ddbd 789b f83c 7c97 0ebe
00000040: e608 2c3e d6da cdbd 2b6d 10be 983d 3f3d
00000050: dcae 3ebd c834 2c3e 2086 44bd 24b0 b23d
00000060: 005d c5bd 748d 1d3e e015 0c3e 280a a0bd
00000070: 1c9d eabd a2ff 1f3e 8c1f 7bbd 72d8 123e
00000080: fba4 d3bd 10f8 4abd e8a2 30bd 70cd 01be
00000090: 12f7 ccbd 447e 0bbd 3e48 cbbd c209 263e
000000a0: f479 0fbe c40d dd3d 849c c13d c4a1 2c3d
000000b0: 6558 33be 40a8 ccbc f8fd 3bbd 2493 2fbd
000000c0: 42cb 9abd 40bb 5cbd 1043 453e 5575 3ebe
000000d0: 9019 b4bc cae4 9ebd acd5 383e 7484 52bd
000000e0: 3c88 903d 7688 083e 6053 d1bc e6be 3b3e
000000f0: 74d7 873d 6fdc 2cbe a80e fc3d 3057 69bc
00000100: d8d4 69bd 6139 42be da78 033e 2ec7 0ebe
00000110: eca2 fb3d 30c8 15bd 9496 ba3d a6ef 30be
00000120: f913 26be 2869 073e c81b cabd c41e ed3d
00000130: 5329 3dbe 0044 ec3d 40a4 8abb 74ac 9dbd
00000140: 801e 03bc c6d5 273e 2ea4 333e d8aa 21be
00000150: cbb8 01be 809f 27bb 6502 0abe 2592 25be
00000160: b6df 9abd 1cc2 333e f8e7 3abe f02d 773d
00000170: eaa0 4dbe 28ae bfbc 4044 ae3d 24b8 e13d
0.13580129 -0.19074951 -0.0056931674 -0.1780881 -0.1422012 0.04260145 0.005911574 0.1965113
0.18377161 -0.19316612 0.16999081 -0.017614678 0.05915743 -0.10836246 0.03034757 -0.13924974
0.1680027 -0.10051505 -0.14104144 0.0466896 -0.046553478 0.1681701 -0.047979474 0.087250024
-0.09636879 0.15385991 0.1368022 -0.07814437 -0.114557475 0.1562486 -0.061309382 0.1434038
-0.10334202 -0.049552977 -0.04312411 -0.12676024 -0.100080624 -0.034055963 -0.099258885 0.1621466
-0.14011365 0.10793641 0.09453681 0.04214646 -0.17514189 -0.024982572 -0.0458965 -0.042864934
-0.075582996 -0.053889513 0.19263864 -0.18599446 -0.021984845 -0.07758482 0.1805026 -0.05139585
0.07057235 0.13333306 -0.025552452 0.1833454 0.06632891 -0.16880964 0.12307483 -0.0142419785
-0.05708775 -0.18967201 0.1283907 -0.13943169 0.12286934 -0.036567867 0.09110752 -0.17278919
-0.16218556 0.13223708 -0.0986858 0.11578134 -0.18472795 0.115364075 -0.004231006 -0.076989084
-0.008002877 0.16390142 0.17543098 -0.15787828 -0.12668149 -0.0025577247 -0.13477476 -0.16169031
-0.07562201 0.17554516 -0.18252552 0.060346544 -0.20080915 -0.023398474 0.085091114 0.1102145

lstm.bias_hh_l0 f4 [96]
00000000: 609e edbd e090 fe3d 80be ccbc 9a9c 03be
00000010: 26ea 293e 04ec f93d fc2d 95bd 48b5 cfbc
00000020: 1028 793d 589c 983c 008c 603c b71c 3cbe
00000030: bfea 15be 6ce7 033e 58e0 483e c891 d23d
00000040: 8419 49be 13bc 34be 1a99 06be 02c9 143e
00000050: f0b4 f23c 5019 cd3d 4177 4bbe 24ec d23d
00000060: 94cf a33d 00a3 b2ba 1cb5 863d b49d db3d
00000070: 0625 293e a058 0c3d 7825 603d 1a0e ecbd
00000080: eaf3 2cbe a224 32be 1c03 203e ca23 d5bd
00000090: c00f 13bb e06d a7bd 6d1a ccbd 14db 863d
000000a0: 4ee9 053e 00a9 2b3a 341d ffbd 3e9e fdbd
000000b0: e2d8 453e 6634 103e a403 243e 2613 4b3e
000000c0: 7a6e 303e d672 493e 2845 6e3d 449f 073e
000000d0: 4425 42be 00c5 a03d a4c9 21be 30bd 163d
000000e0: c44f 42be 7be1 fbbd d073 783d 58d8 263d
000000f0: 6867 263e 3802 4e3e c8fe f53d a88b 313e
00000100: 8888 f03d fc42 fb3d f211 1cbe 955c 35be
00000110: c015 6e3c a494 81bd c65d 393e 34c3 833d
00000120: 207c c63c 3af7 0bbe 8a31 97bd d866 fa3c
00000130: 2483 26be 8087 103e 70ac 59bd 060c 463e
00000140: 206b 353c 34b2 e8bd b2b5 3b3e 4cb1 54bd
00000150: 7a54 99bd 0c8d 2b3e f526 42be 2d16 a8bd
00000160: e070 d23d ec1e dc3d 908b a6bc 585f e63d
00000170: 2fcf 43be 78b8 d33c 64cf 8dbd 5421 ccbd
-0.11602473 0.124299765 -0.024993181 -0.12852708 0.16593227 0.122032195 -0.072841614 -0.025354996
0.060829222 0.018629238 0.013705254 -0.18370329 -0.1464033 0.12881249 0.1961683 0.10281712
-0.1963864 -0.1764987 -0.13144341 0.14529803 0.029627293 0.100145936 -0.1986971 0.102989465
0.07998577 -0.00136289 0.065775126 0.10723439 0.1651803 0.034264207 0.054723233 -0.11526127
-0.16889921 -0.17396787 0.15626186 -0.10407217 -0.0022439808 -0.08175254 -0.09965978 0.065847546
0.1307728 0.0006548315 -0.12456742 -0.12383698 0.19321015 0.14082488 0.16017014 0.19831523
0.17229643 0.19672713 0.05817142 0.13244349 -0.18959528 0.07850075 -0.15799576 0.036801517
-0.1897574 -0.12298866 0.060657322 0.040733665 0.16250384 0.20118034 0.12011486 0.17338431
0.11744791 0.12268636 -0.1524122 -0.17711098 0.014531553 -0.06327179 0.18102178 0.064337164
0.02422911 -0.13668528 -0.07382496 0.030566618 -0.16260964 0.14114189 -0.053142965 0.19340524
0.011072904 -0.113621145 0.1833103 -0.051926896 -0.07486816 0.16753024 -0.18960173 -0.08207355
0.102754354 0.107480854 -0.02033022 0.11248654 -0.19122003 0.025844797 -0.06924322 -0.09967294

linear1.weight f4 [128, 30]
00000000: 35d1 8cbd 71e7 fe3c e9be 13be 1e20 51bd
00000010: 4423 77be ce5e febc 518c 9fbd 8a86 06bd
00000020: c70e 1abe c8fd c53d 68a1 46bd 75a5 253e
00000030: 1639 5dbc b20a f5bd 3ad7 2cbe d5cf 08be
00000040: 2623 16bd a69a ecbd f605 1abd c056 7fbd
00000050: 82e3 3cbe e516 683d 1204 d23d 51f5 ba3d
00000060: 42ea b83b 345e 023e 8bb5 843e 6da0 033e
00000070: 54e7 493d 9d7b f43c 5974 e6bd cc3c e03d
00000080: 0031 f33a 2430 1d3e 6e7e 1e3e a4c1 ab3d
00000090: bc36 db3d 7c57 373e 922f c5bd d5e3 cabd
000000a0: 31bf f0bd 72fa 30be 6d87 03be 4cbf f1bd
000000b0: 2ab1 193e 01ab 1fbe 64af b33d eccc 1b3d
000000c0: 105f 923d d2c7 133e 6644 023e 0024 f7b9
000000d0: b0eb 2c3e c437 5ebd 8c05 bbbd 8c45 23be
000000e0: f0bf 8b3d 44e9 08be f8cc b6bc a084 de3b
000000f0: 3769 9cbd e7c5 a3bd bc22 c6bd 2852 88bd
00000100: 0c4c 0ebe 56b4 3dbe 7738 00be e4b6 34be
00000110: 28f1 db3d 3fbd 91bd b5a5 253d 7ab4 d0bd
00000120: 2de6 b6bb bee3 68bd 78e9 babd 000a 603c
00000130: 65f6 5ebe b262 d8bd 6983 943d c374 57bd
00000140: 27a7 1dbe e43f 3bbc a11c 103d 8520 383e
00000150: fd48 8cbd 44d4 0a3e 38ce 4fbe 76aa e13d
00000160: 2d32 27be c5cf 7e3d a843 933d 3476 a2bc
00000170: e64d 133d 0938 813d 46b7 003d c989 e2bd
00000180: 4534 82be cdd0 f13c 083e e33d b37e 5fbd
00000190: 8a6e b2bd ac7a 363e bbc1 0abd 9368 353e
000001a0: 4217 afbb ab5f fa3d 748e 3c3e 404b 0a3e
000001b0: a47b 26be 80d5 31be 5902 9c3d a003 dd3d
000001c0: c3c1 92bd 2c64 5f3e d911 23ba fac5 67bd
000001d0: 645c c3bd 9585 7ebc de38 c2bd b38d bfbd
000001e0: add7 a23d eca9 cf3d 779b 0cbe 6b17 a2bd
000001f0: 294a 073e 01ec b83d c697 d3bd cc79 e7bc
00000200: f176 8bbd f2db eb3d 2dcc 29be 6ee9 84bd
00000210: 1024 01be 7849 1b3e 1d30 ca3c 88af d83d
00000220: 4038 18be 9597 87bd 3a6e 3a3c 4392 6f3d
00000230: 066c 983d b44d 27be 3a7c babd 922c 26be
00000240: 9187 3dbe d758 d13d d653 11be 9947 49be
00000250: 5077 62bc 3dcf 9dbd 78d6 653d 51c7 4e3e
00000260: ba4b 6b3e b526 69bd 2ef8 e53d 973f 84bd
00000270: 5a53 acbd 4e6d 013e ea0a b63b 208d b53d
00000280: 1e91 d4bd 985f de3d 4e35 26be a297 25be
00000290: 9e25 4c3d 3ec2 0fbe a743 70bd d3b1 84bd
000002a0: 3252 223e 4d21 073d 083c f5bd 22eb c63d
000002b0: 572d 75be 7d27 7a3c bcae 343c 8ed6 cabc
000002c0: 6bbf c5bd c9f4 adbc b130 863d 5b1d fcbc
000002d0: 55a8 babd 8a8f 2d3e fde2 c2bc 71a0 1abd
000002e0: 3d78 4a3e 27d0 87bd 8b8b 1d3e 81af 1dbe
000002f0: 5bef e2bb 73a6 44be 3aec e23c be73 38be
00000300: 8f38 09bd 14be 09be f778 17be fa30 c93c
00000310: 5129 b0bd d77c 263d a6a8 71bd b860 e63d
00000320: eefe c7bd 9dbb c73c 9d27 2d3e 60e0 8c3d
00000330: f089 f53c 5e47 183c a6ce 24bd 1b6a 8abe
00000340: 0449 053e 15ee f2bb 238a 8a3d a334 6a3e
00000350: a35d cebc 6581 0b3e b06d 273e 21b4 1b3e
00000360: fa73 063d 651c 1d3d 78c5 14be 6fc0 8b3d
00000370: 1a0a eebc b5fd 5a3d b216 a23d 3457 a4bd
00000380: af3a 35be e35c 05bc eb83 0bbe 0e94 f73d
00000390: 4bbe 963d f9f0 223b 446c 3e3d 6d69 e5bd
000003a0: 698c f33d 3968 883c 0224 363e d593 62bd
000003b0: 3c87 9bbe b129 933c 77a6 c3ba 4045 24bd
000003c0: 7633 fa3c 27fe 873d 92c6 543e 4871 cf3a
000003d0: fe9b 713e 369f 123e 6e0a 8c3d c595 64bd
000003e0: 2140 dd3d 934d cbbd 9ee1 bcbb 5200 cebd
000003f0: 430c 333d 6115 2bbe da78 8fbd b241 92bd
-0.068758406 0.03111622 -0.14428295 -0.05105602 -0.24134547 -0.031051066 -0.07790435 -0.03284315
-0.150447 0.096675456 -0.048493773 0.16176398 -0.01350238 -0.119649306 -0.16878977 -0.13360532
-0.036654614 -0.11552934 -0.03760334 -0.06233859 -0.18446162 0.05666246 0.102546826 0.09128822
0.00564316 0.12731248 0.25919756 0.12854166 0.049292877 0.0298441 -0.1125266 0.10949096
0.0018554032 0.15350395 0.15477917 0.083865434 0.10703799 0.17904466 -0.09628214 -0.09906737
-0.11755217 -0.17283037 -0.1284463 -0.11804065 0.15008989 -0.15592577 0.087736875 0.038037226
0.07147038 0.14431694 0.12721404 -0.00047138333 0.16886783 -0.0542524 -0.09131917 -0.15944499
0.068237185 -0.13370234 -0.022314534 0.0067907125 -0.07637256 -0.07996731 -0.09674594 -0.06656295
-0.13896197 -0.18525824 -0.1252154 -0.17647892 0.10739356 -0.07116174 0.040441234 -0.10190673
-0.0055816383 -0.056857817 -0.09126562 0.013674259 -0.2177368 -0.105657 0.07251627 -0.052601587
-0.15395795 -0.011428807 0.035183553 0.17981155 -0.06849859 0.13557535 -0.2029351 0.11018841
-0.16327734 0.062209863 0.07190639 -0.019831754 0.03596296 0.06309516 0.031424783 -0.11061437
-0.25430503 0.02951851 0.11095816 -0.05456419 -0.0871249 0.17820233 -0.033876162 0.17715673
-0.0053433487 0.122252785 0.18413717 0.13505268 -0.16258103 -0.173666 0.07617635 0.10791707
-0.07165863 0.21815556 -0.0006220616 -0.05658529 -0.095391065 -0.015534778 -0.09483503 -0.09353199
0.07951293 0.10139832 -0.1373118 -0.07914623 0.13211884 0.09029389 -0.10331683 -0.02825632
-0.06809796 0.115165606 -0.16581793 -0.06489836 -0.12611413 0.15164745 0.024681145 0.10580355
-0.14865208 -0.06620709 0.011378819 0.058489095 0.07442479 -0.16338235 -0.091057256 -0.1622794
-0.18508746 0.10222023 -0.14192137 -0.19656219 -0.013822392 -0.07705543 0.056112736 0.2019322
0.22978106 -0.05692168 0.11228977 -0.06457441 -0.084143355 0.12639353 0.0055555003 0.08864808
-0.103792414 0.10858077 -0.16231272 -0.16171125 0.049840562 -0.14038941 -0.05865827 -0.0647923
0.15851668 0.032990742 -0.11974341 0.09712817 -0.23943077 0.015268204 0.011027988 -0.02476051
-0.09655651 -0.021234887 0.06552256 -0.030775717 -0.09114138 0.16949287 -0.023789877 -0.037750665
0.1977243 -0.06631499 0.15385263 -0.1539898 -0.006925506 -0.1920412 0.027700532 -0.18012902
-0.033501204 -0.13451415 -0.14792238 0.024559487 -0.086016305 0.0406464 -0.058998726 0.112489164
-0.09765421 0.024381453 0.16909643 0.06878734 0.029973 0.009294359 -0.040236138 -0.27034077
0.13016135 -0.0074136355 0.06764629 0.22871642 -0.025191134 0.13623579 0.16350436 0.15205432
0.032825448 0.038357157 -0.14528453 0.06823813 -0.029057551 0.05346461 0.07914485 -0.08024445
-0.17698167 -0.008139822 -0.13624541 0.12088786 0.07360514 0.002486287 0.04648997 -0.11201749
0.118920155 0.01665126 0.17787173 -0.055316765 -0.30376613 0.017964216 -0.001492693 -0.040105104
0.030542117 0.066402726 0.20778874 0.0015826607 0.23594663 0.14318547 0.06837927 -0.055806894
0.10803247 -0.099269055 -0.0057642004 -0.10058655 0.043712866 -0.16707374 -0.070054725 -0.07141437

linear1.bias f4 [128]
00000000: 5eb6 adbb ead3 053e 40b1 07be 5732 bd3d
00000010: 9c41 2fbe f639 f5bb c339 353e 4125 2cbe
00000020: a7fe 1e3e f0f9 2e3c cc85 a13d 66a6 79bb
00000030: 1c94 37bd e9e8 32be 6915 cb3d 9e16 b5bc
00000040: 8f8d e83d 5069 12bd 34b6 633b cb1a fbbd
00000050: 8a64 063d eb6e 0b3e ce15 32be 4ce8 543c
00000060: 354c f33b f1fe 12be e890 32bd 4845 b43d
00000070: 28bd 00bd 166c 5cbd 7c71 d63d e1c6 41bd
00000080: a728 ccbc 1682 173e 922c bd3d 7694 6dbd
00000090: 4dfb 0d3e 1331 e63d 105f 40be 3cb9 c7bd
000000a0: e9c1 9b3c 8013 07be 2fe0 5c3d 1b83 acbd
000000b0: 4f89 1dbe 12c9 173e 500a 97bd aa65 373d
000000c0: 4af4 39be 66c9 1c3d 544b 2c3e 3e18 043e
000000d0: 0b07 45bd 7ee3 0f3e 384d 383d ccac 79bd
000000e0: d268 283e ffd1 fbbd df1e 003e 90c5 8b3d
000000f0: b4db 103e 3628 b53c a93e d9bd 0f67 08be
00000100: 5deb 35be c962 a53b 33cc fcbd dfd6 04be
00000110: a97e 3d3e 4e32 1d3d c962 b5bd 795e 25be
00000120: b30a 913d 5121 08bb bc36 e33d edb0 313d
00000130: 62e7 45bd 4028 7fbd 5357 26be 18d7 1b3e
00000140: a54b bd3d d417 da3d 5556 0e3e 987f e73d
00000150: c551 8f3d c04b 39be 8161 b8bd 3e3e f53d
00000160: 2f88 e1bd 2d8c 993c 9d0c 283d 516e 32be
00000170: db49 eb3d 0e5c 0b3e b66f 33be fcaf e13d
00000180: 0da7 c63d 353d 9a3d 4395 babd 5591 0abd
00000190: 232e 14bd a9f5 813d 16f1 993d 50be 57ba
000001a0: 50e3 c4bd db1b d33d cad7 7e3b 91a4 ffbd
000001b0: f6bd 033e 4cd5 27be 1e79 7fbd 672f 68bc
000001c0: 6254 18bd b579 20bd bccf 343d d7e3 d2bd
000001d0: 3784 e13d 80c5 23bc bce8 7ebd 8641 51bd
000001e0: 3841 5bbd c2f6 28be 4b0f 21be b39d d5bd
000001f0: d1eb 1a3e 9195 01bb 9f6a cfbd 72bd cebd
-0.005301281 0.1306912 -0.1325121 0.09238117 -0.17114872 -0.007483716 0.17697816 -0.16811086
0.1552683 0.010679707 0.07886848 -0.0038093566 -0.044818982 -0.1747166 0.09916193 -0.022105511
0.11355125 -0.035744965 0.0034746053 -0.1226097 0.032810725 0.1361653 -0.1739113 0.012994837
0.007424856 -0.14355065 -0.043595225 0.08802277 -0.031430393 -0.053814016 0.10470864 -0.047308806
-0.024921728 0.14795718 0.09237017 -0.05800291 0.13865395 0.11239829 -0.18786263 -0.097521275
0.019013362 -0.13191032 0.053924736 -0.08423444 -0.1538441 0.14822796 -0.07375014 0.04477469
-0.18159595 0.038278006 0.1682561 0.12899873 -0.04810242 0.14051625 0.044995517 -0.060955808
0.16446236 -0.12295913 0.12511776 0.068247914 0.1414631 0.0221139 -0.106076546 -0.13320564
-0.17765565 0.0050471765 -0.123436354 -0.12972592 0.18505348 0.038378052 -0.088567324 -0.1614932
0.07082119 -0.0020771811 0.11094424 0.04338162 -0.048316367 -0.062294245 -0.16244249 0.1521877
0.09242944 0.10649076 0.1390012 0.113036335 0.06998018 -0.18095303 -0.090029724 0.119747624
-0.11012303 0.018743599 0.041027654 -0.17424895 0.11488696 0.13609335 -0.17523083 0.110198945
0.09699831 0.075312056 -0.09110501 -0.033830006 -0.036176812 0.06345684 0.075166866 -0.0008229958
-0.09613669 0.103080474 0.0038885945 -0.124825604 0.12865433 -0.1638996 -0.062371366 -0.014171458
-0.03718985 -0.03917857 0.044143423 -0.10297363 0.11011546 -0.009995818 -0.06223367 -0.05108788
-0.053528994 -0.1650038 -0.1572849 -0.10430469 0.1512902 -0.0019772986 -0.10127758 -0.100947276

linear2.weight f4 [128, 128]
00000000: f798 6f3d f4bd 7bbd 91cc 2f3d 6eda d6bd
00000010: ef13 d9bc 0078 bf3c c753 3f3e 29ae b9bd
00000020: 35cd 66bd c93f ab3d 4eb4 71bd f34c 4dbc
00000030: 5fa5 95bd cc7d 1c3e c653 173e bfe4 e13b
00000040: 945d 0fbe 22e9 6abd 8a09 243d 94a7 0dbc
00000050: de6e 3f3c 7040 a1be aac6 b93d 384f 1d3c
00000060: 0cd7 30be eb62 65bd 375b 53bd 2a15 a3bd
00000070: 2ce6 133c 5856 9fbe 7664 aebd 6837 3f3d
00000080: a8d7 013e 5c83 e93c 82ca 80bd 2940 8c3d
00000090: 1b69 aebb 1226 863d d56a b03c 9e53 6eba
000000a0: 3533 ef3b 79f7 0dbe 0f41 453e 286e 5d3c
000000b0: a1f4 8e3d 14e4 d83d ae58 143c 07c2 84be
000000c0: f871 983d 01f7 22bd 588b 253c de01 ecbd
000000d0: c51c 5dbd 665e 733b 4bb7 38bd 2e80 7ebc
000000e0: c992 8abd 00f4 1d3a 2407 9dbd c3d2 b93d
000000f0: 3559 9dbe 6205 cd3c 7619 0e3d 41e8 cabb
00000100: 33cd adbd ce66 143d a602 d0bc 74f8 de3c
00000110: 4254 88bd b6e4 f5bd 1d9f b73d abcc f73d
00000120: c7da 253d 56b2 29bc bb6d f5bd 06f0 8b3b
00000130: 8b20 e53d 8813 99bd 1571 c5bd d8f0 823d
00000140: 2898 17bd d890 a43c 8f1e cc3d a5c1 52bd
00000150: 12b0 a0bd dcf0 7abd 00a5 9f3c c9c7 05bd
00000160: af73 fcbd 1ae8 3a3c d0f7 173e c6a4 e2bb
00000170: ebbf a33b fe27 2dbd 4a0c 483d c81a 963d
00000180: 2009 6bbd 0af9 2b3d 60d4 a1bc e1d4 3a3e
00000190: 4f04 f53d 2a31 81bd 47bd 32bd 035c 21bd
000001a0: a8f1 78bd 50ca 4fbe 01b2 de3d 9bbc f53d
000001b0: a6c3 91bd 69f1 b63c 1059 003d 36f1 82bc
000001c0: fa9b 473d f431 febb 0dc7 5bbd 721d 9d3d
000001d0: 88db 333c 51cd d4bd 8e64 72bd 45ae dd3c
000001e0: c831 563c 1055 ea3b 3d6d ee3c 6984 b0bd
000001f0: c902 163c 2fd3 e6bd 25a8 0bbc 5ae9 57bd
00000200: a79a a8bd 041b 0fbd 1cdc f2bd 10e5 36bd
00000210: 1cf4 a2bb ede4 82bc db3a 6abd 31c5 b53c
00000220: 3942 503d 19c9 aabd 302c cfbb 8959 823d
00000230: 3862 453d c62c 0dbd 721a 87bd fc93 803c
00000240: e4d3 34bd 034c 9a3d 9d5a 6c3b 1bcd 40bd
00000250: 7c46 9d3b a127 013d 89d4 f5bc 0901 803d
00000260: fe63 f83b 9c9c e1bd dc86 11bd 27fe b33d
00000270: 2227 253c 3571 783d 9af9 153d 068c 7e3d
00000280: a672 c9bd 68d4 993c 04b5 e4bd a40d 51bd
00000290: 0a98 dbbc 8417 563d dcec 223d e8f0 aebd
000002a0: 1308 e1ba 9e44 aabc a04c bcbd 3c42 76be
000002b0: 2ce7 0c3d 73cc 4f3d 92b7 143d edba 0bbd
000002c0: e017 84bd 8e6c 0b3d 17dc ac3d 00d2 d53c
000002d0: 1d7c 5cbd 329f f6bc 0161 0f3c b609 69bd
000002e0: 8c01 3b3b 0c47 b13c d742 3ebc 2876 a53d
000002f0: 5cbb 363e 9a89 b8b8 a3be 76bc 41c9 9c3d
00000300: 3b33 8dbc 94a7 debc 3aeb b8bd b2f1 6438
00000310: 11f8 12bd f61c 3bbe d182 28bd afac 4ab9
00000320: 6e1c 713b f341 dcbd 255b 42bd 5752 d33d
00000330: 49dc bd3d 2ed6 19bd 6a49 1bbd 3e5f 093e
00000340: ab57 183d cc8d a6bd 6e71 6dbd 98a2 12bd
00000350: 7bcc b6bd bec3 4c3d 1350 fa3c 99e2 e6bb
00000360: 21a0 613d 85fe 9c3d 349d 28be 6fc1 34bd
00000370: 1815 aa3d 364a 723d 5f38 b13d 64da a8bd
00000380: 5913 8b3d 34eb f7bd 0e3c 73bd f474 063e
00000390: 6f1a 383d 59e9 803d 4658 b3bc e516 23be
000003a0: e01d 0f3d 673e be3c a78c 43be dff7 58bd
000003b0: 405e 083d 108d 6d3d ad9e 80bd 5062 bcbc
000003c0: be28 a3bd f35a 693d f309 75bd b55b 9dbc
000003d0: 6379 a13d 4bf2 713d 6070 663c 179c 8c3d
000003e0: db21 b03d 1e61 a3bd 973d 7dbd 7566 07bd
000003f0: 7015 0dbd 7897 f1bd d797 583c 1300 993d
0.058495488 -0.06146045 0.0429197 -0.10490881 -0.026498763 0.02337265 0.18684302 -0.090664215
-0.056348044 0.083617754 -0.059009843 -0.012530553 -0.07306933 0.15282363 0.14778051 0.0068937237
-0.14000541 -0.05735124 0.04004816 -0.008645911 0.011684148 -0.31494474 0.09071095 0.009601407
-0.17269534 -0.05600254 -0.05160066 -0.07963021 0.009027045 -0.31120563 -0.08515255 0.0466837
0.12679923 0.02850502 -0.06288625 0.06848175 -0.005322588 0.0655023 0.021535316 -0.00090914394
0.0072998055 -0.13863935 0.19263099 0.013515033 0.06980253 0.105903774 0.009054346 -0.2592928
0.07443613 -0.039786343 0.010104023 -0.11523794 -0.053982515 0.0037135123 -0.045096677 -0.01553349
-0.06766278 0.00060254335 -0.076673776 0.09073403 -0.30732122 0.02502698 0.03469225 -0.0061922376
-0.08486404 0.036230855 -0.025391888 0.027218081 -0.06656696 -0.12006514 0.08965895 0.12099584
0.040491845 -0.01035746 -0.1198382 0.0042705564 0.11187848 -0.074744284 -0.09640709 0.063935935
-0.037010342 0.020088598 0.09966766 -0.051454205 -0.07846083 -0.061264858 0.019487858 -0.032661233
-0.123267524 0.011407876 0.14840627 -0.006916615 0.0049972436 -0.042274468 0.048839845 0.07329327
-0.05738175 0.04198555 -0.019754589 0.1824527 0.119637124 -0.063082054 -0.04363754 -0.03939439
-0.060777336 -0.2029202 0.10873795 0.11998864 -0.07117395 0.02233191 0.031334937 -0.015984159
0.048732735 -0.0077574197 -0.053656626 0.07671632 0.010977633 -0.103907235 -0.059177928 0.027060637
0.013073392 0.0071512535 0.029104823 -0.08619005 0.0091559375 -0.11270749 -0.0085239755 -0.052712776
-0.082326226 -0.034937873 -0.11858389 -0.044652045 -0.0049729478 -0.015978301 -0.057185035 0.022188755
0.050844405 -0.083391376 -0.006322406 0.06364734 0.04818937 -0.034466527 -0.06596841 0.015695564
-0.044147387 0.07534029 0.0036064752 -0.047070604 0.004799662 0.031531934 -0.030008571 0.062501974
0.0075802794 -0.11016199 -0.035529003 0.0878871 0.010080131 0.060654838 0.03661499 0.062145256
-0.098363206 0.018778041 -0.111673385 -0.0510384 -0.026805896 0.05226852 0.039776668 -0.08542043
-0.0017168544 -0.020784672 -0.091943026 -0.24048704 0.03440015 0.050732087 0.03630788 -0.034113813
-0.06449866 0.034039073 0.08440416 0.026101112 -0.0538293 -0.030105207 0.008751155 -0.056894027
0.0028534858 0.021640323 -0.011612616 0.08079177 0.1784491 -8.799434e-05 -0.0150601 0.07655574
-0.017236343 -0.027179517 -0.09029241 5.4584532e-05 -0.035881106 -0.18272766 -0.04114038 -0.00019328551
0.0036790627 -0.10754766 -0.047450203 0.103184395 0.09270532 -0.037557773 -0.03791181 0.13415238
0.03719298 -0.08132514 -0.057969503 -0.035799593 -0.0892572 0.04999136 0.03055576 -0.0070460555
0.05508435 0.07665733 -0.16466218 -0.044129785 0.083048046 0.059152804 0.0865333 -0.0824478
0.067908 -0.12105408 -0.059383444 0.13130552 0.044947084 0.062945075 -0.021892678 -0.15926702
0.0349406 0.023223115 -0.19096623 -0.052970763 0.03329301 0.057995856 -0.06280265 -0.022996098
-0.07966755 0.0569715 -0.05982394 -0.019208768 0.07884481 0.05906896 0.014064878 0.06865709
0.086002074 -0.07977508 -0.061826315 -0.033056695 -0.034444273 -0.117964685 0.013219795 0.07470717

linear2.bias f4 [128]
00000000: 74b5 13bd 4509 9abd 140a 423d 0297 663d
00000010: 6972 e23d e564 bf3c 03d4 713d 1a12 54bd
00000020: 8eaa 603d 0a66 673d cc3b 1f3d d0ed e3bc
00000030: 557c e63d f339 67bd 0b14 053d 0121 483d
00000040: f3b1 123b 39be aabd 5d37 1dbd 469b 70bd
00000050: 98fb b33d 6385 393b da46 febb f71b 9cbc
00000060: f1e9 19bd 677d ebbc 50ee 17bd 5856 eebb
00000070: e2a3 50bd fc82 673d 8d06 853d 4137 8d3d
00000080: 2585 f7ba 3837 af3c 02b5 b33b a9b5 b9bd
00000090: ba03 d2bc d590 3ebd 5124 8a3d 726e 233d
000000a0: d37c 533d b246 5f3d bce2 bbbd a8ca 713b
000000b0: 6432 a3bc 6fcb 933b e94c 23bd 3549 673d
000000c0: 4c36 b0bc 7020 2c3d a909 24bd 222b 27bd
000000d0: ed00 4a3d b579 98bd 042e 89bd a0d6 a8bc
000000e0: 2cbb 56bd fe47 fcbc d5b1 95b8 aa23 62bd
000000f0: 0599 1a3d 3b8c 6d3d fa62 383c 02cc d2bd
00000100: 35c9 2c3d 52a6 11bd 5e06 41bd 80bb c43b
00000110: 511c faba 1aa1 1b3d f847 ba3b e3ec 663c
00000120: ca7c 91bb 67ec adbd 4bb2 b3bc fbae 8f3d
00000130: 4cda 3cbd 92f7 4d3d 678e 85bc ad97 81bd
00000140: 2425 e23c 66ba 74bd 64b0 8fbd b503 b33d
00000150: 41ab 2d3d 613c 683d c806 8ebd 9dcb e1b9
00000160: ddaa b5bd 3991 0e3d 49c2 2d3d 5231 d33d
00000170: ce87 583d 7b06 15bd bf6a 51bd 9d4c 623d
00000180: 0975 2abd 6a05 f23d 7161 49bc 7e4f 49bd
00000190: ad1f 5fbd 3529 86bd 18a4 c93d 1264 473c
000001a0: bc09 d13c 333d b53d c8a1 28bd 1900 443d
000001b0: 81db 9bbc b544 9f3c 0a34 b53c 5acd dd3d
000001c0: d922 94bc 3dd9 cb3d 0c24 06bd 8cff e93b
000001d0: 4555 3abd f1bb 8cbd f01c 753d 11fc b4bd
000001e0: d5d3 103c 6403 e73c ba46 13bd c1bd ce3c
000001f0: eaa1 383d b29e 80bc c806 303d 30e6 32bd
-0.03606172 -0.07521299 0.047372892 0.056296356 0.11056978 0.02336354 0.05904008 -0.051775075
0.054850154 0.056493796 0.038875386 -0.027823359 0.11254183 -0.05645175 0.032489818 0.0488596
0.0022383898 -0.08337063 -0.038382877 -0.05874183 0.08788222 0.0028308264 -0.007759911 -0.019056303
-0.03757662 -0.02874632 -0.037092507 -0.0072734766 -0.05093754 0.0565214 0.0649539 0.068953045
-0.0018884285 0.021388635 0.0054842243 -0.09067852 -0.025636543 -0.04652484 0.06745208 0.03990025
0.051632714 0.05451078 -0.091741055 0.0036894474 -0.019921489 0.004510335 -0.03986827 0.0564663
-0.021510266 0.042023122 -0.040048275 -0.04081262 0.04931729 -0.07445089 -0.0669823 -0.020610154
-0.052424595 -0.030796047 -7.1379975e-05 -0.055209793 0.037743587 0.057995062 0.011254067 -0.10292818
0.042184073 -0.035559006 -0.047125213 0.006003797 -0.0019081925 0.037995435 0.005684849 0.014094564
-0.004439925 -0.08492356 -0.021935603 0.07015797 -0.04610662 0.05028493 -0.016303254 -0.06327758
0.0276056 -0.059748076 -0.07016066 0.087409414 0.04239965 0.056698207 -0.06934887 -0.00043067048
-0.0887048 0.034806464 0.042421613 0.103121415 0.05286389 -0.036383133 -0.05112719 0.055248845
-0.04161552 0.11817439 -0.012291298 -0.049148075 -0.054473568 -0.06550828 0.098457515 0.012169855
0.025517337 0.088495634 -0.04116991 0.047851656 -0.019025566 0.019441942 0.02211954 0.10830183
-0.018083023 0.09953544 -0.03274922 0.0071410593 -0.045491476 -0.068717845 0.05984205 -0.0883714
0.008839567 0.028199859 -0.035956122 0.025236966 0.04507629 -0.015700672 0.042975217 -0.043676555

adv1.weight f4 [128, 128]
00000000: 8974 40bd 5de7 88bb 0abe d53d de76 edbd
00000010: 3c8a 3f3d 0408 b43d bb1e c03d a6af 7d3d
00000020: defa 16bd 0046 95bd f803 bd3a f904 833d
00000030: bbce 11bd ea0e ed3c eab7 43bd 5ab5 63bd
00000040: c14d 3cbd 0967 aebd 144b 69bd 894b 08bc
00000050: 4742 08be f359 54bd 40df 44bd 6e7c 15bd
00000060: cd63 98b9 bd48 feb9 ff6b 903d eb76 b8bd
00000070: 9ec6 123b 3fd1 68bd e0a9 a4bc 33dc 7dbd
00000080: 5430 6b3d 441e 873c e9b4 8bbd 958d 65bd
00000090: 7c33 293d 9670 453d b8f8 c3bd 291b fb3c
000000a0: f43f 8a3c eea1 8c3d df24 debd f8e7 6abd
000000b0: 2f2f 63bd acd6 973c 4275 903b 5517 a73d
000000c0: 5c0f 353d c7f8 01be f6cb 7f3d 6cba 1a3d
000000d0: c420 e6bb 806a 05ba 3d03 643a f4e3 22bd
000000e0: 2df7 cfbd 0f11 7d3d 7f09 75bd d2d1 65bd
000000f0: 4a29 f6bc 2588 ca3c af78 92bd bdf3 9dbd
00000100: a8c0 f03c 8613 5e3d 06a7 82bd c82c 65bd
00000110: 992e 50bd 7e84 c6bc b1ac 0ebe a835 01bc
00000120: 8382 ed3d 9a6f 273d 1ffd ae3d f690 afbc
00000130: acfe a9bd fb2d 04bd 006b 5aba 1eba 6fbd
00000140: 40df bdbb c201 2e3d b018 9ebd a48c 1f3d
00000150: abef 94bd 19b4 493d edcc ac3d 8811 3fbc
00000160: a850 9a3d 2b9c 28bd 72df c2bd 2dd4 ab3d
00000170: 8007 aebd 1c87 be3d 4ed3 a2bd 5004 383c
00000180: 76d3 dfbc 809b c5bc 42b0 2a3c 6406 623c
00000190: e7fc b03d d936 bebc cc46 abbd e53b 7d3d
000001a0: 9083 eb3c 4af0 d9bd 3abc 85bd 27ef 4a3d
000001b0: 2db3 05bd 5403 bbbc 0dd5 07bc 4dea c7bc
000001c0: 92b3 ed3c 4bb9 0f3b b2f3 44bc cfb9 0bbc
000001d0: 595a a13d ceb1 a5bd a6f2 64bd 415f b13d
000001e0: 2b1b 86bc 4a0a b33c 1298 dbbd 424f 4f3d
000001f0: ab7f 293d f424 87bd 3f19 3f3c a3dc a6bd
00000200: dab1 14be c309 1c3d f246 f73c e23e 79bd
00000210: 34b8 bfbc b20d 29bd 9e81 bd3d 9d7f 433d
00000220: bc5b 9abd be93 153d c23f ccbd b5ef 833d
00000230: aad9 cdbd 5011 913d 6d42 6ebc 05d9 8fbd
00000240: fe8b 64bd 927c 5dbd 538a 03bd 6a31 c0bc
00000250: b744 dcbc f00a a3bd 5e85 2e3b 25c0 8d3d
00000260: 7b39 d0bb ad65 53bd 1460 403d 5fdb 993d
00000270: 71b5 5a3d da11 27bd 0eac 25bd b3e6 babc
00000280: 438e 23bd cbed 4a3c dbdd 493b a9dd 363d
00000290: cbf6 72bc abc1 9abd 2f74 a43c 4f8c fe3b
000002a0: 789f a3bd 52c9 0e3c c965 873d 3ae8 913c
000002b0: 669d 63bd 9778 143d c62c 493c 5ba2 a23d
000002c0: 5ef4 213d 15ee b8bd 2ad7 be3c a9db a93d
000002d0: 6f86 193d 480c 55bc 5d63 953d 0c20 91bd
000002e0: 8b50 983d 382e 1e3d aac1 f73c f45b 0bbd
000002f0: ae4c 863d afab 4d3d a510 91bd 502f 063d
00000300: 85e2 8d3d bdbe f4bd 3a8d 853d 8e70 323d
00000310: b0d5 0d3d f9ba d53c f7d1 6dbc 8db2 403b
00000320: 8876 65bc accd 3fbd 10e1 d8bd 5bdd e1bd
00000330: d024 2f3c ac11 b23d ca3f 36bd 9d50 42bc
00000340: 1c30 b4bd d98b 893d 8bc3 5d3c 126b 3fbe
00000350: e22c 63bc add0 f5bd a870 eabd 5344 933d
00000360: bdea 3f3d b4f9 373d 44ce 493d d5d6 183d
00000370: 5a51 92bc 10ff 513c 7b25 423d e810 503c
00000380: 0cff b23d e816 bdbd c420 88bd 67ea e93b
00000390: 0280 3f3d 3fd1 d2bd 8265 d73c a27a 4eba
000003a0: b295 733d 1cf7 db3b 8d5e c1bd ddc1 ecb9
000003b0: 12ac a7bd 0398 94bd 089b 703d e28b 08bc
000003c0: a86f c43c 1448 d63c 09d2 75bc b07d 2fbc
000003d0: 675f b33d abed babd e4f1 793d 7a13 c2bc
000003e0: 5ba5 763d 07c5 263d 942d 3abd 4b82 81bb
000003f0: c0cf 7b3c faa6 29bb bafc 163d 407c 8c3c
-0.046986137 -0.0041779713 0.10436638 -0.11594938 0.04676269 0.08790591 0.09380861 0.06193509
-0.03686034 -0.07288742 0.0014420738 0.06397433 -0.035597544 0.028937776 -0.047782816 -0.055592872
-0.04597259 -0.08515746 -0.056956366 -0.00831879 -0.13306533 -0.051843595 -0.04806447 -0.03649562
-0.00029066057 -0.0004850085 0.070518486 -0.09007057 0.0022396217 -0.056840178 -0.020100534 -0.061977576
0.057419136 0.016493924 -0.06821615 -0.056043226 0.041308865 0.048203073 -0.09568924 0.0306526
0.016876198 0.06866823 -0.10846876 -0.05735013 -0.05546492 0.01853498 0.0044085095 0.08158747
0.0442041 -0.12692557 0.06245037 0.037775442 -0.007022949 -0.0005089417 0.00086979923 -0.039768174
-0.10154567 0.061783846 -0.05982351 -0.056108303 -0.030048985 0.024723122 -0.07151925 -0.07712505
0.02938874 0.054217838 -0.063795134 -0.05595091 -0.05082569 -0.0242331 -0.13933064 -0.007886328
0.11597159 0.040877916 0.08544373 -0.021431427 -0.08300528 -0.032270413 -0.0008331984 -0.058527105
-0.0057944357 0.042482145 -0.077195525 0.038952485 -0.072722755 0.04924402 0.08437524 -0.011661895
0.07534915 -0.04116456 -0.09515275 0.08390079 -0.08497524 0.09303114 -0.079504594 0.011231497
-0.027322512 -0.024122 0.010418 0.013795469 0.08641987 -0.023219513 -0.08363113 0.061824698
0.028749257 -0.106415346 -0.06530042 0.04954448 -0.03264158 -0.022828735 -0.008290541 -0.024403716
0.02901629 0.0021930512 -0.012020992 -0.008528187 0.078785606 -0.08090554 -0.05589547 0.08660746
-0.016370377 0.021855492 -0.107223645 0.050612696 0.04138152 -0.06598845 0.011663734 -0.08147552
-0.1452097 0.038095247 0.030185197 -0.060850985 -0.023403265 -0.041272826 0.09253238 0.047729123
-0.07537028 0.03651785 -0.09973098 0.06442205 -0.10051282 0.0708338 -0.014542204 -0.07023815
-0.05579757 -0.054073878 -0.032114338 -0.023461062 -0.026888235 -0.079610705 0.0026629786 0.06921414
-0.0063545085 -0.051610637 0.046966627 0.07512545 0.053395692 -0.04078851 -0.040447287 -0.022815084
-0.039930593 0.012385796 0.0030802402 0.044644985 -0.014829348 -0.075564705 0.020074932 0.007768191
-0.079894006 0.008714991 0.06611211 0.01781093 -0.05557003 0.036247816 0.012278741 0.07941123
0.039539687 -0.090297855 0.023295958 0.0829385 0.03748172 -0.013003416 0.07294343 -0.070861906
0.07437237 0.038618296 0.030243713 -0.03402324 0.06557594 0.05021256 -0.07083253 0.032759964
0.06927971 -0.11950443 0.065210775 0.04356437 0.034627616 0.026090132 -0.014515392 0.00294033
-0.014005311 -0.046827003 -0.10589802 -0.11028548 0.010689929 0.08694777 -0.044494428 -0.01186004
-0.08798239 0.06716127 0.013535391 -0.18693188 -0.013865681 -0.12002692 -0.11447269 0.07190766
0.046854723 0.04491587 0.049268976 0.037314255 -0.017861057 0.012817159 0.047399025 0.012699343
0.087400526 -0.09232885 -0.066468745 0.0071385386 0.046752937 -0.10293817 0.02629352 -0.000787655
0.059468932 0.0067128073 -0.09441862 -0.00045157867 -0.08187117 -0.072555564 0.0587416 -0.008334132
0.023979023 0.026157416 -0.01500369 -0.010711119 0.08758431 -0.09127363 0.0610217 -0.023690928
0.06021629 0.040715244 -0.045453623 -0.0039522997 0.015369356 -0.002588688 0.036862113 0.01714909

adv1.bias f4 [128]
00000000: c4f9 b1bb b5cf 69bd d92c 82bd ace1 bf3c
00000010: 162b 01be 6c96 503d ff97 673d d5db 9fbc
00000020: f2be 433d ba6a 79bc e4ad 003c 1af4 dabd
00000030: e11d 5abd 4475 163d 4fea 6fbd 3e5e eabc
00000040: 8861 c5bd b7a9 e2bb 2f26 bbbd cdd5 f9bd
00000050: 26fd 113d 133e aebd b96e a53d a31a 3e3c
00000060: 89f3 d1bd 84d5 8bbd 1278 9dbd 6152 9ebd
00000070: 805b a2bd d953 c0bd ac8c e4bd 21ec c7bd
00000080: 752a b5bd c516 c43c 7213 7dbd 529b 9dbd
00000090: 0a99 dcbc 4747 033d 808c b6bc f724 863d
000000a0: b933 56bd ee9a 283d 8daf 97bc ddfb 883c
000000b0: b75a 85bd 7b44 bebd 4f35 72bd b4c9 9cbd
000000c0: c13b cdbd 8947 42bc 3826 aabd 793f ffbd
000000d0: a1dd 793c b0f6 d9bb 81a9 19bd 32ea 033c
000000e0: 9a52 8cbc 4ab3 61bd 4c3f 433d 213b 6bbd
000000f0: cc8f 283d 3e01 6ebd 99d6 07bc 415e a3bd
00000100: 16d3 7ebd b9b4 3a3c 2086 52bd 98b9 00be
00000110: 683d 00bd 20cc 84bd a06c 933c 54eb e43c
00000120: 5a25 e2bd ee28 bd3b edf4 9ebd e2ce b2bc
00000130: eafa 33bc 38df 963c 9abf a0bd b2d1 fdbd
00000140: b109 e93c f146 2bbd 4aa4 ca3c 3e53 c8bd
00000150: 8d77 9fbd c8aa ed3c 4d36 3c3c 529b c7bd
00000160: a387 78bd 9c6e b7bd f7d7 aebd dc5e 91bd
00000170: f1e4 723c d1d6 5fbd 865d 4e3b 9a72 9abd
00000180: bb0d 96bc 921a 5fbd 8918 853d 6231 10be
00000190: 888a 23bd 6ca6 bb3c bd4c 343a dcd6 03bd
000001a0: 3bfa 08bd 9dec 863c a41b 303b b46e 93bd
000001b0: c8c8 693d c4a1 29bc 8672 03be d893 9bbd
000001c0: 8ddd e1bd a650 de3c 875d 7abd e404 573d
000001d0: 14a7 2abb 9326 c4bd b07e 6fbd 6264 0f3d
000001e0: 61a6 a0bd 2407 c2ba 258d 76bd 95cf 8d3d
000001f0: 8168 ce3a de33 c8bc 7b34 40bd e688 f9bc
-0.0054313857 -0.05708285 -0.0635621 0.023423038 -0.12614092 0.050924703 0.05654144 -0.019514004
0.04778952 -0.0152231995 0.007853959 -0.1069109 -0.05325115 0.036732927 -0.058573063 -0.028609391
-0.09637743 -0.0069172042 -0.09138142 -0.121989824 0.03564181 -0.085079335 0.08077759 0.01160303
-0.10251529 -0.06827834 -0.07688917 -0.07730556 -0.079276085 -0.09390993 -0.111596435 -0.09761835
-0.08845989 0.023936639 -0.061786123 -0.076956406 -0.026928443 0.032050397 -0.022283792 0.06550019
-0.05229542 0.041163377 -0.018516326 0.01672166 -0.06511443 -0.09290405 -0.05913287 -0.07655659
-0.10021163 -0.011857876 -0.08308071 -0.12463278 0.015250594 -0.006651722 -0.037515167 0.008051442
-0.017129231 -0.055102624 0.047667786 -0.057429437 0.04115276 -0.058106653 -0.00829091 -0.07976962
-0.062213026 0.011395627 -0.051397443 -0.12570798 -0.03130856 -0.06484246 0.017996132 0.027944244
-0.110422805 0.0057727015 -0.0776156 -0.021827165 -0.010985116 0.018416986 -0.07849045 -0.12393512
0.028447004 -0.041815702 0.024736542 -0.09781502 -0.077864744 0.029012099 0.011487556 -0.09746422
-0.06067623 -0.08956644 -0.08537286 -0.07098171 0.014825092 -0.054648224 0.003148885 -0.0754139
-0.018317094 -0.0544687 0.0649882 -0.14081338 -0.039927036 0.022906505 0.000687789 -0.032187328
-0.033441763 0.016470248 0.0026871944 -0.07198849 0.057076246 -0.010353509 -0.12836656 -0.07596558
-0.110285856 0.027138066 -0.06112435 0.0524949 -0.0026039528 -0.0957767 -0.058470428 0.035007842
-0.07844234 -0.0014803153 -0.0601932 0.06924359 0.0015747697 -0.024438795 -0.04692505 -0.030460786

adv2.weight f4 [121, 128]
00000000: 5b8e a9bd e3c8 dd3c 08bb 523b c85b baba
00000010: 028c 983d 2888 acba f4e7 cfbb 2997 c538
00000020: 0eb8 4dbd 3b39 b9ba 5d61 bfbb d0cb 61bc
00000030: f01b 713a cc27 d9bb a006 023c 35f2 1fbc
00000040: a481 a1bb 5fec 1b3c 96c0 be3b 7c99 bdbb
00000050: 5c29 a73c 7004 91ba b2b3 05bb 7064 5e3d
00000060: b7c2 e239 2956 47bd 806f 27bd a05b 83bb
00000070: 83f3 7dbb dca0 43bc dabb 1cbd 6728 e5bc
00000080: d450 323b 6cce 0ebb 8193 fd3c 66bf c0bb
00000090: 2e6d 1ebb e035 9a3c 2025 c7ba 8c07 203c
000000a0: b520 f9bb 3458 05bd 077e cdbc 030f 11bc
000000b0: 3405 f43b 613a ffbb 7b80 863d a8f3 a23d
000000c0: e65d 123c 0df7 cfbd b714 aabc 8a07 7e3d
000000d0: b2af c1bb 00b7 253d 9e92 8a3b 7efa 7a37
000000e0: a047 9b3d 5154 06bc 3685 b03c d760 8c3c
000000f0: 860e e2bc 4148 163a d291 ac3c deae 83bb
00000100: 1e76 a4bc 4328 3abc e408 fa39 1045 b13c
00000110: 4b82 0b3d 6ce3 183c 69a8 10bc d91c 95bc
00000120: 1be5 e2bb 56e0 62bd 26cc 833a de9e 823b
00000130: 4231 0f3e 40a6 1f3d a172 17bb 0ac1 2cbd
00000140: 56b9 653c 72f4 b83c 4482 283c 9f32 ba3c
00000150: 1c51 0fbc 04ae e9bb 3aec afba 936a f8bb
00000160: 12a9 4d3c a37c e2bd 336b ba3c d2f5 28bc
00000170: db32 463c 7900 df3b cc84 2abd 6c9d 78bd
00000180: 6c2b 78bc 7988 cabc 9d72 173c 5e49 f7bb
00000190: 0d88 f3bb 1654 3fbc 6cc4 65bc 67f3 7e3b
000001a0: 2d2a dc3b f1a5 d1bc 66de 41bc d97d de39
000001b0: 716f b5bb 00a4 bcbc 3c2a ad3a c4f8 5bbb
000001c0: 1325 2b3c 3641 74bb d06d 123c 18d5 1ebd
000001d0: 21fe d5bc 0c0c 2fbd 804f e8ba 121b b1bb
000001e0: 040c bb3b 6693 2fbd 484b e23a d45f 103a
000001f0: 6c2a 83bb d7ed b7bc 5c53 debd 549f 6f3c
00000200: ab3a 1abc ee7c da3c 38a0 1cbc fabe 08bb
00000210: ac50 a23d 9294 dd3a 21af 023c 3cd0 6bbc
00000220: 3e04 c5bd dd25 77ba 6556 05bc bc11 9cbb
00000230: 07c6 30bb 03cc ce3b 748e bd3b 060a 853c
00000240: bbe4 d5bb dd58 343d 733e 973b 1728 20bc
00000250: b142 063c 1c73 af3c 5e50 433b ea22 b73b
00000260: 2f75 123c 20f2 783c 4024 e23b db68 3cbb
00000270: 602f 913a 9352 8a3c 9cf5 f13c 9499 183d
00000280: c94f 1fbd da06 423b b4dc ccbc 515c 823c
00000290: 36b8 c7ba bf71 a83c 666a 1a3b 8a56 093c
000002a0: 3c81 11bc e5d8 f1bc dbee d6bc 3ca8 963b
000002b0: 8d43 863c 4c95 f13a 1080 a03d afab 98bb
000002c0: 8929 0c3c 9cd1 41bd fb9e c9bc b519 56bb
000002d0: 55f8 973b d307 5b3c e641 6fbb afbc b23b
000002e0: 062a 04bd b4a9 c1bc 9c5b d73c c088 183d
000002f0: 75e6 e3bc 1cdc e8bb 4a50 96bc 5926 b5bb
00000300: 5ff6 93bc f5c4 cdbb 99fd 4fb9 3f11 06bc
00000310: 86e3 8abc 3b8b 063c e317 83bc 21ef 963d
00000320: c8f6 d2bb e3a1 4bbe 91ca 84bd 94af 0c3c
00000330: 2a6c a53d 5cee a33d 8642 893b 214e 0d3a
00000340: b5fb ce3b faa7 a83c 0137 78bb 7ed5 aabc
00000350: 6311 f83b 04ed 8cbc 393d 39bc b054 94b9
00000360: be2e 173c c554 b03d 13e4 85bd 6cce 26bb
00000370: 2489 423c 83ff a03c efbf 5fbd e896 3fbb
00000380: cd56 18bd 1cd4 e8bc ddde 813b 4e90 12bc
00000390: 4701 523b cdf9 963b ee07 163c 5f3b 0e3b
000003a0: 5f9f 243d a581 e3b8 eaa4 513c 2944 23bc
000003b0: 7a90 7ebc 315a 09bd e80d adbc 3b14 20bc
000003c0: 6921 fa3b 2a23 39bc 5443 2c38 04a0 ca3c
000003d0: 690e 12bd ce66 753b 9a11 09ba 5aa3 eabb
000003e0: b468 3dbc c049 b7bd 3156 03bc e09e 0a39
000003f0: 34fb 19bc 6c8a 61bc 2cec 4bbd b309 823c
-0.08279105 0.02707333 0.0032154936 -0.0014218027 0.07448579 -0.0013163136 -0.0063447896 9.421848e-05
-0.050224356 -0.0014131436 -0.005840464 -0.013781503 0.00091975834 -0.0066270586 0.00793615 -0.0097623365
-0.0049287844 0.0095168045 0.005821298 -0.005786119 0.020405464 -0.0011063945 -0.0020401296 0.054295003
0.00043251153 -0.048666153 -0.04087782 -0.0040087253 -0.003874988 -0.011940207 -0.038265087 -0.027973367
0.0027208822 -0.0021790517 0.030954124 -0.0058821915 -0.0024173963 0.018824518 -0.0015193559 0.009767424
-0.007602776 -0.03255482 -0.025084509 -0.008853677 0.0074469093 -0.0077889417 0.065674745 0.0795663
0.00893352 -0.10154543 -0.02076183 0.06201891 -0.005910837 0.040457726 0.004228904 1.4959483e-05
0.07582021 -0.008198814 0.021547895 0.01713602 -0.027594816 0.00057328126 0.021065626 -0.0040186485
-0.020075854 -0.011362138 0.0004769034 0.021639377 0.034059804 0.009331565 -0.008829215 -0.018202232
-0.006924284 -0.055389725 0.0010055348 0.0039862236 0.13983634 0.038976908 -0.0023109096 -0.042176284
0.014021238 0.022577498 0.010284964 0.022729216 -0.008747365 -0.00713134 -0.0013421841 -0.007581064
0.012552517 -0.11058929 0.022756195 -0.010312514 0.012097086 0.0068054763 -0.04163055 -0.060697004
-0.015147071 -0.024723278 0.0092436345 -0.007546588 -0.00743199 -0.0116777625 -0.014023881 0.0038902403
0.006718895 -0.025591822 -0.011832809 0.00042436903 -0.0055369665 -0.02302742 0.0013211439 -0.0033565024
0.010445851 -0.0037270314 0.008937314 -0.03877744 -0.026122155 -0.0427361 -0.0017723888 -0.0054048384
0.0057082195 -0.04286518 0.0017264867 0.00055074436 -0.00400286 -0.022452278 -0.10855743 0.014625389
-0.009413402 0.0266709 -0.0095596835 -0.0020865784 0.07925543 0.0016905239 0.007976324 -0.014392909
-0.0961995 -0.00094279443 -0.008138274 -0.0047628563 -0.0026973502 0.006310941 0.005784804 0.016240131
-0.006527511 0.04403006 0.004615599 -0.009775183 0.008194611 0.021417193 0.0029802541 0.005588879
0.008939072 0.015194446 0.006901294 -0.0028749022 0.0011076741 0.016885078 0.029536061 0.03725584
-0.03889445 0.0029606135 -0.025007583 0.01591316 -0.0015237394 0.02056205 0.0023561954 0.008382449
-0.0088809095 -0.029522369 -0.026236942 0.004597692 0.016389633 0.0018431335 0.07836926 -0.004659138
0.008554825 -0.04731904 -0.02461194 -0.0032669131 0.004637758 0.013368565 -0.0036507784 0.0054546217
-0.03226664 -0.023640491 0.0262888 0.03723979 -0.027819851 -0.007106317 -0.018348832 -0.005528253
-0.018061815 -0.0062795826 -0.00019835531 -0.008182823 -0.016954195 0.008211906 -0.016002601 0.07369829
-0.00643811 -0.19885974 -0.06483949 0.008586783 0.08077271 0.08004448 0.0041888384 0.0005390365
0.006316627 0.02058791 -0.0037874582 -0.020853754 0.007570432 -0.017202862 -0.0113061005 -0.00028291857
0.009227453 0.086099185 -0.06537642 -0.0025452627 0.011873517 0.019653087 -0.0546264 -0.0029234234
-0.037192155 -0.028421454 0.003963335 -0.008945538 0.0032044218 0.0046074153 0.009157164 0.0021702868
0.04019105 -0.00010848352 0.012795666 -0.009964981 -0.015537376 -0.03353328 -0.021124795 -0.009770448
0.0076333773 -0.011299888 4.10707e-05 0.024734505 -0.035658274 0.003744531 -0.0005228758 -0.0071605863
-0.011560608 -0.089496136 -0.008016155 0.00013219891 -0.00939827 -0.0137659125 -0.049785778 0.015873766
