TDQN/Sliding/TDQN+SA+buffer/model/actor_model.ckpt (torch, 85963 bytes, 10 tensors)

lstm.weight_ih_l0 f4 [96, 1]
0	0x3d22eed4	0.039778545
1	0xbe010758	-0.12600458
2	0x3e2336a6	0.15938815
3	0xbe14693a	-0.14493266
4	0x3d7a7db0	0.06115502
5	0x3b094180	0.0020943582
6	0xbe20568e	-0.15658018
7	0x3da04f6c	0.078276485
8	0xbe3233d2	-0.1740258
9	0x3de1dec4	0.11028817
10	0xbd857b64	-0.065176755
11	0xbe382943	-0.1798449
12	0x3e46299e	0.19351813
13	0x3e4b1f94	0.19836265
14	0xbd1ef45c	-0.038807258
15	0xbd39ffd8	-0.045410007
16	0xbd35d4b4	-0.044392303
17	0x3c1ecdb0	0.009692594
18	0x3e373340	0.17890644
19	0xbd083c60	-0.033260703
20	0xbe342b29	-0.1759459
21	0x3e055cb0	0.13023639
22	0x3db8f24c	0.090305895
23	0x3c7d8490	0.0154735
24	0xbe1f351d	-0.15547605
25	0xbc0ebc30	-0.00871186
26	0x3e1ad15c	0.15118927
27	0xbe045875	-0.12924369
28	0x3e18dd96	0.14928278
29	0xbcea27c0	-0.028583407
30	0xbd74968c	-0.059713885
31	0xbe42922a	-0.1900107
32	0xbe315787	-0.17318545
33	0x3d8381fc	0.06421277
34	0xbdb50426	-0.08838682
35	0x3dd1d1fc	0.102451295
36	0xbc0224a0	-0.007943302
37	0x3d37ce98	0.044874758
38	0xbe0d947d	-0.13826175
39	0xba142100	-0.00056506693
40	0xbe50e0b7	-0.20398222
41	0x3e470cee	0.19438526
42	0x3de90a98	0.11378974
43	0x3e40c958	0.18826807
44	0xbe3ed787	-0.18636905
45	0x3e28a5ac	0.16469449
46	0xbd0c5164	-0.034257308
47	0x3d0d5b40	0.03451085
48	0xbe03ebf6	-0.1288298
49	0x3e2888c4	0.16458422
50	0xbdefbfa1	-0.11706472
51	0x3e0c4e7e	0.13701817
52	0x3d8209e0	0.0634954
53	0x3c14b070	0.009075269
54	0xbdb3f118	-0.08786219
55	0xbe103aef	-0.14084981
56	0xbe2015bd	-0.15633292
57	0xbd4863cc	-0.0489233
58	0xbd78dacc	-0.060755536
59	0xbe40bf33	-0.18822937
60	0x3d973b9c	0.073844165
61	0x3df92f50	0.12167227
62	0x3e381e68	0.17980349
63	0xbe2cc334	-0.16871339
64	0x3d0ccb18	0.034373373
65	0x3e3b370a	0.18282714
66	0xbe178b90	-0.14799333
67	0xbdeb0983	-0.114764236
68	0xbddd605b	-0.10809394
69	0xbe465813	-0.19369535
70	0x3cd1dfe0	0.025619447
71	0xbcd36110	-0.025803119
72	0x3e2fe65a	0.17177716
73	0x3de87fe4	0.11352518
74	0xbdb333fc	-0.087501496
75	0xbe328575	-0.17433722
76	0xbddb649c	-0.10712549
77	0x3d93de28	0.07220107
78	0x3d9900f0	0.07470882
79	0xbe33db2d	-0.17564078
80	0x3e182c44	0.14860636
81	0xbd5a79a4	-0.05333866
82	0x3e360ad0	0.17777562
83	0x3dabf56c	0.0839642
84	0xbd3029b4	-0.04300852
85	0xbcc406d0	-0.02392903
86	0x3d57c240	0.052675486
87	0x3e2f798e	0.17136213
88	0xbd6cb0a4	-0.057785645
89	0xbe01d79a	-0.12679902
90	0x3e3178c2	0.17331222
91	0x3e2e7492	0.17036656
92	0x3d8c0474	0.06836787
93	0x3dd7f9c0	0.10545683
94	0xbe4004c7	-0.18751822
95	0x3dfe8a6c	0.124287456

lstm.weight_hh_l0 f4 [96, 24]
0	0x3cf1c030	0.029510587
1	0xbd679e04	-0.05654718
2	0x3e181f1a	0.14855614
3	0x3d536b48	0.051615983
4	0xbdd12d96	-0.10213773
5	0xbe4b49af	-0.19852327
6	0x3e16d824	0.14730889
7	0xbdf02303	-0.11725428
8	0x3da98460	0.08277202
9	0xbd96bf76	-0.07360737
10	0x3e1c863c	0.15285581
11	0x3e1e284c	0.1544506
12	0xbe01617a	-0.1263484
13	0x3d36fcc4	0.04467465
14	0xbdc47c56	-0.09594028
15	0x3e2c8a64	0.16849667
16	0x3c349980	0.011022925
17	0xbdecb4e2	-0.11557938
18	0xbd2e254c	-0.042516038
19	0x3d94d174	0.072665125
20	0x3e2d5704	0.16927725
21	0xbdb1d3d8	-0.08682984
22	0xbe0e756f	-0.13911985
23	0xbe3eb2e8	-0.18622935
24	0xbc1843a0	-0.009293467
25	0xbe24ea5e	-0.16105029
26	0x3e2b2b84	0.16715819
27	0xbe32d665	-0.17464598
28	0xbcf75d48	-0.030195847
29	0x3e28a77e	0.16470143
30	0x3e389e20	0.1802907
31	0xbd8c29b2	-0.0684389
32	0x3dcbcdb8	0.09951347
33	0xbe33ec06	-0.17570505
34	0xbda1fcc0	-0.07909536
35	0xbe35ccd6	-0.1775392
36	0xbdde0f7b	-0.108427964
37	0x3dbfe66c	0.09370121
38	0x3e1974b8	0.14985931
39	0xbe0b7d74	-0.13622075
40	0xbe127a45	-0.14304455
41	0xbb3f7040	-0.0029211193
42	0xbe200757	-0.156278
43	0x3d930b28	0.07179862
44	0xbd9c58ca	-0.07634123
45	0xbe101aa2	-0.1407266
46	0xbe0f7564	-0.14009625
47	0x3de8ee00	0.1137352
48	0xbd82ab9c	-0.06380388
49	0xbe0b6911	-0.13614298
50	0x3dbf66cc	0.09345779
51	0x3e49108e	0.19635221
52	0x3df79fa0	0.12090993
53	0x3d3bfa00	0.045892715
54	0xbe3ecf17	-0.18633686
55	0xbceb6318	-0.028733775
56	0xbe3a4d94	-0.18193656
57	0x3e456962	0.19278482
58	0x3e2d6420	0.16932726
59	0xbd97b08a	-0.07406719
60	0xbdcbeab6	-0.09956877
61	0x3e21b1a0	0.15790415
62	0x3cce8288	0.025208727
63	0x3dfe7b98	0.124259174
64	0xbe1ce29a	-0.15320817
65	0xbbe49580	-0.0069758296
66	0xbc9e6ef8	-0.019340023
67	0x3e1ba4a4	0.15199524
68	0x3d039f08	0.032134086
69	0x3df6da58	0.120533645
70	0xbdd6805f	-0.104737036
71	0x3cf110d8	0.029426977
72	0x3c2b1e10	0.010444179
73	0xbe1b4422	-0.1516271
74	0x3d3d9dc8	0.04629305
75	0xbe1ae1b8	-0.15125167
76	0xbe3a77ea	-0.18209806
77	0xbe271821	-0.16317798
78	0xbe33fae1	-0.17576171
79	0xbe28b9f2	-0.16477183
80	0x3dc3f910	0.09568989
81	0xbdea34ea	-0.11435874
82	0x3da933b0	0.08261812
83	0x3e117230	0.14203715
84	0xbe43f39e	-0.19135901
85	0x3e1f348e	0.15547392
86	0xbd09385c	-0.033501014
87	0xbe2f7132	-0.17133024
88	0xbe017a62	-0.12644342
89	0xbe07bcb8	-0.13255584
90	0x3db13f74	0.08654681
91	0xbd5f297c	-0.054482922
92	0xbcedb898	-0.029018685
93	0xbd1de560	-0.038548827
94	0x3e1b554e	0.1516926
95	0x3d933fb8	0.07189888
96	0xbe1e7885	-0.15475662
97	0xbddeb8a2	-0.1087506
98	0x3d276038	0.040863246
99	0x3e3eb8e4	0.18625218
100	0x3b833300	0.0040038824
101	0x3e3ae1e4	0.18250233
102	0xbe48f450	-0.19624448
103	0x3de5ffdc	0.11230442
104	0x3dc1e86c	0.09468159
105	0x3e320c2e	0.17387459
106	0xbd8096ae	-0.0627874
107	0xbdd4f63b	-0.10398527
108	0xbddcf8da	-0.10789652
109	0xbdbf389f	-0.093369715
110	0x3dd0c6d0	0.101941705
111	0xbc51ad80	-0.012797713
112	0xbbe47120	-0.0069714934
113	0x3df7029c	0.120610446
114	0xbe0fa075	-0.14026053
115	0x3da78b18	0.08180827
116	0xbddd45ef	-0.108043544
117	0xbdcde7b5	-0.1005396
118	0x3d896140	0.06708002
119	0xbdaae286	-0.08343987
120	0x3c04f5d0	0.008115247
121	0xbcfe9090	-0.031074792
122	0x3ded98fc	0.11601445
123	0xbdce54b2	-0.10074748
124	0xbd5ff7c4	-0.054679647
125	0xbdc175f8	-0.09446329
126	0xbe20d0ed	-0.15704699
127	0xbd332874	-0.04373975
128	0x3e39541a	0.18098488
129	0xbe278b69	-0.16361775
130	0x3dc67d74	0.09691897
131	0xbd341b50	-0.04397136
132	0x3e261ddc	0.16222328
133	0x3df0e45c	0.11762306
134	0xbcdd26b0	-0.026995987
135	0xbdba1426	-0.09085874
136	0x3df685f8	0.12037271
137	0xbc743f20	-0.014907628
138	0x3e2725f4	0.16323072
139	0xbce7ee90	-0.028311998
140	0xbe497cd9	-0.19676532
141	0xbdf9a967	-0.12190514
142	0x3d822a8c	0.063557714
143	0x3e3ef960	0.18649817
144	0xbc838040	-0.016052365
145	0x3c4d90a0	0.012546688
146	0xbdac47e5	-0.0841215
147	0xbb8c2960	-0.004277393
148	0x3d3fc5b0	0.04681939
149	0x3e266acc	0.16251677
150	0x3e1a7728	0.15084517
151	0x3d0ed3cc	0.034869954
152	0xbd96d268	-0.073643506
153	0x3dd1539c	0.10221025
154	0xbc817618	-0.015803382
155	0xbdac8e85	-0.08425621
156	0xbe0ae6a0	-0.13564539
157	0x3e3fef9a	0.18743744
158	0xbe032746	-0.1280795
159	0x3cd9c0c8	0.026581183
160	0x3e1205e2	0.14260057
161	0x3e48dd6c	0.19615716
162	0xbd1d722c	-0.03843896
163	0x3d722268	0.059114844
164	0xbe012181	-0.12610437
165	0xbc952210	-0.018204719
166	0x3d0f3d04	0.0349703
167	0x3e079e72	0.13244036
168	0xbe3036a4	-0.17208344
169	0xbdea210d	-0.11432085
170	0x3ddf04e0	0.10889602
171	0xbdc5925e	-0.09647058
172	0xbe247c9b	-0.16063158
173	0xbdb706a8	-0.089368165
174	0xbcad7408	-0.021173492
175	0x3e4a85ee	0.19777653
176	0x3df7ec10	0.12105572
177	0xbd2be734	-0.04196854
178	0xbe335640	-0.1751337
179	0xbdfc381e	-0.12315391
180	0xbe0fa3d4	-0.14027339
181	0xbd39e618	-0.04538545
182	0xbd543dd8	-0.05181679
183	0x3d7d8c18	0.061901182
184	0xbdc99299	-0.098424144
185	0xbd92ba12	-0.07164396
186	0x3de2e0d4	0.11078039
187	0xbdbca10a	-0.09210403
188	0xbcebbf40	-0.028777719
189	0x3de56060	0.11200023
190	0x3e1d4ec0	0.15362072
191	0x3d4f56a0	0.05061972
192	0xbd8c4a88	-0.06850153
193	0xbda5d6f7	-0.08097642
194	0x3db173f0	0.086646914
195	0xbb116f00	-0.0022191405
196	0x3e2f6e70	0.17131972
197	0xbda93308	-0.082616866
198	0xbe331b8f	-0.17490982
199	0x3d1b3bc8	0.03789881
200	0x3c3a8ef0	0.011386618
201	0x3e35e7b0	0.17764163
202	0xbd9f1702	-0.0776806
203	0xbd52dc80	-0.051479816
204	0x3dbbf1b8	0.091769636
205	0x3e3c5602	0.18392184
206	0xbca1fe90	-0.019774705
207	0xbdf504a2	-0.11963774
208	0x3de4772c	0.11155543
209	0x3e050120	0.1298871
210	0xbc8df4d8	-0.017328665
211	0x3d45f388	0.048327953
212	0x3d3e7430	0.046497524
213	0x3d2f0488	0.04272893
214	0x3def2a5c	0.11678001
215	0x3b8bb640	0.0042636693
216	0x3d1bc634	0.038030818
217	0xbdc183a1	-0.09448934
218	0x3dcdb824	0.10044888
219	0xbe21e466	-0.15809783
220	0xbe1c8dac	-0.15288419
221	0xbe200494	-0.15626746
222	0x3de02ffc	0.10946652
223	0x3d2b367c	0.041800007
224	0x3ca8e570	0.020617217
225	0x3ddfe59c	0.109324664
226	0x3dda4dd0	0.10659373
227	0xbdb7e579	-0.08979315
228	0x3e25d97a	0.16196242
229	0xbd3c2f30	-0.04594344
230	0xbdf5ecfe	-0.12008093
231	0x3ddd2230	0.107975364
232	0x3d943324	0.07236317
233	0xbd54a118	-0.051911443
234	0x3e447e42	0.19188789
235	0x3c869be0	0.016431749
236	0x3e020c06	0.12699899
237	0xbdcaa09b	-0.09893914
238	0xbdceaa81	-0.10091115
239	0x3d6328c0	0.055458784
240	0x3c025210	0.007954136
241	0xbe4070bd	-0.18793006
242	0xbdfdc0f5	-0.12390319
243	0x3cb908e8	0.022587255
244	0x3e0b5b56	0.1360906
245	0x3e1c76da	0.15279713
246	0x3e3f1e42	0.18663886
247	0x3d2c518c	0.042069957
248	0x3c499f10	0.01230599
249	0xbd5ba7f8	-0.053626984
250	0x3bcfa460	0.0063367337
251	0xbe3f3726	-0.18673381
252	0x3e0d30cc	0.13788146
253	0x3dce0314	0.10059181
254	0xbcf3f418	-0.029779479
255	0x3bc45e40	0.005992681

lstm.bias_ih_l0 f4 [96]
0	0x3b1e65c0	0.0024169534
1	0x3e2a126c	0.1660859
2	0xbe218e38	-0.15776908
3	0x3dc87610	0.09788144
4	0x3e286ccc	0.16447753
5	0x3c87beb8	0.016570434
6	0xbd06572c	-0.032797977
7	0xbd6a750c	-0.05724053
8	0xbd7621e8	-0.06009093
9	0xbe38d0ca	-0.18048397
10	0xbd02dd30	-0.031949222
11	0xbe007633	-0.1254509
12	0xbdd92f77	-0.10604756
13	0x3cc8de90	0.024520189
14	0x3c2d1f20	0.010566503
15	0xbe2edc1f	-0.17076157
16	0xbda32b6e	-0.07967268
17	0x3e50f248	0.20404923
18	0xbe042a10	-0.1290667
19	0xbd94c63a	-0.07264371
20	0x3dbe3a80	0.09288502
21	0x3cc40790	0.023929387
22	0xbe330e7f	-0.17485999
23	0x3d03d778	0.03218791
24	0xbd9bc63e	-0.07606171
25	0x3dd8be08	0.105831206
26	0xbdf06040	-0.11737108
27	0x3e134f08	0.14385617
28	0xbd884020	-0.06652856
29	0x3ca0e998	0.019642636
30	0x3d6886c0	0.056769133
31	0xbd65d148	-0.05610779
32	0xbe47f5c0	-0.1952734
33	0xbd730014	-0.059326246
34	0x3df15668	0.11784059
35	0x3e3d6cea	0.18498579
36	0xbde277d4	-0.11058012
37	0x3d3c51b0	0.04597634
38	0xbe0d219b	-0.1378235
39	0xbdf37711	-0.118879445
40	0xbe136ab4	-0.14396173
41	0x3dc440e8	0.095826924
42	0x3e2518ee	0.16122791
43	0x3e16ef1e	0.14739653
44	0xbe28ce5a	-0.16484967
45	0xbe04843c	-0.12941068
46	0xbd94809a	-0.07251091
47	0x3e0de086	0.1385518
48	0x3de53524	0.111917764
49	0xbe2dd2dc	-0.16974968
50	0xbe16b4a7	-0.14717351
51	0x3c6d8430	0.014496848
52	0x3d1e0420	0.038578153
53	0x3e2a8d38	0.16655433
54	0xbe24d33a	-0.16096202
55	0xbdca94eb	-0.09891685
56	0xbe4f258b	-0.20229165
57	0x3e171e86	0.14757738
58	0xbe39c5a0	-0.18141794
59	0x3e07a8b2	0.13247946
60	0xbdf8f483	-0.12156012
61	0x3cb7fd70	0.022459716
62	0x3e168030	0.14697337
63	0x3de0d200	0.10977554
64	0xbaf34d80	-0.0018562526
65	0x3e12985c	0.14315933
66	0x3d44b0e0	0.048020244
67	0xbdfb2db3	-0.12264576
68	0xbcca5c10	-0.024702102
69	0xbce335b0	-0.027735561
70	0xbe0e4ca2	-0.1389642
71	0xbc99a2a8	-0.018754318
72	0xbc8e4348	-0.017366067
73	0xbe4f7694	-0.20260078
74	0x3d014390	0.031558573
75	0xbda7e205	-0.08197407
76	0x3d971da4	0.073787004
77	0xbd06bfc0	-0.03289771
78	0x3df8ca38	0.12147945
79	0x3d99b6cc	0.07505569
80	0x3cf76e38	0.030203924
81	0xbdd73071	-0.10507286
82	0xbbd73380	-0.0065674186
83	0xbe34f638	-0.1767205
84	0x3e33cc04	0.17558295
85	0x3e3aac1a	0.18229714
86	0xbd2e7c54	-0.042599037
87	0x3e40a1b2	0.18811682
88	0x3e113e92	0.14184025
89	0x3d1b9094	0.037979677
90	0xbd624998	-0.055245966
91	0x3dcf6b44	0.10127881
92	0x3e323240	0.17401981
93	0xbd355204	-0.04426767
94	0x3d421ce8	0.04739085
95	0x3dcc0d74	0.099635035

lstm.bias_hh_l0 f4 [96]
0	0x3e23ba76	0.15989098
1	0x3d957f34	0.07299653
2	0xbe4f597c	-0.2024898
3	0xbd97801a	-0.0739748
4	0x3e2650cc	0.16241759
5	0x3db860a8	0.09002811
6	0x3dce4958	0.10072583
7	0x3d2c1928	0.04201618
8	0xbb323cc0	-0.0027196854
9	0xbcd26510	-0.025682956
10	0x3e482cf0	0.19548392
11	0xbd917bca	-0.07103689
12	0x3c5d99c0	0.013525426
13	0x3cb31ca8	0.02186425
14	0x3cf01ba8	0.029310063
15	0xbe158025	-0.14599665
16	0x3dd7cc40	0.105370045
17	0xbdab6bf6	-0.08370201
18	0x3d9188c8	0.07106167
19	0xbdd527a8	-0.104079545
20	0x3dc1cefc	0.09463307
21	0x3cfa4dc0	0.030554652
22	0xbe31a8b9	-0.17349519
23	0xbe17243e	-0.14759919
24	0x3d688228	0.05676475
25	0x3da03888	0.078232825
26	0xbe3c9e82	-0.18419841
27	0xbde4f5c7	-0.11179691
28	0x3dcff7a0	0.101546526
29	0x3c81db50	0.015851647
30	0xbe09723d	-0.13422485
31	0xbddeadc1	-0.10872985
32	0xbe44e836	-0.19229206
33	0x3cf001d8	0.029297754
34	0x3e48b93c	0.19601911
35	0x3ce30378	0.027711615
36	0xbd846b54	-0.06465784
37	0x3d31e0a0	0.04342711
38	0xbe393ff4	-0.18090802
39	0xbd9a2558	-0.07526654
40	0xb9486000	-0.00019109249
41	0xbe046696	-0.12929758
42	0x3df5cabc	0.12001559
43	0xbc0a7d50	-0.008452728
44	0x3b0b4bc0	0.0021254867
45	0x3dff2288	0.12457758
46	0xbdc7e828	-0.09761077
47	0xbd9dc960	-0.07704425
48	0xbd4844f8	-0.0488939
49	0x3e10b70e	0.1413233
50	0x3dcdce98	0.1004917
51	0xbc515d80	-0.01277864
52	0x3e3b7318	0.18305624
53	0xbd534568	-0.051579863
54	0x3e1f26b8	0.15542114
55	0x3d6e89b0	0.058236778
56	0xbdec126a	-0.1152695
57	0xbd096c50	-0.03355056
58	0x3e251422	0.16120961
59	0x3e4728c2	0.19449142
60	0x3df724e0	0.1206758
61	0x3d9b6d74	0.07589236
62	0xbccde970	-0.025135726
63	0xbe451ffe	-0.19250485
64	0x3c42b3a0	0.011883646
65	0xbdf21c28	-0.11821777
66	0x3da1c710	0.07899296
67	0x3dc90100	0.09814644
68	0xbe3f5353	-0.1868413
69	0x3e424ba6	0.1897417
70	0xbd343794	-0.043998316
71	0xbd40563c	-0.04695724
72	0xbe025ca6	-0.12730655
73	0x3e2fa23e	0.17151734
74	0x3e25f41a	0.16206399
75	0xbe06f303	-0.13178639
76	0xbe20fea6	-0.1572214
77	0xbd595ee4	-0.05306901
78	0x3d76de10	0.06027037
79	0xbe3251c7	-0.17414008
80	0xbdacd719	-0.08439464
81	0xbdb79ce8	-0.08965474
82	0x3d7f7d38	0.062375277
83	0xbe2cae15	-0.16863282
84	0xbc569b20	-0.013098508
85	0x3e4dae1e	0.20085952
86	0xbd71f594	-0.059072092
87	0xbcdf27a8	-0.02724059
88	0xbd9c833a	-0.07642217
89	0xbae2db00	-0.0017307699
90	0x3e308526	0.17238292
91	0x3e1a5490	0.1507132
92	0x3e0e9608	0.1392442
93	0x3d9ad920	0.075609446
94	0xbdf434ac	-0.11924109
95	0xba613800	-0.00085914135

linear1.weight f4 [128, 10]
0	0x3d6f8eae	0.05848568
1	0x3da2c26d	0.0794724
2	0x3e1e5844	0.15463358
3	0xbd7662cf	-0.060152825
4	0x3e77ebbd	0.24211021
5	0x3e608cd2	0.21928719
6	0xbeaf1367	-0.3419449
7	0x3e5f2190	0.21790147
8	0x3e9a2ec4	0.30113804
9	0x3cac3305	0.021020422
10	0xbe81df56	-0.25365704
11	0x3e3cf8e7	0.18454324
12	0xbe3189f9	-0.17337789
13	0x3e6726fc	0.22573465
14	0x3e07a5e6	0.13246879
15	0xbe15a70d	-0.14614506
16	0xbe75da53	-0.24009065
17	0x3db76e6e	0.0895661
18	0xbe2a8adc	-0.16654533
19	0xbd1cae75	-0.038252313
20	0xbdeee17f	-0.11664104
21	0x3e2cf6ca	0.16891018
22	0x3d7320b4	0.05935736
23	0x3e0f88f4	0.14017087
24	0xbd90ba61	-0.07066799
25	0x3da4c28f	0.080449216
26	0xbe9f8498	-0.31155849
27	0x3e1856e2	0.14876893
28	0x3cb82ecd	0.022483254
29	0xbe165458	-0.14680612
30	0xbeb78b2e	-0.35848373
31	0x3dd425ab	0.10358747
32	0xbe7318ef	-0.2373998
33	0x3ebe1d84	0.37131894
34	0xbc078da4	-0.008273516
35	0xbe577997	-0.21042477
36	0x3da4737f	0.08029842
37	0xbe5fe1b6	-0.21863446
38	0xbe95eb42	-0.2928105
39	0x3eb8f87f	0.36127087
40	0xbe3920ed	-0.18078966
41	0x3e68b910	0.22726846
42	0x3da2fbee	0.07958208
43	0xbe04be12	-0.12963131
44	0x3ddcf59c	0.10789034
45	0xbe91e9a8	-0.28498578
46	0xbdfcef6d	-0.12350354
47	0xbe08f0c1	-0.1337309
48	0x3e8dd28f	0.27699706
49	0xbd32e58d	-0.043675948
50	0xbe99bb75	-0.3002583
51	0xbe4c67ea	-0.19961515
52	0xbd1fe986	-0.039041065
53	0x3eaa53f3	0.33267173
54	0xbe126631	-0.14296795
55	0xbcc7b341	-0.024377467
56	0x3de4825a	0.11157675
57	0x3e21e53e	0.15810105
58	0xbe8cf9b5	-0.2753426
59	0x3e5f80e0	0.21826506
60	0x3dca7f2a	0.09887536
61	0x3dc2aef2	0.095060244
62	0x3d034e23	0.03205694
63	0x3e3c0bd1	0.18363883
64	0x3e5179c4	0.20456606
65	0xbe9d8a9b	-0.3076981
66	0xbe755bcd	-0.239608
67	0x3e2969ad	0.16544218
68	0x3e72ed5f	0.23723362
69	0xbe9655f1	-0.29362443
70	0xbe3c7901	-0.18405534
71	0x3e219ec3	0.15783219
72	0x3e89c378	0.26906943
73	0xbe47dcbf	-0.19517802
74	0x3e90a5b9	0.28251436
75	0xbe12fa42	-0.14353278
76	0x3e1034fe	0.14082715
77	0xbd867e53	-0.06567063
78	0xbdbc9958	-0.092089355
79	0xbd477470	-0.048695028
80	0x3e9ea0c0	0.30982018
81	0xbda0e795	-0.07856671
82	0x3e6b2a94	0.22965461
83	0x3e303319	0.17206992
84	0xbe62cee1	-0.2214923
85	0xbe2f5c9a	-0.17125168
86	0xbdb1d00e	-0.086822614
87	0xbd9995a0	-0.07499242
88	0xba923f56	-0.0011157792
89	0xbcea493b	-0.028599372
90	0x3ea9de3b	0.3317736
91	0x3e2ca4ba	0.16859713
92	0x3b67b007	0.0035352723
93	0x3d8eda5d	0.06975243
94	0x3e90f3e2	0.28311068
95	0xbe47f206	-0.19525918
96	0xbdd0d9b9	-0.10197777
97	0x3bb9954d	0.00566355
98	0xbc48727b	-0.0122343255
99	0x3e7b9bd2	0.2457116
100	0x3e7f7e80	0.249506
101	0xbde7c0ff	-0.11316108
102	0x3d60d8eb	0.05489437
103	0xbe804fdb	-0.25060925
104	0x3e9ccfbc	0.3062724
105	0xbe92566c	-0.2858156
106	0x3cfb092e	0.030644026
107	0xbcfe461a	-0.031039286
108	0x3e94bc3d	0.29049864
109	0x3e8ce286	0.27516574
110	0x3d130c92	0.03590066
111	0xbe749bbb	-0.23887531
112	0xbd2c4102	-0.042054184
113	0x3e68c6e6	0.22732124
114	0x3e66da79	0.22544278
115	0x3e8d8e79	0.2764776
116	0x39b9b779	0.00035422647
117	0xbe7c6500	-0.24647903
118	0xbe5e0ee4	-0.21685368
119	0xbd8b5e84	-0.06805137
120	0xbea8a603	-0.32939157
121	0xbe376485	-0.17909439
122	0x3dcddbdd	0.10051701
123	0xbd115a24	-0.035486355
124	0x3d58bb51	0.052913014
125	0x3d586f51	0.052840535
126	0xbe85595b	-0.26044735
127	0x3ca55eff	0.0201869
128	0x3e506982	0.20352748
129	0xbe2e18ad	-0.170016
130	0x3e475e6e	0.19469616
131	0x3e0a62d5	0.13514264
132	0x3e8697ff	0.2628784
133	0xbe6891a9	-0.22711815
134	0xbe0425fc	-0.12905115
135	0xbc09f014	-0.0084190555
136	0x3e7ebd65	0.24876936
137	0xbcdab88b	-0.026699325
138	0x3de9e0f2	0.11419858
139	0x3e164282	0.14673808
140	0x3e5ac528	0.21364272
141	0x3e489ec6	0.19591817
142	0x3d0aa350	0.033847153
143	0x3cc818c7	0.024425877
144	0x3eb3622b	0.35035834
145	0x3e907fee	0.28222603
146	0xbe286616	-0.16445193
147	0xbdbdecb7	-0.092736654
148	0x3e44c4d1	0.19215705
149	0xbdd1feee	-0.10253702
150	0x3e93d8cf	0.2887635
151	0xbe64d0c3	-0.22345261
152	0x3e870e13	0.26377925
153	0xba81cee9	-0.0009903583
154	0x3dfcfee2	0.123533025
155	0x3da191a9	0.078891106
156	0xbd958209	-0.07300193
157	0x3ea0df17	0.31420204
158	0xbe447d04	-0.19188315
159	0x3c7c8f99	0.015415096
160	0x3e26bd38	0.16283119
161	0x3e23668b	0.15957086
162	0x3e6d9376	0.23200783
163	0xbec8fe12	-0.3925634
164	0xbe6df3ec	-0.2323758
165	0x3d693f8a	0.05694536
166	0xbe683c29	-0.226792
167	0xbe55b488	-0.20869648
168	0x3ea7ceb9	0.32774904
169	0x3e982cbc	0.2972163
170	0x3e861bd4	0.26193106
171	0xbe34fd4a	-0.17674747
172	0x3c8c0f0d	0.01709702
173	0x3e547a5a	0.20749798
174	0xbe721360	-0.23640203
175	0xbd706321	-0.058688287
176	0x3e81a23e	0.25319093
177	0x3d83e2e7	0.064397626
178	0xbdf381f4	-0.11890021
179	0x3c9a5846	0.01884092
180	0x3d34e0f5	0.04415985
181	0xbe72c14b	-0.23706548
182	0x3e0e0e41	0.13872625
183	0x3d1a6714	0.03769596
184	0xbe7bdcca	-0.24595943
185	0x3e2ebc6b	0.17064063
186	0xbc7bc10d	-0.015365851
187	0x3d3b89a7	0.045785572
188	0xbe0981df	-0.13428448
189	0xbe313b56	-0.17307791
190	0xbd2bbf40	-0.041930437
191	0xbe8b0f91	-0.27160314
192	0xbda3581a	-0.079757884
193	0x3deb80a0	0.11499143
194	0x3e2e27fc	0.1700744
195	0x3c31b960	0.0108474195
196	0xbd97f648	-0.07420021
197	0xbe97023f	-0.294939
198	0x3d411518	0.047139257
199	0x3d00dac0	0.031458616
200	0xbe1825d6	-0.14858183
201	0x3d9c3644	0.07627538
202	0x3e76c7e3	0.24099688
203	0xbe728ea1	-0.23687221
204	0x3e42b9cd	0.1901619
205	0x3e1b352c	0.15157002
206	0xbe1c16db	-0.15243094
207	0x3b28b0e4	0.00257402
208	0xbe01b191	-0.12665392
209	0x3e9fb5eb	0.3119348
210	0x3e9f083d	0.31060973
211	0xbe8bf604	-0.27336133
212	0x3e8e266c	0.2776369
213	0xbe9836e4	-0.29729378
214	0x3ea16146	0.31519526
215	0x3e478584	0.19484526
216	0x3e87aec1	0.26500514
217	0x3d68796e	0.05675643
218	0x3e98187b	0.29706177
219	0xbd81c6d9	-0.06336755
220	0x3e6d8597	0.23195492
221	0x3e6337cc	0.22189254
222	0x3d2634dd	0.040577758
223	0xbd16d2f5	-0.036822278
224	0x3d39ff81	0.045409683
225	0xbe8c82f4	-0.2744366
226	0x3ca789e5	0.020451495
227	0xbe6ec822	-0.23318532
228	0xbb96f9c6	-0.004607412
229	0xbe1b4502	-0.15163043
230	0x3e980228	0.29689145
231	0x3e84f562	0.25968462
232	0x3db4a13c	0.088198155
233	0xbd216341	-0.039401297
234	0xbde0a4e2	-0.10968949
235	0x3e83d9df	0.2575216
236	0xbe856c9a	-0.2605942
237	0x3d6dbeb4	0.058043197
238	0xbd15ad6b	-0.036542337
239	0x3e043a56	0.12912878
240	0xbe165f4c	-0.1468479
241	0xbeafe648	-0.34355378
242	0x3da48432	0.08033027
243	0x3d53576f	0.051597055
244	0x3c9c024c	0.019044064
245	0x3e8000e5	0.25000682
246	0x3e5dbf8b	0.21655099
247	0xbe1e8ec2	-0.15484145
248	0x3e1391ec	0.14411134
249	0xbdd46212	-0.10370268
250	0x3e63f24e	0.222604
251	0x3e968d16	0.29404515
252	0xbe8f2e36	-0.27964944
253	0x3e8bed96	0.273297
254	0x3db3e78f	0.08784401
255	0x3eae5dd5	0.34055963

linear1.bias f4 [128]
0	0xbbae6daa	-0.0053231316
1	0x3d55bc91	0.052181784
2	0x3e3778c4	0.17917162
3	0x3e016c91	0.12639071
4	0xbdb8f403	-0.090309165
5	0x3e2f4c96	0.17119059
6	0x3e05dbd1	0.13072135
7	0x3e569b55	0.20957692
8	0xbd8e62c0	-0.06952429
9	0x3e80cef1	0.25157884
10	0x3e1a3f2b	0.15063159
11	0x3e71fe07	0.2363206
12	0x3e58cc18	0.21171606
13	0xbd2149df	-0.03937709
14	0xbe27be5f	-0.16381215
15	0xbe8b471a	-0.27202684
16	0xbe761e7f	-0.24035071
17	0x3e8e3aa9	0.2777913
18	0xbd4e09b3	-0.05030222
19	0xbe11fba6	-0.14256153
20	0xbe034eb8	-0.12822998
21	0x3d1e5e7f	0.038664337
22	0x3e523d50	0.20531201
23	0xbe3e5504	-0.18587118
24	0xbe8499c1	-0.25898555
25	0xbd27914f	-0.04091006
26	0x3e8b26dc	0.27178085
27	0x3e2a5086	0.1663228
28	0x3e71327b	0.23554413
29	0x3e1daf94	0.15399009
30	0xbe1956ab	-0.14974467
31	0xbe7b9df2	-0.2457197
32	0xbe15af9d	-0.14617772
33	0xbe6f2c22	-0.23356679
34	0xbd8ff069	-0.070282765
35	0xbd00dd12	-0.03146083
36	0xbe3646c9	-0.1780044
37	0x3dcab269	0.0989731
38	0x3d154e03	0.03645135
39	0x3e3df217	0.18549381
40	0x3bd53676	0.0065067364
41	0x3e1a4e41	0.15068914
42	0x3b88c64b	0.004174029
43	0x3eb2ab80	0.3489647
44	0xbe99e36c	-0.30056322
45	0x3dfe5ebf	0.12420415
46	0xbd2baa24	-0.041910306
47	0x3d41889d	0.047249425
48	0x3d7f9f3b	0.062407713
49	0xbda24d8b	-0.079249464
50	0x3e88e1fe	0.26734918
51	0xbde53c34	-0.111931235
52	0x3d94b77b	0.072615586
53	0x3e7e9ecb	0.24865262
54	0x3e6f5b53	0.23374681
55	0xbe07059b	-0.13185732
56	0x3e9dba3c	0.30806148
57	0x3e9debdc	0.3084401
58	0x3ea8c7d0	0.32964945
59	0x3db4a34b	0.08820208
60	0x3cf4b007	0.029869093
61	0xbe0c1cbc	-0.13682836
62	0x3e16a72a	0.14712206
63	0x3e66b66d	0.22530527
64	0x3dd82d3c	0.10555503
65	0x3e273761	0.16329719
66	0xbe75fb2f	-0.240216
67	0x3c9cdc38	0.019147977
68	0xbe8b8855	-0.2725245
69	0x3d3fdc33	0.046840858
70	0x3e376345	0.17908962
71	0x3e5fb571	0.21846558
72	0x3ec22ba2	0.37923914
73	0x3e8af079	0.2713659
74	0x3da64b08	0.0811978
75	0x3ea73df5	0.32664457
76	0xbe30faec	-0.17283219
77	0xbe375a3d	-0.17905517
78	0x3e967bd8	0.2939136
79	0x3c5bb70a	0.013410339
80	0xbe05ecd6	-0.13078627
81	0x3e855ac7	0.2604582
82	0x3e5ed8dc	0.21762413
83	0xbe8dda7c	-0.27705753
84	0xbe0a690e	-0.13516638
85	0x3cb90ed1	0.022590073
86	0x3e2359ea	0.15952268
87	0x3e6099e9	0.21933712
88	0xbe0fa3bc	-0.14027303
89	0xbe69b5e5	-0.22823294
90	0x3d7bc29d	0.061464895
91	0xbe1b0dc2	-0.15141967
92	0x3d3294a8	0.0435988
93	0x3e2aa865	0.166658
94	0x3e777b29	0.24168076
95	0x3e87327d	0.26405707
96	0xbea7d963	-0.3278304
97	0x3db14ef7	0.086576395
98	0xbe84748f	-0.25870177
99	0xbe030e20	-0.12798357
100	0x3e814da9	0.25254562
101	0x3e8cd7ee	0.2750849
102	0xbcae90c2	-0.02130926
103	0xbde71949	-0.1128412
104	0xbe4cd459	-0.20002879
105	0x3e8ef885	0.2792398
106	0x3a580e60	0.0008241888
107	0x3e32ea38	0.1747216
108	0xbe1fc0be	-0.15600869
109	0x3e1873e1	0.14887954
110	0xbe0d2110	-0.13782144
111	0x3d96c2fa	0.073614076
112	0x3e53eba8	0.20695364
113	0xbdca3abd	-0.09874485
114	0xbe25ffb6	-0.16210827
115	0xbd2e9a5a	-0.04262767
116	0x3e92b5e1	0.28654388
117	0xbdfa7a3c	-0.122303456
118	0x3bdaf53b	0.006682066
119	0xbe4d95f0	-0.20076728
120	0x3e1fa7ff	0.15591429
121	0xbe5618fc	-0.20907968
122	0xbd034429	-0.032047424
123	0x3e2d1aab	0.16904704
124	0x3e963385	0.2933618
125	0xbd96039f	-0.073249094
126	0xbda0a7b4	-0.07844487
127	0x3e82cc43	0.25546464

linear2.weight f4 [128, 128]
0	0x3cb30f86	0.021857988
1	0x3de5ce58	0.112209976
2	0xbd42c9e5	-0.047555823
3	0x3ba015da	0.0048854174
4	0xbd5fd081	-0.054642204
5	0x3d52bfa2	0.051452287
6	0x3d758a90	0.059946597
7	0xbc4b5314	-0.012409944
8	0x3d66ddd4	0.056363896
9	0xbd5efcc2	-0.054440267
10	0x3d793e10	0.060850203
11	0xbd807b44	-0.06273511
12	0x3da46fd1	0.0802914
13	0x3bc69593	0.006060311
14	0xbd80c7d3	-0.062881134
15	0x3d5b763a	0.053579547
16	0xbd950376	-0.07276051
17	0x3d10770a	0.035269774
18	0xbdb0548f	-0.08609878
19	0x3d1ac63a	0.0377867
20	0x3d3a12b0	0.045427978
21	0x3d99e594	0.07514492
22	0x3e03fe69	0.12890019
23	0xbc7aef47	-0.015315837
24	0xbd830e0a	-0.06399162
25	0xbc7a4ac1	-0.015276612
26	0x3d941ef1	0.07232464
27	0xbd818117	-0.0632345
28	0xbd5c18c0	-0.05373454
29	0xbdb1025f	-0.086430304
30	0xbd34c504	-0.0441332
31	0xb997acac	-0.00028929615
32	0xbdf60710	-0.12013066
33	0x3de83db1	0.11339892
34	0x3d4bc38c	0.049747035
35	0xbd322a7c	-0.043497548
36	0x3d3c52e2	0.04597748
37	0x3dca5d48	0.09881073
38	0x3ddef9a3	0.10887458
39	0xbcfac01f	-0.030609189
40	0xbc30b48a	-0.010785231
41	0x3d77d8ec	0.060509607
42	0xbd533982	-0.051568516
43	0xbd3423fe	-0.043979637
44	0x3dfc0145	0.1230493
45	0x3d1c76b8	0.038199157
46	0x3e080b9b	0.13285677
47	0xbc8cc72e	-0.01718482
48	0x3d8b6c0e	0.06807719
49	0x3cca4d69	0.024695115
50	0xbd1e422b	-0.03863732
51	0x3ccca100	0.024979115
52	0x3d1f87f2	0.038948007
53	0xbd4fe283	-0.050753128
54	0xbd95e03d	-0.07318161
55	0x3d622053	0.055206608
56	0x3de335c9	0.11094243
57	0x3cd6b72d	0.026210392
58	0xbd3f01b8	-0.0466325
59	0xba58cfe4	-0.0008270724
60	0xbca3c45c	-0.019991092
61	0x3cea9cc3	0.028639203
62	0x3d35936d	0.04433005
63	0xbbed297b	-0.007237611
64	0x3d8866b7	0.06660216
65	0xbd894722	-0.06703021
66	0xbd5c91ef	-0.05385011
67	0xbcf4999c	-0.029858403
68	0xbd469856	-0.048485123
69	0x3c549003	0.012973788
70	0xbcdecc7a	-0.027197111
71	0x3d8240b6	0.06359999
72	0x3d522f37	0.05131456
73	0xbce8f19e	-0.028435525
74	0x3dacdcdd	0.08440564
75	0xbdff56da	-0.124677375
76	0x3e003def	0.12523626
77	0x3cf2c8fd	0.029636854
78	0x3d534b42	0.051585443
79	0x3ca74615	0.02041916
80	0xbd7609a5	-0.06006779
81	0x3c5293dc	0.012852635
82	0xbd268963	-0.040658366
83	0xbbc2f17c	-0.0059491973
84	0x3d65ccb3	0.05610342
85	0xbd9495c7	-0.0725513
86	0xbd487da9	-0.048947964
87	0xbbfef587	-0.007780734
88	0x3e04a763	0.12954478
89	0xbd0e0259	-0.034670208
90	0xbdb32044	-0.087463886
91	0x3d4fe624	0.05075659
92	0x3db58d91	0.08864892
93	0xbc72d8ce	-0.014822198
94	0xbd3d2a4f	-0.046182927
95	0x3d334edb	0.043776374
96	0x3d888f21	0.06667925
97	0x3d68892a	0.056771435
98	0xbcd7e06c	-0.02635213
99	0x3c35703b	0.011074121
100	0x3cf9fe3d	0.030516738
101	0x3ddc3ba2	0.107535616
102	0xbcaa2dd8	-0.020773813
103	0x3d810e1e	0.06301521
104	0x3da8b7a6	0.08238153
105	0xbd34f1ee	-0.044176035
106	0xbd801ea2	-0.06255843
107	0x3df43526	0.119242
108	0x3dcbc515	0.099497
109	0x3cb28768	0.021793082
110	0x3d71b81f	0.059013482
111	0xbc9a69c7	-0.018849267
112	0x3cb9ab86	0.022664797
113	0xbd00f842	-0.031486757
114	0xbd2ea1cf	-0.04263478
115	0xbcf0ce05	-0.029395113
116	0xbdd0a1d5	-0.10187117
117	0x3dfabcdd	0.12243054
118	0xbda12561	-0.078684576
119	0xbd83e7c0	-0.06440687
120	0xbccf3fd8	-0.025298998
121	0x3db6c477	0.089241914
122	0x3dafd63b	0.08585783
123	0xbc59526c	-0.01326428
124	0x3c8b5b4d	0.017011309
125	0x3d6f76d0	0.058462918
126	0xbd9ccfe8	-0.076568425
127	0xbd824cf7	-0.06362336
128	0x3d2bd834	0.041954234
129	0x3dce3e83	0.10070517
130	0xbdad9215	-0.084751286
131	0x3daabff7	0.08337396
132	0x3ddb8b64	0.10719946
133	0xbd44ba96	-0.048029505
134	0x3d91f975	0.07127658
135	0x3d9cdd7a	0.07659431
136	0xbd2e7a3a	-0.042597033
137	0x3be52050	0.0069923773
138	0x3d72177d	0.05910443
139	0xbdb98dd4	-0.09060255
140	0xbd94670c	-0.07246217
141	0x3d9f4ade	0.07777952
142	0x3dd14a2c	0.10219225
143	0x3d2ff5b9	0.04295895
144	0x3db07715	0.08616463
145	0xbdda65ea	-0.1066397
146	0x3d8acdeb	0.06777557
147	0x3d00f9bc	0.031488165
148	0x3b58d663	0.0033086769
149	0x3dbf6177	0.09344762
150	0x3e06b851	0.13156249
151	0x3d8e9027	0.06961089
152	0x3ccc749f	0.024957953
153	0xbd7909ee	-0.060800485
154	0xbd82b4a6	-0.06382112
155	0xbd841826	-0.064499184
156	0xbc8edd46	-0.017439496
157	0xbd066459	-0.032810543
158	0xbb31a213	-0.002710466
159	0xbb69e72b	-0.0035690765
160	0xbde376c6	-0.111066386
161	0xbd33d6a5	-0.043905873
162	0xbdb53f5f	-0.08849978
163	0xbd95a364	-0.07306555
164	0x3d71b2d3	0.05900843
165	0x3c9989b1	0.018742414
166	0xbd4d7b4d	-0.050166417
167	0x3c4cf7b8	0.012510233
168	0x3bd1302b	0.006383916
169	0x3d76e1fb	0.060274106
170	0x3dbab092	0.09115709
171	0xbd2209c5	-0.0395601
172	0xbd8aed14	-0.067835
173	0xbe07ce4f	-0.13262294
174	0x3d47e5c9	0.048803125
175	0x3daf3602	0.08555223
176	0x3d8a1eb1	0.06744135
177	0xbd78d010	-0.0607453
178	0xbdcac8bc	-0.09901568
179	0x3d2ee95a	0.04270301
180	0x3d84a63b	0.064770184
181	0xbda367b2	-0.07978763
182	0x3d959e97	0.07305639
183	0x3e0d2739	0.13784494
184	0x3d3a501d	0.04548656
185	0xbdb50af4	-0.0883998
186	0xbd860375	-0.06543628
187	0xbd32f721	-0.04369271
188	0xbcebad1e	-0.028769072
189	0xbd149474	-0.03627439
190	0x3db1b512	0.086771145
191	0xbdc6e1d6	-0.097110435
192	0x3c6294e6	0.0138294455
193	0xbc93f645	-0.018061766
194	0x3d43734e	0.047717385
195	0xbd3cd046	-0.046097063
196	0xbdaa166e	-0.083050594
197	0xbd2b5d39	-0.04183695
198	0xbb77d65b	-0.0037816975
199	0x3d4bb28b	0.04973082
200	0xbc6cf64d	-0.01446302
201	0xbda3fea2	-0.08007552
202	0xbcab76f0	-0.020930737
203	0xbdde5870	-0.10856712
204	0x3dbeeb8a	0.09322269
205	0x3d41d2cb	0.04732017
206	0xbd22f4ca	-0.03978423
207	0x3d51910b	0.051163714
208	0xbd45086d	-0.04810374
209	0x3c0f7b52	0.008757429
210	0xbd915bae	-0.07097565
211	0xbd62df44	-0.055388704
212	0x3d375b64	0.04476489
213	0xbdcc61e5	-0.099796094
214	0xbc81793b	-0.015804878
215	0xbd57d356	-0.05269178
216	0x3d839835	0.064255156
217	0xbd3262e2	-0.043551333
218	0xbdf45f02	-0.11932184
219	0x3df49b91	0.119437344
220	0xbc5f955c	-0.01364645
221	0xbb39855b	-0.0028308246
222	0xbc5bdefe	-0.013419865
223	0x3bcc77fe	0.00623989
224	0x3a8c59e5	0.0010707943
225	0xbd9a60e3	-0.07538011
226	0x3d2bd155	0.04194768
227	0xbd76cb33	-0.06025238
228	0x3c56a367	0.013100482
229	0x3d8b4c62	0.06801678
230	0xbc772c2d	-0.015086216
231	0xbc9d89a5	-0.019230673
232	0x3e186fcd	0.14886399
233	0xbd9f00fa	-0.07763858
234	0x3ca2d661	0.019877614
235	0x3d68c9f6	0.05683323
236	0x3dbd898f	0.09254753
237	0xbd25dfe0	-0.040496707
238	0x3d80f360	0.0629642
239	0xbd55a38d	-0.052157927
240	0x3ccb1c94	0.0247939
241	0x3d12f8dd	0.035881866
242	0xbd9b7637	-0.07590907
243	0xbc91b311	-0.01778558
244	0xbd9bdb4c	-0.07610187
245	0x3d59f077	0.05320784
246	0xbe3b3cd4	-0.18284923
247	0x3d719fa6	0.058990143
248	0xbd304efd	-0.04304408
249	0x3d92b14f	0.07162725
250	0x3cc34439	0.023836242
251	0x3cee1e62	0.029067222
252	0x3d91a5fa	0.07111736
253	0xba2b8ee9	-0.00065444276
254	0xbc101e98	-0.008796357
255	0xbc619969	-0.013769486

linear2.bias f4 [128]
0	0xbd68f138	-0.05687067
1	0xbdab3c52	-0.083611146
2	0x3c17a459	0.009255492
3	0xbd20cc14	-0.039257124
4	0x3d85bae5	0.06529788
5	0x3b87fdb8	0.0041501187
6	0x3c171a63	0.0092226
7	0xbbaf2e7a	-0.0053461166
8	0xbd526db9	-0.05137417
9	0x3d1e2402	0.03860856
10	0x3d96babb	0.07359835
11	0x3beb66d0	0.007183887
12	0x3d4be64f	0.049780186
13	0xbd695916	-0.056969725
14	0x3d639281	0.05555964
15	0xbd888ca2	-0.066674486
16	0xbd098dad	-0.03358238
17	0xbd7da399	-0.061923597
18	0xbdb14081	-0.08654881
19	0x3cdff96c	0.027340613
20	0x3c5d910e	0.013523353
21	0x3d9cbaba	0.07652803
22	0x3d0378c1	0.03209758
23	0x3b113d0d	0.0022161633
24	0x3d9066b6	0.070508406
25	0xbd3dfca1	-0.046383504
26	0xbd4bd74e	-0.049765877
27	0xbda924cf	-0.08258974
28	0x3a53fde2	0.0008086843
29	0xbd9f04e2	-0.07764603
30	0x3dc146cb	0.09437331
31	0xbd62ccec	-0.05537121
32	0xbdb5aa75	-0.08870403
33	0x3d656acb	0.05601005
34	0xbd8cf2f6	-0.068822786
35	0xbd4d4648	-0.050115854
36	0xbb2260ff	-0.0024777052
37	0xbd90b27d	-0.07065294
38	0x3b18fa91	0.0023342709
39	0x3dd5c817	0.10438555
40	0x3d109ef4	0.03530784
41	0x3d931e4e	0.071835145
42	0x3ddc9291	0.10770143
43	0xbcb2ae63	-0.02181167
44	0xbd8f4aba	-0.06996675
45	0x3a1d6611	0.0006004284
46	0xbda1382d	-0.07872043
47	0x3d217c2a	0.039425053
48	0xbca181cd	-0.019715214
49	0x3d9a06a7	0.075208
50	0xbc3484b0	-0.011017963
51	0xbcaeed28	-0.02135332
52	0xbc719ebd	-0.014747319
53	0x3d617ecb	0.05505256
54	0x3d6c62df	0.05771148
55	0xbd74fe9c	-0.059813127
56	0x3d7f4a59	0.062326763
57	0x3ae0f27e	0.0017162112
58	0x3da6544c	0.08121547
59	0x3d033afc	0.032038674
60	0x3cd18079	0.025573956
61	0xbdb7e722	-0.08979632
62	0x3d10dc2f	0.035366233
63	0xbd4afc23	-0.049556863
64	0xbdb60825	-0.08888272
65	0xbd4b0ad4	-0.049570873
66	0x3b7125bf	0.003679618
67	0xbd610501	-0.054936413
68	0x3d1be509	0.03806022
69	0x3d264108	0.040589362
70	0x3cc5c9b6	0.024144035
71	0xbcbace4c	-0.022803448
72	0x3d547af9	0.05187509
73	0x3cfd660f	0.030932454
74	0x3cbb6161	0.022873582
75	0xbda5f675	-0.081036486
76	0x3c532190	0.01288642
77	0xbd3571fd	-0.04429816
78	0x3d07f221	0.033189896
79	0x3d2aeb2c	0.041728184
80	0xbd37c36e	-0.04486411
81	0xbd6cf63f	-0.057852026
82	0xbd1f8f6a	-0.03895513
83	0x3db26195	0.087100185
84	0x3de8d2c0	0.11368322
85	0xbd1f3cfe	-0.038876526
86	0xbd095893	-0.033531737
87	0x398cf6b4	0.0002688669
88	0xbda9d920	-0.082933664
89	0xbdad2f7b	-0.08456322
90	0x3d381150	0.044938385
91	0x3d73014a	0.0593274
92	0x3d87b66f	0.06626593
93	0xbd9e80b8	-0.07739395
94	0xbd5b361d	-0.053518403
95	0xbb8318dc	-0.004000766
96	0xbda22515	-0.07917229
97	0xbd2b38df	-0.041802283
98	0x3cc7efc4	0.024406321
99	0xbd840309	-0.064458914
100	0xbd44058d	-0.047856856
101	0x3d814229	0.06311447
102	0xbd9ca2e9	-0.0764826
103	0x3cc3f7aa	0.023921806
104	0x3daeb111	0.085298665
105	0x3d8eba80	0.06969166
106	0x3d20e622	0.03928197
107	0x3d7a21bf	0.06106734
108	0xbd14c20b	-0.036317866
109	0xbd577602	-0.052602775
110	0xbc8cdabd	-0.017194146
111	0xbccf427f	-0.025300262
112	0x3c31fc11	0.01086332
113	0xbd34fd20	-0.04418671
114	0x3c7ad78d	0.01531018
115	0x3d09f14b	0.03367738
116	0x3cbc8fe0	0.023017824
117	0x3da1523b	0.07877012
118	0x3d6d3df6	0.05792042
119	0x3d7d1865	0.061790843
120	0xbd7a2f72	-0.061080404
121	0x3d592627	0.0530149
122	0x3daabbd6	0.08336608
123	0x3cf4fc96	0.029905599
124	0xbbd7f076	-0.0065899445
125	0xbd8d6188	-0.06903368
126	0xbd3e246a	-0.046421446
127	0xbcc33008	-0.023826614

linear3.weight f4 [1, 128]
0	0x3cb62f55	0.022239367
1	0x3be6ba55	0.0070412555
2	0x3b821536	0.0039698137
3	0x3d4f118f	0.050553855
4	0xbace492a	-0.0015738357
5	0xbba75ea7	-0.005107719
6	0xbc0ce074	-0.008598436
7	0x3903833c	0.00012542022
8	0xbd8445a9	-0.06458599
9	0x3a0f33e2	0.0005462748
10	0x3b5ced9a	0.0033710958
11	0xbb0625e5	-0.0020469364
12	0xbaa566f0	-0.0012619179
13	0xbaa7ec99	-0.00128116
14	0xbb6842bf	-0.0035440174
15	0xbcf5acda	-0.029989649
16	0xbb92e509	-0.0044828695
17	0xbcd48654	-0.025942959
18	0xbb18927a	-0.0023280666
19	0xbcdb7b54	-0.026792206
20	0x3b13f732	0.002257776
21	0xbb6cc12f	-0.0036125889
22	0xbbbed727	-0.005823988
23	0xbbf1ee53	-0.007383147
24	0xbbe49a49	-0.0069764
25	0xba8ffb05	-0.0010984844
26	0xbcac446f	-0.021028725
27	0x39959ccd	0.0002853632
28	0x3acc7525	0.0015598877
29	0xbcd8a6be	-0.026446696
30	0xbc910c8e	-0.017706182
31	0xbcb01bee	-0.021497693
32	0x3b787844	0.003791348
33	0xbb3ede7a	-0.0029124306
34	0xbbbc7479	-0.0057511893
35	0xbc638cc0	-0.013888538
36	0xba163ee2	-0.0005731416
37	0xbad783d8	-0.0016442491
38	0xb86d44c5	-5.656925e-05
39	0xbb0b1bd2	-0.00212263
40	0xbaba6fc2	-0.001422398
41	0xbb7616e3	-0.0037550263
42	0x3c404839	0.011735969
43	0xbb8c2be4	-0.004277693
44	0xbafc442f	-0.0019246395
45	0x3c888b14	0.01666788
46	0xbb21a9f3	-0.0024667948
47	0xbb58a3ea	-0.0033056685
48	0xbb8d5434	-0.0043130163
49	0xbbad74f0	-0.005293481
50	0xbb1a5a30	-0.002355229
51	0x3ad8845c	0.0016518938
52	0xbc2eba8e	-0.010664595
53	0xb999d8f2	-0.0002934407
54	0xbd20760d	-0.039175082
55	0xbbdf25ae	-0.0068099117
56	0xbc90c5ee	-0.017672505
57	0xbd807dd8	-0.06274003
58	0x3a7e18c8	0.0009693024
59	0x3bde053a	0.0067755254
60	0xbca31a3b	-0.019909969
61	0x3ae9b679	0.001783087
62	0xbc3ec298	-0.011643074
63	0xbb19a4af	-0.0023444106
64	0x3b3d862b	0.0028919082
65	0xbca181b0	-0.01971516
66	0xbc1f4f70	-0.009723529
67	0xba1597d8	-0.00057065254
68	0xbc659a32	-0.014013814
69	0x393387cf	0.00017121363
70	0xbd397275	-0.04527517
71	0x3b0a0968	0.0021062735
72	0xbc419030	-0.011814162
73	0x3cbc7abe	0.023007747
74	0xbb377908	-0.0027995724
75	0xbb9ac3d5	-0.004723052
76	0xba05dd48	-0.0005106521
77	0x3a45f125	0.0007550887
78	0xba391668	-0.0007060529
79	0xbb911c54	-0.004428426
80	0x3ba2b7c6	0.004965755
81	0xbb2524a4	-0.0025198841
82	0xbc4f4b6f	-0.012652262
83	0xbc96eb13	-0.018422639
84	0xbc610c6f	-0.013735875
85	0x3ba74139	0.0051042107
86	0xbbe9480d	-0.007119185
87	0xbb8df266	-0.0043318747
88	0xba19c855	-0.00058663386
89	0x3b93e19c	0.0045129787
90	0xbb92d914	-0.004481444
91	0xbba0eb88	-0.00491089
92	0x3a360286	0.0006943125
93	0x39f413b7	0.00046553995
94	0xbac84143	-0.0015278239
95	0xbb2ef6c8	-0.0026697386
96	0xb9890079	-0.00026131028
97	0x3b6c869b	0.0036090973
98	0x397854f0	0.00023682765
99	0xbcc65a14	-0.024212874
100	0xbd2ec105	-0.042664547
101	0xbc3b9f3e	-0.0114515405
102	0xbc203f28	-0.009780683
103	0x3cf9e993	0.030506885
104	0xbbe5ba42	-0.007010729
105	0xbae6673c	-0.0017578374
106	0xbc0d900e	-0.008640302
107	0xbae60882	-0.0017550143
108	0xbc4fe5af	-0.012689038
109	0x3c018597	0.007905385
110	0xbc0b5501	-0.008504153
111	0x3b86db05	0.0041154646
112	0xbb85f87b	-0.004088459
113	0x3a6fbc63	0.0009145198
114	0xbc2f1a2f	-0.010687395
115	0xbc0a613a	-0.008446032
116	0xbb013f2b	-0.001972149
117	0xbb85c207	-0.0040819678
118	0xbb09184b	-0.002091902
119	0x3b8eb7a1	0.0043553864
120	0x3a132aec	0.0005614001
121	0xbab86686	-0.001406864
122	0x3c340b2f	0.0109889945
123	0x3bb742da	0.005592686
124	0xb9f9c3d5	-0.00047638887
125	0xbd21e500	-0.039525032
126	0xbbb9e30e	-0.005672819
127	0x3d0ccf98	0.034377664

linear4.weight f4 [1, 128]
0	0xbd6dd6c5	-0.05806615
1	0xbd066d42	-0.03281904
2	0x3d825025	0.063629426
3	0xbd0297d7	-0.031883087
4	0xbcc011b7	-0.023445947
5	0xbccfdaec	-0.025372945
6	0x3c4dbac0	0.012556732
7	0xbcb797c9	-0.022411244
8	0xbd91fa5c	-0.071278304
9	0xbc469ea8	-0.012122788
10	0xbcfbc6e4	-0.030734487
11	0x3a92ef5c	0.0011210251
12	0xbc7e58c1	-0.01552409
13	0xbca5709d	-0.0201953
14	0xbc92ded4	-0.017928518
15	0xbd4c5ee3	-0.04989518
16	0xbd104118	-0.03521833
17	0xbd6dd55a	-0.058064796
18	0xbc3931a9	-0.011303344
19	0xbd327c4e	-0.043575577
20	0xbc8ee82a	-0.017444689
21	0xbcf223d7	-0.029558105
22	0x3a2bf8e6	0.0006560221
23	0xbca17772	-0.019710276
24	0xbcdfe30e	-0.027329948
25	0xbcb650f0	-0.02225539
26	0xbcf7f10b	-0.030266305
27	0xbccbf013	-0.02489475
28	0xbd0c5e53	-0.034269642
29	0xbd80f730	-0.06297147
30	0xbd943a17	-0.07237642
31	0xbccfb471	-0.025354596
32	0xbcdc2d4c	-0.026877068
33	0xbc964dd3	-0.018347656
34	0xbc9afdff	-0.018919943
35	0x3d2e0ede	0.042494647
36	0x3a57e2c2	0.00082353887
37	0xbccb1646	-0.024790894
38	0xbbab13de	-0.005220874
39	0x3d549318	0.051898092
40	0xbae18004	-0.0017204289
41	0xbc6d239f	-0.014473825
42	0x3d6dec32	0.05808658
43	0x3caa3306	0.020776283
44	0x38ab7960	8.176523e-05
45	0xbca14532	-0.019686315
46	0xbcb4d558	-0.022074386
47	0xbcd6ac14	-0.0262051
48	0xbd0dc2ce	-0.03460961
49	0xbc258af5	-0.010103931
50	0x3b2b80ea	0.0026169368
51	0x3a8570ac	0.0010180674
52	0xbd2d7fa3	-0.042358052
53	0xbca565ae	-0.020190086
54	0xbd022655	-0.031774838
55	0xbc179fda	-0.00925442
56	0x3cf32e0d	0.029685045
57	0xbd5c0a17	-0.05372056
58	0xbc9cb3aa	-0.01912864
59	0xbd2fd60a	-0.042928733
60	0xbd646c52	-0.055767365
61	0xbce5e869	-0.028064923
62	0xbd23d043	-0.039993536
63	0xbb28775a	-0.0025705905
64	0xbcb64465	-0.02224941
65	0x3c61c202	0.013779165
66	0xbb9f1ae4	-0.0048555005
67	0x3afb2848	0.0019161785
68	0xbc3370f7	-0.010952226
69	0xbcaea429	-0.021318512
70	0xbd622b32	-0.055216976
71	0xbaa2fa08	-0.0012434134
72	0xbd019618	-0.03163728
73	0x3d322615	0.04349335
74	0xbc2d1554	-0.010564167
75	0x3a80250b	0.0009776665
76	0xbd06049a	-0.032719232
77	0xbc9b3261	-0.018944921
78	0xbc963cee	-0.0183396
79	0xbc43f47a	-0.011960143
80	0xbce261cf	-0.02763453
81	0xbd0cabfb	-0.0343437
82	0xbcf787b6	-0.03021608
83	0xbc8f09f2	-0.017460797
84	0x3d292690	0.04129654
85	0x3d9553fa	0.07291408
86	0xbc8badf1	-0.017050715
87	0xbcb29b6f	-0.021802632
88	0xbc7f1c14	-0.015570659
89	0xbd0d9d4e	-0.034573846
90	0xbcb294d4	-0.021799482
91	0xbc4df540	-0.012570679
92	0xbc165a44	-0.009176794
93	0xbc7068d8	-0.014673434
94	0xbab86479	-0.0014068029
95	0xbce7e270	-0.028306216
96	0xbce286bf	-0.027652143
97	0x3d11f6dc	0.035635814
98	0xbb3355a6	-0.0027364283
99	0xbd72ef26	-0.0593101
100	0xbd8552ee	-0.06509958
101	0xbd3a6709	-0.04550842
102	0xbcef0917	-0.029179139
103	0x3d9618c1	0.0732894
104	0x3d0efefc	0.03491114
105	0xbce9c6ca	-0.028537173
106	0x3d2d6abd	0.04233812
107	0xbb833d13	-0.0040050833
108	0x3bf9bcb8	0.007621374
109	0xbd4ac8d3	-0.049507927
110	0xbccd6159	-0.025070833
111	0x3d662fe2	0.05619801
112	0x3d4da3e5	0.05020513
113	0xbcf805c8	-0.030276194
114	0x3d79a4bf	0.06094813
115	0xbc9fef58	-0.019523308
116	0xbc889105	-0.016670713
117	0xbc3d5cc8	-0.011557765
118	0xbc861d56	-0.01637141
119	0xbd22db11	-0.0397597
120	0x3d5ac1bd	0.05340742
121	0xbbdafdfe	-0.0066831103
122	0x3ba44ff2	0.005014413
123	0xbc5773ae	-0.013150139
124	0xbc8b9303	-0.017037874
125	0xbd875ef7	-0.0660991
126	0xbc91f418	-0.017816588
127	0x3d81152d	0.06302867
