算法对比/DDPG/ddpg_model.ckpt (torch, 85953 bytes, 8 tensors)

linear1.weight f4 [128, 27]
0	0x3e3500f5	0.17676146
1	0xbe39da0c	-0.18149585
2	0xbc81e648	-0.015856877
3	0xbbcd0000	-0.0062561035
4	0x3e0e320d	0.1388628
5	0xbc6424c0	-0.0139247775
6	0x3ca62040	0.02027905
7	0xbd3548c8	-0.044258863
8	0xbe21ebbc	-0.15812582
9	0xbe0bbace	-0.13645479
10	0xbd8a0098	-0.067383945
11	0x3e2e5d51	0.17027785
12	0x3e225905	0.15854271
13	0x3de75356	0.11295192
14	0xbd948f06	-0.07253842
15	0x3e3a68ed	0.18204089
16	0xbe441298	-0.19147718
17	0xbdd5e8cc	-0.10444793
18	0xbd3a76a4	-0.0455233
19	0xbd8a7896	-0.06761281
20	0x3e390813	0.18069486
21	0x3c1ded10	0.00963904
22	0xbd07d67c	-0.033163533
23	0x3d8af3fe	0.06784819
24	0xbe1968ca	-0.1498138
25	0xbdaed83f	-0.085373394
26	0x3d1d8d24	0.03846468
27	0xbe11ce2d	-0.14238806
28	0x3da2d0e5	0.0795
29	0x3df4219d	0.11920474
30	0x3de0c9a0	0.10975957
31	0x3db5e594	0.08881679
32	0xba76738c	-0.0009401373
33	0xbd9d7e34	-0.07690087
34	0xbce14459	-0.027498411
35	0xbd23d349	-0.03999642
36	0xbc6051b6	-0.013691356
37	0xbdad75ad	-0.084697105
38	0xbdb2678b	-0.087111555
39	0xbe097f47	-0.13427459
40	0x3da7f904	0.08201793
41	0xbdc10836	-0.09425394
42	0x3dfa0cea	0.122094944
43	0xba3a5e85	-0.00071094214
44	0xbe894f93	-0.26818523
45	0xbd77856d	-0.06042998
46	0xbd8ad11e	-0.06778167
47	0x3c1fd215	0.009754677
48	0x3e174e8f	0.14776061
49	0x3e76893d	0.2407579
50	0xbe2ac0ed	-0.16675158
51	0x3dd4e6cd	0.10395584
52	0x3e3af52f	0.18257593
53	0xbe24e5cb	-0.16103284
54	0xbdcbfa75	-0.0995988
55	0x3da44616	0.0802118
56	0xbe2373aa	-0.15962091
57	0xbe39877b	-0.18118088
58	0x3db51472	0.0884179
59	0xbcf98950	-0.030460984
60	0xbd828246	-0.06372504
61	0x3d36578c	0.044517085
62	0xbe14d0f0	-0.14532828
63	0xbd3891e4	-0.045061007
64	0xbc2a3d00	-0.01039052
65	0x3dad1502	0.084512725
66	0xbd9535c2	-0.07285644
67	0x3e136a79	0.14396085
68	0x3dc62c9a	0.09676476
69	0x3df656de	0.12028287
70	0xbe07a3ea	-0.13246122
71	0xbd988cb2	-0.074487105
72	0x3df67dce	0.12035714
73	0x3e1c6159	0.1527151
74	0xbdc73b7c	-0.097281426
75	0xbdf28771	-0.1184224
76	0x3df1632a	0.11786492
77	0x3e06359f	0.13106392
78	0xbde1497e	-0.11000346
79	0x3c94f3f8	0.01818274
80	0x3d94a962	0.0725887
81	0x3ceb11a2	0.028694931
82	0x3de85981	0.113451965
83	0x3e1bd150	0.15216565
84	0xbd7868eb	-0.060646933
85	0xbcc55e7d	-0.024092907
86	0x3d176143	0.03695799
87	0xbdfff3ee	-0.12497698
88	0x3dfb7164	0.12277487
89	0x3e19b207	0.15009318
90	0xbdfd0b72	-0.12355699
91	0xbe3e7a6a	-0.18601385
92	0xbda97e93	-0.08276095
93	0xbc541920	-0.012945443
94	0xbd9890ae	-0.074494705
95	0xbe28ab89	-0.16471685
96	0x3d50f7b9	0.051017497
97	0xbe26c542	-0.16286185
98	0xbda25e98	-0.079281986
99	0xbe3d609c	-0.18493885
100	0x3db19909	0.08671767
101	0xbd17ce66	-0.03706207
102	0xbc8f322a	-0.017479975
103	0x3cf1dffc	0.02952575
104	0x3e4dc11b	0.20093195
105	0x3e2ec541	0.17067434
106	0x3e212ff6	0.15740952
107	0xbe02c42a	-0.12770143
108	0xbbb03dc0	-0.005378455
109	0xbdbad1e8	-0.09122068
110	0x3d790624	0.06079687
111	0x3d1c8188	0.038209468
112	0x3d8f73da	0.07004519
113	0xbe393e7e	-0.18090245
114	0xbd479aec	-0.04873173
115	0x3d782e8c	0.060591266
116	0x3e299fed	0.16564913
117	0xbd08263c	-0.03323959
118	0x3dda3a16	0.1065561
119	0x3c669880	0.014074445
120	0xbe36747b	-0.17817871
121	0xbc29ba80	-0.0103594065
122	0x3de4c7f2	0.11170949
123	0xbb127900	-0.0022349954
124	0x3df5b2ce	0.11996995
125	0x3e0dc4f7	0.13844667
126	0xbd09c6ec	-0.033636972
127	0x3e3dd121	0.18536808
128	0x3e160683	0.14650922
129	0xbc8554f0	-0.016275853
130	0xbdd88dd3	-0.10573926
131	0xbd84f988	-0.06492907
132	0xbe00a698	-0.1256355
133	0xbdc8b31c	-0.097997874
134	0xbd901366	-0.0703495
135	0x3e4708a6	0.19436893
136	0x3e0b2872	0.13589647
137	0x3d8eb5d7	0.06968277
138	0x3cedb27d	0.029015774
139	0x3e287e9e	0.1645455
140	0x3db02bf6	0.08602135
141	0x3e41efe6	0.1893917
142	0xbde29657	-0.11063831
143	0xbb181d64	-0.0023210878
144	0xbe0c36e4	-0.13692814
145	0x3cf0d52e	0.029398527
146	0x3da270e8	0.079316914
147	0xbdc5ea76	-0.096638605
148	0x3dcbb8ed	0.09947381
149	0x3ca4d911	0.020123037
150	0x3c414c0d	0.011797917
151	0x3d97fd58	0.07421368
152	0x3e0e329a	0.1388649
153	0xbe01fc96	-0.1269401
154	0x3ba1d503	0.004938723
155	0x3e120ff2	0.14263895
156	0xbe40588c	-0.18783778
157	0xbe7a671a	-0.24453393
158	0xbe3ec8d2	-0.18631294
159	0x3d27e257	0.04098734
160	0xbd407a0c	-0.046991393
161	0x3d303f09	0.043028865
162	0x3cad90a4	0.021187134
163	0x3e026446	0.12733564
164	0x3e6123a3	0.2198625
165	0x3e458c95	0.19291909
166	0x3dc463d1	0.09589351
167	0x3e47bd88	0.19505894
168	0x3e3c4d00	0.18388748
169	0x3e1c79d3	0.15280847
170	0xbaf17e20	-0.0018424429
171	0x3e1fb4e0	0.15596342
172	0xbe2072e7	-0.15668832
173	0xbe18c707	-0.14919673
174	0x3cc5c95e	0.02414387
175	0x3ccb5aae	0.024823513
176	0x3e4da906	0.20084009
177	0xbe290f15	-0.1650966
178	0xbdf4f277	-0.11960309
179	0xba84f092	-0.0010142496
180	0xbe96ad46	-0.29429072
181	0xbd65237a	-0.055942036
182	0x3d3b2ee3	0.04569901
183	0xbe1ba9ed	-0.1520154
184	0xbcaa0b8f	-0.020757465
185	0x3d56c1ff	0.052431103
186	0x3e1d4868	0.15359652
187	0xbe2c9179	-0.16852368
188	0x3d2c7f46	0.042113565
189	0xbc82a41f	-0.0159474
190	0xbe295604	-0.16536719
191	0x3d8ec826	0.06971769
192	0xbd9e7efe	-0.077390656
193	0xbdf9257a	-0.12165351
194	0x3e34812e	0.17627403
195	0x3e274658	0.16335428
196	0xbe04bda2	-0.12962964
197	0xbe15ec96	-0.14641032
198	0xbdf3e32b	-0.11908563
199	0x3d79a31e	0.060946576
200	0x3dbb836f	0.09155928
201	0x3dad1558	0.084513366
202	0xbda1c5bd	-0.07899044
203	0x3e4120cd	0.18860169
204	0x3cd2934f	0.025705008
205	0x3de43ab3	0.111440085
206	0xbd87bacc	-0.066274256
207	0x3d18c7ef	0.037300047
208	0xbd826a74	-0.063679606
209	0xbe2f3b10	-0.17112374
210	0x3e305b98	0.1722244
211	0xbda7b6f0	-0.081891894
212	0x3e095f72	0.13415316
213	0x3d3093bf	0.04310965
214	0x3d8b5522	0.06803347
215	0xbd9a55f6	-0.07535927
216	0xbbf64620	-0.007515684
217	0x3b2939c0	0.0025821775
218	0x3e3d9f77	0.18517862
219	0xbe0ef4a2	-0.13960508
220	0xbe26860e	-0.16262075
221	0x3e386721	0.1800809
222	0xbdc1962c	-0.09452471
223	0x3b014cc0	0.0019729584
224	0x3e0d20ff	0.13782118
225	0xbd7f3ec4	-0.062315717
226	0xbc265380	-0.010151744
227	0xbe304fcf	-0.17217945
228	0x3cf34070	0.029693812
229	0xbdaf62f8	-0.08563799
230	0x3d393bb4	0.045222953
231	0xbc59d6d0	-0.013295844
232	0xbccd0628	-0.02502735
233	0x3db5fa86	0.08885674
234	0xbe0e060d	-0.13869496
235	0x3ce87a18	0.028378531
236	0xbda87590	-0.08225548
237	0xbd06fb28	-0.032954365
238	0x3dd55be6	0.10417919
239	0xbdec6952	-0.11543526
240	0x3cb60688	0.022219911
241	0xbd61caac	-0.055124924
242	0xbb83ece0	-0.0040260404
243	0x3dee0306	0.116216704
244	0x3e19cd3a	0.15019694
245	0xbba573e7	-0.005049217
246	0xbbe2a498	-0.0069165938
247	0x3dc43844	0.09581044
248	0x3e15296c	0.14566582
249	0xbe0e0059	-0.1386732
250	0x3dde2cce	0.108483896
251	0x3c8e02a6	0.017335247
252	0xbe03f3e9	-0.12886013
253	0xbc8403af	-0.016115038
254	0xbe49a3d8	-0.19691408
255	0xbe5bcaa7	-0.21464024

linear1.bias f4 [128]
0	0xbe4486eb	-0.19192092
1	0xbccbb630	-0.024867147
2	0xbdb58637	-0.0886349
3	0x3d9ab442	0.07553913
4	0xbd145cf8	-0.036221474
5	0xbd968df4	-0.07351294
6	0x3ca0702b	0.019584736
7	0x3dc3f9d4	0.09569135
8	0x3d2f99d0	0.042871296
9	0xbd658b69	-0.056041155
10	0xbe413153	-0.18866472
11	0x3decbbaa	0.115592316
12	0xbe16c2da	-0.14722767
13	0x3c971497	0.018442435
14	0xbe36381b	-0.1779484
15	0xbe22d406	-0.15901193
16	0xbe129872	-0.14315966
17	0xbd2af4b0	-0.04173726
18	0x3e266d16	0.1625255
19	0xbdad3278	-0.08456892
20	0x3d39bcdd	0.04534613
21	0x3cc0f4a1	0.023554148
22	0x3e3878af	0.18014787
23	0x3e35abb3	0.1774128
24	0xbe1edbe3	-0.15513568
25	0x3e3f2e79	0.18670072
26	0x3e0c9022	0.13726857
27	0xbe0fa8f2	-0.14029291
28	0xbd4c4b37	-0.049876418
29	0xbde9b496	-0.11411397
30	0xbe0ffbda	-0.14060917
31	0x3d8181d8	0.06323594
32	0xbe34dede	-0.17663142
33	0xbe4e0a95	-0.20121224
34	0x3e31b6f2	0.17354944
35	0xbca6f118	-0.020378634
36	0xbd5250f4	-0.051346734
37	0x3e1f7f93	0.1557601
38	0x3e269794	0.1626876
39	0xbcaaea10	-0.020863563
40	0x3e1dc833	0.15408401
41	0xbda01a91	-0.07817567
42	0x3e13d49b	0.14436571
43	0x3dc62e6d	0.09676824
44	0x3cd2778b	0.025691768
45	0xbd95b1ec	-0.073093265
46	0x3e2783d1	0.16358878
47	0xbdf059db	-0.117358886
48	0xbdfec0cd	-0.124391176
49	0x3dd8aca6	0.10579805
50	0xbd82e846	-0.06391959
51	0x3deb24a2	0.114815965
52	0xbde6b101	-0.112642296
53	0xbe14911e	-0.14508483
54	0xbdf063f8	-0.117378175
55	0xbdda961a	-0.10673161
56	0x3df70101	0.12060738
57	0xbdd153b7	-0.102210455
58	0xbdef4882	-0.11683752
59	0xbe0788d6	-0.13235793
60	0x3d9de1b6	0.077090666
61	0x3daaa4c9	0.083322115
62	0x3e521bf6	0.20518479
63	0xbd204c14	-0.039135054
64	0xbe0b792c	-0.13620442
65	0xbd541aff	-0.051783558
66	0xbd29abb8	-0.04142353
67	0x3e0090fd	0.12555309
68	0xbc730380	-0.014832377
69	0x3d1c696d	0.03818648
70	0x3d278184	0.040895
71	0x3e4542cb	0.19263761
72	0x3da053da	0.078284934
73	0x3dd7bc06	0.105339095
74	0x3dd72228	0.10504562
75	0x3d02ca7d	0.03193139
76	0xbd89c848	-0.06727654
77	0xbd69e7d7	-0.057105865
78	0xbdb9d458	-0.090737045
79	0x3dfa960e	0.12235652
80	0xbe190413	-0.1494296
81	0xbe3b805c	-0.18310684
82	0xb9f7f4dd	-0.0004729395
83	0x3e29235b	0.16517393
84	0x3daf0ffe	0.08547972
85	0xbc3bcba1	-0.011462123
86	0x3e3394f1	0.17537285
87	0xbcd4d9b0	-0.025982708
88	0x3d34dbe4	0.044155017
89	0x3e24d6e4	0.160976
90	0xbd211fd4	-0.039336994
91	0xbd0f4439	-0.03497717
92	0xbe1d2757	-0.15347038
93	0xbc954a70	-0.018223971
94	0xbcab2a9d	-0.020894343
95	0x3d107547	0.035268094
96	0xbe59b3fa	-0.21260062
97	0x3e5be5fa	0.21474448
98	0x3d0c1aa0	0.03420508
99	0x3d6fde6a	0.05856172
100	0xbe237147	-0.1596118
101	0x3d26617d	0.040620316
102	0x3e35f836	0.17770466
103	0x3e2a008f	0.16601776
104	0x3e1ca559	0.1529745
105	0x3de549d3	0.111957215
106	0x3db48e4b	0.08816203
107	0x3e3b04ef	0.18263601
108	0xbe1d8184	-0.15381438
109	0x3e13bb7c	0.14426988
110	0xbdd7d88d	-0.10539351
111	0xbe20a383	-0.15687375
112	0x3cb99420	0.02265364
113	0xbe0c04d9	-0.13673724
114	0xbe49925f	-0.19684742
115	0xbdd24c06	-0.102684066
116	0xbd90b4c7	-0.070657305
117	0x3e092382	0.13392451
118	0xbd98a410	-0.074531674
119	0x3e202fa3	0.15643172
120	0xbd132cec	-0.035931513
121	0xbe2dd9bd	-0.16977592
122	0xbde816a9	-0.11332447
123	0x3e251636	0.16121754
124	0xbe2e6759	-0.17031612
125	0x3e32bd4f	0.17455028
126	0xbd1cb922	-0.038262494
127	0x3c8b0a14	0.016972579

linear2.weight f4 [128, 128]
0	0x3d6af3c2	0.05736137
1	0xbd4bb98e	-0.049737506
2	0x3d423cb2	0.047421165
3	0x3da41cb8	0.0801329
4	0xbd67a62f	-0.05655497
5	0xbd8b2494	-0.06794086
6	0xbd881eeb	-0.06646522
7	0x3c041ff1	0.008064256
8	0x3c9c9cd8	0.019117758
9	0xbc827c8c	-0.01592853
10	0x3dade304	0.084905654
11	0x3d134cb6	0.03596183
12	0xbd8522f3	-0.06500807
13	0x3b013ed1	0.001972128
14	0xbd54ee88	-0.051985294
15	0xbdf74534	-0.12073746
16	0x3b6ffcb7	0.0036619136
17	0x3d92f9a5	0.07176522
18	0xbd698161	-0.05700815
19	0xbd40fd3b	-0.0471165
20	0x3dc76407	0.097358756
21	0x3c94207f	0.018081902
22	0xbd941264	-0.0723007
23	0xbcfee704	-0.031116016
24	0x3d74e716	0.059790693
25	0x3db23255	0.08701006
26	0x3d5675f8	0.052358598
27	0xbd7df5d4	-0.062002018
28	0xbbf7535f	-0.0075477804
29	0x3d8b2b7d	0.06795404
30	0xbdbc8c24	-0.09206417
31	0xbd4a2aff	-0.04935741
32	0x3dbb8be9	0.09157545
33	0xbde1755a	-0.11008711
34	0x3c9f18d9	0.019421028
35	0xbd36595b	-0.04451881
36	0x3d11879d	0.03552972
37	0x3c2f85c6	0.010713046
38	0x3dd10951	0.10206855
39	0xbd943fe0	-0.07238746
40	0xbc9a8874	-0.018863894
41	0xbcee9499	-0.029123591
42	0x3d586c86	0.05283787
43	0x3b238079	0.0024948402
44	0x3d69923a	0.05702422
45	0xbc9f1fd8	-0.019424364
46	0x3ccddc7c	0.02512955
47	0x3d5d1438	0.05397436
48	0xbd9b12b7	-0.07571929
49	0x3d40cded	0.047071386
50	0xbd46b1c5	-0.048509378
51	0x3c108cc0	0.00882262
52	0xbd68e1ee	-0.05685609
53	0xbd001929	-0.031273995
54	0x3b4a6f69	0.003088916
55	0x3d1dc96c	0.03852217
56	0x3cd10ff1	0.025520297
57	0xbcdafb46	-0.026731145
58	0x3d475f6a	0.04867498
59	0x3d06fa71	0.032953683
60	0x3c9977f0	0.018733948
61	0xbd2718b7	-0.040795054
62	0x3d4117f1	0.047141973
63	0xbe243d39	-0.1603898
64	0xbd8ceef3	-0.068815134
65	0xbd91ab49	-0.07112748
66	0xbc0fd3f0	-0.008778557
67	0x3c2a5b28	0.01039771
68	0xbda9512e	-0.08267437
69	0xbcee7d9c	-0.02911263
70	0x3b154be0	0.002278082
71	0x3d1ebf78	0.038756818
72	0x3c771c93	0.015082496
73	0xbce4d262	-0.02793235
74	0xbc8410ea	-0.016121347
75	0xbd12253a	-0.035680033
76	0x3daa2319	0.083074756
77	0xbdaaacd1	-0.08333743
78	0x3df6eb6f	0.12056624
79	0x3d89a08d	0.06720076
80	0xbd51acaa	-0.051190056
81	0x3be42020	0.0069618374
82	0xbd21a73d	-0.03946613
83	0x3cf86054	0.03031937
84	0xbd949266	-0.07254486
85	0xbd245197	-0.040116873
86	0xbc75bbf0	-0.014998421
87	0x3dab5d2f	0.08367383
88	0xbc79fc70	-0.01525794
89	0xbd907df4	-0.07055274
90	0x3d2a47cd	0.04157238
91	0xbd2a7507	-0.041615512
92	0xbd4d6c43	-0.050152075
93	0xbd95de90	-0.07317841
94	0xbd936f34	-0.07198945
95	0x3d0d93b9	0.034564707
96	0x3b8cd958	0.0042983703
97	0x3d5b506f	0.053543504
98	0xbd9f32c7	-0.07773357
99	0xbccf4080	-0.02529931
100	0x3b9b29e0	0.0047352165
101	0xbd9b83a5	-0.075934686
102	0x3dba2d87	0.09090715
103	0x3d8e533c	0.069494694
104	0x3d79e4be	0.06100916
105	0xbd9e31ae	-0.077243194
106	0x3b0b4d78	0.0021255892
107	0xbde8fc69	-0.113762684
108	0x3dc34cdc	0.09536144
109	0xbba59c44	-0.0050540287
110	0x3d4a97d4	0.0494612
111	0x3d54b7d0	0.05193311
112	0x3d22567e	0.039633267
113	0x3e366019	0.17810096
114	0xbd152bfd	-0.036418904
115	0xbcbe08c0	-0.023197532
116	0xbd023977	-0.031793084
117	0x3bb8ff38	0.005645659
118	0x3d244aa8	0.04011026
119	0x3dc4e923	0.0961478
120	0xbca17f30	-0.019713968
121	0x3c25e3c8	0.010125108
122	0x3dcaa41e	0.09894584
123	0xbd9909b5	-0.074725546
124	0x3c23c95f	0.009996741
125	0x3daf8c99	0.08571739
126	0xbe1c421c	-0.15259594
127	0x3dd54185	0.104128875
128	0x3cf652b4	0.030068733
129	0x3c4a0763	0.012330863
130	0xbd5d01d0	-0.053956807
131	0x3d6a9c0e	0.05727773
132	0x3cfa6c04	0.030569084
133	0x3dde1b8f	0.108451
134	0xbc4519f2	-0.012030112
135	0x3d909a1b	0.07060643
136	0x3ca84a6c	0.0205433
137	0x3d6fd1d8	0.058549732
138	0x3dc2a9dc	0.09505054
139	0x3c3af624	0.011411224
140	0xbd776736	-0.060401164
141	0x3cc83835	0.024440864
142	0xbd99adfb	-0.07503887
143	0x3d3ae178	0.04562518
144	0x3d175c3e	0.036953203
145	0x3d9dad59	0.07699079
146	0x3cf4a3c7	0.029863251
147	0x3da315f9	0.07963175
148	0x3d79121e	0.060808294
149	0xbcbc3ff8	-0.022979721
150	0x3c347b28	0.011015691
151	0x3d0e8340	0.03479314
152	0xbd3d7819	-0.046257112
153	0xbcb8f138	-0.02257596
154	0x3d2965a5	0.0413567
155	0xbd74274a	-0.05960778
156	0x3e34e16b	0.17664115
157	0xbc5f8aa5	-0.013643895
158	0x3bbfdfdf	0.005855545
159	0xbb8df25d	-0.0043318705
160	0xbd521c77	-0.051296677
161	0xbdaa686d	-0.08320699
162	0xbc85900e	-0.016304042
163	0x3d7f857e	0.062383167
164	0xbcb956a1	-0.022624316
165	0xbd1de1b4	-0.038545325
166	0x3dda9731	0.10673369
167	0x3ca13354	0.019677795
168	0xbdadc654	-0.08485094
169	0x3d99c9d3	0.07509198
170	0xbd66d769	-0.056357775
171	0x3b86e1e4	0.0041162837
172	0xbd641152	-0.05568058
173	0x3c953663	0.01821441
174	0x3d991f29	0.074766465
175	0xbd2e1f14	-0.042510107
176	0xbc1f2430	-0.009713218
177	0xbdbfc9e2	-0.09364678
178	0xbce7af14	-0.028281726
179	0x3caaefc0	0.020866275
180	0xbb193700	-0.002337873
181	0xbda03492	-0.07822527
182	0x3d6a85b4	0.057256415
183	0x3c2be9fd	0.010492799
184	0x3d4fb6ba	0.05071137
185	0xbce49ccc	-0.027906798
186	0xbd0f9d12	-0.035061903
187	0x3d94631c	0.07245466
188	0xbd84a6fb	-0.064771615
189	0xbcc1f7eb	-0.023677787
190	0x3bba1ecd	0.0056799413
191	0xbd86da3f	-0.06584596
192	0xbca374e9	-0.019953208
193	0x3ce37522	0.027765814
194	0xbb8ecc20	-0.0043578297
195	0x3d4b435a	0.04962478
196	0x3c4c4ad8	0.012469016
197	0x3c2105f6	0.009828081
198	0x3ce8cb0c	0.028417133
199	0x3df2f890	0.11863816
200	0xbd77957f	-0.060445305
201	0x3ce872cc	0.028375052
202	0x3c4342b1	0.011917756
203	0x3da6a8ab	0.081376396
204	0x3d5febf4	0.05466838
205	0x3dc1fac5	0.094716586
206	0x3e2ff531	0.17183377
207	0x3d08735c	0.03331314
208	0x3c4f5020	0.012653381
209	0xbd9f6190	-0.077822804
210	0x3d2bfa24	0.0419866
211	0xbd30e8aa	-0.043190636
212	0xbd8131e6	-0.063083455
213	0x3d46d0fd	0.04853915
214	0x3d8a4281	0.06750966
215	0x3daf3019	0.08554096
216	0x3d0e5b28	0.034754902
217	0x3d32b3f1	0.043628637
218	0xbd856f59	-0.065153785
219	0xbcfb12ef	-0.030648677
220	0xbcc19edb	-0.023635319
221	0xbd6a5bde	-0.057216518
222	0xbd858aa4	-0.06520584
223	0xbd0a38bb	-0.03374551
224	0xbd9a0365	-0.07520179
225	0xbd84818d	-0.06470022
226	0x3c805c54	0.015669025
227	0x3b8e6e6e	0.0043466603
228	0xbc105dc8	-0.008811422
229	0xbdfc8790	-0.12330544
230	0x3e1523f3	0.14564495
231	0x3bdb0ba5	0.0066847377
232	0xbd2e74cf	-0.042591866
233	0xbab4b52d	-0.0013786905
234	0xbb93571e	-0.004496469
235	0x3b30862e	0.0026935446
236	0x3db92edd	0.090421416
237	0xbdf1a950	-0.11799872
238	0xbd83a844	-0.064285785
239	0x3dabd3d1	0.0839001
240	0x3d2127a2	0.039344437
241	0x3dc00a4b	0.09376963
242	0x3c790698	0.015199326
243	0x3d487a3e	0.048944704
244	0x3d204ded	0.039136816
245	0x3d595086	0.05305531
246	0xbd236114	-0.039887503
247	0x3db35388	0.08756167
248	0xbd02013d	-0.031739462
249	0x3d9d4665	0.07679442
250	0xbd822f6b	-0.063567005
251	0x3daa7e49	0.08324868
252	0x3bb4175a	0.005495948
253	0x3dabd301	0.08389855
254	0xbd9da789	-0.076979704
255	0x3ccfb2c8	0.025353804

linear2.bias f4 [128]
0	0xbd8d6253	-0.069035195
1	0x3dd25a1a	0.10271092
2	0xbba2bdc0	-0.0049664676
3	0x3d21d43b	0.03950904
4	0xbc05a4a4	-0.008156929
5	0x3cfa30cd	0.030540848
6	0xbd9597d7	-0.07304352
7	0xbd120061	-0.035644893
8	0x3c68ad2c	0.014201444
9	0xbd9af85a	-0.075669006
10	0x3d8e92e9	0.06961615
11	0x3d9d369c	0.076764315
12	0x3da73773	0.08164873
13	0x3d53a713	0.051673006
14	0x3d61681a	0.05503092
15	0x3d15d0fa	0.03657625
16	0x3c9363b2	0.017991874
17	0x3d8766fa	0.06611438
18	0xbd2956cb	-0.041342538
19	0xbccbcb19	-0.024877118
20	0xba708980	-0.00091757625
21	0xbcf65776	-0.030071001
22	0xbd8857ff	-0.06657409
23	0xbd0759d8	-0.033044666
24	0x3d5a6cba	0.053326346
25	0xbdabb6b9	-0.08384461
26	0xbcd84f90	-0.026405126
27	0x3d2dd1eb	0.04243652
28	0x3d90b3ec	0.070655674
29	0xbd55703b	-0.052108984
30	0x3da91327	0.08255606
31	0x3dae3f7a	0.08508201
32	0xbd465f5c	-0.048430786
33	0x3d72eeb5	0.05930968
34	0x3da311a7	0.07962351
35	0x3c65caf4	0.014025439
36	0xbacd3780	-0.0015656799
37	0x3d2f838e	0.04285007
38	0xbcf0b981	-0.02938533
39	0xbd6b4512	-0.057438917
40	0x3d9f76d5	0.07786337
41	0x3d9f72e7	0.07785588
42	0xbd77a172	-0.0604567
43	0xbd5da261	-0.054109935
44	0xbcbe9604	-0.023264892
45	0x3d2e1151	0.042496983
46	0x3d70c569	0.058782015
47	0x3d558d61	0.052136783
48	0xbd1c7f2a	-0.03820721
49	0x3b68f5fb	0.0035547006
50	0xbd86c78b	-0.065810286
51	0xbcd21268	-0.025643542
52	0xbdbbe317	-0.09174173
53	0x3b1e6b23	0.0024172745
54	0x3d887aa1	0.066640146
55	0xbdb8d316	-0.090246364
56	0xbd22992e	-0.039696865
57	0xbd571756	-0.05251249
58	0xbcc6868c	-0.024234079
59	0xbd2c18c5	-0.04201581
60	0x3d61d80e	0.055137686
61	0x3d877035	0.06613199
62	0xbd984506	-0.0743504
63	0xbc91ab12	-0.017781768
64	0xbd761490	-0.060078204
65	0x3ca4d7d7	0.020122452
66	0xbd0f3fda	-0.034973003
67	0x3d5a7ada	0.053339817
68	0x3d2cee7a	0.042219616
69	0x3db8babc	0.09019992
70	0x3c8fb274	0.017541148
71	0xbd827a4d	-0.06370983
72	0x3d80399d	0.06260989
73	0xbd918019	-0.07104511
74	0xbd5249e2	-0.05133999
75	0x3d90a637	0.07062953
76	0x3db2e421	0.087349184
77	0xbc3a96e1	-0.011388511
78	0xbd88e2af	-0.066838615
79	0x3d99e692	0.07514681
80	0x3cf57376	0.029962283
81	0x3be3ed8d	0.0069558085
82	0xbd21f4eb	-0.039540213
83	0x3c7c7aa8	0.015410103
84	0xbdc0828d	-0.093999006
85	0xb98c2800	-0.00026732683
86	0xbd36c3c9	-0.04462031
87	0xbd678bd2	-0.056529827
88	0xbd9422b7	-0.07233184
89	0xbd03d2fb	-0.03218363
90	0xbd6ea05e	-0.058258407
91	0x3c6c4418	0.014420532
92	0x3d8344a6	0.06409578
93	0x3d8966aa	0.06709035
94	0x3c0a757d	0.008450863
95	0x3afa3127	0.0019088135
96	0xbd898362	-0.067145124
97	0x3d2e5ffa	0.042572
98	0x3d99030d	0.07471285
99	0xbd530755	-0.051520664
100	0xbd4d38f7	-0.050103154
101	0xbd966a2d	-0.0734447
102	0x3d566d14	0.05235012
103	0xbd53ea2c	-0.051736996
104	0x3c80e066	0.015732002
105	0xbd688d0b	-0.056775134
106	0xbd2c9adc	-0.042139873
107	0x3cf6c0b2	0.030121181
108	0x3cfa3f9a	0.030547906
109	0xbd694820	-0.05695355
110	0x3d3844f2	0.044987626
111	0xbda32dfa	-0.07967754
112	0x3da3444b	0.0797201
113	0x3d8a0586	0.06739335
114	0xbd5e9cfc	-0.05434893
115	0xbdbc33bf	-0.09189557
116	0xbcab57c6	-0.020915877
117	0x3cc28fe4	0.023750253
118	0xbd92e76d	-0.07173047
119	0xbcbfc35b	-0.023408582
120	0x3dca33c3	0.09873154
121	0xbc591ade	-0.013251035
122	0x3da52873	0.08064356
123	0xbd1b980e	-0.037986808
124	0xbc5d34fd	-0.013501403
125	0x3cbe08af	0.0231975
126	0xbda5dd05	-0.08098797
127	0xbd882d92	-0.06649317

linear3.weight f4 [1, 128]
0	0xba040acf	-0.0005037011
1	0x3bc1d5d9	0.005915385
2	0x3bb5f613	0.005553016
3	0x3ce394dd	0.027780944
4	0x3c780311	0.01513745
5	0x39f0066f	0.0004578116
6	0xbca6a7dc	-0.020343713
7	0xb98806ca	-0.00025945
8	0xbb175963	-0.002309405
9	0x3aa7a8af	0.001279136
10	0xbc51c191	-0.0128024975
11	0xbc705ca2	-0.014670523
12	0x3dce6850	0.1007849
13	0xbb2d2a20	-0.0026422814
14	0x3b26b758	0.0025438871
15	0x3b6ec741	0.0036434683
16	0xbb6a09fb	-0.0035711515
17	0x3c4adb66	0.01238141
18	0xbcfebb05	-0.031095037
19	0xbd4d6eae	-0.05015438
20	0xbaf1e58b	-0.001845525
21	0xbb676ce0	-0.0035312697
22	0x3bcfcf21	0.0063418304
23	0x3afc01e0	0.0019226633
24	0xba6e2778	-0.0009084861
25	0xbcb96ca5	-0.022634814
26	0x3acfd970	0.0015857648
27	0x3d8ce69e	0.06879924
28	0xbb03fe83	-0.0020140714
29	0x3a88f374	0.0010448531
30	0x3e2f9edf	0.17150448
31	0x3d30db9e	0.043178193
32	0xba5f3bb8	-0.00085156737
33	0xbc9051e6	-0.017617177
34	0x3ae00db8	0.0017093932
35	0xbb519878	-0.0031981748
36	0x39cca528	0.00039032963
37	0x3bfdb832	0.007742905
38	0x3b1e4b97	0.0024153942
39	0xbc99f3b0	-0.018792957
40	0xbb439eaa	-0.002984921
41	0x3b29423b	0.002582683
42	0x3dd4c5c2	0.10389282
43	0xbd672825	-0.05643477
44	0xb96cfee7	-0.00022601672
45	0x3b26095d	0.002533517
46	0x3c6e28fa	0.014536137
47	0xbd26bf30	-0.040709674
48	0x3bf8734d	0.0075821043
49	0x3cc83a1d	0.024441773
50	0xbc5ffb08	-0.01367069
51	0x3a45accc	0.00075407024
52	0x3e0bd0dd	0.13653894
53	0xbd83659a	-0.06415863
54	0x3c8034f8	0.015650257
55	0xbc3892aa	-0.011265436
56	0xbd7d488f	-0.061836775
57	0xbd6a55fe	-0.057210915
58	0xbb0a6abe	-0.0021120752
59	0x3c48b48f	0.01225008
60	0xbb230b31	-0.0024878497
61	0x3ce8f77e	0.028438326
62	0xbc7b4a29	-0.015337505
63	0xbd277a28	-0.04088798
64	0x3a7edcb0	0.0009722216
65	0xbd4b8f90	-0.04969746
66	0x3b5b830c	0.0033494858
67	0xbd0e63bf	-0.034763094
68	0x3cb239d8	0.021756098
69	0x3ab208f1	0.0013582987
70	0xbab92c30	-0.0014127549
71	0x3cccceb6	0.025000911
72	0x3aa6b43e	0.0012718511
73	0xbc7f04b9	-0.015565091
74	0x3b3bfc50	0.0028684326
75	0xbc456d2d	-0.012049955
76	0x3c06b2d2	0.008221345
77	0xbcd46a6a	-0.025929648
78	0x3c0741e3	0.008255455
79	0xba24da42	-0.00062886265
80	0xb904eb7a	-0.00012676223
81	0xbbbdd688	-0.0057933964
82	0xbb026eb6	-0.0019902415
83	0xbb37a4f2	-0.00280219
84	0x3a787ff8	0.0009479518
85	0x3b00b950	0.0019641705
86	0xbb9e00b5	-0.0048218616
87	0xbaa62413	-0.0012675546
88	0x3a895bd8	0.0010479642
89	0x39f7a320	0.0004723305
90	0xbacdb1fa	-0.00156933
91	0x3aa10738	0.0012285477
92	0x3b1d4a44	0.0024000565
93	0xbd6581b3	-0.056031894
94	0xbc37eea5	-0.011226331
95	0x3c1e953c	0.009679135
96	0x3b573df3	0.003284332
97	0x3b3a59ba	0.002843483
98	0xbb24ad82	-0.0025127833
99	0x3d6cfd20	0.057858586
100	0x3b0fbc9f	0.0021932495
101	0x3ba5b5b3	0.0050570606
102	0x3a36d7fd	0.0006974934
103	0xbdaf15ce	-0.08549081
104	0xbc004c6a	-0.0078307185
105	0xbb79a80f	-0.0038094555
106	0xb8701400	-5.7239085e-05
107	0x3cb8df3f	0.02256739
108	0x3cf58515	0.029970685
109	0x3a2eecb3	0.0006672844
110	0x3c740cc0	0.014895618
111	0xbb1d00e6	-0.0023956834
112	0x3b0b9868	0.0021300558
113	0xbd2c1f81	-0.042022232
114	0xbab9f886	-0.0014188446
115	0x3ac757d0	0.0015208665
116	0x3c19e90c	0.009393942
117	0x3abba272	0.001431538
118	0x3e478d62	0.19487527
119	0xbe559d62	-0.20860818
120	0x3d1ea966	0.03873577
121	0x3a76da67	0.00094167
122	0xbaaaa93a	-0.0013020404
123	0xbc04c570	-0.008103713
124	0xbc810512	-0.015749488
125	0xba517536	-0.0007990183
126	0xb9e06050	-0.00042796368
127	0xbce17bbd	-0.027524823

linear4.weight f4 [1, 128]
0	0xbca7c168	-0.020477965
1	0x3d1a6a33	0.037698936
2	0x3cd6d8d9	0.026226448
3	0x3b8d25d2	0.004307487
4	0x3cd322a6	0.025773358
5	0xbdbc9d5f	-0.09209704
6	0xbd77a6be	-0.060461752
7	0xbbc76d90	-0.006086059
8	0x3b7b5d02	0.0038354998
9	0x3c01b5e7	0.007916904
10	0x3d4157cb	0.047202867
11	0xbd33e47c	-0.04391907
12	0xbe23ea90	-0.16007447
13	0x399ddb6b	0.00030108853
14	0xbad05214	-0.0015893602
15	0x3a7e8dc3	0.0009710455
16	0xbd0303e4	-0.031986132
17	0x3bef97e3	0.0073118075
18	0xbcbbd7fe	-0.022930142
19	0x3c8890a4	0.016670533
20	0x3b31aa54	0.002710958
21	0x3b1ace49	0.002362149
22	0xbb08f7be	-0.002089962
23	0x3dd76a34	0.105183035
24	0xb9ab0a90	-0.0003262353
25	0xbd5df2e9	-0.054186735
26	0xbb2b5cf4	-0.0026147934
27	0x3d88959e	0.06669162
28	0xb9b3d5d1	-0.00034300846
29	0x3be4229c	0.0069621336
30	0xbd31be2e	-0.04339426
31	0xbc04f41f	-0.008114844
32	0xbb3adc29	-0.0028512573
33	0xbd4b8d9c	-0.049695596
34	0xbb3102eb	-0.0027009796
35	0x3ac6b97d	0.0015161481
36	0xb929c740	-0.00016191322
37	0x3dd10008	0.10205084
38	0x3ad7aca0	0.0016454645
39	0x3cbd107f	0.023079155
40	0x3a93d6f8	0.0011279276
41	0x3bc2ccd4	0.0059448276
42	0xbd71e7e9	-0.059059057
43	0xba85f6d4	-0.0010220655
44	0x39b34279	0.00034191067
45	0x3d8e4166	0.069460675
46	0x3d82a270	0.06378639
47	0xbc959855	-0.018261114
48	0xbe022288	-0.12708485
49	0xbda3137c	-0.07962701
50	0x3d7c53cd	0.061603356
51	0x3b20f45e	0.0024559717
52	0x3e8f6bdc	0.28011978
53	0xbd1557e0	-0.036460757
54	0xbdb85aa3	-0.090016626
55	0x3c00cabb	0.007860835
56	0x3cc3eb83	0.023916012
57	0x3e18cfdf	0.14923047
58	0xb9a3dcc8	-0.00031254278
59	0x3d4a8f79	0.049453232
60	0x3b37204e	0.002794284
61	0x3ce4c837	0.027927501
62	0xbce47fe6	-0.027893018
63	0x3cba6461	0.022752943
64	0xbabe8637	-0.0014535849
65	0x3d154b92	0.036449023
66	0xbacb6451	-0.0015517568
67	0xbdc33ff9	-0.09533686
68	0xb985a4ed	-0.00025490616
69	0xbb9451c0	-0.004526347
70	0x39b64f40	0.0003477279
71	0x3d370ad2	0.044688053
72	0x3ba24943	0.004952581
73	0xbd41a2ba	-0.04727433
74	0xbb095112	-0.0020952863
75	0x3b5761f5	0.0032864783
76	0x3c38d103	0.011280301
77	0x3b64ea43	0.003492967
78	0xbd6ba76d	-0.057532717
79	0xba7c97d8	-0.00096356636
80	0x3bac308a	0.0052548097
81	0xb918b1d1	-0.00014562091
82	0x3acb2e20	0.0015501417
83	0x392b1910	0.00016317167
84	0xb9b498b2	-0.00034446042
85	0x3b350ccc	0.0027626036
86	0x3c6d21d6	0.014473399
87	0x3935799b	0.00017306807
88	0xba0aec9c	-0.000529954
89	0xba2b2d88	-0.0006529917
90	0xbd55061a	-0.052007772
91	0x3abebbf8	0.0014551869
92	0xbcb3e2e1	-0.02195877
93	0xbd98a177	-0.07452672
94	0xbd42934e	-0.047503762
95	0x3befceeb	0.0073183677
96	0x3c6a4c85	0.01430047
97	0x3bd8eacd	0.0066197873
98	0x3cebb64e	0.028773453
99	0x3dac875a	0.08424254
100	0xbaaa7f18	-0.0013007848
101	0x3a17dea1	0.0005793367
102	0xbcf32a18	-0.029683158
103	0xbc698893	-0.014253753
104	0xbd2984f8	-0.041386575
105	0x3c446e64	0.01198921
106	0x3a151f98	0.0005688607
107	0x3ab1500e	0.0013527886
108	0x3d9e33e2	0.077247396
109	0x3b03d742	0.0020117317
110	0x3c114b6d	0.008868081
111	0xba8a083f	-0.0010531022
112	0xbb2a5236	-0.0025988943
113	0x3c98cfb8	0.018653736
114	0x3b53bfa3	0.003231027
115	0x3aa0a48b	0.0012256069
116	0xbc12d0ef	-0.008960946
117	0x3b1bcfc6	0.0023774966
118	0x3d3c70b6	0.046005927
119	0x3e0a018c	0.13477153
120	0x3daf7324	0.08566883
121	0x3cf7cc59	0.030248808
122	0xbb138afa	-0.0022513256
123	0x3d12054e	0.03564959
124	0x3c5bc63c	0.013413962
125	0x3ab073ec	0.0013462282
126	0x399f4310	0.0003037681
127	0x3d2aab8f	0.041667517

linear5.weight f4 [1, 128]
0	0x3d3b662a	0.045751728
1	0x3e15ee88	0.14641774
2	0xbd442eda	-0.047896244
3	0x3db6171c	0.088911265
4	0xbd0ef482	-0.03490115
5	0xbcadef32	-0.021232221
6	0xbc8dcb66	-0.017308902
7	0xbae2435b	-0.0017262505
8	0xbbd3399d	-0.006446077
9	0xbd1ca291	-0.038240973
10	0xbd2d2785	-0.042274017
11	0x3dc4170e	0.0957471
12	0xbdc632b4	-0.096776396
13	0xbbf25bd4	-0.0073962007
14	0x3b41529a	0.0029498697
15	0x3c897376	0.016778689
16	0xbb5947b0	-0.0033154301
17	0xbce18d83	-0.027533298
18	0xbd824fa9	-0.0636285
19	0x3ca6ab5d	0.020345384
20	0xba228ef8	-0.00062011136
21	0x3dd3ac95	0.10335652
22	0xbded6b59	-0.115927406
23	0xbe06439e	-0.13111731
24	0xbb1165f4	-0.0022186013
25	0x3d1f4e78	0.038893193
26	0x3a9be8c4	0.0011894931
27	0x3d55f360	0.052234054
28	0xbbf7a090	-0.0075569823
29	0x3c02633c	0.00795823
30	0xbe07327c	-0.13202852
31	0x3d80bfc1	0.06286574
32	0xba15a2b0	-0.0005708141
33	0xbd33e1ab	-0.043916386
34	0x3b1ef4f4	0.002425489
35	0xbb04e84e	-0.0020280066
36	0x3a3b554c	0.0007146194
37	0x3bca0bd5	0.0061659613
38	0xba5cc6dc	-0.00084219663
39	0x3da1d49a	0.07901879
40	0xb9e06cd8	-0.00042805704
41	0x3c26bc34	0.010176707
42	0x3e359e94	0.17736274
43	0x3d60dbd1	0.054897133
44	0xbb9d9754	-0.0048092995
45	0x3e4d5e8f	0.20055602
46	0x3e81bcb1	0.25339273
47	0xbdda7b62	-0.10668065
48	0x3d9ee0d9	0.0775773
49	0x3ac1fea5	0.0014800621
50	0xbd1b7748	-0.037955552
51	0x3b31e98c	0.0027147261
52	0x3d16fc2e	0.03686159
53	0xbddddbd3	-0.10832944
54	0xbe2398d0	-0.15976262
55	0xbc78f28e	-0.015194548
56	0x3d98d400	0.07462311
57	0x3e87468b	0.26421008
58	0xba5ffb00	-0.0008544177
59	0x3e16b1b8	0.14716232
60	0x3c435baf	0.011923715
61	0x3d18d27d	0.037310112
62	0xbcc0a5b4	-0.023516513
63	0xbdaf6faa	-0.0856622
64	0xbb1fb02f	-0.0024366488
65	0x3db5ac9e	0.08870815
66	0x3ba50b92	0.0050367797
67	0xbc7e4b8b	-0.015520941
68	0xbd3659af	-0.044519123
69	0x3d36b41a	0.044605352
70	0xbacdc09c	-0.0015697661
71	0x3d95e247	0.073185496
72	0x3a9ff92b	0.0012204995
73	0xbd983359	-0.07431669
74	0xbad012d9	-0.0015874758
75	0xbc7e7d8e	-0.015532864
76	0xbca68e25	-0.020331452
77	0x3c2cb179	0.01054036
78	0xbcd185d8	-0.025576517
79	0xbb2be7e2	-0.0026230742
80	0x3c93e84e	0.018055107
81	0x3acf6cf4	0.0015825317
82	0xbb15dee4	-0.002286845
83	0x3b0201b6	0.0019837446
84	0x3b9fa86c	0.0048723724
85	0xbb23e22f	-0.0025006642
86	0xbce4d1a5	-0.027931998
87	0xba63bc9a	-0.00086874666
88	0xba90df46	-0.0011052869
89	0xb9e2d190	-0.00043262215
90	0xbc502c83	-0.012705925
91	0xbafc314f	-0.0019240769
92	0xbe1a7643	-0.15084176
93	0xbe0bcc91	-0.13652255
94	0x3dc66e6a	0.096890286
95	0x3c7320e4	0.014839385
96	0x3b85794e	0.0040732985
97	0x3c0c76a8	0.008573212
98	0x3bfb512b	0.007669588
99	0xbd751b53	-0.05984051
100	0x3ac18569	0.0014764491
101	0x3c921560	0.017832458
102	0x3dc5756d	0.09641538
103	0x3bb60632	0.0055549378
104	0x3c92ca13	0.017918622
105	0x3c8e6501	0.017382147
106	0xbb0aeeb9	-0.0021199419
107	0x3d3d764b	0.04625539
108	0x3d28ac30	0.041179836
109	0x3b028045	0.001991288
110	0x3c7b4a5e	0.015337555
111	0xb9d5ffcf	-0.00040817118
112	0x3b2b8c40	0.0026176125
113	0xbdc69268	-0.096958935
114	0x3b961472	0.004580074
115	0x3c4e9977	0.012609831
116	0xbd160e22	-0.03663457
117	0x3bc585dc	0.00602792
118	0x3dab9f37	0.08379977
119	0x3d2a6323	0.04159845
120	0xbd99ca16	-0.07509248
121	0xbc112db4	-0.008860994
122	0x3a42a49c	0.00074250414
123	0x3c8d01de	0.017212804
124	0x3bc3254e	0.005955375
125	0x38567d62	5.1138348e-05
126	0x393cd220	0.00018007355
127	0x3e67f2e3	0.22651248

linear6.weight f4 [1, 128]
0	0xbd2b1b2a	-0.041773953
1	0x3bb6a74c	0.0055741426
2	0x3c9a7332	0.018853758
3	0x3d3c9c6d	0.046047617
4	0x3cb7f585	0.02245594
5	0xbd311d6e	-0.043240957
6	0x39e75098	0.000441198
7	0xba2386ed	-0.0006238062
8	0xbb19dd6d	-0.0023477927
9	0xbc58c18b	-0.013229738
10	0xbb927409	-0.004469399
11	0xbd1896e3	-0.03725327
12	0xbc824422	-0.015901629
13	0x3a4c52f0	0.0007794341
14	0x3a33098c	0.00068297307
15	0xb93d3ddc	-0.00018047489
16	0x3c593c3c	0.01325899
17	0x3c805e14	0.01566986
18	0xbccc1b7e	-0.024915453
19	0x3cfacb38	0.03061448
20	0xba91b0c5	-0.0011115303
21	0xbdf0b763	-0.11753728
22	0xbcd181d7	-0.025574608
23	0xbddd0672	-0.10792245
24	0x3b437344	0.0029823342
25	0xbda7ba90	-0.08189881
26	0xbb0a7281	-0.0021125379
27	0x3cabc3e3	0.02096743
28	0x3a060e67	0.00051138405
29	0xba95318b	-0.0011382563
30	0xbdd16bf3	-0.10225668
31	0x3cb95b97	0.022626681
32	0xba41793c	-0.0007380431
33	0x3d22fb19	0.039790247
34	0x3a32037c	0.00067906803
35	0x3b4084c6	0.0029376014
36	0xb9674bd0	-0.00022058119
37	0xbc0bc092	-0.008529799
38	0xbadcf4f7	-0.0016857673
39	0xbc11be7f	-0.008895515
40	0xba2ccbfc	-0.00065916753
41	0x3c101a32	0.008795308
42	0xbe5078a3	-0.2035852
43	0xbd6621b4	-0.056184486
44	0xbaf5182e	-0.0018699223
45	0xbd00c512	-0.03143794
46	0xbe320556	-0.17384848
47	0xbc74fdd3	-0.014953095
48	0x3d07e3ca	0.03317622
49	0x3c931ea7	0.017958952
50	0x3dc6c156	0.09704845
51	0xbad9d7bc	-0.001662008
52	0xbda0588c	-0.07829389
53	0xbb603754	-0.0034212666
54	0x3dd974a5	0.10617951
55	0xbc8fe7ed	-0.017566646
56	0x3d45e4dd	0.048313964
57	0xbdf022d2	-0.117253914
58	0x3a8fd814	0.001097443
59	0xbb267eb8	-0.002540512
60	0xbae2a758	-0.0017292304
61	0x3d6b9955	0.057519276
62	0x3bd4fa92	0.006499597
63	0x3d842aaf	0.06453454
64	0xba8f2f80	-0.001092419
65	0x3d41955d	0.047261585
66	0x3bb62a38	0.005559232
67	0xbda6bbb7	-0.081412725
68	0x3bf33f43	0.007423313
69	0x3beb294e	0.0071765548
70	0xbad15c93	-0.0015973024
71	0xbd16b4bb	-0.03679345
72	0x3c0e2a7a	0.008677119
73	0xbc30b01b	-0.010784174
74	0xb9702880	-0.00022903271
75	0xbcf8a8e5	-0.030353973
76	0x3cb38486	0.021913778
77	0x3ce261a3	0.027634447
78	0xbb96d747	-0.0046033
79	0xbae93d0e	-0.0017794685
80	0x37f27125	2.8901335e-05
81	0xbaa99fdf	-0.0012941322
82	0x3aa4a800	0.0012562275
83	0x39ca24d8	0.00038555893
84	0x3aa03f58	0.0012225909
85	0x3aa5cd90	0.0012649763
86	0x3c32f93f	0.010923683
87	0x3aa0e13c	0.0012274156
88	0xbaee2771	-0.0018169713
89	0xbb29deba	-0.002592011
90	0xba2441fb	-0.00062659354
91	0xba8be796	-0.0010673876
92	0xbc5bcb84	-0.013415221
93	0x3d5d35b1	0.054006282
94	0xbcd8ec45	-0.02647985
95	0x3d003bdc	0.031307086
96	0x3cd9c7d9	0.026584553
97	0x3b8b1244	0.004244121
98	0x3d0910d3	0.03346331
99	0x3d89f78f	0.06736671
100	0x3a091da2	0.0005230551
101	0x3b2c804f	0.0026321595
102	0xbd885f7a	-0.06658836
103	0xbd03a1f8	-0.032136887
104	0x3dbbd3c0	0.091712475
105	0xba4645fc	-0.0007563529
106	0xbb020020	-0.00198365
107	0x3c893c92	0.016752515
108	0xbd52f394	-0.051501825
109	0x3ac990ff	0.0015378295
110	0x3c166ad9	0.009180748
111	0x38a5c25c	7.9040154e-05
112	0x3a9c3f58	0.0011920733
113	0x3b82d20d	0.003992325
114	0x3bd4c3f6	0.006493087
115	0x3aa5d8da	0.0012653128
116	0x388bbda1	6.6633576e-05
117	0x3b80aca0	0.0039268285
118	0x3c22cfc6	0.009937232
119	0x3dc68cd5	0.0969483
120	0x3ce470a7	0.027885748
121	0x3c8e25c1	0.017351987
122	0x38ce9420	9.850436e-05
123	0x3ce1d9e4	0.027569719
124	0x3c96bdb0	0.018400997
125	0x3a82a0e2	0.000996616
126	0x39044df0	0.00012617535
127	0xbb1ed155	-0.0024233658
