TDQN/MicroGrid/TDQN(改进)+buffer/model/actor_model.ckpt (torch, 95812 bytes, 11 tensors)

lstm.weight_ih_l0 f4 [96, 1]
00000000: ee11 25be eece 1ebe 8cfc 1fbe 88f3 463e
00000010: 7e16 8cbd f029 8bbc a0e6 c93b 30d3 593d
00000020: d6cb b5bd 1052 d33c a72e e1bd 38d4 a93d
00000030: 4caf cd3d d8e7 023e baf9 8abd 2c22 ae3d
00000040: 0f91 dfbd 60d3 a4bc 401f f63d 8412 1d3e
00000050: bd59 e9bd eb1e ebbd 4443 833d 784e f9bc
00000060: 987f 7c3d c05c 1a3b a486 1dbd ec08 0d3e
00000070: 74fa 233e dc4f c6bd 0a11 503e f521 f3bd
00000080: d0e4 cdbd 3248 0c3e 827d a1bd c086 b83d
00000090: 78b4 f43c 24ad e13d a442 27be 3a75 86bd
000000a0: a76b 1abe 88fb 523d 609a cc3c 46c7 16be
000000b0: 80cc c4ba 886f 9bbd 21f6 d0bd 6050 e13d
000000c0: ac99 29bd 3501 4bbe 409c d23d 6375 b5bd
000000d0: cc0f b23d 4dcc d7bd b064 4a3e 8402 4bbd
000000e0: ea08 0f3e 5857 903d 5499 173e 2866 82bc
000000f0: 8a0c d2bd 9058 9dbd 2c9a fd3d 1883 423e
00000100: 4824 d1bc d0b8 1c3e 6c35 86bd 0886 c93d
00000110: cced 05bd 342e 44be 866f 143e ea1a 2dbe
00000120: a470 2fbe 4ee2 06be a0c2 abbb ac76 cb3d
00000130: 34e0 78bd 12bd 4dbe 5845 2e3d b885 483e
00000140: f86b 4d3d 78d8 253d 7e8d 1a3e efd2 1fbe
00000150: 2e1c 2e3e 3010 5d3c 062d 463e f562 b4bd
00000160: be81 0bbe 00cd 93bc 16bd b5bd 4684 c9bd
00000170: 40eb b7bb aebf 8abd 1612 103e 98c7 c63c
-0.16120121 -0.15508625 -0.15623683 0.19428837 -0.068402275 -0.01698777 0.006161526 0.05317992
-0.08876769 0.025795966 -0.10995226 0.08292431 0.10043201 0.12783754 -0.06785913 0.085026115
-0.109163396 -0.020120323 0.12017679 0.15339094 -0.11394069 -0.114805065 0.06409314 -0.030432925
0.06164512 0.0023553818 -0.03845848 0.13772935 0.16013509 -0.09683201 0.20319 -0.11871711
-0.10053408 0.13699415 -0.07885267 0.090100765 0.02987121 0.11019352 -0.16334015 -0.06565328
-0.15080129 0.05150941 0.024975955 -0.14724454 -0.0015014559 -0.07589632 -0.10203195 0.110016584
-0.04140632 -0.19824679 0.102837086 -0.0886028 0.08694419 -0.10537014 0.19764972 -0.049562946
0.13968244 0.070479095 0.14804584 -0.015917853 -0.10256298 -0.076829076 0.123829216 0.18995321
-0.025529996 0.15304875 -0.06553158 0.098400176 -0.032697484 -0.1915825 0.14495668 -0.16904798
-0.17132813 -0.13172266 -0.005241707 0.09934744 -0.06076069 -0.20091656 0.0425466 0.1958226
0.050151795 0.040489644 0.15093037 -0.15607809 0.17002937 0.013492629 0.19353113 -0.08807937
-0.13623711 -0.018042088 -0.08873956 -0.09839682 -0.005612761 -0.06774841 0.14069399 0.024265096

lstm.weight_hh_l0 f4 [96, 24]
00000000: 18dd ea3d 428e 073e a4a8 f63d dc0c 0f3e
00000010: f8d8 89bd 48e4 29be 94bd 67bd b813 293e
00000020: 7cec a93d 25f2 d5bd 81d9 2cbe bc76 b63d
00000030: f45a f93d 3cc9 a93d 1308 fcbd 25a9 06be
00000040: cd56 eabd 7877 b73d c0d8 13be 9ce7 3b3e
00000050: 4a9d 073e 6044 8a3b a826 89bd de37 333e
00000060: ec8f 033d 30d1 443d c401 d83d 94cc f03d
00000070: 5c20 ed3d 547c e63d bba9 22be 12c3 203e
00000080: 046f c33d ebb6 3ebe 3e92 91bd a878 f43c
00000090: 2a56 0d3e 1049 3dbd caad 473e 5450 dc3d
000000a0: 1c1b da3d b085 393d 1484 223d 94bc 30be
000000b0: ecdc 2b3e 629e 3a3e 0476 3b3d 189d 513d
000000c0: debc 433e 3859 163d 0075 053e bf1d cabd
000000d0: 0ca0 96bd f042 793c a902 36be f0ab 04be
000000e0: 2406 d23d 9c72 c03d c05e 073e fcbb f03d
000000f0: 189c 473d 88f2 4d3e 6e3c 013e 7076 c73c
00000100: b8bb 9d3d 3056 ca3c e45d 083e 2c48 55bd
00000110: 8101 f7bd 060f 46be 045b 0abd d2f9 3c3e
00000120: 44e5 9c3d 4004 bd3b 5ee2 2c3e 82ed 10be
00000130: f934 f5bd 24ea 113e a05c 76bd d884 28bd
00000140: 22b0 4c3e 626d 06be 0854 813d 9822 c63c
00000150: 1bb3 3dbe 8895 203e f41c 2bbe 1e26 afbd
00000160: c0ae 413c cfac b0bd acf9 083d 6f2e 4dbe
00000170: 2e45 2c3e 8688 28be f31a febd e236 4cbe
00000180: 9cdc 65bd 56c7 3d3e 1801 ec3d a565 48be
00000190: 7409 04be b02e 033e b0a5 18be 71ce 3bbe
000001a0: 8c34 ea3d fd46 d5bd e613 cebd 465e 29be
000001b0: 237d 33be 8935 e3bd 6dc8 e4bd a055 673d
000001c0: 38d9 e93d 5444 6fbd f880 063e 4c51 d9bd
000001d0: 70c4 12bc 75f5 e1bd 706b ed3c 382a 063e
000001e0: 20aa e33c eaed 3abe b04a 3ebd 5404 0c3e
000001f0: e4ee 3e3e c8b9 d6bc 6053 fb3b 9896 c43c
00000200: a06f 023c b831 2a3e e2db fabd 78bb e2bd
00000210: 72ac f2bd 4020 853d 4dba a9bd ac2b ec3d
00000220: 0730 a2bd 778c b6bd 3a70 45be 029f 133e
00000230: 0065 3a3e fc27 4fbd b3df 33be 50d0 bf3c
00000240: 5c2f 083e 2073 ae3b 7c48 b83d 3826 8e3c
00000250: 384c b9bc 98b9 353e 1882 873c 00b4 de3a
00000260: 857a a7bd 1dfe c3bd a282 1c3e 8a4f 9ebd
00000270: 6cf5 fabd 6050 6d3d d8e4 5fbd 18a4 3fbd
00000280: 3d23 edbd a039 a9bc ea39 1c3e 2812 13be
00000290: 24e3 77bd 9087 08bd 1837 313e bcdf 0c3e
000002a0: 50c4 ae3d 1867 1a3e 706e f8bc d4e2 9f3d
000002b0: 4ced 073e a071 20bd 2027 59bd dae5 8fbd
000002c0: c039 c63d c02a 0a3e 06d6 4dbe 77c6 f4bd
000002d0: 9814 153e b249 183e 8068 983d 7fe8 c0bd
000002e0: 5e5d 14be 3058 683d 7857 683d c02d 52bd
000002f0: c460 243e 98ac 873d 50d2 2c3e 5c69 093e
00000300: 6017 76bd bed7 253e 282a 5f3d 48d2 373e
00000310: d946 0cbe 94ec 2f3e 8ab6 36be c0cf ff3b
00000320: 007f c13d 5169 f2bd 389d 33be d39a 13be
00000330: f022 003d 13cc b2bd 3b70 22be 1cb7 293e
00000340: 53b3 4abe 3421 893d 38f8 3b3d f9fa 4cbe
00000350: c4de 173d b098 493d dc6a 39be 2621 343e
00000360: 3c7f b23d 70cd 0abe f0b3 233e 24c2 3f3e
00000370: 48c7 37bd f02f 203c 78bb 9abd fc55 4a3e
00000380: 3002 00bc 6093 2abe d2c8 4c3e 388e e73c
00000390: 14a7 d1bd 9eaa 373e dcdb 5fbd f8f7 97bc
000003a0: 2ac6 293e 006e 063b f860 fb3d 6805 573d
000003b0: 7495 3a3d 6f29 f7bd e0e5 7dbd 2c44 003e
000003c0: e822 d23d 5675 3f3e f4ff f63d 6454 183e
000003d0: c4fe af3d dc30 21be 00e4 f93c cab2 2fbe
000003e0: b88b 01be d817 443d 75cd 44be f0b9 6dbd
000003f0: f8a5 293e d4da 2abd 381c 2f3e c8be 6b3d
0.114679515 0.13237861 0.120438844 0.13969749 -0.06730837 -0.16590989 -0.05657728 0.16511428
0.08297059 -0.10446576 -0.16879846 0.089093655 0.12175551 0.082903355 -0.123062275 -0.13150461
-0.11442337 0.08958334 -0.14438152 0.1835007 0.13243595 0.0042195767 -0.06696826 0.1750178
0.032119676 0.04805106 0.10547212 0.1175777 0.11578438 0.112541825 -0.1588506 0.15699413
0.09542659 -0.18624465 -0.071079716 0.02984269 0.138024 -0.046212256 0.19499889 0.10757509
0.10649702 0.04529351 0.03967674 -0.17259437 0.16783494 0.18224481 0.045766845 0.051175207
0.19115016 0.03670618 0.13032913 -0.09868955 -0.07354745 0.015213713 -0.17774452 -0.12956214
0.102550775 0.0939686 0.13219738 0.11754605 0.048732847 0.2011205 0.12620708 0.024348468
0.0770182 0.0246993 0.13317066 -0.05207078 -0.12060834 -0.19341668 -0.033778206 0.18454674
0.076609164 0.005768329 0.16883227 -0.14153102 -0.11972994 0.14249474 -0.060146928 -0.041142315
0.19989064 -0.13127664 0.06314856 0.024186417 -0.18525355 0.15682042 -0.16710263 -0.08552192
0.011821449 -0.086267106 0.03344123 -0.20037244 0.16823265 -0.1645833 -0.12407484 -0.19942811
-0.056118593 0.18533072 0.11523646 -0.19570024 -0.12894231 0.12810779 -0.14906955 -0.1834047
0.11435804 -0.104139306 -0.10062389 -0.16539869 -0.17528205 -0.110941954 -0.11171041 0.056478143
0.11418384 -0.058414772 0.13135135 -0.10611209 -0.008957967 -0.11033145 0.028981894 0.13102043
0.027791083 -0.1825482 -0.046457946 0.13673526 0.18645817 -0.026211634 0.007669851 0.02399759
0.007961184 0.16620529 -0.122489706 -0.11070913 -0.118492976 0.06500292 -0.08287487 0.11531767
-0.07919317 -0.0891351 -0.19281092 0.14416125 0.18202591 -0.05057524 -0.17565803 0.02341476
0.13299316 0.0053237826 0.089982 0.017352208 -0.022619352 0.1774658 0.016541526 0.00169909
-0.081776656 -0.09569953 0.15284207 -0.077300146 -0.12253842 0.05793798 -0.0546616 -0.04678735
-0.11578987 -0.02065736 0.15256467 -0.14362395 -0.060519353 -0.033332407 0.17306173 0.13757223
0.085335374 0.1507839 -0.030326098 0.07806936 0.13274115 -0.03917086 -0.053015828 -0.070262626
0.09678984 0.1349287 -0.20101175 -0.11951917 0.14558637 0.14871863 0.07441807 -0.09419345
-0.14488742 0.056724727 0.05672404 -0.05131316 0.16052538 0.066247165 0.16877103 0.13419098
-0.060080886 0.1619558 0.054483563 0.1795131 -0.13698901 0.17180091 -0.1784307 0.007806748
0.094480515 -0.11836494 -0.17540443 -0.1441453 0.03128332 -0.0873033 -0.15863125 0.16573757
-0.1979497 0.06695786 0.045891017 -0.20017613 0.03707768 0.04921788 -0.1810717 0.1759077
0.08715674 -0.1355493 0.1598661 0.18726403 -0.044867784 0.009777054 -0.07555288 0.19759363
-0.007813022 -0.16657782 0.19998482 0.028266057 -0.10236946 0.17936179 -0.054653034 -0.018550858
0.165795 0.0020512342 0.12274355 0.05249539 0.045552686 -0.1206845 -0.061986804 0.12526006
0.10260564 0.18697104 0.12060538 0.14875942 0.085935146 -0.15741295 0.030504227 -0.17158046
-0.12650955 0.0478743 -0.19219 -0.058038652 0.16567218 -0.041712597 0.17100608 0.05755499

lstm.bias_ih_l0 f4 [96]
00000000: 00b9 c5ba f02a 4cbc 609b 04be f067 49bc
00000010: c027 5f3d 3063 863d f84f c23d e0b7 d73d
00000020: ba0f 013e 5492 c83d 780f 773d 5807 e93d
00000030: 5616 443e 6047 d53d b45d 29bd fcbb d03d
00000040: 5858 ca3c 8bd2 34be 283d 8c3d 3855 d53d
00000050: 9a26 81bd 60e6 f83b 50b6 8a3c 9cfd 173e
00000060: 229e 093e d000 67bc a01f e0bb a286 173e
00000070: 0222 85bd 7888 de3d f234 31be d0c7 d93c
00000080: 08c4 8abd fefd 4bbe f828 2ebd f03e b9bc
00000090: 7ac7 4b3e bbab b7bd 98e9 f6bd 44e1 0e3e
000000a0: d428 ba3d 7c40 aa3d 7d2a f9bd a244 eebd
000000b0: 4cb6 803d 3e78 2c3e 708d 86bd 6841 9dbc
000000c0: c0d7 10bc e49b b23d a889 bb3d e857 4e3d
000000d0: 9917 4dbe 69ff 44be 7215 08be 4868 d0bc
000000e0: e8f3 ccbd 86a8 433e e8b0 963c e697 10be
000000f0: d0d5 553d 3009 793d 040b 02be 302a 47bd
00000100: 60b3 4d3e c4ce 92bd e892 73bd 84cd 26be
00000110: 7693 233e 3fa1 d6bd bcef cf3d 0720 45be
00000120: 13ab 4dbe 0a66 2f3e a0fb 7e3d 42d3 3fbe
00000130: c04e 193d a39f f7bd 188f cf3c 40f6 713d
00000140: 202f 53bd 3496 283e 9eda 063e d19b 24be
00000150: 368b 363e d810 5bbd 927f a7bd dc37 2d3e
00000160: 1a21 173e 1423 a1bd 6852 eb3d 68e3 f43d
00000170: 08cc 663d f839 a43d 8026 c5bc 9648 4c3e
-0.0015085042 -0.012461409 -0.12949896 -0.012292847 0.054481268 0.06561887 0.09487909 0.10533118
0.12603655 0.09793535 0.060317487 0.11378354 0.19149145 0.10414004 -0.041349128 0.10192105
0.024700329 -0.17658441 0.06847602 0.10416645 -0.06306191 0.007595822 0.016932636 0.14842838
0.13439229 -0.014099315 -0.0068397075 0.14797452 -0.06500627 0.10865873 -0.17305353 0.026584536
-0.06775671 -0.19921109 -0.04251954 -0.022613019 0.19900313 -0.08968302 -0.12056273 0.1395312
0.090898186 0.08313081 -0.12166307 -0.116341844 0.0628477 0.16842744 -0.06569946 -0.019196227
-0.008840501 0.0872114 0.09157115 0.050376803 -0.20028533 -0.19238056 -0.1328943 -0.02544035
-0.10007459 0.19107255 0.018394902 -0.14120445 0.05220586 0.060799778 -0.12699515 -0.048624218
0.20087957 -0.07168344 -0.059466273 -0.16289335 0.1597422 -0.10479974 0.101531476 -0.19250499
-0.20084791 0.17128769 0.062251687 -0.18732932 0.037428617 -0.12090995 0.025336787 0.059072733
-0.051558614 0.16463548 0.13169333 -0.16075064 0.17826542 -0.05348286 -0.08178629 0.1691584
0.14758721 -0.07868019 0.11490327 0.11957437 0.056346923 0.08018869 -0.02406621 0.19949564

lstm.bias_hh_l0 f4 [96]
00000000: 4cd3 4b3e 00e9 b1ba f8e9 4c3e 3b26 c1bd
00000010: 80fb 8abb c454 103d 40b1 4cbc c46b 78bd
00000020: 6da7 20be 6ee9 1e3e e155 29be d56e bdbd
00000030: 34b1 a43d f8b7 983d 3504 f7bd b80a 9b3c
00000040: c052 09bd 2c6d d93d f832 af3c 5841 c23d
00000050: 8057 0a3e d8e8 f93d 9438 333d b064 3ebe
00000060: 3c65 2abd 8cd4 0f3e 5b7d 0ebe 77b8 adbd
00000070: 48e3 0b3e ec74 4d3e cc5c 1bbd 0663 3d3e
00000080: 1018 803d cc7c f83d 94e8 4e3e 009e e53d
00000090: 980b 833d a410 bd3d f488 d33d 90cc 403e
000000a0: 2637 9cbd b984 b1bd beef 0b3e a004 3c3e
000000b0: 3010 f33d 3c46 87bd 6f06 d0bd a0ab f53c
000000c0: ccf0 233e e819 2dbd 30e2 a23c 4c1a d23d
000000d0: 7e6e 3f3e a817 213e 88bb 9abc 3d69 d6bd
000000e0: ecb4 25be 91e9 3abe e8c7 af3d 481e acbc
000000f0: de55 f3bd fcfb 64bd b073 d43d 3a7b 0f3e
00000100: 56df e9bd 0001 763d 10da 0a3e 00fc 97bd
00000110: e065 e93d d857 283d a82a f43d d035 463c
00000120: a020 a7bc a8d7 e23d b0f0 553d d0c1 603d
00000130: 3c06 393e e442 943d ccde 903d 64d5 e93d
00000140: 5019 18be 043a 04bd f846 023e a0f9 17bd
00000150: 1060 2dbd 02bd 413e 9c8c 02bd 2257 41be
00000160: 0008 77bb ea33 dabd d8ab b03d cc35 58bd
00000170: 54e4 b33d 9033 1dbd 1209 1e3e 2fbb 28be
0.19904822 -0.0013573468 0.20011127 -0.0943112 -0.004241407 0.03523709 -0.012493432 -0.06064965
-0.15688868 0.15518734 -0.16536666 -0.09249655 0.08041611 0.07456964 -0.12061349 0.01892601
-0.033526182 0.10616526 0.021386608 0.094851196 0.13509941 0.122026145 0.04375513 -0.18593097
-0.04160045 0.14045924 -0.13915007 -0.084824495 0.1366092 0.20064133 -0.037930295 0.18494806
0.062545896 0.12133178 0.20205909 0.11211777 0.06398696 0.092316896 0.10328856 0.18828034
-0.07627706 -0.08667893 0.13665673 0.1836114 0.11868322 -0.06605193 -0.10157477 0.029989064
0.16009825 -0.042261034 0.019883245 0.10258922 0.18694493 0.1573168 -0.01888825 -0.10469291
-0.16182297 -0.18253161 0.08583051 -0.021010533 -0.11881612 -0.055904374 0.10373628 0.14011851
-0.11419551 0.060059547 0.13559747 -0.07421112 0.11396384 0.0410994 0.119221985 0.012097791
-0.020401299 0.110762894 0.05223149 0.054872334 0.18068784 0.07239321 0.07073745 0.11417654
-0.14853406 -0.03228189 0.12722385 -0.037103295 -0.04232794 0.18919757 -0.031872377 -0.18880895
-0.0037693977 -0.10654433 0.086265266 -0.05278568 0.087837845 -0.038379252 0.15433148 -0.16477655

linear1.weight f4 [128, 27]
00000000: a0c8 443e fe02 513e b6fa fcbd edc7 743d
00000010: a516 123d 66bd b1bd 3a11 f1bc 9ce4 f4bd
00000020: b463 bbbd 83a6 d9bd 55ed 723d 21cd 083e
00000030: 6c5d 653e d67f 7b3d 8f19 dfbd a9f1 0cbd
00000040: 7715 f4bd 0e29 4cbc 271e 31bd fd6b 133d
00000050: c556 79bc d92a 673e 22f5 ba3d a4c6 053e
00000060: dcd7 9b3d d340 77bd f110 7d3d 98bf 18be
00000070: fb33 2ebe 9245 933c 6da8 0a3e 6cfb 993d
00000080: 586a e0bd 678f 0dbc 128d 9cbd 9a90 e8bd
00000090: d274 89bd 5c27 86bd e1c9 18bd 488c 853d
000000a0: 1973 c23d c850 1c3e 4806 823d 35ef aa3c
000000b0: fb45 01bb e10e 513d 1b69 c1bd 2bd9 23bd
000000c0: 6b93 eabd b19b 2ebe f74c 6bbd d23e b2bd
000000d0: d314 d63d 1f87 9e3d fe63 893d 30df e33c
000000e0: a3b7 0b3e c009 483d 58f0 9f3c 30bc 563d
000000f0: b84d acbd 047f 613d 581e 663d d008 ae3c
00000100: 18da 863c 8a8a 05be 4efa 34be 1678 933d
00000110: 8b08 11be 08c5 d2bc 6c4a 733d 8077 343b
00000120: a0d4 b33b f91c 2bbe 5587 293e 68d5 623d
00000130: ebd5 92bd dcb8 543d b4ce 31bd e872 eebd
00000140: ac49 f8bd 0fb5 d1bd 1250 d3bd f3a1 8b3d
00000150: 2bc2 f03a d611 ed3d a713 133b 5a93 413e
00000160: 0a3b b83c 3e08 e33d 8ba2 ca3b 4dbf 09be
00000170: 41aa 293e 6191 9cbd 4769 d2bd 8f42 d93d
00000180: 4444 d5bd 7eec 963d cb8a e6bc 341f bebd
00000190: 27a7 b0bd 2ddb 383e 227a 803d 5d89 0bbc
000001a0: 3e5d a5bc a676 33bc 612a 533c c179 7f3e
000001b0: f2a8 8f3d 5f54 fbbd de65 a2bd 91b7 27be
000001c0: 15ef 3ebe bb48 c93d 6b0a 3abe 2006 e2bc
000001d0: b9d8 163e e8d2 2e3e 1a68 6abd 8e73 d43d
000001e0: c240 58be 7db9 413d a37f bc3d 57c0 11be
000001f0: cbf4 b2bc a7eb 413d e7c7 30be a78b eebd
00000200: e356 603d 63e9 cbbd 0a73 183e 1a98 b43d
00000210: 82cc 213e 15cd 62bd 1aac 9b3d a825 55be
00000220: 0117 d03d ccfe f83d aa58 35bd 762e b7bd
00000230: 632a 0a3d 154d 2ebc faa7 f93c e611 cf3d
00000240: ac9c d8bd 4e72 ea3d 62dc a2bd 8b7d 013e
00000250: 35b0 fe3d 141b 733c a3a3 9eba 6940 f93d
00000260: f5d4 06be 23e8 173c 9e24 833d a784 f8bd
00000270: bdc4 0b3c 92cf 20be 215c 1ebe 6dd8 3fbe
00000280: 5b9a 3c3e a199 d63d d6ce 1bbe 0b9d 5ebd
00000290: 84d6 143e f2b1 2fbe a494 f7bd 29d9 a43d
000002a0: bfcf 17be 4303 fc3d a03b 18be 38f6 c63d
000002b0: 95bf c33d 97d4 69bd 4054 b03c 992e 003e
000002c0: 5077 bb3d 7624 23be 31d5 dc3d aa6e dc3d
000002d0: 9ae0 0abe 02e5 1dbd 1fef 84bc fd81 54bd
000002e0: 9310 98bc 2c9a 9cbc 12df 1fbe 2301 2e3e
000002f0: b4da 2cbd 00bf f6ba 0652 86bd 35c9 6cbd
00000300: 1f1b e93d 9524 05be b85d 543d 2ef6 f8bc
00000310: 856d b23d d5e5 9e3d a2fd dfbd c930 ca3b
00000320: 9d04 0d3e 0500 903d a228 78bd f5f7 223e
00000330: 3ec7 3f3e 2e09 3c3e 5a12 563a 3246 993d
00000340: 8d3b 2abe 4607 17be 3ae9 cebd ddd0 36bd
00000350: 240e ccbd 0ea5 dd3d 741c 1e3e 34c1 1b3d
00000360: b6e0 e43d c936 e03c 663a 323d 6513 a63d
00000370: d1af b2bd 4df6 1abd 1aeb 98bd b277 f13d
00000380: 0512 2ebd 721b f2bc 3209 a83c 5f10 1dbe
00000390: 9ec5 08be 1606 81bc 1618 523e ab6b cc3d
000003a0: 6799 1e3d 6ed3 0ebe d84b 3cbd 275d fdbc
000003b0: a478 5b3d 30d7 af3d 0e70 37bd be08 e53a
000003c0: c59e a03d 35fb 05be abc3 8fbe bc01 2bbd
000003d0: a959 1f3e 62b7 de3d e4cb 30bd 77c9 26be
000003e0: 90d3 18bc c650 a43d 76df 8a3d eb44 243e
000003f0: 002c a43a 8f78 3bbe 80be 383c 6246 ec3d
0.19217157 0.20411298 -0.12352507 0.059760977 0.035666127 -0.08678703 -0.02942716 -0.11957666
-0.09149876 -0.10627463 0.05930837 0.133595 0.22398919 0.06140121 -0.10893547 -0.034410153
-0.119181566 -0.01246096 -0.043241646 0.035991658 -0.015218441 0.22574939 0.091287866 0.13064057
0.07609531 -0.060364556 0.061783735 -0.14916837 -0.17012016 0.01797751 0.13540812 0.07518658
-0.109577835 -0.008640147 -0.076440945 -0.113557056 -0.06711735 -0.06550476 -0.0373019 0.06520897
0.094946094 0.1526519 0.06348854 0.020866016 -0.001972555 0.05103958 -0.094438754 -0.04000203
-0.11453899 -0.17051579 -0.057446446 -0.08703388 0.10453191 0.07740616 0.06708525 0.027816385
0.1364427 0.048837423 0.019523785 0.052425563 -0.08413261 0.055052772 0.05618128 0.021244437
0.016461417 -0.1304113 -0.17673609 0.07200639 -0.14163415 -0.025728717 0.059397146 0.0027537048
0.0054879934 -0.16710271 0.16555531 0.0553793 -0.07169708 0.05193411 -0.043410018 -0.116430104
-0.12123427 -0.10239612 -0.103180066 0.06817999 0.0018368413 0.115756676 0.0022442134 0.18903866
0.02248909 0.110855564 0.0061839274 -0.13451882 0.16568853 -0.07644916 -0.10273986 0.10608398
-0.10413411 0.07369326 -0.028142354 -0.09283295 -0.08625632 0.18052359 0.06273295 -0.008516637
-0.020186063 -0.010953581 0.012888522 0.24948789 0.07014646 -0.12271952 -0.07929586 -0.16378619
-0.1864589 0.09828325 -0.18168037 -0.027590811 0.1473111 0.17072642 -0.057228185 0.10373603
-0.21118453 0.047296036 0.09204032 -0.14233528 -0.021845242 0.047343876 -0.17263757 -0.1164773
0.05477036 -0.09956624 0.14887634 0.088180736 0.1580067 -0.055371363 0.07601185 -0.20815146
0.10160638 0.12157974 -0.04427401 -0.089444086 0.03373183 -0.010638495 0.030475605 0.10110836
-0.10576758 0.11447583 -0.07952191 0.12645547 0.124359526 0.014837999 -0.0012103211 0.121704884
-0.13167174 0.009271654 0.064034685 -0.121346764 0.008530793 -0.15704182 -0.15464832 -0.18734904
0.18418257 0.10478521 -0.1521562 -0.054348987 0.14534956 -0.17157724 -0.12088898 0.080492325
-0.14825343 0.123053096 -0.14866495 0.09714931 0.09558026 -0.057087507 0.021524549 0.12517776
0.091536164 -0.15931877 0.107828505 0.10763295 -0.13562241 -0.038548477 -0.016227303 -0.05188178
-0.01856259 -0.019116484 -0.15612438 0.16992621 -0.04220076 -0.0018825233 -0.065586135 -0.057809073
0.11382126 -0.13002236 0.05184719 -0.030390825 0.087122954 0.07758681 -0.109370485 0.0061703664
0.13771291 0.07031254 -0.060585625 0.159149 0.18728349 0.18362877 0.0008166187 0.07484092
-0.1662428 -0.14748868 -0.10103078 -0.04463278 -0.099636346 0.10822497 0.15440542 0.03802605
0.11175673 0.027369874 0.043512724 0.08109168 -0.087249406 -0.037832547 -0.07466717 0.11790408
-0.042497654 -0.029554103 0.020512197 -0.15338276 -0.13356635 -0.015749972 0.20517 0.099814735
0.038720515 -0.13947842 -0.045970768 -0.030928208 0.05358185 0.08585966 -0.044784598 0.0017473919
0.07842783 -0.13084109 -0.2807897 -0.0417497 0.15561546 0.10874821 -0.043163195 -0.1628779
-0.009327784 0.08023219 0.06780903 0.16041915 0.001252532 -0.18307708 0.0112758875 0.11536862

linear1.bias f4 [128]
00000000: df82 433c 3360 0a3e 1930 263e 6f13 00be
00000010: 0444 f53d ce48 a3bd 3c57 c8bd 85fd 323d
00000020: f48a d5bc 00b5 27ba 4f7b 52bd 40e0 3c3c
00000030: 803b 01bc 43c6 453e 550b 253d 986e 1cbe
00000040: 7cfd 4fbe ae84 5a3e 03fa 09be 459b d8bd
00000050: 8f6c 0e3e c890 033d e1c9 213e b3aa b8bc
00000060: 3495 e03d b0da 02bd 459d 053e aac2 c1bc
00000070: 23c4 b43d c9d3 8c3d cd2a d83d ac58 aabd
00000080: d02b 483c 995b 36be 644f 3fbd 3c2d 23be
00000090: cef3 bc3d 1fae d33d 3f87 25be ee38 b43d
000000a0: 97e3 2e3e 9764 2bbd 0023 dcba cc09 2d3e
000000b0: 08f1 dfbd 2acc 01be 7b0f 1e3e 348a 0bbe
000000c0: 0ca0 b2b9 ead4 703c 2258 603c d283 113e
000000d0: c2f6 02be 8bfc b2bd 77a2 35be 606c 053d
000000e0: 20d4 3ebe fd51 a2bd f0bb ba3d 63aa 793d
000000f0: 684e bf3d 40ad 103e b002 37be 558f ca3d
00000100: 8bfa c83d 7cd7 733d 4b02 adbd e401 eb3d
00000110: 6dd4 1c3d 4e1b 18be faef 823d b704 62bc
00000120: 9752 20be 92f4 aa3c cb03 173e 5ea5 193d
00000130: 9b54 afbd 45bd 26be a0c3 c13c 459a 783c
00000140: b76a afbd 9f2c 953d 122f e3bb f0c7 153e
00000150: 41e1 17bd b4ab bdbc 42d3 b83c bb65 4bbe
00000160: cb4d aa3c 45c7 863d 4887 053d 3c89 06be
00000170: 7d92 2e3e b76a a13d 4c6e 0dbe 9e8a 85bd
00000180: 73e7 b5bc 720c 36be fac5 7f3d cb2e a2bd
00000190: 5b85 49bd 4f15 18be 0b29 c3bd e6bb 11be
000001a0: 689a a6bc 60c9 1dbc f799 34be f043 093d
000001b0: 1343 2a3e 8065 32be a1ef 2abd 1f4e d2bd
000001c0: d439 ea3c 05f7 2cbe d88e 173e 772e f2bd
000001d0: 6a95 ab3d 2d40 c2bd 2f69 a63d 5fe5 d9bd
000001e0: 4fef 1e3d 893c ff3d 57e1 cb3b ae4a 8a3d
000001f0: 9d7f ea3d b18c fcbd e854 2abc 402d 1d3d
0.011933058 0.1351326 0.16229285 -0.12507413 0.119758636 -0.07972871 -0.09782264 0.043698806
-0.026067235 -0.00063975155 -0.051387127 0.011528075 -0.007887721 0.19313912 0.04029401 -0.15276563
-0.2031154 0.21339676 -0.13474278 -0.1057649 0.139086 0.032120496 0.15799667 -0.022542333
0.10965958 -0.031946838 0.13048275 -0.023652393 0.088264726 0.06876332 0.105550386 -0.08317694
0.012217477 -0.17808379 -0.046706572 -0.15935224 0.092261896 0.10335945 -0.16164874 0.08799921
0.17079006 -0.041843977 -0.0016795099 0.16898268 -0.10934645 -0.12675539 0.15435593 -0.13626939
-0.0003407005 0.0146992 0.0136928875 0.14210442 -0.12789443 -0.08739575 -0.17737757 0.032574058
-0.18635607 -0.07925794 0.091178775 0.06095351 0.09341127 0.1412859 -0.17872119 0.0989062
0.09813412 0.059531674 -0.08447703 0.1147497 0.038288523 -0.14854166 0.06393428 -0.013795069
-0.15656506 0.020868573 0.1474754 0.037511222 -0.08561059 -0.16283138 0.023652852 0.0151734995
-0.08565276 0.072839014 -0.0069331015 0.14627051 -0.037080053 -0.023153163 0.022561673 -0.19863026
0.020789048 0.065809764 0.032599717 -0.13138288 0.17048068 0.07881682 -0.13811606 -0.0652058
-0.02220509 -0.17778185 0.062444665 -0.07919081 -0.049199443 -0.14851879 -0.09529313 -0.14231834
-0.020337299 -0.009630531 -0.17636858 0.033512056 0.1662715 -0.17421532 -0.041732434 -0.10268807
0.028592028 -0.16891105 0.14800584 -0.11825269 0.08378108 -0.09484897 0.08125531 -0.10639452
0.03880244 0.12462718 0.006221931 0.06752525 0.114501216 -0.12331522 -0.01039622 0.038373232

linear2.weight f4 [128, 128]
00000000: 6212 9c39 98df d33c f41f d6bc 9170 06ba
00000010: 0775 8b3d 8c9e bebc 9926 933d 7d5e b4bd
00000020: 70f7 d3bc ec26 ea3c bb65 99bc 4550 a13d
00000030: 4382 7bbc 3add 073d 770e aa3d 6d2c 6cbc
00000040: 4888 02bc af3a 913d c422 163d 14b9 9bbd
00000050: a4f5 57bd c07d a5bc 82d4 943d 4901 803b
00000060: c094 6ebc 8008 26bc 51e2 33bd dad2 743b
00000070: 90df 643d 3f4e 6b3c 4f86 283c 5d93 a7bd
00000080: 6db0 1fbd c4b7 ebbc cfbf 923d 7d0c 883d
00000090: b526 07bc aba9 84bd 5e1b 0b3d 57f9 16bd
000000a0: 36b1 6c3d deb0 f13c e0ee bcbc 968f 57bc
000000b0: f89f d53c de00 843d 18f9 91bd 7fb4 95bd
000000c0: 3912 43ba d117 7dbc feac a3bd 5434 7abd
000000d0: 123f 2f3d 50ec b4bd 3e58 f53c 7454 61bd
000000e0: 5e03 44bd d81d 9cbd 4b46 2b3c 71b8 febb
000000f0: c294 3fbd e8f9 673d ac3b 913c d08e 1e3c
00000100: f9b4 bc3c b722 48bd 231e 51bd 6cd0 50bd
00000110: 6564 043d c0fd bb3b a82e 033d f754 88bd
00000120: 9c43 0e3d 48fa 3f3d b362 a03d 20aa 6abd
00000130: 73c4 863d 523b 12bd a29e 3f3d 8490 00bd
00000140: c09d b3ba de66 143d 9a44 55bd 88fe 1f3c
00000150: 1f5e 27bd 91aa 6c3d bc2f c9bb ac6c 1c3d
00000160: 50ed a7bd dc3c 093d 2db2 8ebd f793 2cbd
00000170: 9a97 b7bd 5e76 613d 6075 683b d0f2 e93c
00000180: 28fc 453d 443b 36bd 247e 8cbd f0bb 4a3d
00000190: 596e 9ebd 69ad 963d ec77 adbd cee5 16bd
000001a0: d079 a1bb 7ee8 473d 08eb c9bc 434b af3d
000001b0: 8823 8bbd 1060 53bd 23a6 96bd 7068 01bc
000001c0: 0d2e b1bd 6559 24bd 09f4 1abd 80b8 1a3d
000001d0: 6671 07bc e0bb 6bbd 137b 9c3d 33b1 8fbd
000001e0: e75c 87bd 32f0 9dbd 2378 3ebd db83 97bd
000001f0: f6e4 633c 2c63 003d d69f 3a3a 8e92 2f3d
00000200: 8e31 063d f066 6b3d a96d af3d 7cae 9fbb
00000210: e326 18bc 53f4 2c3d bd41 32bd baca a3bb
00000220: 9288 d7bd e0a6 b23b 6f0e a63d 94dc bc3c
00000230: 1dfd d5bc cde6 153d 4e19 2ebd 30c4 8f3d
00000240: 36f4 e73c 80cb 7b3d fbab 38bc 5449 8dbd
00000250: 2f83 8ebd 109b d93c 6e10 f83d b5a8 31bd
00000260: e8d1 03bc 4e1e 9dbd 4cc7 db3c 27e9 263d
00000270: 9c47 d8bc e010 ae3d 972e e63d 79e5 643d
00000280: 000c 7f3c 4c22 d0bd dae8 64bd b4ad 0b3c
00000290: c727 88bd 1fc5 3bbd 192d 81bd 52f7 94bd
000002a0: c407 84bc d3c3 27bd 2463 e43c a090 763d
000002b0: 1df6 83bd c522 a4bd 2dba 57bd b441 1dbc
000002c0: 18c8 44bd e8f0 a1bd ce15 b7bc 5938 8e3d
000002d0: 649f 013d 1889 bc3d 52d0 9a3d cef6 103e
000002e0: 7138 723d e574 0f3d fb76 29bd 04b7 8e3d
000002f0: 25b1 233d 8cd7 0fbd 242d 6cbd 2ac4 8a3d
00000300: a7bb eebc 59d0 e3bc ce5b efbd 88b0 9abc
00000310: 302c 893d 5a99 2f3d abae 9bbd b3ee a3bd
00000320: 56a9 353b 7fc6 a33d 615e 93bd b858 4d3d
00000330: 43d9 a7bb 3cfe 853c 0df3 a33d b698 623d
00000340: feda 2fbd c713 393d efc7 c2bc b573 b53d
00000350: 47ac 6c3d b829 69bd ba96 8d3c 0232 d73c
00000360: 66a6 393d b17d 83bc 834e 203d 5f18 883d
00000370: 0f08 ab3c daa3 54bc 22cd 153d 494e 903d
00000380: b63b aebc 41d6 c8bd 8740 90bd d1bb 0dbd
00000390: 8c70 91bd 0320 833c 0a79 333d b73b a8bd
000003a0: cfcd 8a3d db3b 883d d61f 3c3d 98c6 77bb
000003b0: a6a3 5dbd 2bcf a93d 0fc8 ce3c e75b 653d
000003c0: b853 443c 0ec4 06bc e88a 383d 8ff2 593d
000003d0: c0f6 a2bc 9c32 e53c aef5 a9bd 6642 013d
000003e0: 9c07 063d a174 2f3d 45cf 98bb 5082 a73b
000003f0: ec52 2d3d e05e 3f3d bd67 17bb 8ab3 86bb
0.00029768335 0.025863454 -0.026138283 -0.0005128468 0.068094306 -0.02326896 0.07185096 -0.08807085
-0.025874823 0.028583013 -0.018725267 0.07876638 -0.015350881 0.033169962 0.0830354 -0.014414889
-0.007967062 0.07091271 0.03665425 -0.0760366 -0.052724496 -0.020201564 0.07267095 0.003906403
-0.014561832 -0.0101338625 -0.043917004 0.0037357123 0.05587727 0.014361917 0.010285928 -0.08182404
-0.038986612 -0.02877415 0.07165491 0.06643007 -0.008248975 -0.06477674 0.033961646 -0.036858883
0.05778619 0.029503282 -0.023063123 -0.013156792 0.026077256 0.06445478 -0.07127589 -0.073098175
-0.0007441375 -0.015447573 -0.0799198 -0.06108506 0.042784758 -0.088341355 0.029949304 -0.05501218
-0.047854774 -0.0762288 0.010453771 -0.007773452 -0.046772726 0.056634814 0.01772865 0.009677604
0.023035513 -0.04886123 -0.05105413 -0.050980017 0.032322306 0.0057370365 0.032026917 -0.06656831
0.034732446 0.046869546 0.078313254 -0.05729115 0.065804385 -0.035701104 0.046782143 -0.03138782
-0.0013703629 0.036230914 -0.052067377 0.009765275 -0.040861245 0.057779852 -0.0061397236 0.038189575
-0.08199561 0.033505306 -0.06967578 -0.042133298 -0.089644626 0.055044524 0.0035470352 0.028558165
0.048336178 -0.044490114 -0.06859997 0.049495637 -0.07735891 0.07357294 -0.08470139 -0.036840253
-0.0049278513 0.048805706 -0.024648204 0.08559277 -0.067938864 -0.051605284 -0.07355907 -0.007898435
-0.086513616 -0.040124316 -0.037830386 0.03777361 -0.008266782 -0.05755222 0.07640662 -0.0701622
-0.066095166 -0.07711829 -0.04650129 -0.07398196 0.013909569 0.031344578 0.00071191543 0.042864375
0.032762103 0.057471216 0.08565838 -0.004873095 -0.009286615 0.042225193 -0.043519724 -0.004998532
-0.105240956 0.005452022 0.08108222 0.023054399 -0.02612167 0.036597062 -0.0425046 0.07019842
0.028314691 0.06147337 -0.011271472 -0.06898752 -0.06958615 0.026563197 0.12112509 -0.043373782
-0.008045651 -0.07671796 0.02682843 0.040749695 -0.026401334 0.084993124 0.11239355 0.055882905
0.015566826 -0.101627916 -0.055886127 0.008525301 -0.06648212 -0.045842286 -0.0630743 -0.07273735
-0.016116984 -0.040958237 0.027879305 0.06019652 -0.06443427 -0.08014444 -0.052667785 -0.009598184
-0.048042387 -0.07907277 -0.022349264 0.06944341 0.031646147 0.09205836 0.07559265 0.14156649
0.059135858 0.03502359 -0.041373234 0.06968501 0.03996386 -0.03511767 -0.057660237 0.067756966
-0.029142214 -0.027809309 -0.11687432 -0.018883005 0.06697881 0.042870857 -0.07601675 -0.08004513
0.002771934 0.079968445 -0.07195736 0.050133437 -0.005122335 0.01635658 0.08005343 0.055321418
-0.042933457 0.045184877 -0.023776976 0.0885996 0.057781484 -0.05692455 0.017283786 0.026268963
0.045324706 -0.016051145 0.039137375 0.066452734 0.020877866 -0.012978518 0.036572583 0.07046182
-0.021268707 -0.09806491 -0.070435576 -0.034602944 -0.07101545 0.016006475 0.043816604 -0.08214515
0.06777536 0.066520415 0.0459288 -0.003780758 -0.054111145 0.08291467 0.02524188 0.055995848
0.011982851 -0.008225454 0.045054346 0.053209838 -0.01989305 0.027978234 -0.08298813 0.031557463
0.0327221 0.042835835 -0.0046633803 0.00511197 0.04231541 0.04672134 -0.0023102604 -0.004110758

linear2.bias f4 [128]
00000000: e812 0c3d 41a3 1abd 766e a23d 502b 75bd
00000010: c4f1 ebbb 1092 3c3b c44c 2e3d b7b1 dc3c
00000020: 26b6 f73b 59a7 523d 4699 0f3d 64a0 2d3d
00000030: 0fbc 143d 9e86 3e3d 7172 1f3d 5caf f2bc
00000040: ed70 ddbc 18ef eb3c 6736 1fbd b3d9 04bd
00000050: 109d d3bb 9348 503d 5039 b7bc bc55 7bbd
00000060: 2827 e33c cbd4 133d 90b4 62bc 8c93 113d
00000070: 320a 08bd 5895 ad3c 0b69 0e3d 135d 8d3d
00000080: 0c27 0aba 402e fa3a f953 c6bd 350c c53c
00000090: 80d0 02bd 653d a33d 62fd aa3d 4aea 0c3d
000000a0: 68f0 0a3c a118 50bd 40e3 ad3c 6419 88bd
000000b0: 9d61 803d 6199 e7bb 6051 9c3d 00d5 103d
000000c0: 6d31 2f3d 60d3 bf3c 8183 063d df44 44bc
000000d0: a3d1 80bd 7890 6abc 58e1 483d caf7 2cbd
000000e0: 24e3 9cbd 7cb7 fd3c face e5bc b924 a63d
000000f0: a21d 2c3d 3c2b 993c bd58 3e3c 0147 d93d
00000100: b2e6 de3d 4b1e 59bd 9ca8 f43c b7f5 6e3d
00000110: f61b 38bd c520 3cbd 9aac 38bd 2d47 623d
00000120: 6c70 59bd 986e 783d f224 273d 35b0 fc3c
00000130: 07f8 06bd 54bd b03d 10c7 0bbd 94b1 abbd
00000140: 3280 97bc 4685 5e3d 107c 91bd 2de5 d839
00000150: 9c85 053c 2dd4 8bbd d1d7 0cbd cac1 0d3d
00000160: daf2 5ebc 1f4e bdbd 208c 01bd e7f5 d83c
00000170: 2cd2 d5bc 3c08 ba3c e089 163d 98fb 2b3c
00000180: 1c93 c53c bd17 a8bd ea26 a23d 88ce abbc
00000190: 5bdd 4bbd 57b0 dfbc 687f 483d 6260 35bd
000001a0: 8333 d13c ce7f 733d aac4 043c 139d bebc
000001b0: df34 283d be5b 893c 16fc a0bd f5dc 993c
000001c0: 6a5e 143d 5606 043c 8ecd 553d c060 683d
000001d0: d7fe 53bd 5bb2 473c 497b c5bc 1ee9 57bd
000001e0: 661e 323d 50a2 dbb9 18d3 6bbd 58a0 a9bd
000001f0: f753 e43b 6b8d 333d c294 da3c de56 8bbc
0.034197718 -0.037753347 0.07931225 -0.05985576 -0.0072004516 0.0028773583 0.04255368 0.02694021
0.0075595556 0.051429126 0.035058282 0.04238929 0.03631216 0.0465151 0.0389275 -0.029624633
-0.027031386 0.028800532 -0.03887024 -0.032434177 -0.0064579323 0.050850462 -0.022366196 -0.06136106
0.027728632 0.036091607 -0.013836995 0.035541102 -0.033212848 0.021189377 0.034768146 0.06902518
-0.00052701007 0.001908727 -0.09683985 0.024053672 -0.031937122 0.079706945 0.0834911 0.034403123
0.008480169 -0.050804738 0.021226525 -0.06645468 0.06268618 -0.0070678447 0.076327085 0.035359383
0.042771745 0.023416221 0.032840256 -0.011979311 -0.06289985 -0.014316671 0.04904303 -0.042228498
-0.07660511 0.030971281 -0.028052796 0.08112473 0.042020448 0.018697374 0.011617837 0.10609246
0.108838454 -0.053007405 0.029865555 0.0583398 -0.04494854 -0.04592969 -0.04508648 0.05524366
-0.05308573 0.060652345 0.04080672 0.03084574 -0.03295138 0.086298615 -0.034125388 -0.0838348
-0.018493745 0.05432632 -0.07103741 0.0004136948 0.008149531 -0.06827579 -0.034385506 0.03460864
-0.013607705 -0.09243416 -0.031627774 0.026484443 -0.026101194 0.022709005 0.03675258 0.010496996
0.024117999 -0.08207653 0.079175785 -0.020972505 -0.049771648 -0.027305765 0.04894963 -0.04428137
0.025537258 0.059448056 0.008103529 -0.023268258 0.041066047 0.016767379 -0.078605816 0.018782118
0.036222853 0.008058151 0.052197985 0.056732893 -0.051756706 0.012188519 -0.024106639 -0.052712552
0.04348602 -0.00041891867 -0.05757436 -0.08282536 0.006968017 0.04383604 0.026682261 -0.017009195

linear3.weight f4 [1, 128]
00000000: 7a43 08ba 9a2c 9c3b e6bf 00bd 4b78 073d
00000010: 63d8 74bd f457 9b3c 7d3f 1fbd 28bf c3bc
00000020: a2d7 c5bd caba 3e3a c13a c43c 5a11 8d3d
00000030: 8f1a d43d 9f93 043d fdcf c83c aafe f5bb
00000040: 7201 333c 3bf6 9b3d a0cf 173d d016 b93a
00000050: 80c8 0839 f06e 253e 5c1a 2dbd 89a0 c8bb
00000060: 4a3b 0bbb 85da d6bb 469c 3cbc 1abd 16bc
00000070: 737f 373c 0869 31ba 4240 593c a4ae b33c
00000080: 1e9b 103c 809d 1a38 c016 983d 373c 953b
00000090: 3046 36ba a426 923d 8dba 46bd f171 50b7
000000a0: dc29 193b 80e5 5f39 0028 d935 e6ec 8e3a
000000b0: 1ae4 0c3b 26c8 c0bb 41ac a8bd 1afe d03c
000000c0: c4fd 863d 0a62 283b dc18 26bc 11ff 703d
000000d0: a0d6 013b a737 093d 1618 83bd 85e8 023d
000000e0: c9db a3ba b815 083b bd4f a43d b77d e0ba
000000f0: cc84 8f3b 1c28 3ebd c19f e33b 51e3 a23c
00000100: 360b 7abc 55ab a9bc 1a51 87bb 2327 903c
00000110: b372 073b 2aec 21bd f778 88bc 3ff8 2d3d
00000120: 292a ddbd cdf4 773d 601d 9c38 a90a 2d3b
00000130: ae63 f4ba a0f9 a33c 017a 8cbc 4b61 5ebc
00000140: 9654 01bd 025e e8bc b643 a13c 5306 543d
00000150: d866 993a 94eb 7d3c ebb9 91bc 5eea 323c
00000160: 1390 6c3d 1fd8 3cbc 3a1c 843d 0a26 8b3c
00000170: ca2f aaba 7a1c a2ba db67 743d 1517 b3ba
00000180: 6a94 803b d4bc 953a b0d8 91bb a964 afbb
00000190: e213 abbc a39f f23a 1af2 d23c 9cb2 64bc
000001a0: 485c 933c 9405 4b3c 2b8b 763b 31bf c9bc
000001b0: 5518 6e3b ce42 283d 4b72 ed3b 51da 953d
000001c0: ee12 803c 24d9 d93c 5590 bbba 736c a63c
000001d0: 2b63 7fba 6cd9 ebbc cb48 15bc a679 7abc
000001e0: 60e2 c93a b149 003d 4b18 aebc 8ddd a13d
000001f0: 8fb8 073d a111 24b9 893a 0a3c 1061 7dbb
-0.0005198043 0.004766059 -0.03143301 0.033073705 -0.059776675 0.018962838 -0.038878907 -0.023894861
-0.09660269 0.00072757585 0.023953797 0.06888075 0.10356628 0.032367345 0.024513239 -0.007507165
0.010925638 0.07615324 0.03706324 0.0014121179 0.00013044663 0.161556 -0.042261466 -0.006122653
-0.0021245056 -0.0065568113 -0.011511868 -0.009200359 0.01119982 -0.0006767665 0.013259949 0.021933861
0.008826045 3.6863144e-05 0.07426214 0.0045542973 -0.0006953208 0.07136276 -0.048517752 -1.2424295e-05
0.0023370897 0.00021352433 1.6179401e-06 0.0010904341 0.0021498264 -0.0058832346 -0.0823598 0.02551179
0.06591371 0.0025693201 -0.010137763 0.058837 0.0019811764 0.03350034 -0.064010784 0.03196003
-0.0012501414 0.0020764899 0.08023021 -0.001712731 0.0043798443 -0.04642497 0.0069465344 0.019883784
-0.015261462 -0.02071158 -0.004129541 0.017596787 0.0020667731 -0.039531864 -0.016659243 0.042473074
-0.10799057 0.060536195 7.444131e-05 0.002640406 -0.001864543 0.020016491 -0.01714802 -0.013573001
-0.031574808 -0.028365139 0.019685607 0.051763844 0.0011703623 0.015498061 -0.017788848 0.010920135
0.057754587 -0.011526137 0.06450696 0.016985912 -0.0012984213 -0.0012368106 0.059669357 -0.0013663495
0.0039239423 0.0011424073 -0.00445088 -0.005352576 -0.020883504 0.001851071 0.025750209 -0.013958599
0.017988339 0.012391467 0.0037619572 -0.0246273 0.003633042 0.041079335 0.007246291 0.07317031
0.015634026 0.026592799 -0.0014309982 0.020315384 -0.0009742255 -0.028790198 -0.0091115935 -0.015287792
0.0015402548 0.031320278 -0.021251818 0.079035856 0.033134993 -0.00015646826 0.008436807 -0.003866259

linear4.weight f4 [1, 128]
00000000: cc05 a33b 4c5a 00bc 3bed a6bc 9d04 cb3c
00000010: 9255 b83b 2158 ce3d ae51 933c 299c 7cbd
00000020: 5bc5 31be cbce aa3a 6084 a53b 77a3 7b3c
00000030: 0ca9 703c 6ae7 2bbc 2fd5 b1bc 06da 2a3c
00000040: c926 fe3b 0d25 aa3c 7771 213c bfce 593b
00000050: b803 303b 335c 093e ab36 67bc 367a b93c
00000060: f0b3 1dba fd40 76bc 6f61 103c b3d6 53bc
00000070: 2442 743c cc02 e13a 45be 03bc 895f d33c
00000080: a907 38bd 30ed 1e3a 6e1b 3cbd 1195 cf3c
00000090: ea50 393b 0b6b 9a3c 86cf 4b3d 7be6 03bb
000000a0: 1870 d2b9 18ce c13a 5c09 16bb 689c 8fbc
000000b0: fbb7 a6ba cc6d ea3b 8be4 1bbc 92d6 d83c
000000c0: c753 813c b82f 7e3a d331 96bb 5dd7 4cbc
000000d0: e890 ba39 fd25 4b3d 772f b53c 24f2 0fbd
000000e0: 817b 5bba d834 3abb d0a2 983c 16b8 203b
000000f0: 30dc 473d 8826 b4bc 4ed8 0fbc d9d0 e73c
00000100: a9c1 b4bd d4e7 583c 4fca ddbb cd4e c23c
00000110: d226 7abc cec5 46bb c1e9 dabb 402e 453c
00000120: bb06 97bd 2fe5 323b 0050 e3b6 1fff 6dbc
00000130: d36f 3fbc ad45 60bd f7ac 7e3c 8a7a 483c
00000140: e713 6abc 9038 143c 6eb9 e2bb 5cb0 613d
00000150: 416a f33a 0105 eeba 4a82 dabc c146 d6bb
00000160: a6ad 6c3c 0db1 b1bb c5d3 6e3c 2086 66bd
00000170: 70c1 64ba 1897 393b ccf1 22ba 5e19 2c3b
00000180: 6582 843d 5a86 d6ba 3d64 6ebc df41 1e3d
00000190: 0466 cbbc 0ed2 7b3b f4c6 883c 7229 c5bb
000001a0: 013b 8abd 1065 963c aebc 1fba 3e20 a0bd
000001b0: 3002 fbb9 62d2 01be cdeb 043c 41d1 0cbc
000001c0: 6d31 d13b d0bf 40bb 06fd 41bb 1ad4 38bc
000001d0: 378e 7a3c 34ff 1e3d 85fa 12bd 406e 06bd
000001e0: 1ce0 193b 8182 693d e532 1fbd 6f60 973c
000001f0: 75d3 393d 5d19 8fb9 2227 853b 4bcf a339
0.0049750563 -0.007834028 -0.020376792 0.024782473 0.005625435 0.10075403 0.017983284 -0.061672363
-0.17360441 0.00130316 0.0050511807 0.015358797 0.014688741 -0.010492185 -0.0217081 0.010427957
0.0077560884 0.02076962 0.009853712 0.0033234803 0.0026857685 0.13414077 -0.014112155 0.022641283
-0.00060158875 -0.015030143 0.0088122925 -0.012929606 0.014908347 0.0017166971 -0.008040969 0.02580239
-0.04492918 0.00060625654 -0.045924596 0.025339635 0.0028276988 0.01884987 0.049758457 -0.002012639
-0.00040137838 0.0014786152 -0.0022893762 -0.017530635 -0.0012719625 0.007154202 -0.009514938 0.026469503
0.015787018 0.00096964417 -0.004583576 -0.0125025185 0.00035584648 0.049596775 0.02211736 -0.035143033
-0.00083725905 -0.0028412845 0.018632323 0.0024523786 0.04879397 -0.02199103 -0.008779598 0.028297829
-0.08826 0.013238866 -0.006768502 0.023719216 -0.015268045 -0.0030330303 -0.0066806977 0.012034953
-0.073743306 0.0027297249 -6.7744404e-06 -0.014526158 -0.011684376 -0.054753948 0.015544168 0.012236247
-0.014286972 0.009046689 -0.0069190776 0.05509983 0.0018571095 -0.001815945 -0.026673455 -0.0065391962
0.014445698 -0.0054227174 0.014576857 -0.056280255 -0.0008726334 0.0028318819 -0.000621584 0.0026260237
0.06470183 -0.0016366944 -0.014550266 0.03863704 -0.024828918 0.0038424763 0.01669643 -0.0060169036
-0.06749535 0.018358737 -0.0006093484 -0.0781865 -0.0004787608 -0.12677911 0.00811286 -0.008594812
0.006384066 -0.0029411204 -0.0029600277 -0.011281038 0.015292696 0.0388176 -0.035883445 -0.032819986
0.0023479527 0.057009224 -0.038866896 0.0184786 0.045367677 -0.00027293983 0.004063503 0.00031244228

linear5.weight f4 [1, 128]
00000000: 7be6 65b7 ac8c ffbb 449a 563c 1eb7 143d
00000010: d0c8 d03b a2d8 35bc 47c6 193d 3363 ab3c
00000020: 0b15 213d 4109 933b ee15 d23c 36de 13ba
00000030: 33bc 83bc 8a74 81bc 0df3 e7bc 49ca a23c
00000040: ba76 16bc f29b 083c ecd5 d43c c096 56b9
00000050: f890 b33a ef29 02bd 2027 c03c 82d5 f7bc
00000060: 4aad 283b 8681 183d 5a12 7fbc 9fb3 c1ba
00000070: 9362 0c3d 7047 31b9 55bb 083c a7eb e1bc
00000080: 619e ffbb fa6d 94ba 831b 763c fe79 d03c
00000090: 7089 feb9 d2a8 7fba 31fd d9bc 02bc 8fba
000000a0: f07e f7b9 8051 343b 9c1d e53a 8feb 35bc
000000b0: 185e 75ba b885 7cbc bd8d 3e3d 3e33 e4bc
000000c0: 01cb 24bc 783a 3f3b de21 03bc eef7 35bb
000000d0: 00b6 ab37 5d93 e2bb 66fc cf3c b6da 203d
000000e0: 6a63 f2ba 84b4 07bb 104a cb3a 0076 47b9
000000f0: 1d8d 21bc 70d3 4e39 f47a 16bc d131 c43c
00000100: 815c 21bd d582 15bd c72c 53bc 6de8 70bc
00000110: 8749 e83c 0e0c fc3c 379d 613c 521f f8bb
00000120: 7156 e83c 135b a1ba 640b 15ba 52d5 6dbb
00000130: a420 43bc 39f0 873c 7f6b 02bc 698a 0bbb
00000140: 3024 ca3b c301 02bd 20a2 c23b 3835 8abd
00000150: 627f ba38 e146 bd3a b5cb 5cbc f0af b33c
00000160: da50 ebbc f966 d1bc 6cb7 05bc de2c 953d
00000170: d0bd 0dba 9048 21bb 9bad 57bc 6859 cc3a
00000180: 2771 0b3d 331f 14bb 222b 863c 7805 db3c
00000190: f3ea e2bb 5220 80bb b366 a63c 0a0f 44bc
000001a0: 70d4 233c 5776 a1bc e955 163a 792c 713c
000001b0: bdc9 f2bb 8139 b93d c3f4 7bbc b0b7 783d
000001c0: c97f 9c3c fedd d0bb 3ce6 013b 4680 1ebb
000001d0: 79fc 713c 829a 373d b692 48bc 6d7b 3b3c
000001e0: b95b fdba eef4 12bd 9e40 c9bc 9103 a2ba
000001f0: 7b5f 8d3b 3447 8539 6458 c63c eed3 ec38
-1.3703127e-05 -0.007798752 0.013098303 0.036307447 0.006371595 -0.011099013 0.037542608 0.020921325
0.03932671 0.004487187 0.025645223 -0.0005640717 -0.016080951 -0.01580264 -0.028314138 0.019871848
-0.00918358 0.0083379615 0.025980912 -0.00020464789 0.001369982 -0.031778272 0.023456156 -0.030253176
0.0025738054 0.0372329 -0.01556834 -0.0014778263 0.034273695 -0.00016906648 0.008345445 -0.027578188
-0.0078008627 -0.001132428 0.015021208 0.025448795 -0.00048549054 -0.0009752634 -0.026609989 -0.0010966065
-0.00047206087 0.0027514398 0.0017480138 -0.011103525 -0.00093600294 -0.01541274 0.04652189 -0.027856465
-0.0100581655 0.0029179137 -0.00800368 -0.0027766186 2.0469539e-05 -0.0069145397 0.025388908 0.03927108
-0.0018492762 -0.002070696 0.0015509743 -0.00019022077 -0.009860304 0.00019724458 -0.009184588 0.023949536
-0.03939486 -0.036501724 -0.012889094 -0.014703852 0.028355373 0.030767467 0.013770393 -0.007572093
0.028361531 -0.0012310467 -0.0005685596 -0.003629048 -0.011909638 0.01659404 -0.007960199 -0.0021292216
0.0061688647 -0.03173996 0.005939737 -0.06748432 8.892898e-05 0.0014440679 -0.013476302 0.02193448
-0.028725076 -0.025561797 -0.008161407 0.07283948 -0.00054070074 -0.00246099 -0.013163949 0.001559061
0.034043457 -0.0022601604 0.01637799 0.026736006 -0.006924981 -0.003910103 0.020312643 -0.011966476
0.0099993795 -0.01970975 0.00057348475 0.014720076 -0.007409303 0.09044171 -0.01537818 0.060722053
0.019103901 -0.00637412 0.0019821068 -0.0024185344 0.014769667 0.044825085 -0.01224201 0.011443001
-0.0019329704 -0.035878114 -0.024566945 -0.0012360682 0.0043143607 0.00025420787 0.02421207 0.00011292832
