TDQN/MicroGrid/TDQN(改进)+buffer/model/critic_model.ckpt (torch, 571738 bytes, 26 tensors)

lstm.weight_ih_l0 f4 [96, 1]
00000000: 70b5 8ebc 04d9 8cbd 2260 233e 3c87 0dbe
00000010: 7c37 d73d 26df 23be 140e 2b3e 20bd ba3d
00000020: 7c65 6bbd 30dc 5a3d a080 df3d b0d7 2a3d
00000030: e2be d6bd 4615 2c3e 2072 b73d 4c2d 2e3e
00000040: 4243 33be 8a9b 0b3e c903 45be e667 193e
00000050: 7882 8fbc 50de 763d b557 25be b896 033d
00000060: 782a b8bc 9b99 18be 90a1 bcbc 1444 58bd
00000070: 5c6f 16bd 0073 89ba 80ad 1c3e d045 0cbe
00000080: d078 8e3c 5e35 3abe 4083 60bc 28bb 1d3d
00000090: 2a84 e6bd 8060 f73c b418 d83d eb64 a7bd
000000a0: f45d 33bd 2607 023e c8e4 433e 4036 e7bb
000000b0: 9003 e0bc 64ab dabd 6085 bebd 6c06 313e
000000c0: 4042 26bc 105a 5d3d a9d0 16be 16ae 043e
000000d0: 2278 0abe 4231 8abd 347f 913d 7c44 223d
000000e0: 50c1 e73c e0fc 163e b052 1f3d a4f6 bf3d
000000f0: e0fe bbbc 043e b13d e475 97bd cac0 81bd
00000100: ac31 4bbe 007e c2b9 adc2 a2bd dfdd 18be
00000110: c97f d1bd a8f3 d03c 0e9d d9bd 04f0 82bd
00000120: ea1b 18be 3416 df3d de42 07be 60f1 733d
00000130: ac1a 44be 5455 4a3e 2b40 13be 5647 4dbe
00000140: 70f7 093e a45c 453e 4062 f1bc e499 203d
00000150: f0cb 5fbd 280a d33c 72f8 3e3e 7032 b4bc
00000160: e6da e9bd 908e 1bbc 7663 4f3e 1670 363e
00000170: a8df 783d 50b7 e6bc b0ea 9b3d 5c65 023d
-0.0174205 -0.0687733 0.1595464 -0.13821119 0.1050863 -0.16003093 0.16704589 0.09118104
-0.05746983 0.053432643 0.10913205 0.041709602 -0.10485627 0.1680499 0.089573145 0.17009467
-0.17506126 0.13633552 -0.19239725 0.1498104 -0.017518267 0.060270607 -0.16146739 0.03212616
-0.022481188 -0.14902346 -0.023026258 -0.0527993 -0.036727294 -0.0010486543 0.1530056 -0.13698506
0.017391592 -0.1818442 -0.013703167 0.038508564 -0.11255677 0.030197382 0.10551587 -0.081735454
-0.043790773 0.1269804 0.19130242 -0.0070560277 -0.027345449 -0.106772214 -0.09302783 0.17287606
-0.010147631 0.05404097 -0.14728035 0.12957034 -0.1352239 -0.067476764 0.0710434 0.039616093
0.02829042 0.14744902 0.038897216 0.09373215 -0.022948682 0.08654407 -0.07395533 -0.063356
-0.19843167 -0.0003709644 -0.07947288 -0.14928387 -0.10229451 0.02550681 -0.10625659 -0.063934356
-0.14854398 0.10892907 -0.13209102 0.059556365 -0.191508 0.19759113 -0.14379947 -0.20046744
0.13473296 0.19273621 -0.029465795 0.03920926 -0.05463785 0.025761679 0.18649462 -0.021996707
-0.11418705 -0.009494439 0.20252785 0.17816195 0.06076017 -0.028163582 0.076131225 0.031834945

lstm.weight_hh_l0 f4 [96, 24]
00000000: ebc1 e0bd a8c8 e3bc 80d9 053d 9cf3 f2bd
00000010: ecf8 d0bd 89a8 44be 18f5 743d 9802 963c
00000020: 8d6c 4dbe e003 443e 5202 8abd 2b16 1dbe
00000030: 4cad c33d 02b5 163e 1287 8dbd 48f3 903d
00000040: 8419 c53d 14c1 cc3d 6035 f13b 2f4b f1bd
00000050: e03e 513c 7813 12be 68a8 d43d 80d2 94bb
00000060: 40fc 9c3d 352b 1fbe f6bd 19be 34bf 45be
00000070: e833 3ebd 4618 d4bd 98db ad3c d41e 2d3e
00000080: 14f7 62bd e04f f53d 6454 60bd dc8a 903d
00000090: 90f7 ed3c c829 f23d 6895 cf3d 0869 493e
000000a0: 1687 16be 74c3 933d 34fc bd3d 94ef 163d
000000b0: 5014 01be 8038 57bc a29b 2e3e 884c 94bd
000000c0: 4ad9 25be 905f 813d 1031 e43c 909f 4c3e
000000d0: 222d 1dbe 562c 0abe 78c8 8d3d 20b1 12bd
000000e0: d0e2 9abc dec7 fabd cc15 9c3d 6cd4 273e
000000f0: 33e9 4bbe 6070 123e d424 ec3d 0224 1abe
00000100: d354 eabd e072 373d 3215 3cbe 4480 063e
00000110: b8ae 46be d0fa ad3d 641d 1cbe 90fe 343c
00000120: 1ce1 a63d 701b 2e3e c0c5 a93d 10d3 c63c
00000130: 4820 38be 985c fa3c 20e3 b2bd a8d9 903c
00000140: 98de 52bd 7e88 20be c0be 253c 5045 713c
00000150: 90c8 3c3c 28b2 003e 5a22 0f3e ea7e 103e
00000160: ba9d 123e fc68 293d 74cf 4ebd c072 58bb
00000170: 500e 47bd 0823 81bc 0a54 20be 549d a63d
00000180: 1c64 0f3d e045 9abc b7f3 21be ec16 eb3d
00000190: 1487 f43d c6da 113e a4b8 ca3d f01c 533d
000001a0: 0839 e2bd c061 f1bc 8677 3dbe 8082 f8bc
000001b0: 20e0 dcbd e25c e6bd 0091 95bc d97d cbbd
000001c0: 98f2 233e fa10 113e 8e35 483e e83f 213e
000001d0: 6087 53bc 1ec1 0ebe c898 98bc 4026 a1bb
000001e0: 00ec 9e39 28da c63d 98d8 953d 9e13 0b3e
000001f0: d83a 413e a05f 893c b425 ce3d 6d9e 22be
00000200: 0e0f 1c3e 3c54 68bd c401 2c3d e069 c9bd
00000210: 9022 8f3d 4438 e53d b898 333d 88d3 63bd
00000220: 18b1 423e 4016 3a3e a0f9 17bd 0eaa 2d3e
00000230: 0e1f 2d3e 583d c2bd 105c 3ebe 8ca9 0f3e
00000240: 28bc 023e b41e bc3d 9a38 29be 58fc e23c
00000250: e843 163e 40ee 03bc b435 433e 8abe e8bd
00000260: c08d be3d d0b0 04bd 0695 c0bd 98c8 043e
00000270: fcc0 3b3e b05c 1c3e b12c b6bd 5461 1ebe
00000280: 70ab a73c b6a5 503e 2ee9 b4bd 4c7b be3d
00000290: 80fe d63a f881 39bd a472 03be 1cc3 3f3e
000002a0: ee14 41be dceb 4abd 004b 4f3e c591 f2bd
000002b0: c2fa 213e 2062 3e3d 68ad c1bc fee8 223e
000002c0: 387e 043e deb1 143e 2489 303e c027 4c3c
000002d0: 6cf6 f63d b624 0f3e 6896 8a3c ecfb a43d
000002e0: c6ae 193e c059 9a3c 2c4e c53d e853 01be
000002f0: 8830 443e 030d b7bd 3cc8 6fbd 275b 10be
00000300: 7095 c03d 4888 b0bc 124f 1b3e 2025 afbb
00000310: 7211 d5bd 360f 3cbe 288a 203e 3c78 06be
00000320: b8e4 d83d aecb 3abe 7435 a0bd fc7f 3c3e
00000330: 90c4 c13c 2172 f2bd dba0 bebd fcb2 44bd
00000340: 9cbb ad3d e203 acbd c9e4 3bbe 60d1 943d
00000350: 9522 2abe 6031 323c 74a9 3a3e f22c 24be
00000360: 6ee6 3dbe 5c71 bc3d 36c5 08be c053 86bd
00000370: a03d 4ebe c817 643d f450 3f3e b8bf eb3c
00000380: d00a 483d 6af4 393e b0f9 103e 2c7d ee3d
00000390: 6ae6 433e 7451 2b3d 30f7 29be 042c cc3d
000003a0: 84f6 9bbd ecc5 9b3d 5c57 283d 90c3 693c
000003b0: 6ad7 0c3e 51fa 1fbe f00a 12be 6cf0 143d
000003c0: 2cb3 a63d 556b 3fbe 567a edbd a8be 423d
000003d0: dcf7 1e3e 1eb5 023e 4843 7c3d f043 d03d
000003e0: 050a ebbd 893e 38be 0ce4 073e ecf1 a03d
000003f0: 78e3 ca3d 7d32 44be ec90 e23d c895 833d
-0.10974487 -0.027805641 0.032678127 -0.11862871 -0.10203728 -0.19204916 0.059804052 0.018311784
-0.2006094 0.19142103 -0.06738724 -0.15340488 0.09554538 0.14717487 -0.06910528 0.07077652
0.09624007 0.09997764 0.007361099 -0.11781918 0.012771338 -0.14265239 0.103836834 -0.004541695
0.076653 -0.15543826 -0.1501387 -0.1931122 -0.04643622 -0.10356192 0.021222875 0.16906291
-0.055411413 0.119781256 -0.05476798 0.07057735 0.029048711 0.118243754 0.10135919 0.19668972
-0.14699969 0.07215014 0.092766196 0.036849573 -0.12605405 -0.013136029 0.17051557 -0.0724116
-0.1619617 0.06317055 0.027855426 0.19982743 -0.15349248 -0.13493475 0.06923002 -0.03581345
-0.01890698 -0.12245153 0.07621345 0.16389626 -0.19913177 0.1430068 0.11530462 -0.15052798
-0.1144196 0.044787288 -0.1836746 0.13134867 -0.19402587 0.08495104 -0.15245587 0.011047021
0.08148405 0.17002654 0.08289671 0.024270564 -0.17981064 0.03056173 -0.08734727 0.017681912
-0.051481813 -0.15677068 0.010116279 0.014725998 0.011522427 0.12567961 0.13977948 0.14110914
0.1431798 0.041359887 -0.05049081 -0.003302738 -0.048597634 -0.015763775 -0.15657058 0.08135477
0.03500758 -0.018832147 -0.15815626 0.114789814 0.119398266 0.14243612 0.09898499 0.05154127
-0.11046034 -0.029465556 -0.18502626 -0.030335665 -0.10784936 -0.11248185 -0.018257618 -0.09936113
0.16010511 0.14166632 0.1955168 0.15747035 -0.012910694 -0.13940856 -0.01862754 -0.00491789
0.00030311942 0.09709579 0.073167026 0.13581702 0.18870103 0.01676923 0.10065785 -0.15880747
0.15240118 -0.056720957 0.04199387 -0.09834647 0.06989014 0.111923724 0.043846816 -0.055621654
0.19012868 0.1817255 -0.037103295 0.16959402 0.16906378 -0.09484357 -0.18589807 0.14029521
0.12767088 0.09185544 -0.16525498 0.027708218 0.14674342 -0.008052409 0.19063455 -0.113644674
0.093043804 -0.032395184 -0.09403424 0.12967145 0.18335336 0.15269732 -0.08895243 -0.15466815
0.02046749 0.20375714 -0.08833538 0.09300861 0.0016402751 -0.045289963 -0.128367 0.18726772
-0.1885564 -0.04954134 0.20243454 -0.118442096 0.15818313 0.046480298 -0.023642257 0.15909192
0.12938774 0.14520976 0.17239815 0.012460649 0.1205872 0.13978848 0.016917422 0.08055863
0.15008077 0.018841624 0.09634051 -0.12629664 0.19159138 -0.08938029 -0.058540568 -0.14097272
0.09403503 -0.021549359 0.15166882 -0.005345002 -0.10403718 -0.18365178 0.15677702 -0.13131803
0.105905 -0.1824176 -0.078226954 0.18408197 0.023653299 -0.118381746 -0.093080245 -0.048022255
0.08483049 -0.08399178 -0.18348993 0.072664976 -0.16614754 0.01087603 0.18228704 -0.1603277
-0.18544933 0.09201309 -0.1335648 -0.06558943 -0.20140696 0.055686742 0.18683225 0.028777942
0.048838437 0.18159643 0.14157748 0.116449684 0.19130865 0.041825727 -0.16598201 0.09969333
-0.076153785 0.0760611 0.041098937 0.014267817 0.13754049 -0.15622832 -0.14261985 0.036362097
0.08139643 -0.18693288 -0.11595599 0.047545105 0.15524238 0.12764403 0.061587602 0.10169208
-0.114765204 -0.17992605 0.13270587 0.07858643 0.099066675 -0.19159885 0.11062798 0.06425053

lstm.bias_ih_l0 f4 [96]
00000000: 7e0f 0b3e d753 43be c08d babb ba5c 36be
00000010: 319d 11be dc7e 2e3d e0b5 c13b 423a 493e
00000020: a02e 3c3e 57cd 45be 1212 2e3e a84c 90bc
00000030: 104f 723d 23ed ddbd 789b f83c 7c97 0ebe
00000040: e608 2c3e d6da cdbd 2b6d 10be 983d 3f3d
00000050: dcae 3ebd c834 2c3e 2086 44bd 24b0 b23d
00000060: 005d c5bd 748d 1d3e e015 0c3e 280a a0bd
00000070: 1c9d eabd a2ff 1f3e 8c1f 7bbd 72d8 123e
00000080: fba4 d3bd 10f8 4abd e8a2 30bd 70cd 01be
00000090: 12f7 ccbd 447e 0bbd 3e48 cbbd c209 263e
000000a0: f479 0fbe c40d dd3d 849c c13d c4a1 2c3d
000000b0: 6558 33be 40a8 ccbc f8fd 3bbd 2493 2fbd
000000c0: 42cb 9abd 40bb 5cbd 1043 453e 5575 3ebe
000000d0: 9019 b4bc cae4 9ebd acd5 383e 7484 52bd
000000e0: 3c88 903d 7688 083e 6053 d1bc e6be 3b3e
000000f0: 74d7 873d 6fdc 2cbe a80e fc3d 3057 69bc
00000100: d8d4 69bd 6139 42be da78 033e 2ec7 0ebe
00000110: eca2 fb3d 30c8 15bd 9496 ba3d a6ef 30be
00000120: f913 26be 2869 073e c81b cabd c41e ed3d
00000130: 5329 3dbe 0044 ec3d 40a4 8abb 74ac 9dbd
00000140: 801e 03bc c6d5 273e 2ea4 333e d8aa 21be
00000150: cbb8 01be 809f 27bb 6502 0abe 2592 25be
00000160: b6df 9abd 1cc2 333e f8e7 3abe f02d 773d
00000170: eaa0 4dbe 28ae bfbc 4044 ae3d 24b8 e13d
0.13580129 -0.19074951 -0.0056931674 -0.1780881 -0.1422012 0.04260145 0.005911574 0.1965113
0.18377161 -0.19316612 0.16999081 -0.017614678 0.05915743 -0.10836246 0.03034757 -0.13924974
0.1680027 -0.10051505 -0.14104144 0.0466896 -0.046553478 0.1681701 -0.047979474 0.087250024
-0.09636879 0.15385991 0.1368022 -0.07814437 -0.114557475 0.1562486 -0.061309382 0.1434038
-0.10334202 -0.049552977 -0.04312411 -0.12676024 -0.100080624 -0.034055963 -0.099258885 0.1621466
-0.14011365 0.10793641 0.09453681 0.04214646 -0.17514189 -0.024982572 -0.0458965 -0.042864934
-0.075582996 -0.053889513 0.19263864 -0.18599446 -0.021984845 -0.07758482 0.1805026 -0.05139585
0.07057235 0.13333306 -0.025552452 0.1833454 0.06632891 -0.16880964 0.12307483 -0.0142419785
-0.05708775 -0.18967201 0.1283907 -0.13943169 0.12286934 -0.036567867 0.09110752 -0.17278919
-0.16218556 0.13223708 -0.0986858 0.11578134 -0.18472795 0.115364075 -0.004231006 -0.076989084
-0.008002877 0.16390142 0.17543098 -0.15787828 -0.12668149 -0.0025577247 -0.13477476 -0.16169031
-0.07562201 0.17554516 -0.18252552 0.060346544 -0.20080915 -0.023398474 0.085091114 0.1102145

lstm.bias_hh_l0 f4 [96]
00000000: 609e edbd e090 fe3d 80be ccbc 9a9c 03be
00000010: 26ea 293e 04ec f93d fc2d 95bd 48b5 cfbc
00000020: 1028 793d 589c 983c 008c 603c b71c 3cbe
00000030: bfea 15be 6ce7 033e 58e0 483e c891 d23d
00000040: 8419 49be 13bc 34be 1a99 06be 02c9 143e
00000050: f0b4 f23c 5019 cd3d 4177 4bbe 24ec d23d
00000060: 94cf a33d 00a3 b2ba 1cb5 863d b49d db3d
00000070: 0625 293e a058 0c3d 7825 603d 1a0e ecbd
00000080: eaf3 2cbe a224 32be 1c03 203e ca23 d5bd
00000090: c00f 13bb e06d a7bd 6d1a ccbd 14db 863d
000000a0: 4ee9 053e 00a9 2b3a 341d ffbd 3e9e fdbd
000000b0: e2d8 453e 6634 103e a403 243e 2613 4b3e
000000c0: 7a6e 303e d672 493e 2845 6e3d 449f 073e
000000d0: 4425 42be 00c5 a03d a4c9 21be 30bd 163d
000000e0: c44f 42be 7be1 fbbd d073 783d 58d8 263d
000000f0: 6867 263e 3802 4e3e c8fe f53d a88b 313e
00000100: 8888 f03d fc42 fb3d f211 1cbe 955c 35be
00000110: c015 6e3c a494 81bd c65d 393e 34c3 833d
00000120: 207c c63c 3af7 0bbe 8a31 97bd d866 fa3c
00000130: 2483 26be 8087 103e 70ac 59bd 060c 463e
00000140: 206b 353c 34b2 e8bd b2b5 3b3e 4cb1 54bd
00000150: 7a54 99bd 0c8d 2b3e f526 42be 2d16 a8bd
00000160: e070 d23d ec1e dc3d 908b a6bc 585f e63d
00000170: 2fcf 43be 78b8 d33c 64cf 8dbd 5421 ccbd
-0.11602473 0.124299765 -0.024993181 -0.12852708 0.16593227 0.122032195 -0.072841614 -0.025354996
0.060829222 0.018629238 0.013705254 -0.18370329 -0.1464033 0.12881249 0.1961683 0.10281712
-0.1963864 -0.1764987 -0.13144341 0.14529803 0.029627293 0.100145936 -0.1986971 0.102989465
0.07998577 -0.00136289 0.065775126 0.10723439 0.1651803 0.034264207 0.054723233 -0.11526127
-0.16889921 -0.17396787 0.15626186 -0.10407217 -0.0022439808 -0.08175254 -0.09965978 0.065847546
0.1307728 0.0006548315 -0.12456742 -0.12383698 0.19321015 0.14082488 0.16017014 0.19831523
0.17229643 0.19672713 0.05817142 0.13244349 -0.18959528 0.07850075 -0.15799576 0.036801517
-0.1897574 -0.12298866 0.060657322 0.040733665 0.16250384 0.20118034 0.12011486 0.17338431
0.11744791 0.12268636 -0.1524122 -0.17711098 0.014531553 -0.06327179 0.18102178 0.064337164
0.02422911 -0.13668528 -0.07382496 0.030566618 -0.16260964 0.14114189 -0.053142965 0.19340524
0.011072904 -0.113621145 0.1833103 -0.051926896 -0.07486816 0.16753024 -0.18960173 -0.08207355
0.102754354 0.107480854 -0.02033022 0.11248654 -0.19122003 0.025844797 -0.06924322 -0.09967294

linear1.weight f4 [128, 30]
00000000: 9959 9cbd c7e5 dd3c 3466 12be 5139 83bd
00000010: 94b5 59be 38e5 dcbc dd06 61bd 695a d23b
00000020: 7c92 4fbe 22fd 6c3d 990c b8bd 499f 183e
00000030: a5f6 e5bc 0ca2 23be 589a 44be 886e 16be
00000040: 59dc a1bc 1d10 d5bd dc65 debb 5a42 b2bc
00000050: 10b8 14be ab02 6d3d 26ef c23d 4cc3 de3d
00000060: bde4 9c3c 4ba6 fc3d 270b 9a3e d6a7 0a3e
00000070: fd6d 503d dd2e 3c3d 5974 e6bd cc3c e03d
00000080: 0031 f33a 2430 1d3e 6e7e 1e3e a4c1 ab3d
00000090: bc36 db3d 7c57 373e 922f c5bd d5e3 cabd
000000a0: 31bf f0bd 72fa 30be 6d87 03be 4cbf f1bd
000000b0: 2ab1 193e 01ab 1fbe 64af b33d eccc 1b3d
000000c0: 105f 923d d2c7 133e 6644 023e 0024 f7b9
000000d0: b0eb 2c3e c437 5ebd 8c05 bbbd 8c45 23be
000000e0: f0bf 8b3d 44e9 08be f8cc b6bc a084 de3b
000000f0: 9883 a6bc dce9 4fbd f116 48be 4865 7fbe
00000100: d2b7 7dbe f279 90be d509 81bd a30f 21be
00000110: 97ed 133d f6d6 f5bc dad4 463e 3f8e 663c
00000120: 9c59 56bc 9d93 adbc 0d20 3fbc 9542 b43d
00000130: 8dcd 43be 2182 93bd 22ba fd3c 088e 46bd
00000140: d6ac 87bd 0155 033d 9f3c 973c 65bd a93e
00000150: 129d 2ebd d84e c73d c034 003c 4354 2b3e
00000160: 3b6a 1dbe 8820 7e3d a0dd 7fbd 2db4 74be
00000170: 01c9 8bbc 16ba 2c3e 0c86 1d3e 82bd cfbd
00000180: d6b0 9bbe 86ee b2bd c394 8a3d 08d2 9dbd
00000190: 25d5 4abe 0906 2b3e 8ee7 03bd 2fbc 6b3e
000001a0: 2d1f 833d f9d9 113e d78b 4c3e 04a8 203e
000001b0: 937b 83be da21 97be 9ff3 803c f90a ca3d
000001c0: e5df 65bd 9aeb 043e b0eb b7bb cdd9 cabd
000001d0: 0483 df3a fa2f fd3c 66af 7e3d 0ddb 14be
000001e0: 2536 fb3d a379 7a3d c700 38bd a6cc 42bb
000001f0: 9692 4c3e 2ec1 9b3c 2b20 09be 7840 17be
00000200: 10bd 02be c3e1 e53d 693b 32bd f4c8 43bd
00000210: e26f 69be e264 153e 3a21 e5bc 952e 203d
00000220: 08a1 1ebe b537 02bd 077f c13d 686b 4e3e
00000230: de6c ed3c 7729 a3be 19df 49be ab6b 57be
00000240: 7374 40be 0f0a 143e d416 82be c4a6 3fbe
00000250: 0d9b 00bf 50ab 463d 0916 de3d 7809 523e
00000260: 220b 443e 643a d3bd 830c bd3d bb4f f0bc
00000270: 4f20 69bd 3577 fb3d fbcc b43d 52f8 3f3e
00000280: 225a 0abc a570 223e 1aa6 21be 22d3 10be
00000290: ff73 053d b539 e6bd b96f 18bd f522 cebc
000002a0: 6908 363e 9308 063d 798c f3bd 0b22 e93d
000002b0: 97d5 4fbe 6f19 893d 9c25 473c d51d 77bc
000002c0: 9b0e 07be 7599 a3bb fcd0 a23d 5466 86bc
000002d0: 1eb1 0cbe 4c86 073e b990 dcbc 367c 96bd
000002e0: 5a49 323e 6142 f1bd c293 283e 5eae 11be
000002f0: 221f 87bd 11e4 1ebe ffd9 973d 1770 12be
00000300: 9ba7 0ebc 8f90 9dbd 1b1e 1dbe 7478 003d
00000310: 1d6c 78bd 6dab 3e3d 9e32 20bd 6a30 9f3d
00000320: 0da3 cebd 0258 cabc 4d24 013e 7b0d 0b3d
00000330: d6a9 4b3d 72ba 203c 6511 9e3e 89c4 08be
00000340: a06a 273e 3b15 7f3c 2a5e c43d 42b3 663e
00000350: 0c94 7bbd c6d4 fa3d ef3d 063e ce04 323e
00000360: fbb3 4f3d a443 b63c 6038 b1bd ffdd 033e
00000370: 5e5c e23c 1675 d63d 431f 003e 27eb 29bd
00000380: 13c0 2fbe c436 80bc 2eee 26be 497e ef3d
00000390: 2b9b 893d fe3d f73b e6b9 373d b9ca bbbd
000003a0: aef5 073e b5f9 2c3d d70c 203e 8683 80bd
000003b0: f7da b0be bbdf c73c 8312 233a 2852 9abc
000003c0: ceaa f73d 5738 c73d c18d 453e 21f8 bfbb
000003d0: ab23 5a3e 90ca 233e da03 933d 74ff 8cbd
000003e0: 76d9 363e 1ba4 7ebc 2c67 bd3d c2b7 65ba
000003f0: ea41 1a3e 0eac 9ebd 9fa5 dcbb df7b 91bc
-0.07634277 0.027087105 -0.142968 -0.064074166 -0.21260673 -0.026964769 -0.054938186 0.006419469
-0.20270723 0.057858594 -0.08986778 0.14904512 -0.02807171 -0.15979785 -0.19199502 -0.14690602
-0.01975839 -0.10403464 -0.006787045 -0.021760155 -0.1452334 0.057863872 0.0951827 0.10877094
0.01915204 0.12336405 0.30086634 0.13540587 0.050886143 0.04594313 -0.1125266 0.10949096
0.0018554032 0.15350395 0.15477917 0.083865434 0.10703799 0.17904466 -0.09628214 -0.09906737
-0.11755217 -0.17283037 -0.1284463 -0.11804065 0.15008989 -0.15592577 0.087736875 0.038037226
0.07147038 0.14431694 0.12721404 -0.00047138333 0.16886783 -0.0542524 -0.09131917 -0.15944499
0.068237185 -0.13370234 -0.022314534 0.0067907125 -0.02032642 -0.050760135 -0.19540001 -0.2494098
-0.24777153 -0.28218037 -0.063007034 -0.15728621 0.036115255 -0.030009728 0.19417134 0.014072
-0.013082888 -0.021188552 -0.011665356 0.08801762 -0.1912138 -0.072025545 0.030972544 -0.048475295
-0.06624763 0.032063488 0.018461524 0.3315231 -0.042630263 0.09731835 0.007825077 0.16731362
-0.15372555 0.062042743 -0.062467217 -0.23896857 -0.01706362 0.16867861 0.15383166 -0.101435676
-0.30408353 -0.08736901 0.06766655 -0.07706076 -0.1980787 0.16701521 -0.03220325 0.23021005
0.06402431 0.14243306 0.1997522 0.15689093 -0.25680217 -0.29518014 0.015741168 0.09865374
-0.056121726 0.129805 -0.005612813 -0.099048235 0.0017052596 0.030906666 0.06217899 -0.14536686
0.122661866 0.061151158 -0.044922616 -0.002972403 0.19977793 0.019013014 -0.13391177 -0.14770687
-0.12767434 0.11224701 -0.04351369 -0.047799066 -0.22796586 0.14589265 -0.027969945 0.039106924
-0.15491116 -0.031791408 0.09448057 0.2015816 0.028982576 -0.31867573 -0.19714011 -0.21037166
-0.18794422 0.14456962 -0.2540804 -0.1871596 -0.5023659 0.04850322 0.108440466 0.20511425
0.19144872 -0.103138715 0.09230902 -0.029334893 -0.056915578 0.12278596 0.088281594 0.1874707
-0.008444341 0.15863283 -0.15786019 -0.14143041 0.032581326 -0.112414755 -0.037215922 -0.025163153
0.17776646 0.03272302 -0.118920274 0.11383446 -0.20296322 0.06694304 0.012154963 -0.015082796
-0.13189165 -0.0049926587 0.07950017 -0.016406216 -0.1373944 0.13234824 -0.026924478 -0.0734791
0.17410794 -0.11780239 0.16462615 -0.14226672 -0.06597735 -0.15516688 0.07414626 -0.14300571
-0.008706952 -0.07693588 -0.15343516 0.031364873 -0.06064998 0.046550203 -0.039110772 0.07772906
-0.10089693 -0.024700169 0.12611504 0.033948403 0.049722515 0.009810077 0.30872646 -0.13356222
0.16349268 0.015569027 0.09588273 0.22529319 -0.061420485 0.122476146 0.13109563 0.17384645
0.050708752 0.02224905 -0.08653331 0.12877654 0.027631935 0.10471551 0.12511925 -0.041484024
-0.17163114 -0.015651114 -0.16301796 0.11694009 0.06719049 0.007545232 0.04485502 -0.09169526
0.13277313 0.042230327 0.15629898 -0.06275086 -0.34542057 0.024398675 0.0006220715 -0.018838003
0.12093125 0.09727543 0.19292356 -0.0058584367 0.21302669 0.1599524 0.07178469 -0.06884661
0.17856392 -0.0155420555 0.09248194 -0.0008763039 0.15064207 -0.077476606 -0.0067336108 -0.017759262

linear1.bias f4 [128]
00000000: 8363 393d ead3 053e aa5d d4bd c4cb 043d
00000010: 9595 47be abb9 06bd 47e5 593e 9854 4cbe
00000020: 2256 1d3e f0f9 2e3c cc85 a13d b45f b7bb
00000030: e8b5 74bd 080a 3cbe 9043 ad3d 16d8 59bd
00000040: e716 bc3d 5069 12bd 990d 16bd 9aeb b2bd
00000050: 6ce4 a13d faf7 d43d 3064 5bbe 5e0f 993a
00000060: 7620 57bc b040 b0bd e890 32bd 4845 b43d
00000070: 3b42 8cbd 2030 b0bc 7c71 d63d c9f2 97bd
00000080: c9d5 43bc dfc9 153e 03f3 1d3e 67e3 b3bd
00000090: 5884 c83d c218 063e 9a45 54be b83e cabd
000000a0: 1a45 533d 4fc3 c3bd 60bc 7b3d cbf8 1cbe
000000b0: 4f89 1dbe 155e 7e3e 1c7e bdbd 41c0 5a3c
000000c0: 72e6 0ebe 66f3 c8bc 544b 2c3e 9810 a13d
000000d0: 4d25 8dbd 5250 363e 31c2 ef3b c711 663a
000000e0: 092e 3e3e ffd1 fbbd 5ca3 b73d ceac 9b3d
000000f0: 28fd d33d 17ad b93d 7d2d c0bd e23b 1dbe
00000100: 0b15 00be 7fbe 9cbb 134d 15be 2857 e3bd
00000110: eafa 1f3e f279 fdbc 9847 ecbd 9e31 66be
00000120: 8dc0 383d 7739 1c3d de31 103e 93c5 043e
00000130: 48a0 eaba b1bb a7bd 7cef 4dbe 7189 093e
00000140: 704d e43d d417 da3d 7e4c 163e 48d4 c33d
00000150: 1286 683d c04b 39be 5eae c0bd 8901 d53d
00000160: 5402 02be 3f22 553d dbf3 4a3d 29a7 09be
00000170: ba3a d23d 0e5c 0b3e b66f 33be ef9e 9b3d
00000180: d52c d43d bb09 273d 3513 c4bc d173 2ebd
00000190: 76fa 4dbd ada2 32bc 6b5c 973b b8b5 0cbd
000001a0: fa05 e1bd 71a6 bd3d d193 bb3c 7133 49bd
000001b0: f6bd 033e 4801 25be e052 7cbc fd12 35bd
000001c0: 7a9a 47bd 0616 edbd b943 313d e7d9 bbbd
000001d0: 9598 a53d 0778 00bc bce8 7ebd 7f15 523d
000001e0: 3841 5bbd 5e8c 3abe 1406 e7bd e654 3cbd
000001f0: 11c0 203e cf25 39bd d901 f3bd 2c96 93bd
0.045260917 0.1306912 -0.103694275 0.03242089 -0.19490655 -0.03289191 0.21278869 -0.19954145
0.15364888 0.010679707 0.07886848 -0.0055961255 -0.05974379 -0.18363202 0.08460152 -0.05318459
0.09184056 -0.035744965 -0.03663406 -0.08736344 0.07904896 0.1039886 -0.21424937 0.0011677553
-0.013130298 -0.08606088 -0.043595225 0.08802277 -0.0684857 -0.021507323 0.10470864 -0.074193545
-0.011952826 0.14627789 0.15424733 -0.08783608 0.097908676 0.13095382 -0.20729676 -0.09875244
0.051579572 -0.095587365 0.061458945 -0.15329282 -0.1538441 0.24840577 -0.09252569 0.013351501
-0.13955095 -0.024530124 0.1682561 0.07864493 -0.0689188 0.17804077 0.0073168506 0.0008776453
0.18572249 -0.12295913 0.08966705 0.07601319 0.1035102 0.090662174 -0.09383676 -0.15354875
-0.12508027 -0.004783451 -0.14580183 -0.11100608 0.1562306 -0.030941937 -0.11537093 -0.22479865
0.045105506 0.03814074 0.14081523 0.12965994 -0.0017900551 -0.08190096 -0.20110887 0.13431336
0.111475825 0.10649076 0.14677617 0.09561974 0.056768484 -0.18095303 -0.09408258 0.104006834
-0.126962 0.052034613 0.049548965 -0.13442673 0.102651075 0.13609335 -0.17523083 0.075986736
0.103601135 0.040780764 -0.02393494 -0.04259092 -0.050287686 -0.010903043 0.0046191714 -0.034352988
-0.10987468 0.09260262 0.022897633 -0.049121324 0.12865433 -0.1611377 -0.015400618 -0.04420756
-0.048731305 -0.11576466 0.043277476 -0.09172421 0.08085743 -0.007841117 -0.06223367 0.05129003
-0.053528994 -0.18217608 -0.11280456 -0.045979403 0.15698268 -0.045202073 -0.11865587 -0.072063774

linear2.weight f4 [128, 128]
00000000: 52aa 073d f4bd 7bbd e36c e53d 47b0 563e
00000010: ec82 8cbe 2686 7dbe 014e e13c 7d42 88bd
00000020: d068 a8bb c93f ab3d 4eb4 71bd 864b a2bc
00000030: e9a0 56bd ac45 bf3c a3db 1dbe f0e7 f0bc
00000040: 233a a0bd 22e9 6abd b4ee 423d c139 773c
00000050: 71e4 113e f107 88be 4813 fe3d 384f 1d3c
00000060: 1f25 37be 7c90 f6bd 375b 53bd 2a15 a3bd
00000070: 48d6 59ba 7586 2e3d 7664 aebd fef3 3cbc
00000080: e4b6 363d 92fe 5c3c e3c3 0bba b36c 7a39
00000090: 1058 053e 8d1b ae3d e102 dbbb 19a3 a1bc
000000a0: 4dfd 8b3e 15ac 39bc 4bd5 533e b650 b2bd
000000b0: a1f4 8e3d 36a2 8d3e fd05 07bb be21 09be
000000c0: 8b80 d8bc 860c aebd 588b 253c f31d 61bd
000000d0: f81a 09bd 9e04 803d 34b8 c93b 6e7b 21bd
000000e0: dc19 85bd 00f4 1d3a 57c4 62bd d66c d4bc
000000f0: e3ae e0bc 2336 10be 3766 6a3d 34ba 103d
00000100: f29f ecbc 7b8b 903c 23c3 e33d 2c0e b5be
00000110: 4b67 40bd 6cb5 9ebe 8a1e b93d c06d 053e
00000120: b214 9c3d 877d d53d 2e47 a0be f708 db3c
00000130: 32ff b1bb cd01 a2bd f9d4 2bbe f780 933c
00000140: 6b66 923d d890 a43c 55be 1cbd 0d96 6a3e
00000150: 618b 3cbd dcf0 7abd be2b 5fbd 0181 e2bd
00000160: a208 8abd 8180 c53d 47c1 8dbe cdab 3b3e
00000170: 3b64 2d3d fe27 2dbd 4a0c 483d 4e25 073e
00000180: 663d 15be 556b 973d 6da4 9fbc 6220 2d3d
00000190: ff00 36be eee3 4cbe 4221 88bd 08c4 f3bc
000001a0: 530e 19be ea5e e6bd f9bc 953c a561 0b3d
000001b0: a6c3 91bd 0ee7 be3c c4fe e4bc 00cf 8cbd
000001c0: 8c7a 153d 09ba 6cbd 4ae8 1cbe 2475 d1bc
000001d0: f6c7 2f3e e903 dabe 8e64 72bd fb2a b1bd
000001e0: c831 563c 1055 ea3b 6bd3 0c3e bece 2f3b
000001f0: e971 3abd 6b05 a73d 33c5 f1bd af0a fb3c
00000200: 68a1 73bd 041b 0fbd ce15 38bd e990 183c
00000210: 749e a23d ee7d c6bc 28e0 b7bd a7c1 873d
00000220: acd2 aabb 19c9 aabd 302c cfbb 3919 853d
00000230: e16a bd3d 6307 dbbc d755 17bd 2185 3d3d
00000240: 25e1 28bc 034c 9a3d 8e06 9b3d 4aa9 383c
00000250: 3b1a b93c 1ebb bfbb adf9 fc3b 4f3e 953d
00000260: 4182 c93d 64eb 97bd dc86 11bd 27fe b33d
00000270: 25bb 673c 5604 b5b9 9af9 153d 9f7d 8d3d
00000280: 3cb5 60bd af7f 2e3b a80b 91bd 764a 0c3d
00000290: 1b1f 543c 6634 f3b9 92f0 df3d 6a35 c5bd
000002a0: be06 b3bc 6f3d c13a 5684 36be da4d 43bd
000002b0: 2ce7 0c3d f643 99bb 2d5f 91bc 19a7 2a3c
000002c0: 3ac2 b9bd 344c d73c 17dc ac3d 1004 4c3a
000002d0: 1c08 97bc ef1c c9bd 7c54 30bd 45fb 17bd
000002e0: 4c51 2a3d 0c47 b13c f3e6 c4bb e0be 4c3a
000002f0: 6038 38bd 4048 113e d865 573d 4d5b e83d
00000300: 6537 f7bc 2916 c0bc a535 13bd 1190 97bc
00000310: 0420 05bd faa9 5dbd dd13 85bb 8e54 803d
00000320: 7d32 8a3d a609 03be febc 97bd f80f 453d
00000330: b015 8d3d e41e 89bc 3390 8dbc 05d7 423d
00000340: 777f 2e3d cc8d a6bd 0335 09bd a603 913a
00000350: d53f f8bc bec3 4c3d 3133 143c 737d ea3c
00000360: 26d2 da3d dca6 7a3d fcb6 b2bb 0232 dcbd
00000370: dd32 9a3d 364a 723d 5f38 b13d 1ba3 d5bd
00000380: 2f75 c43d 75fb cfbd 1aef b4bd 708e 7f3d
00000390: 18fc b23d f4ca 4ebc 6649 34bd 47ad 87bd
000003a0: bd7e 223c 147e 973d e34c 25bd 0ba6 afbd
000003b0: 405e 083d dec2 613d 9ca5 71bd 2770 f43c
000003c0: b843 243d dee8 5c3d 8f64 423d 08d0 a8bc
000003d0: 82f0 813d 409a 0e3e 6070 663c ff3c 633d
000003e0: db21 b03d 0cd8 9bbd 714b 4ebd ea76 a3bd
000003f0: f07a ddbc 5293 fbbc b2a5 983d 9aa0 8f3d
0.033121414 -0.06146045 0.11202409 0.20965682 -0.27443635 -0.24758205 0.027503015 -0.06653307
-0.0051394477 0.083617754 -0.059009843 -0.019811403 -0.05239955 0.023348652 -0.15415816 -0.029407471
-0.07823589 -0.05735124 0.047590926 0.015089453 0.142473 -0.2656856 0.12406021 0.009601407
-0.17885254 -0.12039277 -0.05160066 -0.07963021 -0.00083098235 0.042608697 -0.08515255 -0.011532782
0.04460801 0.013488429 -0.00053316186 0.00023882352 0.13021874 0.08501349 -0.006683693 -0.019731091
0.2734169 -0.011332531 0.20686834 -0.08706801 0.06980253 0.2766282 -0.0020602935 -0.13391778
-0.026428482 -0.084984824 0.010104023 -0.054960202 -0.033472985 0.06250881 0.006155992 -0.039424352
-0.06499073 0.00060254335 -0.055363026 -0.025930803 -0.027427142 -0.14083152 0.057226386 0.035333827
-0.028884862 0.017644634 0.11121204 -0.35362375 -0.046973508 -0.3099779 0.09039028 0.13030148
0.07621135 0.10424333 -0.31304306 0.026737673 -0.005432033 -0.079105 -0.16780461 0.018005831
0.07148441 0.020088598 -0.038267452 0.22908802 -0.04603136 -0.061264858 -0.054485075 -0.11059762
-0.06739928 0.09643651 -0.2768652 0.18327256 0.042331915 -0.042274468 0.048839845 0.13197824
-0.14574203 0.07393519 -0.019487584 0.04226721 -0.17773817 -0.20008823 -0.066469684 -0.02975656
-0.1494687 -0.11248572 0.018278586 0.034028668 -0.07117395 0.023303535 -0.027953513 -0.068754196
0.036493823 -0.057794604 -0.15322986 -0.025568552 0.17166123 -0.42581108 -0.059177928 -0.08650776
0.013073392 0.0071512535 0.13752525 0.0026826109 -0.04551879 0.0815533 -0.11805191 0.030644743
-0.0594801 -0.034937873 -0.04494267 0.009311893 0.07940379 -0.02422997 -0.08978301 0.06628733
-0.0052131023 -0.083391376 -0.006322406 0.064989515 0.09248901 -0.02673692 -0.036947098 0.04626954
-0.010307585 0.07534029 0.075696096 0.01127083 0.022595515 -0.0058511635 0.0077201934 0.07287275
0.09839297 -0.07417944 -0.035529003 0.0878871 0.01414374 -0.0003452624 0.03661499 0.06908726
-0.05486034 0.0026626398 -0.070823014 0.0342507 0.012946869 -0.00046387612 0.10934557 -0.096293285
-0.0218538 0.001474304 -0.1782392 -0.047681667 0.03440015 -0.004677291 -0.017745579 0.010415816
-0.09070249 0.026281454 0.08440416 0.0007782588 -0.018436484 -0.09819972 -0.04304932 -0.037104864
0.041581437 0.021640323 -0.0060089766 0.0007810425 -0.04497564 0.14187717 0.05258736 0.11345539
-0.030177781 -0.023448067 -0.03593983 -0.018501313 -0.032501236 -0.05411718 -0.004061206 0.062661275
0.06747911 -0.1279665 -0.07409094 0.048110932 0.06888902 -0.016738363 -0.017280674 0.04756834
0.04260203 -0.08132514 -0.03349782 0.0011063709 -0.030303875 0.04999136 0.009045408 0.028624272
0.10684614 0.061194286 -0.0054539423 -0.10751726 0.07529233 0.059152804 0.0865333 -0.104315005
0.095926635 -0.101553835 -0.088346675 0.0623917 0.08739489 -0.01262163 -0.04401531 -0.06624847
0.009917912 0.07397094 -0.040356528 -0.08576592 0.03329301 0.05511748 -0.058995828 0.029838635
0.040103644 0.053933017 0.04745918 -0.02060701 0.06344701 0.13926029 0.014064878 0.055478092
0.086002074 -0.07609567 -0.050364915 -0.079816654 -0.02703616 -0.030709896 0.07453479 0.07013054

linear2.bias f4 [128]
00000000: cfc2 14bd 506a a4bd 50b5 ad3d 4d1e 743d
00000010: 360d a73d 62cc 1ebc 7229 1a3d 2513 02bd
00000020: 01c8 073d 0a66 673d b7b9 503b d0ed e3bc
00000030: 07a2 bc3d 24af 0ebd 2f15 913d 4039 093e
00000040: e4ba a23c 072b a9bd 7133 0cbd 474f 22bd
00000050: 7411 973d 19db f43d 5d55 73bc e53f 9bbc
00000060: c57a 8dbc d936 33bd 216d d4bd 97fa 25bd
00000070: 0774 9abc bfac 5a3d 6634 273d 6a4a 0d3d
00000080: 96d4 2dbd ec9b 85bd aa4f 6d3d 4da2 f1bd
00000090: b49d 1a3d cea5 05bd cd79 af3c 5111 ba3c
000000a0: 391c 7abb b48f 933d 711d e4bd 293c 1c3d
000000b0: a554 033c c39f 01ba 4e9c 1bbd 784a 0b3e
000000c0: 2a50 4dbd a226 093d 15f2 cbbc 9f17 3ebc
000000d0: f58f f83c 9950 90bd f136 2ebd 6452 36bd
000000e0: a3a4 8bbd 9d65 24bd 6357 f7bd bac5 103a
000000f0: e5da 263d ff27 763d 3628 4f3c 55fb bfbd
00000100: b719 803d ae44 71bd 08a1 63bb 80bb c43b
00000110: 86fa 9bbc 122b 6e3b a55e b43c 158b 503d
00000120: 0382 06bd fe7a 6ebd 8bed 3c3d b53c 5b3d
00000130: 1df6 e0bc c244 573d 5f90 acbc 6adb 23bd
00000140: 2c06 243d 228c 3dbd 97e4 36bd 7b30 be3d
00000150: d5a5 163d e63a 183d c52d e2bd 17ed 06bd
00000160: 67d1 81bd 437c 0c3d a9d2 553d 97cf a33d
00000170: ba73 433d 4584 f2bc c7bc 99bd e97c 383d
00000180: 7b4b 85bd 0dfb 903d dfc4 2cbd 2a61 c73c
00000190: 995f 92bd 4893 f73b 3885 5f3d 7e02 973d
000001a0: bc09 d13c 28fb 2a3d 5965 75bd d630 3d3c
000001b0: ab98 58bc 4ec3 1f3d 9a66 f13c 618c a83d
000001c0: eacb 8dbc 7b3c 9a3d 19b5 b4bb 0125 0aba
000001d0: e6da 3fbd e39b bbbd 87fd 273d 32ca f0bd
000001e0: c35d 5539 44fb dbbc fbad 6ebd 7888 033d
000001f0: 56a7 8d3d fdb1 853d d4be 1c3e da08 4dbd
-0.036318596 -0.0802809 0.08481848 0.05959921 0.08156817 -0.009692283 0.03763718 -0.03175654
0.033149723 0.056493796 0.0031848976 -0.027823359 0.09210592 -0.034834996 0.070841186 0.13400745
0.019864507 -0.0826016 -0.034228746 -0.039626386 0.07376376 0.11955852 -0.014851895 -0.018951366
-0.017270455 -0.04375348 -0.10372377 -0.040522184 -0.018854154 0.0533874 0.040821455 0.034494795
-0.042439066 -0.0652388 0.0579373 -0.117985345 0.037748054 -0.032628827 0.021420384 0.022713335
-0.0038163795 0.072051436 -0.11138428 0.03814331 0.008015786 -0.0004944766 -0.03799086 0.13602626
-0.05012528 0.03348411 -0.024895707 -0.011602311 0.030342082 -0.07046623 -0.042532865 -0.044512168
-0.06818511 -0.04013597 -0.120772146 0.00055226276 0.040736098 0.060096737 0.012643864 -0.0937411
0.06254905 -0.05890339 -0.0034733433 0.006003797 -0.019040357 0.003634159 0.022017786 0.05091389
-0.032838833 -0.058222763 0.046124976 0.05352469 -0.027461106 0.052555807 -0.021064935 -0.04000417
0.04004495 -0.04627622 -0.044651594 0.09286591 0.036779243 0.037165545 -0.11043886 -0.03294095
-0.063387685 0.034298193 0.052202854 0.07998579 0.047717787 -0.029604087 -0.075067095 0.045041
-0.065085374 0.07079134 -0.04217994 0.024338324 -0.0714714 0.007555399 0.054570407 0.07373522
0.025517337 0.041743428 -0.059911106 0.011547288 -0.013219993 0.039004616 0.02946787 0.082299
-0.017309148 0.07531067 -0.0055147526 -0.0005269796 -0.046839617 -0.091605924 0.041013267 -0.11757316
0.00020348192 -0.026853211 -0.05827139 0.03211257 0.069166824 0.06528089 0.1530717 -0.05005727

adv1.weight f4 [128, 128]
00000000: f6e9 8abe b5b8 c2bc cb0c b8bc a8db 36bd
00000010: 4321 af3c 91bb c53c 412c 213e 771f ac3b
00000020: e02c b9bd 0046 95bd cad7 4fbb f904 833d
00000030: b40a 88bd 396b 283d 4384 33bd 15bb 2dbd
00000040: c14d 3cbd 9f76 96bd b46f 09be 37ca c7bd
00000050: 14b4 b7bc 4ea8 8fbd 7dc9 edbc 6e7c 15bd
00000060: f35a 123d 027e 9cbd 8210 a0bd fa77 1ebe
00000070: edb5 9a3d c189 833c bc56 383e 2d2c c0bd
00000080: 0877 873e 9921 ec3d 7118 06be e4a8 933c
00000090: 22ac 23be 9670 453d b1e2 a0bd 6411 f43b
000000a0: 95e1 60bc b629 013e dc9c 013e ed47 00be
000000b0: fc71 273d 5c37 2abc 97f6 f93a b0e2 bcbd
000000c0: e5e2 0b3d c8b7 88be 6c74 923d 99b6 a03d
000000d0: 6dae 133e 806a 05ba 5fa6 273c f532 a3be
000000e0: 0fe1 04bd 3d3d 8a3d f9fe ddbd d0f5 d8bd
000000f0: 98c6 d93a a3f0 16be af78 92bd 1d83 f2bd
00000100: 18f5 2a3d c120 2dbe 9788 89be c82c 65bd
00000110: cc74 7abe b01b abbc 2355 1cbd ab30 72bd
00000120: e4a0 4c3d 9a6f 273d 79d8 293d 7af2 26be
00000130: acfe a9bd e125 05bd 0a20 7e3c 511a 84bd
00000140: 40df bdbb 36e7 743d c0ab 2abd aa25 013e
00000150: 73b3 84bd 8861 39bc ba86 923d 615d 103c
00000160: a62d b33d 2d2b 3fbd 1a72 5f3d 740c a1b9
00000170: 8007 aebd e095 683d fe84 81be f03b 013c
00000180: ec5d 7fbc 5535 eebd 9e77 b63b 0c0a 373e
00000190: c204 033e 0182 f6bd 31f4 d3bc cb92 3dbd
000001a0: 9083 eb3c 07c5 a2bd ef72 99bd dea4 a73d
000001b0: 0798 dfbd 5403 bbbc b48b 28bc 7b4c 0bbe
000001c0: f5b0 053d 75e4 ab3b 3efb 953d 6154 38bc
000001d0: 595a a13d e5af a8be a0dc 57bd 2a50 833e
000001e0: f2dc 84bc 0e2f 793d 4ae8 96bd a362 373d
000001f0: b058 313c 85bc 433d f3f3 c9bd d242 19bd
00000200: 22f1 a2bd 4ce6 cc3c 3ce8 a0bd 14d2 77bd
00000210: 6477 22bd 36a7 05bd eb41 833d e84c bf3c
00000220: 3116 87bd be93 153d 5b7e bebd b5ef 833d
00000230: 28e0 8ebd 5d69 923d 8e00 87bc 7171 81bd
00000240: fe8b 64bd 927c 5dbd ab1d fabc aa40 bcbd
00000250: 96b0 aa3b 971b 91bd 0280 f9bc 2faa 8c3d
00000260: bd0f 15bc 9b27 a8bd dc80 803d a143 453d
00000270: f7ba 713d a17c e43c 2ef0 b4bc 621d f5bc
00000280: cfdf 35bd 90f2 5d3d baf3 53bb d522 adbb
00000290: a611 f8bc abc1 9abd a180 0b3d 53ce d63b
000002a0: 6dbc ffbd 577b 863c 4c9f 673d 29dd 793d
000002b0: 9e52 8ebc 4e03 1bbd db22 913c a3c2 833d
000002c0: 08a1 c33c 3485 97bd 0c2f 213c 9d0b 0f3d
000002d0: 92d7 023d 741e 2ebc 4c82 623d 91ac 94bd
000002e0: 0a84 813d d51c c83c 2304 1a3c 0ac4 b8bc
000002f0: df98 903d 35b8 db3c 9141 9dbd 7f78 e03c
00000300: ee40 a13d 8d0d bfbd 35d3 4c3d 8e70 323d
00000310: 1439 023c ef75 7a3c 644f 363d fe76 8f3c
00000320: 1701 50bd accd 3fbd 0d4c 94bd f0f8 b7bd
00000330: d024 2f3c e9bd b03c ca3f 36bd 9cf6 44bc
00000340: 1c30 b4bd e687 763d ce39 1bbd 6d30 19be
00000350: 534f ebbc 2e05 56bd 1b94 82bd 9a3d 823d
00000360: 7f22 3f3d f2b8 373d 0143 413d 4f1e a6bc
00000370: 28ac 11bc 934e 4e3c 1ecc 933d 19b0 973c
00000380: a03d 9a3d d6bb b9bd a153 45bd d1ab e5ba
00000390: 0280 3f3d e929 70bd 2880 903c 301e f13c
000003a0: b295 733d 71a2 88bb ca91 c9bd 7504 62bc
000003b0: b8d5 71bd 0398 94bd 2057 803d 0ac1 51bc
000003c0: 99d4 b03c 43d6 f93c 519b 52bd b07d 2fbc
000003d0: 675f b33d cbb8 87bd a08d 043d d501 0fbd
000003e0: 6cd2 953d 9542 acbc 035e 233c e6e5 d4bb
000003f0: c0cf 7b3c 12bb 6c3b 1c0f 613d c801 a03d
-0.27131623 -0.023769716 -0.022467038 -0.044643074 0.021378165 0.02413729 0.15739538 0.0052527743
-0.09041762 -0.07288742 -0.0031714314 0.06397433 -0.066426665 0.04111788 -0.043827306 -0.042414743
-0.04597259 -0.07346844 -0.13421518 -0.09755366 -0.022424735 -0.070145234 -0.029026741 -0.03649562
0.035731267 -0.076412216 -0.078156486 -0.15475455 0.07554231 0.016056897 0.18001837 -0.09383426
0.26458 0.11529846 -0.13095261 0.01802487 -0.15983632 0.048203073 -0.07855738 0.007448362
-0.013725658 0.12613568 0.12657493 -0.12527438 0.04088019 -0.010389175 0.0019070682 -0.09222925
0.03415193 -0.26702714 0.07151112 0.07847328 0.14422007 -0.0005089417 0.010232537 -0.31874815
-0.032441195 0.067499615 -0.10839648 -0.1059376 0.0016614972 -0.14740233 -0.07151925 -0.11841414
0.041737646 -0.16907026 -0.26862022 -0.05595091 -0.24458617 -0.020887226 -0.03816713 -0.059128445
0.049958125 0.040877916 0.04146621 -0.16303435 -0.08300528 -0.032506827 0.015510568 -0.06450332
-0.0057944357 0.059790812 -0.0416677 0.12612024 -0.0647954 -0.011314757 0.07154603 0.008811326
0.08748941 -0.046672035 0.054552175 -0.0003071759 -0.08497524 0.056783557 -0.25296777 0.007887825
-0.015586358 -0.11631266 0.0055684587 0.17874926 0.12794784 -0.12036515 -0.025873275 -0.04628257
0.028749257 -0.07947736 -0.07492625 0.08185743 -0.10917669 -0.022828735 -0.010287214 -0.13603394
0.032639463 0.00524574 0.07323311 -0.011250586 0.078785606 -0.32946697 -0.05270064 0.25647098
-0.016218636 0.06083589 -0.073685244 0.0447718 0.010824367 0.047787208 -0.09860983 -0.03741724
-0.07956149 0.025012158 -0.07856795 -0.06050308 -0.03966464 -0.032630168 0.06409057 0.023352101
-0.065960295 0.03651785 -0.09301444 0.06442205 -0.06976348 0.07149003 -0.016479757 -0.06320465
-0.05579757 -0.054073878 -0.030531725 -0.09192021 0.005209039 -0.070853405 -0.030456547 0.068683974
-0.009097991 -0.08210679 0.06274578 0.0481602 0.059016194 0.027891459 -0.022087183 -0.029921237
-0.044402894 0.054186404 -0.0032341317 -0.0052836933 -0.030281853 -0.075564705 0.034058217 0.0065553575
-0.12487111 0.016416235 0.0565484 0.06100193 -0.01737338 -0.03784495 0.017716816 0.064336084
0.023880497 -0.07398453 0.009837877 0.034923185 0.031943865 -0.010627378 0.055300042 -0.07259477
0.063240126 0.02442781 0.0094004 -0.022554416 0.07060408 0.026821235 -0.076785214 0.027401207
0.078737125 -0.093287565 0.05000611 0.04356437 0.007948179 0.015286907 0.044509307 0.017512795
-0.05078229 -0.046827003 -0.07241068 -0.08983028 0.010689929 0.021574931 -0.044494428 -0.012021687
-0.08798239 0.060188197 -0.037896924 -0.14959879 -0.028724348 -0.052251033 -0.06375905 0.06359406
0.046663757 0.044854112 0.04718304 -0.020278124 -0.008891143 0.012591976 0.07216667 0.018516587
0.07531285 -0.0906903 -0.048175458 -0.0017522519 0.046752937 -0.05863372 0.017639235 0.02943334
0.059468932 -0.004169755 -0.0984226 -0.013795008 -0.05904171 -0.072555564 0.06266618 -0.012802372
0.02158575 0.030497676 -0.051417653 -0.010711119 0.08758431 -0.06627043 0.032361627 -0.034913857
0.073155254 -0.021027843 0.009971145 -0.0064971326 0.015369356 0.0036122245 0.05494605 0.0781284

adv1.bias f4 [128]
00000000: 3228 9c3d 0613 4cbd 3068 27bd c5b0 73bc
00000010: 75ed 2bbe 1b53 4d3d c750 5e3d 863e 6fbc
00000020: 4c5b 533d 508e 7e3c a2e9 f33b fd99 febd
00000030: e113 debd dd13 073d cd92 91bd ee00 0cbb
00000040: f0ca d7bd 1bd0 77bc 47c1 43bd 690e e3bd
00000050: 42be 353d 9086 a2bd 06e2 f23c f5c4 7d3d
00000060: 0956 adbd ee81 56bd 41fb f5bd 87d5 b4bd
00000070: 1576 89bd 3b05 8fbd 32c0 b6bd 7773 c33b
00000080: 940c 11bd 8cb3 4e3d eecf 26bd f408 e5bd
00000090: 0ad2 fabc fbe3 683d fdad 75bc 4fb9 953d
000000a0: 3676 58bd b8e3 9e3d 2712 043b dbf9 813c
000000b0: 5fea b73a 7ee7 08be c3fe 7abd 057c b0bd
000000c0: c934 82bd 26e8 d03b dd39 76bd ee93 acbd
000000d0: c5eb d9bc d6f9 ddbb 9970 18bd 2623 16bd
000000e0: 6b86 a63c 1a3d 4ebd 1f22 923d ee1c 15bc
000000f0: 8209 6a3d 4e04 47ba 67bd 9bbd 4d48 a4bd
00000100: df0f 8bbd 25e4 d83c 7f64 22bd f475 a7bd
00000110: a642 66bd bf22 e0bd 9619 623c 642a a43c
00000120: 9a77 c8bd 21fa 19b9 2df5 86bd c466 1dbd
00000130: 8c54 8e3d f34e 803d a571 adbd 9820 87bd
00000140: 1f3f c4bc badf 2cbd e6ad 0ebc 10e1 fdbd
00000150: 8720 04bd 504f 603d 4454 c43c b947 c9bd
00000160: e396 7dbd e366 90bd 8a8d 86bd d6ed 65bd
00000170: dfcc fabc ac29 d3bc babf a139 b9b7 86bd
00000180: 8f91 9dbd 63d4 d5bc d115 563d bca7 84bd
00000190: 8192 073d 9def c23c 8dd2 b0bc 4bf3 c8bc
000001a0: cd18 bebd c6cb ce3c 8f0a d73a 98ae 8ebd
000001b0: de74 933d b85a 12bd da03 a8bd b700 9bbd
000001c0: 735d f6bd 4859 8e3d 2321 81bd acae 0f3d
000001d0: 87e7 ec3a ecce a7bd 3dbc 963d 16fb f13c
000001e0: 87a7 73bd 7021 b33c de2b 61bd 95cf 8d3d
000001f0: eab2 f23b 6b33 f3bd 06f9 8bbd 6aed 46bc
0.07624854 -0.04982283 -0.040870845 -0.014873688 -0.16789801 0.050128084 0.054276254 -0.014602309
0.05160074 0.01553686 0.0074436227 -0.12431715 -0.10843635 0.032977927 -0.07108078 -0.0021362859
-0.10536754 -0.0151253 -0.047791746 -0.11086733 0.044370897 -0.07935822 0.029648792 0.06195541
-0.084636755 -0.052370004 -0.120108135 -0.088297896 -0.067119755 -0.069834195 -0.08923377 0.005964692
-0.035412386 0.050464198 -0.04072564 -0.11183348 -0.030617733 0.056858044 -0.014995095 0.073107354
-0.05284711 0.07758278 0.0020152421 0.01586621 0.001403164 -0.13369557 -0.061278116 -0.08617405
-0.06357724 0.0063753305 -0.060113776 -0.08426653 -0.026601681 -0.0067741675 -0.037216756 -0.036654614
0.020327767 -0.05035124 0.07135414 -0.009101136 0.057137974 -0.0007591889 -0.07604485 -0.08021603
-0.067901365 0.026475975 -0.03964662 -0.08176795 -0.056215905 -0.10944127 0.0138000455 0.020039745
-0.09788437 -0.00014684397 -0.06589732 -0.038428083 0.0694972 0.06265058 -0.084689416 -0.06598014
-0.02395588 -0.04220555 -0.008708453 -0.12396443 -0.032257583 0.05476314 0.023965962 -0.09828133
-0.061911475 -0.07050874 -0.06569965 -0.05613502 -0.030615268 -0.025776707 0.0003085116 -0.06578011
-0.07693779 -0.02610225 0.0522669 -0.06477305 0.0330987 0.023795897 -0.021584773 -0.024530074
-0.09282074 0.025243651 0.0016406345 -0.06966895 0.07200025 -0.035731047 -0.082038596 -0.07568496
-0.12029543 0.06950623 -0.063051485 0.03507869 0.0018074372 -0.08193764 0.07360122 0.029538672
-0.05948594 0.02186653 -0.054973476 0.06924359 0.007406582 -0.118750416 -0.06834607 -0.012141565

adv2.weight f4 [121, 128]
00000000: 5cea 563d 4c56 09ba fedd 333d ef41 913c
00000010: 5e57 1cbd fcdd 54ba a4bb d33c 7bb7 26bc
00000020: 1f21 27bc 71e2 db3c 1294 fc3d 5761 963d
00000030: 4b3e 6a3d 5514 0abc 2b68 4fbc 8603 2d3d
00000040: b84a e9bb a9b3 88bc 46e9 2f3b 0ed7 63bd
00000050: 19b7 3bbb 5a2e 23bc f183 c93d 483a 493d
00000060: b10e 1d3c 52e5 c2bb da64 e8bc b624 e43b
00000070: fe3b 23bc 3bdc c13a 54e7 a339 e88f d5bc
00000080: d11f 5a3d 83e5 73bc b7df e63d 66ef c0bd
00000090: 8346 963d 2c6f 1fbc e9f6 cab8 bf76 cd3b
000000a0: 49a4 aa3b 4a78 9f3d 3653 8fbc 69f2 4fbc
000000b0: 2e4d bc3d fe63 29bd 2fd3 a3bc 0805 d13c
000000c0: fad2 41bc 6879 7cbb 03f2 083c 66fa b53c
000000d0: e858 17bd 03b5 2a3c 8f8e 89bc 1beb 473d
000000e0: 45fc 02bb c4c4 073c f7da d83b 93a7 ce3b
000000f0: 7189 12ba 892a 543d cf4f d63d 613f e7bb
00000100: d69c 5d3b 9317 82bc c47f 093e 149b febb
00000110: 6c32 6bbc cc55 6e3d 2c99 cebc 7912 edba
00000120: e802 023d a9d5 083b ef62 feba 06c4 f339
00000130: 26f2 39bc d99c d03c 20f5 1cba 6ba8 823b
00000140: 213b 0e3d 89b1 993d 99c4 a33d 93da 8a3d
00000150: 9819 153c 19e4 8c3c c478 983b ae4b 80bc
00000160: a7ad 393c ebc1 f8bc 3b9c d43b 7adb 8abc
00000170: 3372 5cbc 3498 d63c 7eee 30bc 02e7 763d
00000180: 2132 debd 0874 993d 71ad b93d 160b 80b9
00000190: 2681 223d d176 433d f424 41bb 3f59 11bc
000001a0: 8eab bebc 810a 4abc 87e0 90bc 5bdf bd3a
000001b0: d39b edbb 470f 103d 2c00 c8bc 4f19 71bc
000001c0: 9b83 02bd 0b6b 7cbd 2351 103c 8385 203d
000001d0: 54e7 43bc a9ac 433d d672 3c3d 09a5 af3b
000001e0: 70ab 8abc f8ce 13ba 9411 aabc d45f 103a
000001f0: 1506 8cbb f067 e83d 0d94 09bd 1dbb d23a
00000200: 6af5 1c3e c2a3 ce3b b042 fc3c 2a7a 873c
00000210: 966e 003d dbd6 0f3b eae3 0dbb 1cfe de3a
00000220: bfd4 a63d ee7f 0b3d 66c6 e9bd 1418 cb3d
00000230: ab96 bc3c eeb8 043b 451f bbbb 1ddb f43c
00000240: 9000 12bc 0c32 a93c 18ca c13a 1b51 05bd
00000250: d9cb fcb9 3e12 163d 4375 d8bd b827 e83d
00000260: 620a 013d ca6f 643c 5e19 93bd 0b15 a83b
00000270: c587 9f3a 9852 503d 46d9 3bbb 08fd e23c
00000280: b5f9 2d3d 31aa d73a 6583 0a3c 63d7 26bc
00000290: 0853 d13d 431f e03b 39a5 773b 7317 dc3b
000002a0: 4cfc 4f3b af56 78bd 1642 563c 2e37 1b3b
000002b0: 40d2 af3c b7a2 69bd 769f 193b 5996 fd3a
000002c0: ae5e 31bb 1384 a5b9 25f2 373b 6fbc 863c
000002d0: a748 c5ba 02a8 f03c 178c 31bc 2dc1 b83d
000002e0: 2b5c df3b d9eb 323b 71b5 e73b 10e0 1b3c
000002f0: 5587 4dba 94a9 5d3d f5f1 1f3d d164 943b
00000300: 889d 563b c28e 703b 0a2b b13d 9958 97bb
00000310: 5c95 b0bb 936b 06bc c945 bb3c 7c74 463b
00000320: d071 f33c 71db 013c b711 c13a cf5c 35bb
00000330: 0db0 82ba c640 4f3d 90be 77ba 9de3 d638
00000340: be53 133d b895 fabc 66ff 323d 14ac 8c3a
00000350: 1108 4e3b b871 df3c fab4 763b 0003 8c3b
00000360: 9f97 873b eb01 eb3c 716f c73b 2f81 92bb
00000370: 45bb 253d 513c cebc 4f6b 21ba 374b 993d
00000380: 8884 243d 42c8 2d3e 4a59 153d dcbb 0a3d
00000390: e9b9 0d3d 59a7 df3c 36e2 22bd 2bdd cb3c
000003a0: 134e 43bd a313 17bb dc4a 80bb 087a 443b
000003b0: 7ddf 173b e7d5 2dbd 5d3d fcbc 7a80 9dba
000003c0: 88e8 6ebd a820 233d f9a2 a73b 045f 233d
000003d0: ee20 613b 3c15 b53d eab5 a33d f298 91b9
000003e0: f1a9 263b f063 b4b9 84fb 12ba e09e 0a39
000003f0: 5d96 f23a fc08 c63d 8dbc 443c 3de4 643d
0.052469596 -0.00052389945 0.04391288 0.017731635 -0.038169257 -0.00081202365 0.02584631 -0.010175581
-0.010200768 0.026841374 0.1233293 0.07342785 0.057188313 -0.008427699 -0.012659113 0.04223969
-0.007119503 -0.016687231 0.0026841923 -0.055625014 -0.002864307 -0.009959782 0.09839619 0.049127847
0.009586022 -0.0059477473 -0.028368402 0.006962384 -0.009963034 0.0014790365 0.00031262136 -0.026069596
0.053253 -0.014886263 0.11273139 -0.09420662 0.07337668 -0.009731095 -9.678101e-05 0.006270259
0.0052075726 0.07786615 -0.017495733 -0.012692072 0.09194408 -0.041355126 -0.019998161 0.025515094
-0.011830086 -0.0038524512 0.008358481 0.022214126 -0.036950022 0.010419133 -0.01679161 0.0488082
-0.001998679 0.008286659 0.0066178995 0.0063065975 -0.00055899384 0.051798377 0.10464441 -0.007057116
0.0033815405 -0.015880382 0.13427645 -0.0077699516 -0.014355283 0.05818729 -0.025219522 -0.001808717
0.031741053 0.0020879305 -0.0019408147 0.0004649462 -0.011349237 0.025465416 -0.0005987454 0.003987362
0.03472436 0.07504565 0.079964824 0.06779971 0.00910034 0.01719861 0.0046530683 -0.015661087
0.011332906 -0.030365905 0.0064883507 -0.016950358 -0.013454962 0.026195623 -0.0107990485 0.0602789
-0.10849405 0.07492834 0.090662844 -0.00024422322 0.039673947 0.047720734 -0.0029471489 -0.008871376
-0.023275163 -0.012331606 -0.017685188 0.0014486121 -0.0072512417 0.03517082 -0.024414144 -0.014715507
-0.03186379 -0.06162552 0.008808407 0.039189827 -0.011957008 0.047772083 0.046007954 0.00536025
-0.01692745 -0.0005638446 -0.020760335 0.00055074436 -0.004273186 0.113479495 -0.033588458 0.0016077493
0.15327993 0.0063061425 0.030793518 0.016537745 0.031355463 0.0021948132 -0.002165074 0.0017012986
0.08146047 0.03405755 -0.114147946 0.09916702 0.023021063 0.0020251828 -0.0057105147 0.029889638
-0.008911267 0.020653747 0.001478496 -0.03254805 -0.00048217064 0.03663849 -0.10569241 0.11335701
0.031504042 0.013942668 -0.07182573 0.0051294616 0.00121712 0.050860018 -0.002866344 0.027708545
0.042474467 0.0016453919 0.008454178 -0.010183188 0.10220915 0.006839664 0.003778769 0.0067166626
0.0031736074 -0.060629543 0.01307728 0.0023684013 0.02146256 -0.057039943 0.0023440993 0.0019347175
-0.002706449 -0.00031569655 0.0028067913 0.016447274 -0.0015051559 0.029376987 -0.010836623 0.0902122
0.006816407 0.002730122 0.00707119 0.00951387 -0.00078402954 0.0541168 0.039049108 0.00452862
0.0032747705 0.0036706184 0.08650787 -0.004618716 -0.005388899 -0.008204359 0.022860425 0.0030281832
0.029717356 0.007925854 0.0014730011 -0.0027673726 -0.000997068 0.050598882 -0.0009450698 0.000102467115
0.035968535 -0.03058897 0.0437006 0.0010732436 0.0031437913 0.027275905 0.0037644492 0.0042728186
0.0041379477 0.028687438 0.006086283 -0.0044709663 0.040461797 -0.025175245 -0.0006157653 0.07485049
0.040165454 0.16970924 0.036462106 0.033870563 0.034601126 0.027301477 -0.039766513 0.024885735
-0.04768188 -0.0023052476 -0.003915174 0.0029979963 0.002317398 -0.04244032 -0.030790979 -0.0012016438
-0.058327228 0.039826065 0.0051158634 0.039885536 0.0034351903 0.08841941 0.07993682 -0.00027770508
0.0025430883 -0.00034406735 -0.0005606937 0.00013219891 0.0018507947 0.096696824 0.012007845 0.055881727
