TDQN/Sliding/TDQN+SA/model/actor_model.ckpt (torch, 85963 bytes, 10 tensors)

lstm.weight_ih_l0 f4 [96, 1]
0	0x3d22eed4	0.039778545
1	0xbe010758	-0.12600458
2	0x3e2336a6	0.15938815
3	0xbe14693a	-0.14493266
4	0x3d7a7db0	0.06115502
5	0x3b094180	0.0020943582
6	0xbe20568e	-0.15658018
7	0x3da04f6c	0.078276485
8	0xbe3233d2	-0.1740258
9	0x3de1dec4	0.11028817
10	0xbd857b64	-0.065176755
11	0xbe382943	-0.1798449
12	0x3e46299e	0.19351813
13	0x3e4b1f94	0.19836265
14	0xbd1ef45c	-0.038807258
15	0xbd39ffd8	-0.045410007
16	0xbd35d4b4	-0.044392303
17	0x3c1ecdb0	0.009692594
18	0x3e373340	0.17890644
19	0xbd083c60	-0.033260703
20	0xbe342b29	-0.1759459
21	0x3e055cb0	0.13023639
22	0x3db8f24c	0.090305895
23	0x3c7d8490	0.0154735
24	0xbe1f351d	-0.15547605
25	0xbc0ebc30	-0.00871186
26	0x3e1ad15c	0.15118927
27	0xbe045875	-0.12924369
28	0x3e18dd96	0.14928278
29	0xbcea27c0	-0.028583407
30	0xbd74968c	-0.059713885
31	0xbe42922a	-0.1900107
32	0xbe315787	-0.17318545
33	0x3d8381fc	0.06421277
34	0xbdb50426	-0.08838682
35	0x3dd1d1fc	0.102451295
36	0xbc0224a0	-0.007943302
37	0x3d37ce98	0.044874758
38	0xbe0d947d	-0.13826175
39	0xba142100	-0.00056506693
40	0xbe50e0b7	-0.20398222
41	0x3e470cee	0.19438526
42	0x3de90a98	0.11378974
43	0x3e40c958	0.18826807
44	0xbe3ed787	-0.18636905
45	0x3e28a5ac	0.16469449
46	0xbd0c5164	-0.034257308
47	0x3d0d5b40	0.03451085
48	0xbe03ebf6	-0.1288298
49	0x3e2888c4	0.16458422
50	0xbdefbfa1	-0.11706472
51	0x3e0c4e7e	0.13701817
52	0x3d8209e0	0.0634954
53	0x3c14b070	0.009075269
54	0xbdb3f118	-0.08786219
55	0xbe103aef	-0.14084981
56	0xbe2015bd	-0.15633292
57	0xbd4863cc	-0.0489233
58	0xbd78dacc	-0.060755536
59	0xbe40bf33	-0.18822937
60	0x3d973b9c	0.073844165
61	0x3df92f50	0.12167227
62	0x3e381e68	0.17980349
63	0xbe2cc334	-0.16871339
64	0x3d0ccb18	0.034373373
65	0x3e3b370a	0.18282714
66	0xbe178b90	-0.14799333
67	0xbdeb0983	-0.114764236
68	0xbddd605b	-0.10809394
69	0xbe465813	-0.19369535
70	0x3cd1dfe0	0.025619447
71	0xbcd36110	-0.025803119
72	0x3e2fe65a	0.17177716
73	0x3de87fe4	0.11352518
74	0xbdb333fc	-0.087501496
75	0xbe328575	-0.17433722
76	0xbddb649c	-0.10712549
77	0x3d93de28	0.07220107
78	0x3d9900f0	0.07470882
79	0xbe33db2d	-0.17564078
80	0x3e182c44	0.14860636
81	0xbd5a79a4	-0.05333866
82	0x3e360ad0	0.17777562
83	0x3dabf56c	0.0839642
84	0xbd3029b4	-0.04300852
85	0xbcc406d0	-0.02392903
86	0x3d57c240	0.052675486
87	0x3e2f798e	0.17136213
88	0xbd6cb0a4	-0.057785645
89	0xbe01d79a	-0.12679902
90	0x3e3178c2	0.17331222
91	0x3e2e7492	0.17036656
92	0x3d8c0474	0.06836787
93	0x3dd7f9c0	0.10545683
94	0xbe4004c7	-0.18751822
95	0x3dfe8a6c	0.124287456

lstm.weight_hh_l0 f4 [96, 24]
0	0x3cf1c030	0.029510587
1	0xbd679e04	-0.05654718
2	0x3e181f1a	0.14855614
3	0x3d536b48	0.051615983
4	0xbdd12d96	-0.10213773
5	0xbe4b49af	-0.19852327
6	0x3e16d824	0.14730889
7	0xbdf02303	-0.11725428
8	0x3da98460	0.08277202
9	0xbd96bf76	-0.07360737
10	0x3e1c863c	0.15285581
11	0x3e1e284c	0.1544506
12	0xbe01617a	-0.1263484
13	0x3d36fcc4	0.04467465
14	0xbdc47c56	-0.09594028
15	0x3e2c8a64	0.16849667
16	0x3c349980	0.011022925
17	0xbdecb4e2	-0.11557938
18	0xbd2e254c	-0.042516038
19	0x3d94d174	0.072665125
20	0x3e2d5704	0.16927725
21	0xbdb1d3d8	-0.08682984
22	0xbe0e756f	-0.13911985
23	0xbe3eb2e8	-0.18622935
24	0xbc1843a0	-0.009293467
25	0xbe24ea5e	-0.16105029
26	0x3e2b2b84	0.16715819
27	0xbe32d665	-0.17464598
28	0xbcf75d48	-0.030195847
29	0x3e28a77e	0.16470143
30	0x3e389e20	0.1802907
31	0xbd8c29b2	-0.0684389
32	0x3dcbcdb8	0.09951347
33	0xbe33ec06	-0.17570505
34	0xbda1fcc0	-0.07909536
35	0xbe35ccd6	-0.1775392
36	0xbdde0f7b	-0.108427964
37	0x3dbfe66c	0.09370121
38	0x3e1974b8	0.14985931
39	0xbe0b7d74	-0.13622075
40	0xbe127a45	-0.14304455
41	0xbb3f7040	-0.0029211193
42	0xbe200757	-0.156278
43	0x3d930b28	0.07179862
44	0xbd9c58ca	-0.07634123
45	0xbe101aa2	-0.1407266
46	0xbe0f7564	-0.14009625
47	0x3de8ee00	0.1137352
48	0xbd82ab9c	-0.06380388
49	0xbe0b6911	-0.13614298
50	0x3dbf66cc	0.09345779
51	0x3e49108e	0.19635221
52	0x3df79fa0	0.12090993
53	0x3d3bfa00	0.045892715
54	0xbe3ecf17	-0.18633686
55	0xbceb6318	-0.028733775
56	0xbe3a4d94	-0.18193656
57	0x3e456962	0.19278482
58	0x3e2d6420	0.16932726
59	0xbd97b08a	-0.07406719
60	0xbdcbeab6	-0.09956877
61	0x3e21b1a0	0.15790415
62	0x3cce8288	0.025208727
63	0x3dfe7b98	0.124259174
64	0xbe1ce29a	-0.15320817
65	0xbbe49580	-0.0069758296
66	0xbc9e6ef8	-0.019340023
67	0x3e1ba4a4	0.15199524
68	0x3d039f08	0.032134086
69	0x3df6da58	0.120533645
70	0xbdd6805f	-0.104737036
71	0x3cf110d8	0.029426977
72	0x3c2b1e10	0.010444179
73	0xbe1b4422	-0.1516271
74	0x3d3d9dc8	0.04629305
75	0xbe1ae1b8	-0.15125167
76	0xbe3a77ea	-0.18209806
77	0xbe271821	-0.16317798
78	0xbe33fae1	-0.17576171
79	0xbe28b9f2	-0.16477183
80	0x3dc3f910	0.09568989
81	0xbdea34ea	-0.11435874
82	0x3da933b0	0.08261812
83	0x3e117230	0.14203715
84	0xbe43f39e	-0.19135901
85	0x3e1f348e	0.15547392
86	0xbd09385c	-0.033501014
87	0xbe2f7132	-0.17133024
88	0xbe017a62	-0.12644342
89	0xbe07bcb8	-0.13255584
90	0x3db13f74	0.08654681
91	0xbd5f297c	-0.054482922
92	0xbcedb898	-0.029018685
93	0xbd1de560	-0.038548827
94	0x3e1b554e	0.1516926
95	0x3d933fb8	0.07189888
96	0xbe1e7885	-0.15475662
97	0xbddeb8a2	-0.1087506
98	0x3d276038	0.040863246
99	0x3e3eb8e4	0.18625218
100	0x3b833300	0.0040038824
101	0x3e3ae1e4	0.18250233
102	0xbe48f450	-0.19624448
103	0x3de5ffdc	0.11230442
104	0x3dc1e86c	0.09468159
105	0x3e320c2e	0.17387459
106	0xbd8096ae	-0.0627874
107	0xbdd4f63b	-0.10398527
108	0xbddcf8da	-0.10789652
109	0xbdbf389f	-0.093369715
110	0x3dd0c6d0	0.101941705
111	0xbc51ad80	-0.012797713
112	0xbbe47120	-0.0069714934
113	0x3df7029c	0.120610446
114	0xbe0fa075	-0.14026053
115	0x3da78b18	0.08180827
116	0xbddd45ef	-0.108043544
117	0xbdcde7b5	-0.1005396
118	0x3d896140	0.06708002
119	0xbdaae286	-0.08343987
120	0x3c04f5d0	0.008115247
121	0xbcfe9090	-0.031074792
122	0x3ded98fc	0.11601445
123	0xbdce54b2	-0.10074748
124	0xbd5ff7c4	-0.054679647
125	0xbdc175f8	-0.09446329
126	0xbe20d0ed	-0.15704699
127	0xbd332874	-0.04373975
128	0x3e39541a	0.18098488
129	0xbe278b69	-0.16361775
130	0x3dc67d74	0.09691897
131	0xbd341b50	-0.04397136
132	0x3e261ddc	0.16222328
133	0x3df0e45c	0.11762306
134	0xbcdd26b0	-0.026995987
135	0xbdba1426	-0.09085874
136	0x3df685f8	0.12037271
137	0xbc743f20	-0.014907628
138	0x3e2725f4	0.16323072
139	0xbce7ee90	-0.028311998
140	0xbe497cd9	-0.19676532
141	0xbdf9a967	-0.12190514
142	0x3d822a8c	0.063557714
143	0x3e3ef960	0.18649817
144	0xbc838040	-0.016052365
145	0x3c4d90a0	0.012546688
146	0xbdac47e5	-0.0841215
147	0xbb8c2960	-0.004277393
148	0x3d3fc5b0	0.04681939
149	0x3e266acc	0.16251677
150	0x3e1a7728	0.15084517
151	0x3d0ed3cc	0.034869954
152	0xbd96d268	-0.073643506
153	0x3dd1539c	0.10221025
154	0xbc817618	-0.015803382
155	0xbdac8e85	-0.08425621
156	0xbe0ae6a0	-0.13564539
157	0x3e3fef9a	0.18743744
158	0xbe032746	-0.1280795
159	0x3cd9c0c8	0.026581183
160	0x3e1205e2	0.14260057
161	0x3e48dd6c	0.19615716
162	0xbd1d722c	-0.03843896
163	0x3d722268	0.059114844
164	0xbe012181	-0.12610437
165	0xbc952210	-0.018204719
166	0x3d0f3d04	0.0349703
167	0x3e079e72	0.13244036
168	0xbe3036a4	-0.17208344
169	0xbdea210d	-0.11432085
170	0x3ddf04e0	0.10889602
171	0xbdc5925e	-0.09647058
172	0xbe247c9b	-0.16063158
173	0xbdb706a8	-0.089368165
174	0xbcad7408	-0.021173492
175	0x3e4a85ee	0.19777653
176	0x3df7ec10	0.12105572
177	0xbd2be734	-0.04196854
178	0xbe335640	-0.1751337
179	0xbdfc381e	-0.12315391
180	0xbe0fa3d4	-0.14027339
181	0xbd39e618	-0.04538545
182	0xbd543dd8	-0.05181679
183	0x3d7d8c18	0.061901182
184	0xbdc99299	-0.098424144
185	0xbd92ba12	-0.07164396
186	0x3de2e0d4	0.11078039
187	0xbdbca10a	-0.09210403
188	0xbcebbf40	-0.028777719
189	0x3de56060	0.11200023
190	0x3e1d4ec0	0.15362072
191	0x3d4f56a0	0.05061972
192	0xbd8c4a88	-0.06850153
193	0xbda5d6f7	-0.08097642
194	0x3db173f0	0.086646914
195	0xbb116f00	-0.0022191405
196	0x3e2f6e70	0.17131972
197	0xbda93308	-0.082616866
198	0xbe331b8f	-0.17490982
199	0x3d1b3bc8	0.03789881
200	0x3c3a8ef0	0.011386618
201	0x3e35e7b0	0.17764163
202	0xbd9f1702	-0.0776806
203	0xbd52dc80	-0.051479816
204	0x3dbbf1b8	0.091769636
205	0x3e3c5602	0.18392184
206	0xbca1fe90	-0.019774705
207	0xbdf504a2	-0.11963774
208	0x3de4772c	0.11155543
209	0x3e050120	0.1298871
210	0xbc8df4d8	-0.017328665
211	0x3d45f388	0.048327953
212	0x3d3e7430	0.046497524
213	0x3d2f0488	0.04272893
214	0x3def2a5c	0.11678001
215	0x3b8bb640	0.0042636693
216	0x3d1bc634	0.038030818
217	0xbdc183a1	-0.09448934
218	0x3dcdb824	0.10044888
219	0xbe21e466	-0.15809783
220	0xbe1c8dac	-0.15288419
221	0xbe200494	-0.15626746
222	0x3de02ffc	0.10946652
223	0x3d2b367c	0.041800007
224	0x3ca8e570	0.020617217
225	0x3ddfe59c	0.109324664
226	0x3dda4dd0	0.10659373
227	0xbdb7e579	-0.08979315
228	0x3e25d97a	0.16196242
229	0xbd3c2f30	-0.04594344
230	0xbdf5ecfe	-0.12008093
231	0x3ddd2230	0.107975364
232	0x3d943324	0.07236317
233	0xbd54a118	-0.051911443
234	0x3e447e42	0.19188789
235	0x3c869be0	0.016431749
236	0x3e020c06	0.12699899
237	0xbdcaa09b	-0.09893914
238	0xbdceaa81	-0.10091115
239	0x3d6328c0	0.055458784
240	0x3c025210	0.007954136
241	0xbe4070bd	-0.18793006
242	0xbdfdc0f5	-0.12390319
243	0x3cb908e8	0.022587255
244	0x3e0b5b56	0.1360906
245	0x3e1c76da	0.15279713
246	0x3e3f1e42	0.18663886
247	0x3d2c518c	0.042069957
248	0x3c499f10	0.01230599
249	0xbd5ba7f8	-0.053626984
250	0x3bcfa460	0.0063367337
251	0xbe3f3726	-0.18673381
252	0x3e0d30cc	0.13788146
253	0x3dce0314	0.10059181
254	0xbcf3f418	-0.029779479
255	0x3bc45e40	0.005992681

lstm.bias_ih_l0 f4 [96]
0	0x3b1e65c0	0.0024169534
1	0x3e2a126c	0.1660859
2	0xbe218e38	-0.15776908
3	0x3dc87610	0.09788144
4	0x3e286ccc	0.16447753
5	0x3c87beb8	0.016570434
6	0xbd06572c	-0.032797977
7	0xbd6a750c	-0.05724053
8	0xbd7621e8	-0.06009093
9	0xbe38d0ca	-0.18048397
10	0xbd02dd30	-0.031949222
11	0xbe007633	-0.1254509
12	0xbdd92f77	-0.10604756
13	0x3cc8de90	0.024520189
14	0x3c2d1f20	0.010566503
15	0xbe2edc1f	-0.17076157
16	0xbda32b6e	-0.07967268
17	0x3e50f248	0.20404923
18	0xbe042a10	-0.1290667
19	0xbd94c63a	-0.07264371
20	0x3dbe3a80	0.09288502
21	0x3cc40790	0.023929387
22	0xbe330e7f	-0.17485999
23	0x3d03d778	0.03218791
24	0xbd9bc63e	-0.07606171
25	0x3dd8be08	0.105831206
26	0xbdf06040	-0.11737108
27	0x3e134f08	0.14385617
28	0xbd884020	-0.06652856
29	0x3ca0e998	0.019642636
30	0x3d6886c0	0.056769133
31	0xbd65d148	-0.05610779
32	0xbe47f5c0	-0.1952734
33	0xbd730014	-0.059326246
34	0x3df15668	0.11784059
35	0x3e3d6cea	0.18498579
36	0xbde277d4	-0.11058012
37	0x3d3c51b0	0.04597634
38	0xbe0d219b	-0.1378235
39	0xbdf37711	-0.118879445
40	0xbe136ab4	-0.14396173
41	0x3dc440e8	0.095826924
42	0x3e2518ee	0.16122791
43	0x3e16ef1e	0.14739653
44	0xbe28ce5a	-0.16484967
45	0xbe04843c	-0.12941068
46	0xbd94809a	-0.07251091
47	0x3e0de086	0.1385518
48	0x3de53524	0.111917764
49	0xbe2dd2dc	-0.16974968
50	0xbe16b4a7	-0.14717351
51	0x3c6d8430	0.014496848
52	0x3d1e0420	0.038578153
53	0x3e2a8d38	0.16655433
54	0xbe24d33a	-0.16096202
55	0xbdca94eb	-0.09891685
56	0xbe4f258b	-0.20229165
57	0x3e171e86	0.14757738
58	0xbe39c5a0	-0.18141794
59	0x3e07a8b2	0.13247946
60	0xbdf8f483	-0.12156012
61	0x3cb7fd70	0.022459716
62	0x3e168030	0.14697337
63	0x3de0d200	0.10977554
64	0xbaf34d80	-0.0018562526
65	0x3e12985c	0.14315933
66	0x3d44b0e0	0.048020244
67	0xbdfb2db3	-0.12264576
68	0xbcca5c10	-0.024702102
69	0xbce335b0	-0.027735561
70	0xbe0e4ca2	-0.1389642
71	0xbc99a2a8	-0.018754318
72	0xbc8e4348	-0.017366067
73	0xbe4f7694	-0.20260078
74	0x3d014390	0.031558573
75	0xbda7e205	-0.08197407
76	0x3d971da4	0.073787004
77	0xbd06bfc0	-0.03289771
78	0x3df8ca38	0.12147945
79	0x3d99b6cc	0.07505569
80	0x3cf76e38	0.030203924
81	0xbdd73071	-0.10507286
82	0xbbd73380	-0.0065674186
83	0xbe34f638	-0.1767205
84	0x3e33cc04	0.17558295
85	0x3e3aac1a	0.18229714
86	0xbd2e7c54	-0.042599037
87	0x3e40a1b2	0.18811682
88	0x3e113e92	0.14184025
89	0x3d1b9094	0.037979677
90	0xbd624998	-0.055245966
91	0x3dcf6b44	0.10127881
92	0x3e323240	0.17401981
93	0xbd355204	-0.04426767
94	0x3d421ce8	0.04739085
95	0x3dcc0d74	0.099635035

lstm.bias_hh_l0 f4 [96]
0	0x3e23ba76	0.15989098
1	0x3d957f34	0.07299653
2	0xbe4f597c	-0.2024898
3	0xbd97801a	-0.0739748
4	0x3e2650cc	0.16241759
5	0x3db860a8	0.09002811
6	0x3dce4958	0.10072583
7	0x3d2c1928	0.04201618
8	0xbb323cc0	-0.0027196854
9	0xbcd26510	-0.025682956
10	0x3e482cf0	0.19548392
11	0xbd917bca	-0.07103689
12	0x3c5d99c0	0.013525426
13	0x3cb31ca8	0.02186425
14	0x3cf01ba8	0.029310063
15	0xbe158025	-0.14599665
16	0x3dd7cc40	0.105370045
17	0xbdab6bf6	-0.08370201
18	0x3d9188c8	0.07106167
19	0xbdd527a8	-0.104079545
20	0x3dc1cefc	0.09463307
21	0x3cfa4dc0	0.030554652
22	0xbe31a8b9	-0.17349519
23	0xbe17243e	-0.14759919
24	0x3d688228	0.05676475
25	0x3da03888	0.078232825
26	0xbe3c9e82	-0.18419841
27	0xbde4f5c7	-0.11179691
28	0x3dcff7a0	0.101546526
29	0x3c81db50	0.015851647
30	0xbe09723d	-0.13422485
31	0xbddeadc1	-0.10872985
32	0xbe44e836	-0.19229206
33	0x3cf001d8	0.029297754
34	0x3e48b93c	0.19601911
35	0x3ce30378	0.027711615
36	0xbd846b54	-0.06465784
37	0x3d31e0a0	0.04342711
38	0xbe393ff4	-0.18090802
39	0xbd9a2558	-0.07526654
40	0xb9486000	-0.00019109249
41	0xbe046696	-0.12929758
42	0x3df5cabc	0.12001559
43	0xbc0a7d50	-0.008452728
44	0x3b0b4bc0	0.0021254867
45	0x3dff2288	0.12457758
46	0xbdc7e828	-0.09761077
47	0xbd9dc960	-0.07704425
48	0xbd4844f8	-0.0488939
49	0x3e10b70e	0.1413233
50	0x3dcdce98	0.1004917
51	0xbc515d80	-0.01277864
52	0x3e3b7318	0.18305624
53	0xbd534568	-0.051579863
54	0x3e1f26b8	0.15542114
55	0x3d6e89b0	0.058236778
56	0xbdec126a	-0.1152695
57	0xbd096c50	-0.03355056
58	0x3e251422	0.16120961
59	0x3e4728c2	0.19449142
60	0x3df724e0	0.1206758
61	0x3d9b6d74	0.07589236
62	0xbccde970	-0.025135726
63	0xbe451ffe	-0.19250485
64	0x3c42b3a0	0.011883646
65	0xbdf21c28	-0.11821777
66	0x3da1c710	0.07899296
67	0x3dc90100	0.09814644
68	0xbe3f5353	-0.1868413
69	0x3e424ba6	0.1897417
70	0xbd343794	-0.043998316
71	0xbd40563c	-0.04695724
72	0xbe025ca6	-0.12730655
73	0x3e2fa23e	0.17151734
74	0x3e25f41a	0.16206399
75	0xbe06f303	-0.13178639
76	0xbe20fea6	-0.1572214
77	0xbd595ee4	-0.05306901
78	0x3d76de10	0.06027037
79	0xbe3251c7	-0.17414008
80	0xbdacd719	-0.08439464
81	0xbdb79ce8	-0.08965474
82	0x3d7f7d38	0.062375277
83	0xbe2cae15	-0.16863282
84	0xbc569b20	-0.013098508
85	0x3e4dae1e	0.20085952
86	0xbd71f594	-0.059072092
87	0xbcdf27a8	-0.02724059
88	0xbd9c833a	-0.07642217
89	0xbae2db00	-0.0017307699
90	0x3e308526	0.17238292
91	0x3e1a5490	0.1507132
92	0x3e0e9608	0.1392442
93	0x3d9ad920	0.075609446
94	0xbdf434ac	-0.11924109
95	0xba613800	-0.00085914135

linear1.weight f4 [128, 10]
0	0x3ccb7f9a	0.024841119
1	0x3e1e9d59	0.15489711
2	0x3e0aac01	0.13542177
3	0xbdaafd04	-0.0834904
4	0x3e9424d7	0.28934357
5	0x3e8bb2b0	0.27284765
6	0xbe9f8b8b	-0.3116115
7	0x3e670961	0.22562172
8	0x3e61bd05	0.22044761
9	0x3c7afb17	0.015318654
10	0xbe9c4535	-0.3052155
11	0x3e64ccd1	0.22343756
12	0xbde29eba	-0.11065431
13	0x3eba38ac	0.36371362
14	0x3bb6180e	0.0055570668
15	0x3c916396	0.017747682
16	0xbe913d26	-0.28366965
17	0x3e00aadc	0.12565178
18	0xbe3982d6	-0.18116316
19	0x3dbdfcc3	0.09276726
20	0xbe3db3e7	-0.18525659
21	0x3e9acb5a	0.3023327
22	0x3d8e8340	0.06958628
23	0x3ce5dee6	0.028060388
24	0xbd1a50b8	-0.037674636
25	0x3e53ddf0	0.20690131
26	0xbef0c2af	-0.47023532
27	0x3de757a6	0.112960145
28	0x3bf02474	0.0073285643
29	0xbdbdb882	-0.09263708
30	0xbf09ab28	-0.5377679
31	0x3cca79c5	0.024716267
32	0xbdfdc853	-0.123917244
33	0x3f02f796	0.51159036
34	0xbdc7323d	-0.09726379
35	0xbe1fdf72	-0.15612581
36	0xbe4210e3	-0.18951754
37	0xbe61d842	-0.22055152
38	0xbeb446a9	-0.3521016
39	0x3ec3a971	0.3821521
40	0xbdb2b0c8	-0.087251246
41	0x3ed54fa1	0.41662315
42	0x3d973e86	0.07384972
43	0xbe8d1427	-0.27554438
44	0x3e06b5ef	0.1315534
45	0xbe4056e9	-0.18783154
46	0xbe3e2717	-0.18569599
47	0xbdc3c389	-0.0955878
48	0x3e48b680	0.19600868
49	0x3c6d83f2	0.01449679
50	0xbeb418fa	-0.35175306
51	0xbdbecfbb	-0.09316965
52	0x3ca62627	0.020281864
53	0x3efad2f9	0.48989084
54	0xbe934081	-0.2876015
55	0xbd1de503	-0.03854848
56	0xbc3e347d	-0.011609194
57	0x3e6b0238	0.22950065
58	0xbe89dd91	-0.26926854
59	0x3d98894c	0.07448062
60	0x3e52585b	0.20541517
61	0xbd144cdc	-0.03620611
62	0x3d55deac	0.05221431
63	0x3e35a762	0.17739633
64	0x3e7db5d0	0.24776387
65	0xbea1f531	-0.3163238
66	0xbe7ae0d3	-0.24499826
67	0x3e561364	0.20905834
68	0x3e9e3b90	0.30904818
69	0xbe57861b	-0.21047251
70	0xbe53598e	-0.20639631
71	0x3e71f8b5	0.2363003
72	0x3e8501bb	0.25977883
73	0xbe1370a8	-0.14398444
74	0x3e96c9bc	0.29450786
75	0xbdc0b641	-0.09409762
76	0x3eb4533b	0.3521975
77	0xbdde2050	-0.10846007
78	0xbec12e6e	-0.37730736
79	0xbda60191	-0.081057675
80	0x3f038668	0.5137696
81	0xbe7e0fa9	-0.24810661
82	0x3e627cd0	0.22117925
83	0x3e15d2cb	0.14631192
84	0xbe113a6a	-0.1418244
85	0xbe416afc	-0.18888468
86	0xbd4f4cfc	-0.050610527
87	0xbdfa4101	-0.1221943
88	0x3d3a4cba	0.04548333
89	0x3b1046dc	0.0022014892
90	0x3ecd0a6d	0.40047017
91	0x3e262d65	0.16228254
92	0x3cce5165	0.025185296
93	0xbd680c2f	-0.056652244
94	0x3eb09110	0.34485674
95	0xbe48357a	-0.1955165
96	0xbddf88af	-0.10914742
97	0x3d1c953d	0.038228262
98	0x3c54e4c9	0.012994
99	0x3eb1f7fb	0.34759507
100	0x3e4bc713	0.1990016
101	0xbdf02385	-0.11725525
102	0x3d71757f	0.058949944
103	0xbe9ab039	-0.30212572
104	0x3eeb2117	0.45923683
105	0xbea3c749	-0.3198798
106	0x3e263f86	0.1623517
107	0xbc4c9c57	-0.012488446
108	0x3ec32540	0.38114357
109	0x3e80980f	0.25116012
110	0x3e0a06b5	0.13479121
111	0xbe93c9a8	-0.2886479
112	0xbd91d493	-0.071206234
113	0x3e9014e9	0.28140953
114	0x3d1e09e7	0.038583662
115	0x3edd5a41	0.4323292
116	0xbe1c8717	-0.15285908
117	0xbe699d14	-0.22813827
118	0xbe664b42	-0.22489646
119	0xbe755ca1	-0.23961116
120	0xbec0ec70	-0.37680387
121	0xbe67f88f	-0.22653411
122	0x3dce6cd2	0.100793496
123	0xbe10204d	-0.14074822
124	0xbc49ba4a	-0.012312481
125	0x3e5779bd	0.21042533
126	0xbee8c403	-0.45462045
127	0xbd576424	-0.052585736
128	0x3e008d86	0.12553987
129	0xbe3af098	-0.18255842
130	0x3ea9bcbe	0.3315181
131	0x3e4aef3a	0.1981782
132	0x3e79ce62	0.24395135
133	0xbe84d8db	-0.25946698
134	0xbcbc7456	-0.023004692
135	0xbd9b6df2	-0.0758933
136	0x3ec7e55b	0.39042172
137	0xbc3c0d7d	-0.011477825
138	0x3e130781	0.14358331
139	0x3de85a5f	0.11345362
140	0x3e995b08	0.29952264
141	0x3e4b19fb	0.1983413
142	0x3c30732f	0.010769649
143	0xbd3d60ad	-0.046234775
144	0x3ed9da86	0.42549533
145	0x3e8d1d5f	0.2756147
146	0xbdb9e0a5	-0.09076051
147	0xbdb1ab06	-0.08675198
148	0x3e0f5acf	0.13999484
149	0xbe19a195	-0.15003045
150	0x3ea7fde8	0.32810903
151	0xbe59920c	-0.21247119
152	0x3e7fd5af	0.24983858
153	0x3d8ef2bc	0.06979892
154	0x3e478ccf	0.19487308
155	0x3dd0619f	0.1017487
156	0x3acb81f5	0.0015526401
157	0x3eb5e55a	0.35526544
158	0xbe201aed	-0.15635271
159	0x3d44deb5	0.048063952
160	0x3e390061	0.18066551
161	0x3e89809d	0.26855937
162	0x3e60abba	0.21940508
163	0xbedf8292	-0.43654305
164	0xbe1982d4	-0.14991313
165	0x3defd1e7	0.117099576
166	0xbe4ef409	-0.2021028
167	0xbe3bc0d4	-0.18335277
168	0x3e628f76	0.22125039
169	0x3e91537c	0.28384006
170	0x3eb8f1a7	0.36121866
171	0xbedf9fe6	-0.4367668
172	0x3d3d521c	0.046220884
173	0x3e21bc6d	0.15794535
174	0xbe7268fa	-0.23672858
175	0xbe87660d	-0.26445046
176	0x3e7f2781	0.24917413
177	0xbcb7411a	-0.02236991
178	0xb92ac971	-0.00016287506
179	0xba173856	-0.00057685876
180	0x3e458288	0.19288075
181	0xbed03ff7	-0.406738
182	0x3e0e0f08	0.13872921
183	0x3db350fb	0.0875568
184	0xbe50634e	-0.20350382
185	0x3e1b249d	0.15150686
186	0x3dd1a9b9	0.1023745
187	0x3dbb55b9	0.0914721
188	0xbe0f0247	-0.13965712
189	0xbe8471b9	-0.25868014
190	0xbca352ff	-0.019937037
191	0xbea18aa6	-0.31551093
192	0x3c597b25	0.013273989
193	0x3eb8c070	0.36084318
194	0x3e621ab3	0.22080497
195	0xbe1c4274	-0.15259725
196	0xbdbad156	-0.09121959
197	0xbddbf02c	-0.107391685
198	0x3e2008f1	0.15628411
199	0x3e2c1efa	0.16808692
200	0xbe117f6b	-0.14208762
201	0x3e079f2a	0.1324431
202	0x3e68b7f6	0.22726426
203	0xbea07f5f	-0.31347176
204	0x3dd09723	0.10185077
205	0x3e4cc7a6	0.19998035
206	0xbe1c6c0b	-0.1527559
207	0xbdbd8411	-0.09253705
208	0xbe119af1	-0.14219262
209	0x3eb7a920	0.3587122
210	0x3ead5046	0.33850306
211	0xbe8f4d5e	-0.27988714
212	0x3e8af30a	0.2713855
213	0xbe856da0	-0.260602
214	0x3e83528c	0.25648916
215	0x3e928110	0.28614092
216	0x3e9f6428	0.311311
217	0x3d9efc35	0.077629484
218	0x3ec2db01	0.38057712
219	0xbe1f3dfe	-0.15550992
220	0x3e2551b1	0.16144444
221	0x3e8afd08	0.27146173
222	0x3ca8e795	0.02061824
223	0x3cf72c27	0.03017242
224	0x3e473a2b	0.19455783
225	0xbeaa60ed	-0.33277074
226	0xbdcee061	-0.10101391
227	0xbe5596f0	-0.2085836
228	0xbdaac717	-0.083387546
229	0xbe15226d	-0.14563914
230	0x3ee0063a	0.4375475
231	0x3ebab906	0.36469287
232	0x3d6e1e5c	0.05813442
233	0xbd3beef0	-0.045882165
234	0xbd497862	-0.04918707
235	0x3eb8f9e3	0.36128148
236	0xbe832345	-0.25612846
237	0x3de9fed2	0.11425556
238	0xbdea956c	-0.11454281
239	0x3e0481b6	0.12940106
240	0xbe18b2fa	-0.14912024
241	0xbe8fb6d2	-0.28069168
242	0x3e0c5327	0.13703595
243	0x3e362b2b	0.17789905
244	0xbdbb1099	-0.09134025
245	0x3eb2d121	0.34925178
246	0x3e6f2aed	0.23356219
247	0xbd9c3977	-0.07628148
248	0x3d8a5bad	0.06755767
249	0xbdd20a18	-0.102558315
250	0x3e4ee0da	0.20202962
251	0x3f0658ed	0.5247944
252	0xbe670eb3	-0.22564201
253	0x3eb8ce1a	0.36094743
254	0x3deb0a1f	0.1147654
255	0x3eeee6cb	0.46660456

linear1.bias f4 [128]
0	0xbd3619c6	-0.044458173
1	0x3dc124f2	0.09430875
2	0x3e0e8f87	0.13921939
3	0x3e63de94	0.22252876
4	0xbd5dd62e	-0.054159336
5	0x3e11c518	0.14235342
6	0x3e5f2743	0.21792321
7	0x3e2d87ad	0.16946287
8	0xbd9b0da4	-0.07570961
9	0x3ebb53be	0.36587328
10	0x3e2a633c	0.16639417
11	0x3e072470	0.13197494
12	0x3e32b086	0.17450151
13	0xbaba56bc	-0.0014216523
14	0xbe086be5	-0.13322408
15	0xbe91ff71	-0.285152
16	0xbe87f504	-0.2655412
17	0x3ea7a499	0.32742766
18	0x3c8ee7db	0.017444542
19	0x3b5f9e71	0.0034121538
20	0xbe07827c	-0.1323337
21	0x3d185813	0.03719337
22	0x3e523977	0.20529734
23	0xbe44d0f0	-0.19220328
24	0xbe433635	-0.19063647
25	0xbd29ab3c	-0.041423067
26	0x3e81d751	0.25359586
27	0x3e347b87	0.17625247
28	0x3e97ef99	0.29674986
29	0x3e5e2c5e	0.21696612
30	0xbe26414e	-0.1623585
31	0xbe50972e	-0.2037017
32	0xbe564262	-0.2092376
33	0xbe843231	-0.25819543
34	0xbd343ab8	-0.04400131
35	0x3dce5f93	0.10076823
36	0xbdff20ab	-0.12457403
37	0x3db02466	0.086006925
38	0x3e2df602	0.16988376
39	0x3e46533a	0.19367686
40	0x3d3b5ad1	0.045740906
41	0x3e0e1706	0.1387597
42	0x3c8dfa62	0.017331306
43	0x3e98f0e8	0.29871297
44	0xbe9c20ff	-0.30493924
45	0x3da24639	0.0792355
46	0xbc99fc29	-0.018796997
47	0x3e2f6f77	0.17132364
48	0x3d82ea4c	0.06392345
49	0xbd472725	-0.048621316
50	0x3e9f2f5b	0.31090817
51	0x3d864eac	0.06557974
52	0x3da14709	0.07874877
53	0x3e9622ae	0.29323334
54	0x3e9c8678	0.30571342
55	0xbe2339ba	-0.1593999
56	0x3ee28041	0.44238475
57	0x3e6ada36	0.22934803
58	0x3eb09a49	0.3449271
59	0x3c953922	0.01821572
60	0x3dfa9d54	0.12237039
61	0xbd7fb718	-0.06243047
62	0x3e7551a5	0.23956926
63	0x3eae8749	0.3408759
64	0x3e35cd23	0.17754035
65	0x3e176ca1	0.14787532
66	0xbe228d75	-0.15874274
67	0x3c23c6a8	0.009996094
68	0xbe7170e8	-0.23578227
69	0x3d3bf017	0.045883264
70	0x3e12bfc9	0.14330973
71	0x3e83904a	0.2569602
72	0x3e9851b1	0.29749826
73	0x3e838f7e	0.25695413
74	0x3e0afcd5	0.1357301
75	0x3eba7b19	0.3642204
76	0xbe525227	-0.20539151
77	0xbe4c6f55	-0.19964345
78	0x3ebf8207	0.3740389
79	0xbd2aa913	-0.041665148
80	0xbdb420b5	-0.08795301
81	0x3eaab141	0.3333836
82	0x3e882feb	0.26599059
83	0xbeac2fce	-0.33630222
84	0xbe043e76	-0.12914452
85	0x3d4dbadb	0.050227027
86	0x3e0c2989	0.1368772
87	0x3e6503c9	0.22364725
88	0x3d895a3a	0.067066625
89	0xbe54e146	-0.2078906
90	0x3d804151	0.06262458
91	0xbdfd8b79	-0.12380118
92	0x3d68afbb	0.056808215
93	0x3e6c6d69	0.23088612
94	0x3eb8e561	0.36112502
95	0x3ec74387	0.38918707
96	0xbe8800b1	-0.26563028
97	0x3dae9a12	0.0852548
98	0xbe8c8f5f	-0.27453133
99	0xbd6e3471	-0.05815548
100	0x3e974c20	0.29550266
101	0x3ea572e5	0.3231422
102	0x3d1b2561	0.037877444
103	0xbd00d6d4	-0.031454876
104	0xbe8a8629	-0.2705548
105	0x3e5a4021	0.21313526
106	0xbd6d5aa2	-0.057947762
107	0x3e63f3f9	0.22261037
108	0xbe489b82	-0.19590572
109	0x3e5cc579	0.21559705
110	0xbd9c15ae	-0.076213226
111	0x3da65729	0.08122093
112	0x3e858059	0.26074484
113	0xbd1c06f0	-0.038092554
114	0xbe331737	-0.17489325
115	0xbd0b9662	-0.034078963
116	0x3ea01b43	0.312708
117	0xbe18af4e	-0.14910623
118	0x3d02aff1	0.031906072
119	0xbd8a26d3	-0.067456864
120	0x3df0b55c	0.117533416
121	0xbe16fe5d	-0.1474547
122	0xbd460ddf	-0.048353072
123	0x3e3e3c20	0.18577623
124	0x3ea77c24	0.327119
125	0xbdb77523	-0.08957889
126	0xbc6bd356	-0.014393648
127	0x3e90073d	0.28130522

linear2.weight f4 [128, 128]
0	0x3d44e19d	0.048066724
1	0x3d25ae58	0.04044947
2	0xbd9c46ae	-0.076306686
3	0xbc2083c3	-0.009797039
4	0xbd23d669	-0.0399994
5	0x3d0ac2f7	0.03387734
6	0x3d32e63f	0.04367661
7	0x3c9e2eeb	0.019309482
8	0x3d438ed7	0.047743645
9	0xbcdcdf28	-0.026961878
10	0x3dde567b	0.108563386
11	0xbe4d8b0e	-0.20072576
12	0x3db765c3	0.089549564
13	0x3d386c6d	0.045025278
14	0xbd3744e5	-0.044743437
15	0x3d7532ba	0.05986283
16	0xbd87df88	-0.06634432
17	0x3d03fdbc	0.0322244
18	0xbdb74dc4	-0.089503795
19	0xbd5e1f69	-0.054229174
20	0x3d65437a	0.055972554
21	0x3de3930f	0.111120336
22	0x3deb8bd1	0.11501277
23	0x3d7a71db	0.061143737
24	0xbd8fd366	-0.07022743
25	0x3ddd9299	0.10818977
26	0x3e2bb301	0.16767503
27	0xbcfa2c57	-0.030538721
28	0xbda31fbc	-0.07965037
29	0xbd8646c3	-0.065564655
30	0xbc16e1f6	-0.009209147
31	0xbb9a9569	-0.004717518
32	0xbe08eb68	-0.1337105
33	0x3e025e5a	0.12731305
34	0x3db18474	0.086678416
35	0x3d1c96be	0.038229696
36	0x3da96859	0.08271856
37	0xbd8012a5	-0.06253556
38	0x3e22b87f	0.15890692
39	0x3d03e30a	0.032198943
40	0x3c8fecc7	0.017568959
41	0x3d6222b5	0.05520888
42	0xbd4372eb	-0.047717016
43	0x3e8310b2	0.25598675
44	0x3e1e1c6d	0.15440531
45	0x3d41464d	0.047186185
46	0x3e42fcb8	0.19041717
47	0x3e1fe5a3	0.15614943
48	0x3d9b38af	0.07579171
49	0x3d2ab9f8	0.04168126
50	0x3e014641	0.12624456
51	0x3e80b6be	0.2513942
52	0x3dad7c50	0.08470976
53	0xbd8df3e5	-0.06931285
54	0xbd4521bc	-0.048127875
55	0xbb647e6b	-0.003486539
56	0x3d8e2b52	0.069418564
57	0xbd89d289	-0.067296095
58	0xbd05febc	-0.032713637
59	0xbdb33a8e	-0.08751403
60	0x3cf31e85	0.029677639
61	0xbd9dc82a	-0.07704194
62	0x3dcf0733	0.10108795
63	0xbd40824c	-0.04699926
64	0x3d923a3d	0.07140014
65	0xbd6b07a5	-0.057380337
66	0x3d9d7b7a	0.07689567
67	0xbcab8765	-0.020938585
68	0xbe11ff1f	-0.14257477
69	0x3bb5ea93	0.005551645
70	0xbc950280	-0.018189669
71	0xbe54bc14	-0.20774871
72	0x3dcc2619	0.09968204
73	0xbb9f55e4	-0.004862534
74	0x3dd033dd	0.10166142
75	0xbd0f80f9	-0.035035107
76	0x3e2cb52d	0.16865988
77	0xbbaf6e0e	-0.0053536957
78	0x3d993de1	0.074825056
79	0x3d32ab6e	0.04362052
80	0xbdc6e5ea	-0.097118214
81	0x3ce4e7af	0.027942507
82	0xbc119709	-0.008886107
83	0xbb93ad42	-0.004506738
84	0x3dab63bd	0.08368633
85	0xbe39b55e	-0.18135592
86	0xbd6be8a0	-0.057594895
87	0xbe13881e	-0.14407393
88	0x3de77ced	0.113031246
89	0x3cc53453	0.024072802
90	0xbc75ccd3	-0.015002447
91	0x3d41026d	0.047121454
92	0x3dcbf70a	0.09959228
93	0x3d94eb75	0.07271472
94	0xbd8aa560	-0.06769824
95	0x3db581a9	0.08862621
96	0x3d9285e9	0.071544476
97	0x3db5371e	0.088484034
98	0xbd5ffa7e	-0.054682247
99	0x3d9eb9d4	0.07750288
100	0xbda7147c	-0.08158204
101	0x3dad573d	0.08463905
102	0x3b04d650	0.0020269342
103	0x3e08ad9f	0.13347481
104	0xbd3a7b48	-0.045527726
105	0xbe25cb3a	-0.16190806
106	0xbd6d5390	-0.05794102
107	0x3e859e5f	0.2609739
108	0x3df9bf78	0.12194723
109	0x3d9abd56	0.07555644
110	0x3d00ac7e	0.0314145
111	0x3ddf0cc1	0.108911045
112	0x3c98195c	0.01856678
113	0xbda605cc	-0.081065744
114	0xbbe14825	-0.0068750554
115	0x3a74327c	0.0009315384
116	0xbdbb7df9	-0.09154887
117	0x3e308067	0.17236482
118	0x3e89172d	0.26775494
119	0xbda6b3dd	-0.08139775
120	0xbb0651ab	-0.0020495455
121	0x3d0abf98	0.033874124
122	0x3cb71ce2	0.02235264
123	0xbc46c770	-0.012132511
124	0x3d4a0760	0.04932344
125	0x3cbdeda5	0.023184607
126	0xbc92945b	-0.017893007
127	0xbd2e5c14	-0.04256828
128	0x3d538a1e	0.05164539
129	0xbd83c8b8	-0.064347684
130	0xbd91900d	-0.07107554
131	0xbe5fd301	-0.21857835
132	0x3dd4af32	0.10384978
133	0xbd3ec443	-0.04657389
134	0x3d909c66	0.07061081
135	0x3d74be4b	0.05975179
136	0xbd3940e2	-0.045227893
137	0xbd06d077	-0.03291365
138	0x3bbbdad1	0.005732872
139	0x3d55eb52	0.052226372
140	0xbd966f3d	-0.07345436
141	0x3d75bdca	0.05999545
142	0x3e03ded3	0.1287797
143	0x3d251139	0.040299628
144	0x3daa9cc5	0.08330683
145	0xbddddd63	-0.10833242
146	0x3db4a0b6	0.08819716
147	0x3e2ab070	0.16668868
148	0xbbbe1f94	-0.0058021042
149	0x3dafe056	0.085877106
150	0x3e177808	0.14791882
151	0x3cc5da2e	0.024151888
152	0x3d5d13e1	0.053974036
153	0xbd7b2c90	-0.061321795
154	0xbdab500c	-0.08364877
155	0xbd88ce3d	-0.06679962
156	0xbcde6484	-0.027147539
157	0xbc41b92e	-0.011823935
158	0xbc665a66	-0.014059639
159	0xbc2bb931	-0.010481165
160	0x3d588fff	0.0528717
161	0xbd62c072	-0.05535931
162	0x3d05a991	0.032632414
163	0x3d83d204	0.06436542
164	0x3cdeb7e3	0.027187293
165	0x3e477889	0.19479574
166	0xbce4b607	-0.027918829
167	0x3c05ec23	0.008173975
168	0x3e3d10e6	0.18463477
169	0x3d512349	0.05105904
170	0x3daedae2	0.08537842
171	0xbdc7a518	-0.09748286
172	0xbc893cb3	-0.016752576
173	0x3da85439	0.08219189
174	0xbd5ad5a3	-0.053426396
175	0xbe1c3ef9	-0.15258397
176	0x3d86817b	0.06567665
177	0xbd713b94	-0.05889471
178	0xbc63b9b9	-0.01389926
179	0xbdd9b753	-0.106306694
180	0x3d97b55e	0.0740764
181	0xbdbe8fb9	-0.09304757
182	0x3d96d80a	0.07365425
183	0x3db88b79	0.09010977
184	0x3c98f9f1	0.018673869
185	0x3d06b10a	0.03288368
186	0xbd8fb4b4	-0.07016888
187	0x3dde832a	0.10864861
188	0xbdcd421b	-0.10022374
189	0x3e15ec33	0.14640884
190	0x3d8c0b68	0.06838113
191	0xbd579b6b	-0.052638453
192	0xbb946e1e	-0.0045297286
193	0xbcadf295	-0.021233836
194	0xbe13e334	-0.1444214
195	0xbd725014	-0.0591584
196	0x3d90f14e	0.07077275
197	0xbd62e9b4	-0.055398658
198	0xbceb2296	-0.028703015
199	0x3d8b3957	0.06798046
200	0x3e2da561	0.16957618
201	0xbdb5cb6b	-0.088766895
202	0xbd7dfb18	-0.06200704
203	0xbde8920c	-0.11355981
204	0x3d8a5c27	0.06755858
205	0x3d990fe9	0.07473738
206	0xbd028a67	-0.031870272
207	0x3cbb79b2	0.022885177
208	0xbcd23d34	-0.02566395
209	0xbafb4b65	-0.001917225
210	0xbc877b2e	-0.016538229
211	0x3db1d8d6	0.08683936
212	0x3d7bfc27	0.061519768
213	0xbc613c14	-0.013747234
214	0xbcd8329d	-0.026391322
215	0x3e5ac67c	0.21364778
216	0x3e46ac0c	0.19401568
217	0x3cb4edf6	0.022086125
218	0x3e615f52	0.22009018
219	0xbae666ae	-0.0017578208
220	0xbd11b578	-0.035573453
221	0x3de4dcdd	0.11174939
222	0xbdaa8aa4	-0.08327225
223	0x3b31f047	0.0027151273
224	0xbc2024b5	-0.009774377
225	0xbda5596b	-0.08073696
226	0x3db34ed2	0.08755268
227	0x3bd17325	0.0063919
228	0x3e1cf64e	0.15328333
229	0x3d8bd947	0.06828552
230	0xbcfcca84	-0.030858286
231	0xbcde1c4a	-0.027113099
232	0x3e9d40bf	0.3071346
233	0x3d1418aa	0.036156334
234	0x3ceb9b7c	0.028760664
235	0x3df68a02	0.12038042
236	0x3d9cc210	0.07654202
237	0xbe2e1527	-0.17000256
238	0x3d8b3b98	0.06798476
239	0xbd51b7e8	-0.051200777
240	0xbcf50db2	-0.029913757
241	0x3ce7bb6b	0.02828761
242	0xbd9416d9	-0.0723092
243	0x3c17f648	0.009275027
244	0xbd7ae11b	-0.061249834
245	0xbe36de51	-0.17858244
246	0xbe452776	-0.19253334
247	0x3e64685c	0.22305435
248	0xbd29a0f0	-0.041413248
249	0x3dc38527	0.09546881
250	0x3cde2939	0.027119266
251	0x3cd67cd9	0.026182579
252	0x3d610edf	0.054945823
253	0xbe3d2221	-0.1847005
254	0xbb664a80	-0.003513962
255	0xbd47bf32	-0.048766322

linear2.bias f4 [128]
0	0xbd02ad5e	-0.031903617
1	0xbddc8ec4	-0.10769418
2	0x3b0c2495	0.002138411
3	0xbcbc63b2	-0.022996757
4	0x3e291564	0.16512066
5	0xbd0fb88d	-0.03508811
6	0xbd68527d	-0.056719292
7	0xbd0b1124	-0.033951893
8	0xbb3a31d3	-0.0028411045
9	0x3c66124e	0.01404245
10	0x3dbeb5ef	0.09312045
11	0x3d0ef1e0	0.03489864
12	0x3cc505f2	0.024050687
13	0xbda66210	-0.08124173
14	0x3d094b66	0.03351917
15	0xbd26b758	-0.040702194
16	0xbd4a5815	-0.049400408
17	0xbdaadc5b	-0.08342811
18	0xbdba3b1b	-0.09093305
19	0x3a6d35a1	0.0009048824
20	0xbc8fb475	-0.017542103
21	0x3d888600	0.066661835
22	0x3e041973	0.12900333
23	0xbd55d820	-0.052208066
24	0x3d45a4a7	0.048252728
25	0xbd94c25f	-0.07263636
26	0xbcd3bbcf	-0.02584639
27	0xbdd6bad6	-0.10484855
28	0x3cb7c917	0.022434754
29	0xbde28b08	-0.11061674
30	0x3c058e93	0.008151668
31	0xbd958905	-0.07301525
32	0xbddb089a	-0.10695
33	0x3c4baf02	0.012431862
34	0xbdd5efb6	-0.10446112
35	0xbdd8e9a0	-0.105914354
36	0x39e29dc5	0.00043223627
37	0xbd9f4dfd	-0.07778547
38	0xbcb101c2	-0.021607284
39	0x3e406290	0.18787599
40	0x3d944fe4	0.072418004
41	0x3de208e5	0.11036853
42	0x3cc15c65	0.023603627
43	0xbd492ab3	-0.049112987
44	0xbd9793f8	-0.0740127
45	0xbcbbecca	-0.022940058
46	0xbddc223f	-0.107487194
47	0x3c28b80b	0.0102977855
48	0x3df007e2	0.117202535
49	0x3d15c1a5	0.036561627
50	0xbd33592c	-0.043786213
51	0x3c9bbff6	0.019012433
52	0xbd55f41d	-0.052234758
53	0x3c9088ad	0.017643297
54	0x3c8ac248	0.016938344
55	0xbdea6f25	-0.114469804
56	0x3d11efd9	0.035629127
57	0x3d7dbac6	0.0619457
58	0x3d3ed26a	0.046587385
59	0x3d13e64e	0.036108308
60	0x3c9380a2	0.018005673
61	0xbe0056ad	-0.12533064
62	0x3d72b6f1	0.059256498
63	0xbd4c1179	-0.04982135
64	0xbde9044b	-0.11377772
65	0xbdb4d87e	-0.08830355
66	0x3cd3ccc3	0.025854474
67	0xbd610501	-0.054936413
68	0xbcf3182c	-0.029674612
69	0x3da6c9b7	0.08143943
70	0xbb46372f	-0.0030245294
71	0x3c923f2d	0.01785239
72	0x3d2f5a0e	0.042810492
73	0x3dbda830	0.09260595
74	0x3c90378a	0.017604608
75	0xbd41792a	-0.04723469
76	0xbc4d80d7	-0.012542925
77	0xbdb6dc22	-0.08928706
78	0x3b447d32	0.0029981849
79	0x3c4dff62	0.012573095
80	0xbdabe0df	-0.083925
81	0xbd93d919	-0.072191425
82	0xbda60da6	-0.08108072
83	0x3dcfcfe8	0.10147077
84	0x3d712fda	0.058883525
85	0x3d823f39	0.06359715
86	0xbd1e7d14	-0.038693503
87	0x3b0bed03	0.0021350987
88	0xbc731707	-0.014837033
89	0xbdcd3071	-0.10019005
90	0xba6f7558	-0.0009134612
91	0x3d1d2535	0.03836556
92	0x3d0f7d6d	0.035031725
93	0xbd8b46a1	-0.06800581
94	0xbbe9496b	-0.007119348
95	0xbbd5e2e4	-0.0065272916
96	0xbde87b01	-0.11351586
97	0xbde23e07	-0.11046987
98	0x3d66ee41	0.05637956
99	0xbdb18bb4	-0.086692244
100	0x3d5df2d3	0.054186653
101	0x3cca4ddb	0.024695328
102	0xbdc1486b	-0.09437641
103	0x3d82ed4a	0.063929155
104	0x3e101ba1	0.1407304
105	0x3d38b5c2	0.045095213
106	0xbd3d8198	-0.04626617
107	0x3e4140b1	0.18872334
108	0xbd0c77c3	-0.0342939
109	0xbd05d1f7	-0.03267094
110	0xbd80d135	-0.06289903
111	0xbcbe9ec9	-0.023269074
112	0xbd31d05b	-0.043411594
113	0xbd925615	-0.07145325
114	0xbb4c0c5c	-0.0031135296
115	0xbca02a12	-0.01955131
116	0x3c58e9ad	0.013239306
117	0x3d3997be	0.04531073
118	0x3e0a3f58	0.13500726
119	0x3d9f8c36	0.07790415
120	0xbe117732	-0.14205626
121	0x3bc8ec20	0.006131664
122	0x3d283580	0.041066647
123	0x3c5675ca	0.013089607
124	0xbc5962d3	-0.01326819
125	0x3c5f8eb1	0.01364486
126	0xbdad64e8	-0.08466512
127	0xbd3b3a28	-0.04570976

linear3.weight f4 [1, 128]
0	0xbdec2c33	-0.11531868
1	0x3b74420f	0.003727082
2	0x3df2058a	0.11817463
3	0x3e24fa18	0.16111028
4	0xbe8f9d5e	-0.2804975
5	0xbd40afda	-0.047042705
6	0x3cda1956	0.02662341
7	0xbd8bfeda	-0.068357185
8	0xbd832245	-0.06403021
9	0x3d51b8ce	0.051201634
10	0x3d006f70	0.031356275
11	0xbe328cb2	-0.17436484
12	0x3c020ad7	0.007937155
13	0x3d7433bf	0.05961966
14	0xbcce25a6	-0.025164437
15	0xbe130f78	-0.1436137
16	0x3cd0e4bf	0.0254997
17	0x3cc2e4d8	0.023790762
18	0x3e07f92c	0.13278645
19	0x3e3908ee	0.18069813
20	0x3e30b0af	0.172549
21	0x3d7a5d96	0.061124407
22	0xbd77bdd6	-0.060483776
23	0xbd4fced9	-0.050734375
24	0x3a9dc90d	0.0012038067
25	0x3d077ea5	0.033079762
26	0xbdaa835d	-0.08325837
27	0xbda56484	-0.080758125
28	0x3e202ff2	0.1564329
29	0xbd26639d	-0.040622342
30	0xbe2c80db	-0.1684603
31	0xbb869ba6	-0.00410791
32	0xbcabfb3a	-0.020993818
33	0x3db87e5e	0.09008478
34	0xbd472cf9	-0.048626874
35	0xbd8ca4e2	-0.068673864
36	0xbd4201d9	-0.047365043
37	0x3b5f02bc	0.003402873
38	0xbc64f084	-0.013973359
39	0x3d010e8d	0.031508017
40	0xbe80a7db	-0.25128064
41	0x3d900976	0.070330545
42	0xbe30a6ef	-0.1725118
43	0xbd8db092	-0.06918444
44	0xbb8fb282	-0.0043852935
45	0x3d088ebf	0.03333926
46	0xbd8f46d7	-0.069959335
47	0x3da02b29	0.07820732
48	0x3d00e555	0.031468708
49	0xbc9373c0	-0.01799953
50	0x3e41fd1e	0.18944213
51	0x3e972d8c	0.29526937
52	0xbd0883d2	-0.03332884
53	0x3e18e4bd	0.14931007
54	0x3da3eda1	0.080043085
55	0xbcc610d9	-0.024177955
56	0xbd0f2bc6	-0.034953855
57	0xbd97a573	-0.07404604
58	0xbdaf54cb	-0.08561095
59	0xbd8a24f5	-0.0674533
60	0x3d245c13	0.04012687
61	0x3dbccc41	0.09218646
62	0x3e36f1e5	0.17865713
63	0xbbbec342	-0.0058216164
64	0xbd64f68a	-0.05589918
65	0x3de0b430	0.10971868
66	0x3df7617e	0.12079142
67	0xba1597d8	-0.00057065254
68	0xbdf77786	-0.12083344
69	0x3e7dda5b	0.24790327
70	0x3df670c1	0.12033225
71	0x3e752096	0.23938212
72	0x3d7ca583	0.06168128
73	0xbd6d86d1	-0.0579899
74	0xbc7c81d9	-0.0154118175
75	0x3e23a060	0.15979147
76	0x3d88caaa	0.0667928
77	0x3d0b9428	0.03407684
78	0x3ddc6b15	0.10762612
79	0xbdeeaa5d	-0.11653588
80	0x3d990547	0.0747171
81	0x3c8a0ec6	0.016852748
82	0x3d66c9c9	0.05634478
83	0x3e182036	0.14856037
84	0xbd9d30cf	-0.07675325
85	0x3d62fd7b	0.05541752
86	0xbc2df8e5	-0.010618423
87	0x3e04af13	0.1295741
88	0x3dab2a8a	0.08357723
89	0xbe0b1df4	-0.13585645
90	0xbd301f3c	-0.042998537
91	0x3de812e0	0.11331725
92	0xbd6d7c97	-0.057980146
93	0x3c38a4dc	0.011269774
94	0x3bfc5f58	0.0077017955
95	0xbdb729f4	-0.08943549
96	0x3e1c0c85	0.15239151
97	0xbdb9771c	-0.090559214
98	0xbe8a5ad5	-0.27022424
99	0xbcb2f309	-0.021844404
100	0x3e0b6a27	0.13614713
101	0xbd1d852b	-0.038457077
102	0x3da13bd8	0.078727424
103	0x3e12cbcb	0.14335553
104	0xbc83f134	-0.016106226
105	0x3df6d1b2	0.12051715
106	0xbdd908e0	-0.10597396
107	0x3cc7eee6	0.024405908
108	0xbd821580	-0.06351757
109	0xbd21b0fe	-0.039475434
110	0xbde81654	-0.11332384
111	0x3da522c2	0.0806327
112	0x3d3336eb	0.043753546
113	0xbd50c177	-0.050965752
114	0x3e10f011	0.14154078
115	0x3cdb8a14	0.02679924
116	0xbd635329	-0.05549923
117	0x3e090091	0.13379122
118	0xbc57dff1	-0.01317595
119	0x3dbf70ab	0.093476616
120	0xbd9ff193	-0.078097485
121	0xbdb18253	-0.086674355
122	0x3e29b91c	0.1657452
123	0x3cec9b58	0.028882667
124	0xbdb257db	-0.08708163
125	0xbd3a0b6d	-0.045421053
126	0xbe06c011	-0.13159205
127	0x3ca90113	0.020630395

linear4.weight f4 [1, 128]
0	0xbe1d7ba3	-0.15379195
1	0x3da3586f	0.07975852
2	0x3e2a51f8	0.16632831
3	0x3dadcd59	0.084864326
4	0xbe0929ac	-0.13394803
5	0x3e0e06f0	0.13869834
6	0x3e83f5c7	0.2577345
7	0x3e225093	0.15851049
8	0xbdfd1e54	-0.123593
9	0x3df15446	0.11783652
10	0x3e6778a2	0.22604612
11	0x3e1b1068	0.15142977
12	0x3e949f16	0.29027623
13	0x3e5fef37	0.21868597
14	0x3e7c4247	0.24634658
15	0x3e891395	0.26772752
16	0x3e827821	0.25482276
17	0x3e9707df	0.29498193
18	0x3d7ed31d	0.062213052
19	0x3eaed823	0.34149274
20	0x3e00a96e	0.12564632
21	0x3e700bbd	0.23441978
22	0xbdf053cd	-0.11734734
23	0x3e4189ea	0.18900266
24	0x3e5774df	0.21040677
25	0x3e64b0cf	0.22333072
26	0xbdbbe25e	-0.091740355
27	0x3e3c092f	0.18362878
28	0x3d8df80c	0.06932077
29	0x3e321a46	0.17392835
30	0x3d1b82bc	0.037966475
31	0x3e4c9841	0.19979955
32	0x3e0e5179	0.13898267
33	0x3e821e6f	0.25413844
34	0x3e500850	0.20315671
35	0x3e6ac2e3	0.22925906
36	0x3e9f029e	0.31056684
37	0x3e67eced	0.22648974
38	0x3df07c9c	0.11742517
39	0xbe23641e	-0.1595616
40	0xbe65f8fe	-0.22458264
41	0x3e8b99eb	0.27265868
42	0xbb8fa571	-0.004383736
43	0x3e8c58db	0.2741154
44	0x3a9eeba9	0.0012124676
45	0x3e52b544	0.2057696
46	0x3e32482b	0.17410342
47	0x3e0114cc	0.1260559
48	0xbe556048	-0.2083751
49	0x3da660c5	0.08123926
50	0x3e792c26	0.24333248
51	0xbdbe75ba	-0.09299798
52	0x3e5e410f	0.21704505
53	0x3e622cd1	0.22087409
54	0x3e1dd1c2	0.15412048
55	0x3e278f7c	0.16363329
56	0xbe0c3149	-0.13690676
57	0xbe0e13dc	-0.13874763
58	0x3de880fe	0.11352728
59	0x3dee0d95	0.11623684
60	0x3e429c29	0.19004883
61	0x3e86b6da	0.2631138
62	0x3da50890	0.08058274
63	0xb9ead674	-0.00044791738
64	0x3e2942da	0.16529408
65	0x3e54ec44	0.20793253
66	0x3e167263	0.14692073
67	0x3afb2848	0.0019161785
68	0x3e521ba6	0.2051836
69	0xbc6d8eb3	-0.014499354
70	0x3e7508ed	0.23929186
71	0xbd99cd54	-0.07509866
72	0x3e4248b8	0.18973053
73	0xbdc4d01a	-0.09610005
74	0x3dbc0b2c	0.09181818
75	0x3e64ecc3	0.22355942
76	0x3ed83564	0.42228234
77	0x3e387e15	0.18016846
78	0x3e24aa6b	0.16080634
79	0x3e52a9f9	0.20572652
80	0x3e2c2bb5	0.16813548
81	0x3e96de09	0.29466274
82	0x3e90193b	0.2814425
83	0x3de53266	0.11191253
84	0x3e348fb9	0.17632951
85	0xbe067a9f	-0.13132714
86	0x3e566e72	0.20940569
87	0x3d95abe6	0.07308178
88	0xbc05b001	-0.008159638
89	0x3e341d57	0.17589317
90	0x3e2cbdf6	0.1686934
91	0x3e0c2d1c	0.13689083
92	0x3dcba1fe	0.09943007
93	0x3dd7c5ed	0.10535798
94	0x3e9a8113	0.301766
95	0x3e8958e0	0.2682562
96	0x3e4315f3	0.19051342
97	0x3e2e2dd7	0.17009674
98	0x3d20c89f	0.039253827
99	0x3eb811aa	0.35950977
100	0xbe171dc0	-0.14757442
101	0x3e91da22	0.28486735
102	0x3ea5f74c	0.32415235
103	0xbe4d51d3	-0.20050745
104	0xbd904218	-0.070438564
105	0x3e26ec69	0.16301121
106	0x3e4d5074	0.20050222
107	0xbdc94579	-0.09827704
108	0x3e7f9650	0.24959683
109	0x3dc4233f	0.09577035
110	0x3ea416b0	0.3204856
111	0x3e8b6336	0.2722413
112	0x3e396204	0.18103796
113	0x3ea0b0f8	0.31385016
114	0x3e18ff01	0.14941026
115	0x3e67b3b5	0.22627147
116	0x3e4c2da6	0.19939288
117	0x3d92f028	0.071747124
118	0xbd9ea90c	-0.07747087
119	0x3c31bfd1	0.010848955
120	0x3e99cc72	0.30038792
121	0x3ddcb7b3	0.10777225
122	0x3e64afc5	0.22332676
123	0x3e09c20b	0.13452928
124	0x3e4d0736	0.20022282
125	0xbe04ebf9	-0.12980641
126	0x3e8fa8b0	0.28058386
127	0x3e63b886	0.22238359
