TDQN/MicroGrid/TDQN(改进)+SA+buffer/model/actor_model.ckpt (torch, 95812 bytes, 11 tensors)

lstm.weight_ih_l0 f4 [96, 1]
000000 18 7b 1a 3e 93 68 4d be 90 ac 34 3e 68 a1 e9 bc
       0.15086019 -0.20059423 0.17643952 -0.028519347
000010 58 ac 88 3d 48 95 9a 3c 44 ed 02 3e f0 cf 5b 3d
       0.06673497 0.018870011 0.12785822 0.0536651
000020 64 98 1c be 64 03 84 bd 20 35 84 3d 44 1e ec bd
       -0.15292507 -0.06445959 0.06455445 -0.1152921
000030 d0 0e 78 3d 87 64 3a be b4 b7 a3 3d 64 f0 94 bd
       0.060561 -0.1820241 0.07994023 -0.072724134
000040 6c ba 40 3e 8a 5f 3e 3e fe 36 c2 bd e0 da c4 bc
       0.18821114 0.18591133 -0.09483145 -0.024030149
000050 24 ff 2d 3e 2e 8e 83 bd 09 e2 27 be 6e 4e 3a be
       0.1699186 -0.06423603 -0.1639482 -0.18193981
000060 08 ab 45 3d 4a 6f b1 bd 86 b4 3b be d8 f4 02 3e
       0.04825881 -0.08663805 -0.18330583 0.12788713
000070 50 e6 9a 3d 54 fe 14 be 3a 7a 30 3e bd 09 be bd
       0.0756346 -0.14550143 0.17234126 -0.09279201
000080 58 ac 99 3c a4 0b 23 bd 10 93 de bd 1e a3 25 3e
       0.018758938 -0.039806023 -0.10867894 0.16175506
000090 d9 8e a5 bd 54 9d 50 3e d2 80 18 3e 20 6b f3 bd
       -0.08083887 0.20372516 0.14892891 -0.11885667
0000a0 50 11 49 3d 04 75 97 bd 78 cf fe bd f0 38 1d be
       0.049088776 -0.07395366 -0.12441915 -0.15353751
0000b0 a0 b3 f0 bb e0 26 4d bd 44 08 08 3e 00 b2 96 bb
       -0.0073456317 -0.050085902 0.13284403 -0.004598856
0000c0 98 67 c5 3d 0a 4a 1f be c2 f8 cf bd 40 38 49 3d
       0.096388996 -0.15555587 -0.10154869 0.04912591
0000d0 55 ef c1 bd 00 1f 1d 3c 70 ed 48 3c 24 99 9f 3d
       -0.09469477 0.0095899105 0.012263641 0.07792881
0000e0 39 99 e3 bd aa db 07 3e 30 55 46 3d f0 90 6f 3d
       -0.11113209 0.13267389 0.048421085 0.058487833
0000f0 34 70 ce bd dc 4b f9 3d 48 4f 2c 3d 14 33 87 bd
       -0.10079995 0.12172672 0.042067796 -0.06601539
000100 b8 cf a8 3d 5a 0e 8e bd a0 86 f9 bd e0 3e 6e bd
       0.08242744 -0.06936331 -0.12183881 -0.05816543
000110 aa 89 0c be 98 9f 7d 3d 72 ac 85 bd ee 67 3a be
       -0.1372439 0.06191978 -0.06527032 -0.18203709
000120 e7 68 3d be 20 4b ed bb 24 06 0b 3e 4c 05 1c be
       -0.18497048 -0.0072416216 0.13576561 -0.15236396
000130 24 69 0e 3d d8 18 35 be 0a 4c 1b 3e 96 2f 47 be
       0.03476824 -0.17685258 0.15165725 -0.19451746
000140 6d 15 22 be 48 97 0b bd 1c a3 ab 3d 48 d3 a2 3d
       -0.15828486 -0.03407982 0.0838072 0.07950455
000150 4c 66 d1 3d d0 58 77 3c 80 33 d7 bd 04 90 a0 3d
       0.1022459 0.015096858 -0.1050787 0.07839969
000160 88 50 6e 3d c7 14 16 be 20 52 31 bd bc 76 3c bd
       0.05818227 -0.14656363 -0.04329121 -0.04601167
000170 8a b5 ca bd da 37 16 3e d1 3f 1f be b4 57 f8 bd
       -0.09897907 0.14669743 -0.15551688 -0.12126103

lstm.weight_hh_l0 f4 [96, 24]
000000 c8 ae b4 3d 30 44 19 bd 20 03 16 3d 40 36 33 3c
       0.088223994 -0.037418544 0.036624074 0.010938227
000010 a1 ee 11 be 18 cc 1a be a4 ed 4f 3e 16 65 42 be
       -0.14251186 -0.15116918 0.20305496 -0.18983874
000020 84 ee 10 3e 18 00 62 3d 2c 84 1b 3d fe a9 13 be
       0.14153486 0.05517587 0.037967846 -0.14420316
000030 74 60 c0 3d a0 b4 14 be 5e f4 23 be 20 40 04 be
       0.09393397 -0.14522028 -0.16011187 -0.12915087
000040 42 57 1d 3e 68 0a a0 bd 92 e8 e1 bd 1d ce e5 bd
       0.15365317 -0.07814485 -0.110306874 -0.112209536
000050 f4 86 b3 3d 18 ea 4c be f0 10 3c 3d 64 a2 f3 3d
       0.08765975 -0.20011175 0.04591459 0.11896208
000060 c0 1a ab 3d 54 20 b1 3d e8 41 5b 3d c0 46 3e bc
       0.083547115 0.08648744 0.05352965 -0.011613548
000070 e4 d6 dc bd 40 9b 9e bd 61 92 03 be ca fa 42 3e
       -0.10783175 -0.07744455 -0.12848808 0.19040981
000080 30 0a 7a 3c f4 bf 74 bd 9e 99 06 3e d4 0f 80 3d
       0.015261218 -0.059753373 0.13144538 0.06253019
000090 e2 b2 24 be 28 aa 72 bd d0 f6 2e 3e 68 5e b2 bc
       -0.16083863 -0.059244305 0.17086339 -0.021773532
0000a0 52 86 36 be d8 47 ef 3d 7c 48 d1 3d 79 ee 40 be
       -0.17824677 0.11683625 0.102189034 -0.1884097
0000b0 8f 7e 3b be e8 70 0a bd e7 ca c8 bd ff 5b f2 bd
       -0.18309997 -0.033799082 -0.098043256 -0.11833953
0000c0 30 b8 01 bd 22 be 01 3e fc 38 d2 3d 52 51 47 3e
       -0.031669796 0.12670186 0.10264775 0.19464615
0000d0 40 c0 f3 3c c4 74 1d 3e 40 c5 f5 bd 04 d8 32 3e
       0.029754758 0.15376574 -0.12000513 0.17465216
0000e0 36 c3 05 3e a0 3e d1 bb f0 f7 a7 3c 96 95 33 be
       0.13062748 -0.0063856393 0.020503968 -0.17537531
0000f0 b0 12 8e 3d c2 70 87 bd 8c cb 23 be 92 e6 26 be
       0.06937158 -0.06613304 -0.15995616 -0.16298893
000100 04 42 3d 3e 56 d0 92 bd e6 c2 4e 3e 5c 79 9c bd
       0.18482214 -0.07168643 0.20191535 -0.07640335
000110 f8 79 ab 3d 6e 3c 98 bd fe a7 21 be d0 f7 11 3c
       0.08372873 -0.07433401 -0.1578674 0.008909181
000120 60 7e 23 bd ce 9d 0b 3e 04 2f df 3d 0c 15 4f be
       -0.039915442 0.13634416 0.108976394 -0.20222872
000130 0c ce ca 3d 20 96 1f 3e 74 36 07 be 54 2b 5b bd
       0.099025816 0.15584612 -0.13204366 -0.053508118
000140 88 3e 59 3d 86 07 2c be 10 42 34 bd f4 e8 a3 3d
       0.05303815 -0.16799745 -0.044008315 0.08003417
000150 f3 58 f1 bd ec bb 1a bd e8 82 f6 3d 60 19 a0 3c
       -0.11784544 -0.037776873 0.12036687 0.01954335
000160 d8 b7 a7 bd 04 6a ac 3d 2c 43 56 bd d8 b3 43 3d
       -0.08189362 0.084186584 -0.052310154 0.047778934
000170 da 94 21 be 60 9f 89 3b 4a a1 15 be fc 3a 4c 3e
       -0.15779439 0.004199907 -0.14612308 0.19944376
000180 60 38 a4 bc 6c bb ca bd 18 d9 2a 3e f8 43 5a bd
       -0.020046413 -0.09899029 0.16684377 -0.053287476
000190 44 69 45 3e a0 df 7f 3c 04 e9 dc 3d 2e 4f 4e be
       0.19278437 0.015617281 0.10786632 -0.20147392
0001a0 f0 a9 21 3c 10 d5 40 bc 62 75 0e 3e 58 c2 e5 3d
       0.009867176 -0.011769548 0.13911965 0.11218709
0001b0 88 df 41 bd 14 c2 29 3e 54 a4 80 bd 40 b9 62 3d
       -0.047332317 0.16577941 -0.06281343 0.05535245
0001c0 f4 a3 d2 3d d1 45 07 be d6 8d 27 3e e4 c2 a7 bd
       0.10285178 -0.13210227 0.163627 -0.08191469
0001d0 70 a3 f5 3d 07 5f 48 be d3 6a 43 be fc e8 bc 3d
       0.11994064 -0.195675 -0.19083719 0.09224126
0001e0 2e 6a 41 be 5c 8e 8a 3d b0 1c 5c bc bc fe dc 3d
       -0.1888816 0.06765434 -0.013434574 0.10790774
0001f0 d0 ba 54 3d fc bb 46 bd a7 c6 26 be 84 df ae 3d
       0.05193597 -0.04851912 -0.16286717 0.08538726
000200 e9 a8 fc bd c1 53 e5 bd 54 9b ad 3d f4 e0 0a 3e
       -0.123369046 -0.111976154 0.08476892 0.13562375
000210 84 ba 47 3e bb de 4d be 6c cc 8a 3d 34 54 18 bd
       0.19504744 -0.20104496 0.06777272 -0.037189677
000220 18 7e cc 3d a4 25 37 be e0 34 ec bc ac e7 c8 3d
       0.09984988 -0.17885453 -0.028833807 0.09809813
000230 c4 2f 6d bd b0 ff 48 bc e9 37 17 be ca 7d 45 be
       -0.05790688 -0.012267992 -0.14767422 -0.19286266
000240 24 00 cb 3d 20 40 95 bc b2 62 8e bd fe 51 19 be
       0.09912136 -0.018219054 -0.069524184 -0.14972684
000250 38 16 7f 3d b4 66 00 bd 0e cf 2a 3e 92 32 a5 bd
       0.06227705 -0.031347945 0.16680548 -0.08066286
000260 d0 8a 3c 3d ec 4d 99 3d 78 fd e7 3c 94 b7 77 bd
       0.04603082 0.074855655 0.028319106 -0.060477808
000270 f2 35 de bd ce 9f a0 bd 0e b3 44 be 46 c5 1f 3e
       -0.10850133 -0.0784298 -0.19208929 0.15602598
000280 70 80 c6 3d 94 6f 4e 3e 75 fe da bd 80 45 2c 3e
       0.09692466 0.20159751 -0.10693065 0.16823387
000290 70 dc af bc f0 0b ae bd d8 63 aa 3d 10 84 79 bc
       -0.021467417 -0.08498371 0.08319825 -0.01522924
0002a0 50 0d 48 3c 58 37 4e 3e e4 05 c2 3d 65 6f e2 bd
       0.012210205 0.201383 0.0947378 -0.11056403
0002b0 50 c6 a6 bd 42 9b af bd e8 94 de bc d0 e8 83 3c
       -0.08143294 -0.08574535 -0.027170613 0.016102225
0002c0 7c 7c f2 3d 74 cc a6 3d 44 c7 e6 3d 60 dd 4f 3e
       0.1184015 0.08144465 0.11268476 0.20299292
0002d0 82 37 23 be e6 87 89 bd 72 99 15 3e 86 c2 17 3e
       -0.15939143 -0.06715374 0.14609316 0.14820299
0002e0 90 52 b8 bc 78 4e ff 3d 63 00 2c be 70 f9 1e bd
       -0.022500306 0.124661386 -0.16797023 -0.0388121
0002f0 a1 74 37 be d8 cb 3d bd 11 40 3e be 82 0d b8 bd
       -0.17915584 -0.04633698 -0.18579127 -0.089869514
000300 60 ed 98 bc d4 b6 9d 3d c8 7e 0d bd fb d7 c3 bd
       -0.018667877 0.07700887 -0.034544736 -0.095626794
000310 63 b8 b7 bd c4 c0 34 be 08 51 f9 bc f8 8a 0f 3e
       -0.08970716 -0.17651659 -0.030434147 0.14017856
000320 e8 77 03 bd 01 01 4e be 5c ef c0 3d 48 a5 60 3d
       -0.032096773 -0.2011757 0.09420654 0.054845124
000330 89 6c c3 bd 26 c4 89 bd 60 89 38 3d 08 6c 3e 3d
       -0.09542186 -0.067268655 0.045052886 0.046489745
000340 ca 56 32 be 50 03 e1 bc ec cf 12 3d 58 09 1f 3e
       -0.1741592 -0.0274674 0.03584282 0.15530908
000350 88 d3 4e bd 38 b4 6c 3d 18 40 e5 3c 1c 5d 33 bd
       -0.0504947 0.057789057 0.027984664 -0.043789968
000360 fc a3 c0 3d 00 92 f5 3c 2c 3e db 3d e0 ab 30 3c
       0.094062775 0.029976845 0.10705218 0.010783166
000370 d5 eb 25 be 3b d6 4d be 04 23 8d 3d e0 b8 da 3d
       -0.16203244 -0.20101254 0.06891444 0.10679793
000380 68 20 a0 bd e8 af cf bc b8 9e db 3d 2f eb a2 bd
       -0.07818681 -0.025352433 0.107236326 -0.07955014
000390 b6 5f 18 3e fc 61 10 bd 60 ee 1a 3d 9e 50 47 3e
       0.14880261 -0.035249695 0.03782499 0.19464347
0003a0 60 6d f8 bc a4 0c b5 3d c4 0f 02 3e 88 aa d5 3c
       -0.030325592 0.08840302 0.12701327 0.026082292
0003b0 c4 27 7b bd 58 bb 43 be a4 0e 29 be 0e 48 2a 3e
       -0.06131722 -0.19114435 -0.16509491 0.16629049
0003c0 84 36 4d be 1e 8e 2e 3e 36 3d 44 3e ee c9 42 be
       -0.20040327 0.17046401 0.19163975 -0.19022343
0003d0 90 4c 4d bc 96 6c 9f bd a0 c2 6b 3d b4 52 32 bd
       -0.012530461 -0.07784383 0.057558656 -0.043535903
0003e0 60 a8 c5 3b 52 5e 14 3e cb f7 30 be 52 ef e0 bd
       0.0060320348 0.14489105 -0.17282026 -0.10983147
0003f0 f0 f1 be 3d 64 06 a8 3d 45 8d 31 be 00 93 72 ba
       0.0932349 0.08204344 -0.17339046 -0.0009253472

lstm.bias_ih_l0 f4 [96]
000000 a0 d2 91 3b 7b f9 18 be 28 71 2b 3e 36 42 36 3e
       0.0044501573 -0.14938919 0.16742384 0.17798695
000010 c4 d5 7f bd 46 ca 2e be fb 68 fc bd ae 99 e9 bd
       -0.062459722 -0.17069349 -0.12324711 -0.11406265
000020 7d 80 a3 bd f0 16 07 be 58 90 a8 3d 80 0a 78 bb
       -0.079834916 -0.13192344 0.082306564 -0.0037848055
000030 34 8c 30 3d 73 b8 4e be 1e c9 39 3e 90 75 3a 3d
       0.043102458 -0.2018755 0.18143126 0.045522273
000040 26 4e 0c 3e b2 f9 39 be 74 7f 39 3e 52 bb 4f 3e
       0.13701686 -0.18161657 0.18115026 0.20286301
000050 80 df 08 be c4 5f 3e bd 18 b5 11 bd 40 bc ea bd
       -0.13366508 -0.046478048 -0.035573095 -0.11461687
000060 e8 7c 3b 3e 00 72 a1 3c e8 6e 05 bd a0 18 c0 bc
       0.18309367 0.01970768 -0.03257647 -0.023449242
000070 28 39 e8 bd 90 e8 33 3e fe ef 14 be 5c 29 09 3d
       -0.11339027 0.17569184 -0.14544675 0.03348671
000080 aa 03 49 3e 30 01 15 3e 80 c9 44 3b 28 74 17 3e
       0.19630304 0.14551234 0.003002733 0.14790404
000090 3a 1b 06 be c0 a5 3f be 40 f5 e1 3c e8 22 18 3d
       -0.13096324 -0.18715572 0.027582765 0.037142664
0000a0 00 54 dd 3d 60 c1 6b 3d 64 11 b0 3d e8 0e fb 3d
       0.10807037 0.057557464 0.08597067 0.122587025
0000b0 72 34 05 3e 2c 60 32 3e 0c 71 21 bd 92 dd 40 3e
       0.13008288 0.17419499 -0.03941445 0.18834522
0000c0 3f ce 41 be 0c 37 be 3d 79 35 49 be cc 91 1f 3e
       -0.18926333 0.09287843 -0.19649304 0.15582961
0000d0 58 5f 16 bd d0 57 33 3c 98 8e d6 bd 68 81 88 3c
       -0.03671202 0.010946229 -0.10476416 0.016663268
0000e0 a6 74 1c be 30 c2 d4 3d 60 1f 94 3b 52 a2 9a bd
       -0.15278873 0.10388601 0.0045203418 -0.075504914
0000f0 97 1a 2a be 52 76 2a be ec 83 09 be ec 11 1c be
       -0.16611706 -0.16646698 -0.1342923 -0.15241212
000100 c8 88 fe 3d 18 1d 00 3d 04 bc e4 3d 84 b1 d1 bd
       0.12428433 0.031277746 0.11168674 -0.102389365
000110 10 9d 80 3d 30 92 0c 3c af f5 f8 bd 9c 35 b9 3d
       0.06279957 0.008579776 -0.121562354 0.09043428
000120 10 c8 0f 3e c2 e7 32 be 80 28 c6 bd 68 ba f6 bc
       0.14041162 -0.17471221 -0.096756935 -0.030118182
000130 e8 28 b7 bc 53 ba c0 bd ea 3c e5 bd ee 4e 4c be
       -0.022358373 -0.094105385 -0.11193259 -0.19951984
000140 74 bf 3c 3e 5a a8 c8 bd a4 3e 63 bd 3a b9 13 3e
       0.18432409 -0.097977355 -0.05547966 0.14426127
000150 24 30 b4 bd 18 d5 e2 bc 14 03 13 3d 14 5e 39 3e
       -0.087982446 -0.027689502 0.035891607 0.18102294
000160 8e cc 41 3e 84 e7 84 3d a3 10 3d be cf 20 d4 bd
       0.18925688 0.064894706 -0.18463378 -0.1035782
000170 60 3a 10 3c a0 03 4d be 94 60 44 be ab 5f 35 be
       0.00880298 -0.20020914 -0.19177467 -0.17712276

lstm.bias_hh_l0 f4 [96]
000000 80 9f 0a 3b aa 8e 2d 3e 65 ee 01 be 5c 6f 03 bd
       0.0021152198 0.16948953 -0.12688597 -0.032088622
000010 e8 6e a9 3d 9e 94 c8 bd 40 7a c4 bb e1 7b c8 bd
       0.08273107 -0.097939715 -0.0059960186 -0.09789253
000020 a4 fc 36 3e d0 c4 bf 3d b0 bf bf bd 5f 20 fe bd
       0.17869812 0.09363711 -0.09362733 -0.12408518
000030 6c 0d 2d bd 54 76 ab 3d 20 34 b3 bd 74 ac cc 3d
       -0.04224913 0.08372179 -0.087501764 0.0999383
000040 22 0c 4d be e0 04 3c be e2 ad 98 bd e0 48 53 bd
       -0.2002416 -0.18361235 -0.074550405 -0.05158317
000050 2e fc 05 3e c8 d2 70 3d 84 b9 43 be d4 19 2d be
       0.1308448 0.058794767 -0.19113737 -0.16904384
000060 3e 64 21 3e 2e 85 43 3e 18 ab 7f 3d 8a 92 bf bd
       0.15760896 0.19093773 0.062419027 -0.09354122
000070 f2 0a 48 3e 10 35 2d 3c aa 00 0d be 62 fe de bd
       0.19535425 0.010571733 -0.13769785 -0.108883634
000080 88 33 2f be d0 5b 24 3d 90 68 d7 3d b8 0b ba bc
       -0.17109501 0.04012662 0.105179906 -0.022710666
000090 af f4 1f be f0 8c 0b bd 50 68 e2 bd 0f ea 43 be
       -0.15620683 -0.034069955 -0.11055052 -0.19132255
0000a0 50 93 5f bc 51 f3 22 be 67 f2 c3 bd d0 38 0f bd
       -0.013645962 -0.1591313 -0.09567719 -0.03496629
0000b0 ea 54 13 be ac 2e a0 3d 10 35 60 bc 10 be cc 3d
       -0.14387861 0.07821402 -0.013684526 0.09997189
0000c0 77 16 ee bd ca 18 02 3e b2 ad 49 be d3 3e 45 be
       -0.116253786 0.12704769 -0.19695166 -0.19262247
0000d0 36 f4 c4 bd b2 8c 10 be e8 b7 dd 3d 84 ed f1 3d
       -0.09616892 -0.14116171 0.10826093 0.11812881
0000e0 cc 2e 3d be 30 bf 3e 3d 0c c7 41 bd 96 07 4b 3e
       -0.18474883 0.04656905 -0.047308967 0.19827113
0000f0 33 1e 41 be 06 22 1f 3e 14 a3 98 3d d8 67 c1 bd
       -0.18859176 0.15540323 0.0745298 -0.09443635
000100 10 4a 54 3d f0 ac d8 3d 12 f5 03 3e 1f 59 cf bd
       0.051828444 0.1057986 0.12886456 -0.101244204
000110 63 bd 15 be 00 10 34 bc d0 4e 0a bd 5c 00 1d 3d
       -0.14623027 -0.010990143 -0.033766568 0.03833042
000120 20 f4 4a 3c 0c c3 2a bd 74 89 24 bd 17 15 34 be
       0.0123873055 -0.041689917 -0.040170148 -0.1758617
000130 14 15 91 3d c7 90 ad bd 44 89 4c be 30 a7 ad 3c
       0.070840985 -0.0847488 -0.19974238 0.021197885
000140 e0 1d f9 3b d0 06 d6 bd 30 74 38 be 41 fb cd bd
       0.0076024383 -0.10450518 -0.18013072 -0.100576885
000150 ee ac 09 3e 9c 6f e2 bd ad 0d 30 be 56 72 96 bd
       0.13444874 -0.11056444 -0.17192717 -0.073460266
000160 ea 41 15 3e 1a 7c 28 be d8 9b 6b 3d 04 03 57 bd
       0.14575925 -0.16453591 0.05752167 -0.05249311
000170 d6 9e 4c 3e c0 ba 61 bb bc 0b b1 3d dc f3 39 be
       0.19982466 -0.0034443587 0.08644816 -0.18159431

linear1.weight f4 [128, 27]
000000 dd c1 d2 3d 1d ea 25 3d 01 cf b1 bd bc 63 87 bd
       0.10290883 0.04050647 -0.08682061 -0.0661082
000010 70 6e 18 be 65 e2 37 be 39 55 92 3c ac 7e 4f be
       -0.14885879 -0.17957456 0.017862903 -0.20263165
000020 dd 86 a4 3d c1 53 88 3c d1 55 16 be a9 1e a7 bc
       0.08033536 0.0166415 -0.14681174 -0.020400362
000030 a5 6a 2d 3e bf a1 52 3e 5b 83 2c 3e 76 bf ad bd
       0.16935213 0.20569514 0.16846983 -0.08483784
000040 13 5f 53 3d 7c 7c 66 3d c1 58 27 be 08 f4 16 3d
       0.05160434 0.05627106 -0.1634245 0.03685382
000050 ea c5 10 3e 8c 4c b6 bd 55 8a 30 3c c7 3a 5d 3e
       0.14137998 -0.08901319 0.010775168 0.21604453
000060 73 ca f3 3b 89 d0 27 3e a7 88 8f bc 0d 08 87 bd
       0.0074399053 0.16388144 -0.017521216 -0.065933324
000070 0b 96 64 3e 02 ca c8 3d d6 3d 22 3e 7f 3a 93 bc
       0.22322862 0.09804155 0.15843901 -0.017972229
000080 53 e2 0f 3e b7 b7 aa 3d 51 3d b2 bd 73 16 fc bd
       0.1405118 0.08335822 -0.087031014 -0.12308969
000090 ac f2 f1 bc 96 06 87 3c 95 88 f1 3b 10 c4 9e bc
       -0.02953466 0.016482633 0.007371018 -0.0193806
0000a0 7b 63 f7 bd e5 70 c2 bd d0 5c 3e 3e cc ff f4 bd
       -0.12079521 -0.09494189 0.18590093 -0.11962852
0000b0 bd 39 30 3e 55 46 84 bd 77 41 9f 3d f4 76 d0 3d
       0.17209525 -0.06458727 0.07776158 0.101789385
0000c0 a7 64 31 3e 86 8b 00 3d 43 61 9f 3d d4 f2 1c 3d
       0.17323552 0.03138306 0.07782223 0.038317516
0000d0 17 b1 15 bd a9 bb 7a bd 3d 83 b3 bd 62 da 18 3d
       -0.03654584 -0.061214123 -0.08765266 0.03731764
0000e0 83 0b 1e 3e 2c aa 3b be 99 77 90 3d 3c 28 22 bc
       0.15434079 -0.18326634 0.070540614 -0.009897288
0000f0 fd 8d 00 be a6 8c 08 be fc 58 0e 3e 10 79 1e 3d
       -0.12554164 -0.13334903 0.13901132 0.038689673
000100 a8 5b c7 3d b7 e5 9e 3d 38 15 99 bd 8a d5 08 3e
       0.09734279 0.077586584 -0.0747475 0.13362709
000110 1d 02 a0 3d 19 5b 05 be 3b 36 49 3d 49 26 14 be
       0.07812903 -0.13023032 0.049123984 -0.1446773
000120 41 82 86 bd 43 d7 5f be 31 6f e8 bd 77 ad b3 3d
       -0.06567813 -0.2185946 -0.11349333 0.0877332
000130 e5 61 4d 3e 25 c1 4f 3b 99 e4 a4 3d a9 63 2b be
       0.20056875 0.0031700816 0.08051414 -0.16737236
000140 83 c0 2e 3e c0 20 d7 bd 29 5f ea 3d da 58 aa 3d
       0.17065625 -0.105042934 0.114439316 0.08317728
000150 da ae 93 bd 3c d8 fc bb 68 6a 43 be 30 5d f5 3d
       -0.07211085 -0.007716207 -0.1908356 0.11980665
000160 93 b9 b0 bd f0 f4 07 be 71 4f 17 3d e5 c7 02 be
       -0.086291455 -0.1327703 0.036940996 -0.12771566
000170 60 b1 78 3d da b1 b3 bd 7f dc 2d bc 97 e7 fc 3c
       0.060716033 -0.08774157 -0.010611652 0.03087215
000180 ed 5b 53 be b7 8d bf bd b6 5a 17 3e 8b b4 8c bc
       -0.20640536 -0.09353202 0.14780697 -0.017175933
000190 29 ea 0c bd c9 c5 9e 3a 69 30 b8 bd d2 56 41 be
       -0.034403 0.0012113388 -0.089936085 -0.18880776
0001a0 fc cc 42 ba 05 8b 06 3e e3 88 16 3e 03 20 06 be
       -0.0007431058 0.13138969 0.14700656 -0.13098149
0001b0 07 56 62 3c 48 0e 30 3e 20 d3 14 3e f7 9b 2c 3d
       0.013814456 0.17192948 0.14533663 0.042140927
0001c0 44 fb 8a bd d5 47 2b bd 1f 0b 31 bd 3c 9f 00 3e
       -0.06786206 -0.04181655 -0.043223497 0.12560743
0001d0 db bd 8c 3c 05 54 30 bd 9b e0 be bd 3e 84 0d bd
       0.017180374 -0.043048877 -0.09320184 -0.034549944
0001e0 09 2e fe bd ef 68 97 bd 98 b4 a5 3d 2f e7 0e 3e
       -0.12411124 -0.07393061 0.08091086 0.13955377
0001f0 15 72 06 bd 66 56 1a 3e e2 23 b5 3c 23 d3 1d be
       -0.03282364 0.15072021 0.022111837 -0.15412574
000200 0f 78 67 bc f9 41 a9 3b 44 37 fd 3d 70 99 a0 3b
       -0.014127745 0.0051653353 0.12364057 0.0049011037
000210 b7 48 ea 3d 8c df fa bb 5f 26 60 be 74 da 76 3d
       0.114396505 -0.0076560434 -0.21889637 0.060266927
000220 fa c1 ae 3d f6 69 ff 3d 29 94 d6 bd a7 e7 1d 3e
       0.08533092 0.12471382 -0.10477478 0.154204
000230 48 97 93 bc a5 f9 1c 3e 30 ef 92 3c 90 86 8e bc
       -0.018016472 0.15329607 0.01793632 -0.017398149
000240 f0 4c ce bc d2 d4 85 bd 9d ba 9d bd 7b 24 19 3e
       -0.025183171 -0.06534733 -0.07701609 0.14955322
000250 28 ce 1d 3d b0 59 d7 3c 84 e1 76 3d 0e 9b b2 3d
       0.038526684 0.026287884 0.060273662 0.087209806
000260 55 d2 26 3e e4 6b 0d be e0 0c 2c bc ac b1 a5 bd
       0.16291173 -0.13810688 -0.0105011165 -0.08090529
000270 9e cf d4 3d 5e 40 f3 3d 10 5e 42 3c ac c3 a6 bd
       0.10391162 0.118775114 0.011863247 -0.0814279
000280 34 50 37 be ba a5 a3 3d 7d f3 a2 3c e9 26 26 3e
       -0.17901689 0.07990594 0.019891495 0.1622578
000290 72 3a e5 bd 9e 90 d5 3d b0 bd 1c bd e6 f4 f3 3d
       -0.11192788 0.10427974 -0.038266838 0.11911945
0002a0 44 29 f5 bd 07 47 10 3d c7 7d 2e bd b8 7c 04 bd
       -0.119707614 0.035223987 -0.04260042 -0.032345504
0002b0 4d 7b 2a be b5 44 5e bd 69 4c 04 3e 56 e8 9b bd
       -0.16648598 -0.054264743 0.12919773 -0.07612674
0002c0 de ef 09 bc 47 77 06 3e df 52 f2 bd ce 47 b7 bd
       -0.008419005 0.13131438 -0.11832213 -0.089492425
0002d0 b1 f4 fd 3d 4f e4 ce bd b7 e3 85 3d c1 0a 22 3e
       0.12400187 -0.1010214 0.06537574 0.15824415
0002e0 96 0c 54 3a 87 81 1d be e5 8c 35 be 70 7a c1 3d
       0.00080890337 -0.15381442 -0.17729528 0.09447181
0002f0 88 16 84 be c9 aa 0c 3e 13 66 1d 3e 27 23 20 be
       -0.2579844 0.13737024 0.1537097 -0.1563841
000300 c9 d9 1f 3e d0 71 a3 bd 66 b9 b2 bd d4 41 2b be
       0.15610422 -0.079806924 -0.08726768 -0.1672433
000310 52 6d e6 bd cc d3 04 bd 9e 44 c5 3d e1 12 16 be
       -0.1125132 -0.032428548 0.09632228 -0.14655639
000320 64 e2 47 3d b8 14 9e bd 0d 95 40 3e 00 48 cb 38
       0.048799887 -0.077187955 0.18806858 9.693205e-05
000330 f9 63 31 be 1a 2d d4 bd 1d 97 35 be 3d 3f 8e bd
       -0.17323293 -0.10360165 -0.17733426 -0.069456555
000340 c4 45 1b bd 00 20 f2 bc 5d 18 26 be 1b f3 f0 bd
       -0.03790833 -0.029556274 -0.16220231 -0.11765119
000350 5d 3d 1c 3e f0 14 28 3c 6a 65 06 be b8 a8 8d bd
       0.15257783 0.010258898 -0.13124624 -0.06916946
000360 87 d4 e8 3b 07 4b 1b bb a7 3e a5 3c 08 56 19 3d
       0.0071054134 -0.0023695843 0.020171477 0.03743556
000370 d0 d3 22 3e a7 ad 34 3d 9c 15 94 bd 6a 45 3d bd
       0.15901113 0.04411092 -0.07230684 -0.046208777
000380 9f 20 31 be 4a 65 1a be 20 5c 53 bd 6b 99 0a be
       -0.172976 -0.15077701 -0.05160153 -0.13535087
000390 e0 15 2a be 05 1d 83 bc 00 c0 b9 3d 57 31 f1 3d
       -0.16609907 -0.016005049 0.09069824 0.11776989
0003a0 a8 82 0b bd ac 99 b1 3d 71 fb 6c 3d 46 62 13 3e
       -0.03406015 0.08671889 0.05785698 0.14392957
0003b0 e7 0b fa 3d 83 48 0b 3e 83 71 4a be a6 0f 69 bd
       0.122093014 0.1360188 -0.19769864 -0.05689969
0003c0 56 98 23 be 18 fb 31 3e 4b 2a ae bd 51 0d af 3d
       -0.1597608 0.17380941 -0.085041605 0.08547462
0003d0 4a 84 80 bd bb a9 5e 3e 94 f3 88 3c 5e a6 25 3e
       -0.06275232 0.21744435 0.01671771 0.16176745
0003e0 69 d0 98 bd ea 2a 69 bd 8e 98 a1 bd 49 2f 19 bb
       -0.07461626 -0.05692569 -0.078904256 -0.0023374131
0003f0 c0 81 f9 bd 30 fe ea bd 69 ca 97 3d a4 73 35 3d
       -0.12182951 -0.11474264 0.074116535 0.044299737

linear1.bias f4 [128]
000000 4d cd 3c be 26 7b 93 3d 55 27 34 be 9f 15 ba bd
       -0.18437691 0.07201223 -0.17593129 -0.09086155
000010 85 b1 73 3d 5d b8 eb bd df af 43 3b b4 fc 72 bd
       0.059495468 -0.11509774 0.0029859466 -0.059323028
000020 48 09 0c 3d cf c9 b3 3c 0c e7 eb bd 6c 41 8f bd
       0.03418854 0.021946816 -0.11518678 -0.069949
000030 23 12 f3 bd 13 ca 38 be 06 56 8f bc da b6 bf 3d
       -0.11868694 -0.18045835 -0.017497074 0.09361048
000040 40 0e 3d be 88 13 de 3d 64 dd 16 3e 07 a2 35 3e
       -0.18462467 0.10843569 0.14732891 0.1773759
000050 c9 fb e8 bd 72 c1 24 3e 05 bc 95 3d 90 9f 47 bc
       -0.11376149 0.16089419 0.073112525 -0.012184039
000060 48 ae 87 bd 9e 2b 87 bd 15 98 56 bd 51 7e 86 bd
       -0.066250384 -0.06600116 -0.05239113 -0.06567062
000070 fa 28 de 3d ed 75 03 be 02 7f 94 3d 24 20 39 3e
       0.108476594 -0.12837954 0.07250787 0.18078667
000080 80 75 02 be 68 d9 a2 bc 14 71 f4 3d 17 07 03 be
       -0.12740135 -0.019879058 0.119356304 -0.12795673
000090 d3 ee d0 3d be 98 2a 3e 0b 2b 19 3e de 5f d7 3d
       0.10201802 0.16659829 0.14957826 0.10516332
0000a0 26 6e e6 3d 41 9f 12 3e 4a 24 bd 3d 77 bc 20 bc
       0.11251478 0.14318563 0.09235437 -0.0098105585
0000b0 17 ad 16 bc ca 2d c5 3d 55 91 16 3e 38 16 56 3d
       -0.009196541 0.09627874 0.14703877 0.052267283
0000c0 38 b5 94 3c 27 f4 29 be b1 67 3a 3d 38 74 13 bd
       0.018152818 -0.16597043 0.045509044 -0.035999507
0000d0 e2 8f 35 3e 9b 81 3a 3e bd 67 8f bd 05 a0 0e 3d
       0.17730668 0.18213503 -0.070022084 0.034820575
0000e0 50 64 26 be d8 80 f4 3c 0c 8b 18 3e cc d8 2d be
       -0.16249204 0.029846594 0.14896792 -0.16977233
0000f0 13 03 06 3e 31 c3 d9 3d 78 f1 17 be a6 30 33 be
       0.1308711 0.10632933 -0.14838207 -0.17499027
000100 5c 95 a3 bd 7f 7f 2e bc 17 ce 3c 3e a7 07 35 be
       -0.079874724 -0.010650515 0.18437992 -0.176787
000110 ee 37 e9 3d ea c9 ee bc 0d 34 56 3e 48 b1 18 3d
       0.11387621 -0.029149015 0.20918293 0.037278444
000120 e8 39 38 3e 67 1d 24 3e 53 ab e3 3d c4 e0 5a bd
       0.1799084 0.16026841 0.11116662 -0.05343701
000130 08 0d 97 bd 57 c5 14 3e 42 61 88 3d 32 c4 d1 bc
       -0.073755324 0.14528404 0.066591755 -0.025606249
000140 fc b6 22 be bb 3d 36 3e e6 bc 49 3d 61 1b f7 3d
       -0.15890115 0.17796986 0.049252413 0.12065769
000150 40 b0 62 3d 5c 4d 0b be 97 7e 4a be 68 e4 36 3e
       0.055343866 -0.13603729 -0.19774853 0.17860568
000160 51 c4 69 be 82 b2 c1 3d 95 8c ee 3d 0e f2 33 3e
       -0.22828795 0.09457876 0.11647908 0.17572805
000170 67 10 c3 bd 50 b6 64 bc 6d 4b 74 bd 6f 97 47 3d
       -0.09524613 -0.013959482 -0.059642244 0.048728403
000180 1a a0 44 be f2 95 29 3e 58 e0 06 bd 5c ae 0e 3d
       -0.19201699 0.16561106 -0.032928795 0.03483425
000190 61 c4 36 be 0b a9 81 3c d5 66 99 3c c1 17 cf 3c
       -0.1784835 0.015827676 0.018725792 0.025279881
0001a0 4c a0 d1 bc ad 0a 1e be b4 d3 02 3e 33 84 cb bd
       -0.02558913 -0.1543376 0.12776071 -0.099373244
0001b0 39 82 34 3e 87 f1 3d bd 57 fa 9c 3d d4 da 42 be
       0.17627801 -0.046372917 0.07664936 -0.19028789
0001c0 e4 58 e9 bc ec 3f af bd c8 8a 95 bc cc 8e cc bd
       -0.02848477 -0.08557114 -0.018254653 -0.09988174
0001d0 0f c8 e2 bd 6c d3 09 be ec 37 b6 3d ea b1 97 bd
       -0.110733144 -0.13459557 0.08897385 -0.07406981
0001e0 11 e3 bb 3d 84 41 c1 bd eb d7 2e 3d 70 6b f3 3d
       0.09174169 -0.09436324 0.042686384 0.118857265
0001f0 eb f2 74 39 05 3a 28 be cd df 23 bd 5e f2 2b be
       0.00023360147 -0.16428383 -0.040008355 -0.16791674

linear2.weight f4 [128, 128]
000000 b4 a8 a2 bc 24 68 b1 3d 81 c1 26 3c f1 b0 c1 b9
       -0.019855835 0.086624414 0.010177971 -0.0003694366
000010 59 f8 70 3d 27 7c 96 3d 03 11 29 3a fc 47 92 bd
       0.058830593 0.07347899 0.00064493733 -0.07142636
000020 61 37 36 bc 8b 83 aa 3d dc e1 07 3e 14 62 83 bd
       -0.011121602 0.08325871 0.13269752 -0.06415191
000030 a5 5f af 3d 7f 49 9f 3d e6 cc bf bd 59 ee b9 bd
       0.085631646 0.0777769 -0.09365253 -0.09078664
000040 b7 90 22 bd 77 4f 37 3d a8 22 87 bc e7 09 e0 3d
       -0.039688792 0.044753518 -0.016496018 0.10939389
000050 98 1d 70 3c 33 de 9f 3c 56 39 07 bd dd b8 3a bd
       0.014655493 0.019515133 -0.033013664 -0.045586456
000060 b6 02 7f 3d fe 67 4b 3d 37 12 42 bd 34 c5 57 bc
       0.062258445 0.04965972 -0.047380652 -0.0131695755
000070 a0 19 f0 3c 28 70 13 be 30 4a 49 3c cd 8e 67 3d
       0.029309094 -0.14398253 0.012285754 0.05653267
000080 c7 89 b8 3d dc 06 bc bc e7 7a ff 3d 81 b1 e4 3c
       0.09010654 -0.02295249 0.12474614 0.027916672
000090 b7 05 74 bd 5a a8 b3 3d c8 be 4a 3d 92 04 18 3d
       -0.059575763 0.08772345 0.04949835 0.037113734
0000a0 d2 bd 06 3d 9c f5 fc 3a 8c cb 5f bd 0b 27 53 bc
       0.03289587 0.0019299272 -0.054637477 -0.012887727
0000b0 d3 a3 b9 3d 5e 94 77 bd 2a 07 19 bd a3 70 99 bd
       0.0906445 -0.06044423 -0.037360348 -0.07492187
0000c0 30 ef e4 bb 2a 3b bc 3c 30 01 33 3d 2e 0d 91 bd
       -0.006986521 0.02297743 0.043702304 -0.07082592
0000d0 95 c3 60 3d c2 65 7e bd 53 05 8a bc 17 e4 ee 3d
       0.05487402 -0.062108763 -0.016848242 0.116645984
0000e0 8f 69 73 3d 13 e6 ad 3d 01 a5 92 bd 7d e2 b3 3d
       0.05942684 0.08491149 -0.07160378 0.087834336
0000f0 81 29 87 bd 21 e2 f7 bc 62 50 0e 3c 8c 4a e8 bd
       -0.06599713 -0.030259194 0.008686157 -0.11342344
000100 bd 13 c2 3d e9 13 9d bb 5e 28 1d 3d 40 a0 c1 3c
       0.09476421 -0.0047936332 0.038368575 0.023635983
000110 94 6a 06 bd d9 8b 64 3d a2 cd b0 3d 58 a1 b9 bd
       -0.032816485 0.05579743 0.08632971 -0.09063977
000120 99 d0 cf 3c 31 af cf 3c 5a 1e 85 3b 6a 5e 3e 3d
       0.025368022 0.025352092 0.004062456 0.04647676
000130 7e 77 4c 3d e5 ce 14 3c 67 0d b0 3d 9c a1 bf 3c
       0.049918644 0.009082531 0.08596306 0.023392491
000140 40 0f 8a 3b b8 75 18 bc cc cb 9f bd ab f0 4d bd
       0.0042132437 -0.00930541 -0.07802543 -0.050278347
000150 48 cd 92 bc 37 ad 80 3c 9c f3 89 3d 73 25 14 bc
       -0.017920151 0.015707595 0.06735918 -0.009042132
000160 fb 6c a2 bd 52 f6 6c 3d 1b d5 a4 bd c9 f0 aa 3d
       -0.079309426 0.057852097 -0.08048459 0.083467074
000170 5b 34 6e 3d 96 76 93 bd 59 b8 0c bd 85 c6 d6 bd
       0.0581554 -0.07200353 -0.034355495 -0.10487083
000180 28 6e 89 3d 8d 05 9a 3b 9e b8 74 3d 30 85 10 3d
       0.06710464 0.0047003687 0.059746377 0.035283267
000190 ea f3 2c 3d c7 62 7b bd ef a3 f2 3c b5 0a 80 3d
       0.042224802 -0.0613735 0.029619185 0.06252042
0001a0 ae d0 f3 bd be 99 bb bc 2b e0 92 3d 69 67 b1 3d
       -0.11905037 -0.022900458 0.07171663 0.08662302
0001b0 cf c1 94 bd e0 7d 24 bd 04 7b f3 bd c8 84 26 bc
       -0.072635286 -0.040159106 -0.11888698 -0.010163493
0001c0 fa 76 40 3d 7b 65 0b bd 3f c3 a5 bd 85 83 d7 3d
       0.046988465 -0.034032326 -0.08093881 0.10523132
0001d0 ce 5a ce 3d 4a b4 43 3d dc fd 0a bd 80 26 af bc
       0.10075913 0.04777936 -0.033933505 -0.021380663
0001e0 1d c9 b0 3d a6 5c 2f bd 61 71 b9 bd 05 14 96 bd
       0.08632109 -0.042812966 -0.090548284 -0.07328037
0001f0 2b 89 c3 bd a1 f6 8e 3d 0a 7d e1 3b c9 95 a7 bd
       -0.09547647 0.069806345 0.006881361 -0.08182866
000200 19 ec 36 3d b3 a8 1d bd 3b 59 f7 bc 1c 34 0c bd
       0.044658754 -0.038490962 -0.030193916 -0.034229383
000210 0b fd 8f bd 62 b6 62 bd 93 ad 73 3d 92 bc 5f 3d
       -0.07030686 -0.055349715 0.059491705 0.054623194
000220 9e dc 47 3d 25 2f 13 be 8e 72 41 3c 1c 72 98 bc
       0.04879438 -0.14373453 0.011807097 -0.0186091
000230 7c 5d e4 3c f2 0a c3 bc f6 ef 99 bd 12 55 9c 3d
       0.027876608 -0.02380893 -0.07516472 0.076334134
000240 d9 36 a0 3d af 11 6d 3d a9 c4 cf 3c 04 0e 03 3d
       0.07822961 0.057878193 0.02536233 0.03199579
000250 86 59 6f 3d 5a 67 09 bd 23 ad 93 3d 12 be 88 bc
       0.058434986 -0.03354583 0.072107576 -0.016692195
000260 59 9f b2 bd 13 26 c0 3d 8b 21 b2 bd eb c9 7d bd
       -0.087217994 0.09382262 -0.08697804 -0.061960142
000270 ac d7 44 3d be ad bd 3c 4c 9d bd bd 0c 2b 54 3c
       0.048057243 0.023154136 -0.092585176 0.012949716
000280 88 18 a4 3d 3e 7d 1a bd d6 65 a0 3d 8d 02 76 3d
       0.080124915 -0.037717097 0.07831924 0.060061026
000290 58 85 dd bb a4 7d 5e 3c b7 2c c1 3d 33 18 29 bc
       -0.0067602806 0.01357976 0.09432357 -0.010320711
0002a0 fa 88 6d 3d 78 ca 2f 3d 67 62 97 bd a4 d7 20 3c
       0.05799196 0.0429177 -0.07391816 0.009817038
0002b0 0a b5 0d bc ec ad 78 3c 1c d1 6d bd 08 69 9c bc
       -0.00864912 0.015178185 -0.05806075 -0.019093052
0002c0 12 da 71 bd 87 75 53 bd bb cc 61 bd ac 3b c5 bc
       -0.05904586 -0.051625755 -0.055126887 -0.024076305
0002d0 47 0f c7 3d c0 e8 46 3b 0f 5c b4 bb c6 10 a1 3b
       0.09719711 0.0030351132 -0.0055041383 0.0049153296
0002e0 b3 21 af bd b0 cb 74 bc 70 5f 68 bd aa 51 80 3d
       -0.085513495 -0.014941141 -0.05673164 0.06265576
0002f0 8a 12 9c 3d 2c 31 47 bd 89 16 7c bd f7 24 42 bd
       0.076207235 -0.04863088 -0.06154493 -0.047398534
000300 5f 31 52 bc cd f6 d8 3c 80 c4 72 bc 4e 2b 4f bd
       -0.012829154 0.026484871 -0.014817357 -0.050578408
000310 01 ad af 3d 9d c3 10 3d bf a5 58 bd 51 17 f0 3c
       0.0857792 0.0353428 -0.052892443 0.029307993
000320 d9 85 d6 bc 05 92 9b 3d 8a 56 b2 bd 5f 12 57 bd
       -0.02618687 0.075962104 -0.08707912 -0.052507754
000330 fd 63 ae bd 12 fe ba bd a1 e7 9f 3d 0a 03 66 bd
       -0.08515165 -0.09130491 0.078078516 -0.056155242
000340 6d d2 89 3d 50 8d 9f 3c 1a 34 ba bd 81 5a 92 3d
       0.06729589 0.019476563 -0.09091969 0.071461685
000350 4c e6 a3 bd c6 e5 ee 3c 2e 7c dd bc 1b 80 9b bb
       -0.0800291 0.029162299 -0.027036753 -0.004745496
000360 e3 06 e8 bc 50 64 3f 3c 68 a6 23 3d 0f b3 f9 3c
       -0.028323596 0.011681631 0.03995362 0.03048089
000370 09 f7 92 3d f9 ee b3 3d 20 17 b3 3d 26 41 a5 bd
       0.071760245 0.08785815 0.08744645 -0.08069067
000380 9a d9 75 3d 21 7a 8e 3d db 4c a4 3d d7 03 b3 3d
       0.060021974 0.06956888 0.080224715 0.08740967
000390 3b 2d 43 3d 06 f9 93 3d 3f 7f f8 ba 24 f7 0e 3d
       0.047650557 0.07225232 -0.0018958821 0.03490366
0003a0 d2 78 91 3c fd 01 1d bd 0b ab 5e 3d a8 c3 64 bc
       0.017757807 -0.038331974 0.054362338 -0.013962664
0003b0 92 2d 10 3d bf 62 43 3d 7f 70 30 bd f4 1d aa bd
       0.03519971 0.047701593 -0.043076035 -0.08306494
0003c0 b2 26 ac bd 48 79 66 bc e1 98 25 3c 31 e2 09 bd
       -0.08405818 -0.014067002 0.01010725 -0.03366298
0003d0 31 c2 ca 3c 2d a1 b0 bd 24 7d 94 bd d0 b2 d5 bb
       0.0247508 -0.08624492 -0.07250431 -0.0065215603
0003e0 28 b8 79 bd 48 34 b6 3d 38 39 21 bd 0c c0 04 bd
       -0.06096664 0.088966906 -0.03936121 -0.032409713
0003f0 ab dc 80 3d a0 8b 04 bd a7 83 7b 39 d9 9d 28 bd
       0.06292089 -0.03235972 0.0002398627 -0.04116616

linear2.bias f4 [128]
000000 52 44 a9 3d 56 58 b9 39 53 10 ae bd 1c 10 85 bd
       0.08264984 0.00035351765 -0.08499207 -0.06497213
000010 a3 30 cc 3d b1 b0 a0 3c 91 0a 9a bd 4f c6 2a bd
       0.09970214 0.019615503 -0.07521547 -0.041693028
000020 d0 c3 05 3d 09 54 46 bd fc b2 1f 3c 82 eb fd 3b
       0.032657444 -0.048419986 0.009747263 0.007749022
000030 01 a1 d8 3d 88 ab 97 3d 29 a0 42 bc 32 4b 75 3d
       0.10577584 0.07405764 -0.0118790055 0.059886165
000040 bb 03 ff 3c d2 ef 40 bd 4d 73 9b bd 5d 37 cc bc
       0.031129709 -0.04710371 -0.07590351 -0.024928743
000050 c4 4e e9 3c 1e c4 aa bd f0 45 ef 3b 39 9d 2f 3c
       0.028479941 -0.08338188 0.0073020384 0.010718637
000060 9d d4 b5 3d 07 97 7a 3d 88 c2 ff 3c 4e e5 60 bd
       0.088784434 0.061179187 0.03122069 -0.054906182
000070 02 f9 b7 bd 4f a6 a6 bc 0a 41 cd bc 89 59 29 3c
       -0.08983041 -0.020342974 -0.025055427 0.010336288
000080 de 63 b8 bc ad 53 51 3d 0a 81 30 3d 01 61 ba 3d
       -0.022508558 0.05110519 0.04309181 0.09100533
000090 d1 ef 14 3d 68 a2 7c 3c da 6a 71 bb b1 44 68 3d
       0.03636152 0.01541958 -0.003683737 0.056706134
0000a0 77 46 95 bd 8f 5d ad bd 7b cc 6e bd b6 ef 3c bd
       -0.07288831 -0.084651105 -0.058300477 -0.046127044
0000b0 6b ab 5f bd c4 ac a1 3c 82 6b b6 bd d2 dc 7e 3d
       -0.054606836 0.019735701 -0.08907224 0.06222231
0000c0 c0 65 80 bc 5b 51 ab 3c cf 09 a5 bd c6 e5 b1 3c
       -0.015673518 0.020912817 -0.080585115 0.02171601
0000d0 d0 72 c1 bc 45 e6 32 3d 18 6f 06 bc 94 e8 c5 3c
       -0.023614317 0.043676633 -0.008205198 0.024158753
0000e0 4c 2f d5 3c 53 15 8a 3b 4c 1c 8a bd 3b 31 9d 3c
       0.02602353 0.004213968 -0.067436785 0.019188514
0000f0 3d 0f af 3d 07 ed 38 bd e2 de 13 bd 1c c5 66 3d
       0.08547828 -0.045147922 -0.03610123 0.056340322
000100 c8 e1 4a bc a9 8a aa 3d 2b b3 23 3d ef ca 19 bb
       -0.012382932 0.083272286 0.03996579 -0.0023466905
000110 a3 26 85 bd 55 ad ab bd 2e 20 49 3d b1 35 04 bd
       -0.0650151 -0.0838267 0.049102955 -0.032277767
000120 95 c9 6f bd ea e7 a1 bd c0 e7 aa bd 7e b4 5f 3d
       -0.058541853 -0.07905562 -0.08344984 0.05461549
000130 aa a3 ab bd 35 1e a7 3d 52 37 77 3d 7a 03 4e 3d
       -0.08380826 0.081600584 0.060355492 0.050296284
000140 ae d7 0e 3c ab e5 b0 bc 2b cf b0 bd e2 9d 8d bd
       0.008718414 -0.02159389 -0.08633264 -0.069148794
000150 12 12 95 3c c0 69 00 3c a5 31 7b 3d 53 f3 8a bd
       0.018197093 0.007837713 0.06132664 -0.06784692
000160 f6 13 6c 3d 00 ee 85 bd 57 88 e1 bc e0 2b 97 3c
       0.057636224 -0.065395355 -0.027530832 0.018453538
000170 78 cc 37 bd 79 e5 94 3d 86 4b 76 3d 3c 8b bd 3d
       -0.04487273 0.07270331 0.06013062 0.092550725
000180 a2 eb 22 bd 03 7d 3e bc 6a 78 1d bd d8 e6 fd 3c
       -0.0397755 -0.011626485 -0.038444914 0.030993864
000190 f0 3e 9b bd e1 ad 43 3c 1c 20 c1 3b 4e 37 81 bd
       -0.07580364 0.011943311 0.0058937203 -0.06309377
0001a0 6e f8 33 bc 00 44 ad b8 f1 10 96 3d 7a 96 19 3d
       -0.010984523 -8.261949e-05 0.0732745 0.03749702
0001b0 43 e4 dd bc 41 76 94 bd f0 fd 95 3d a9 41 70 3d
       -0.027086383 -0.07249118 0.07323825 0.05865637
0001c0 75 0b 36 bd a6 8a 17 bd ec a9 09 bd 62 f1 3a bd
       -0.04444452 -0.03699746 -0.033609316 -0.045640357
0001d0 1f 83 84 3d ad 51 c0 3b 1d bf 9e bd 84 76 e8 bc
       0.06470322 0.0058691115 -0.07751296 -0.028376825
0001e0 1c da cc 3d 4c 39 a8 bc db 9a ab 3c 5b 68 c8 bb
       0.100025386 -0.020535134 0.020947864 -0.0061159558
0001f0 f6 bf 8c 3d 63 9c 60 3d ae 82 5a bc 03 87 9e bd
       0.06872551 0.054836642 -0.0133368205 -0.07740595

linear3.weight f4 [1, 128]
000000 11 e7 2d 3d 48 ea 1b 3c 17 4b 6e bd 3d 95 10 3d
       0.04245669 0.009516306 -0.05817708 0.035298575
000010 f2 5e 00 3d 0f 7a 6e 3c 99 e5 89 bd 56 a1 0b 3a
       0.031340547 0.014555468 -0.067332454 0.000532647
000020 e6 aa 18 3d 23 70 9b bb 7e 1b 30 3d 34 91 38 3d
       0.037272356 -0.0047435923 0.04299497 0.04506035
000030 3c 0b 0d 3d ab 3a 3a 3d e3 90 25 bd f5 36 f0 39
       0.034434542 0.045466106 -0.040421378 0.00045817313
000040 7a 66 0b bd eb ac 62 bc 30 71 4c b9 64 14 84 3d
       -0.034033276 -0.013835172 -0.00019497122 0.06449202
000050 83 8c d9 3c c3 ea 40 bb f0 9a 72 b9 28 22 0c bd
       0.026556259 -0.0029436804 -0.00023136637 -0.03421226
000060 98 02 3b 3b d4 b2 ab bb d5 43 ac ba 6d bd 88 bd
       0.0028535482 -0.005239824 -0.0013142774 -0.06676755
000070 55 49 1a bc df 38 07 3c 7a 66 85 bc 13 96 8d bc
       -0.009416898 0.008253305 -0.016284216 -0.017283475
000080 f6 a5 97 bd 7a 7f 07 3c 73 e5 be 3d c8 ac 29 3d
       -0.074047014 0.008270139 0.09321108 0.041424543
000090 2a ed 37 3d 20 82 66 b9 1f a1 a6 3c e7 b2 81 3c
       0.04490391 -0.00021982985 0.0203405 0.015832378
0000a0 43 79 29 bc 8a 76 64 bb 44 b9 fa bb 05 4f d1 bc
       -0.010343852 -0.0034860694 -0.00765148 -0.025550375
0000b0 a6 7a 5c bd 6f 53 92 ba f4 bd 8d bc aa a1 72 3d
       -0.053827904 -0.0011163781 -0.01730249 0.059236206
0000c0 f2 ad 15 bc 58 b4 5d bc 06 46 33 3c db ef cb b9
       -0.00913571 -0.013531767 0.010941988 -0.00038897883
0000d0 0d ad 74 bd da e8 44 bc aa 88 19 3b 9f 37 90 bb
       -0.059735347 -0.012018407 0.0023427405 -0.004401162
0000e0 ce 58 30 3b eb 6e 0c 3d 92 34 3f bb ec 03 e2 3b
       0.00269084 0.034285467 -0.0029175621 0.00689744
0000f0 3f 05 74 3b ae 92 83 bd 6d 2c ae bc 59 ac 26 bc
       0.0037234572 -0.06424461 -0.021261418 -0.010172927
000100 19 e3 a0 ba d8 d3 10 ba 39 47 f3 b8 0d 28 f4 3c
       -0.0012274712 -0.0005524731 -0.00011600409 0.029804254
000110 62 f0 b7 bc d0 98 92 bb df 71 e8 3a 5c 49 56 bc
       -0.02245349 -0.004473783 0.0017734132 -0.013079014
000120 94 80 1a 3d 4d 92 cc 3c 36 7c 29 bc aa 01 36 3b
       0.037720278 0.024972105 -0.010344556 0.0027771988
000130 d6 1d 11 bb 8c df 6c bd 26 81 04 bb 5c 75 43 bb
       -0.0022143028 -0.05783038 -0.002021858 -0.002982459
000140 d9 14 6d 3c c7 51 e7 3b 98 ad 17 bc e8 c2 7f ba
       0.0144703025 0.007059309 -0.009257697 -0.00097565213
000150 73 10 58 3c ea 60 0e bb fa 7a 41 3c 09 4d 43 3d
       0.013187516 -0.0021725246 0.011809105 0.04768089
000160 fc 40 60 ba 1c 62 29 bd f5 0e d0 3b c2 b5 b8 3b
       -0.00085546053 -0.04135333 0.0063494393 0.0056369016
000170 50 1d d1 bc 0b ac 9e ba f0 1c d0 bc a4 f0 09 3d
       -0.025526673 -0.0012105716 -0.025404423 0.03367676
000180 21 6c bf bb 4d b3 11 3b 10 3e f7 3b b7 2c 55 3d
       -0.0058417474 0.0022232116 0.00754524 0.052044597
000190 d8 71 59 bc 94 20 da 3c 13 22 00 3c 5b 6c 66 3a
       -0.013271771 0.026626863 0.007820624 0.000878995
0001a0 33 23 ca bb e8 0c 2e 3b 67 8f b4 ba 96 ef 89 ba
       -0.006168747 0.0026557986 -0.0013775647 -0.0010523673
0001b0 fb 7d 8c 3c 02 f3 00 3d 7a 8f a9 3c 6a 8c f4 bd
       0.017149916 0.03148175 0.020698298 -0.11940844
0001c0 10 ea 9c bc db 76 58 3d 1a d8 04 3d e9 c2 c7 3b
       -0.019154578 0.052847724 0.032432653 0.006096233
0001d0 1f 7f 32 3d 17 c1 85 3d 24 6f f0 bc de 79 1f 3c
       0.043578263 0.065309696 -0.029349871 0.009733645
0001e0 65 ab 41 3d d7 7d 3a 3c a0 43 ee ba c9 ca 6e 3c
       0.047282595 0.011382542 -0.0018178113 0.014574715
0001f0 1e f0 d7 bb bc fd c6 bb 74 7d f4 ba e0 18 88 3c
       -0.0065899035 -0.006072728 -0.0018653111 0.016613424

linear4.weight f4 [1, 128]
000000 84 bf 80 3d 6a e8 24 3d d1 da 62 bb d2 77 31 3d
       0.06286529 0.04026071 -0.0034615288 0.04332716
000010 69 4f 7a 3d 39 5e 8e 3c 13 b2 6b bc d4 16 ae 3c
       0.061110888 0.017378913 -0.014385718 0.02125112
000020 e8 ce 0e 3d 12 20 1f bd 5d b2 87 3d 5b 2a aa b9
       0.03486529 -0.038848944 0.06625817 -0.00032456484
000030 b7 5f 23 3a 06 3b ba 3d c4 e3 6a bc 5a 69 25 3c
       0.0006232219 0.09093289 -0.01433653 0.010095919
000040 78 81 6c bd 4e 6a 69 3b 0c f2 2e 3a 3b f6 03 3d
       -0.05774066 0.003561634 0.0006673641 0.032217246
000050 79 7d 19 3a f9 7c 8b 3b 64 83 32 3b ce 4c ce bd
       0.00058551837 0.0042568413 0.002723896 -0.10073243
000060 cd a2 89 bd 08 a1 1d 3c 40 e6 db 3a 3b af 3d bd
       -0.06720505 0.009620912 0.0016776994 -0.04630969
000070 e1 76 21 3b 00 c5 a1 b8 49 8c de 3c 5e 32 18 3d
       0.0024637508 -7.713772e-05 0.027166503 0.03715741
000080 2d 2d 95 bd a5 a4 bf 3b 22 a0 1d 3d 84 3d 3b 3c
       -0.07284007 0.0058484846 0.038482793 0.011428241
000090 42 59 b9 3d 49 ee f0 ba 81 f1 82 3c 70 8c 5f bd
       0.09050228 -0.0018381561 0.015984299 -0.05457729
0000a0 ed b2 1c bc 9f bd 94 3b 22 20 84 3b 7e fa a4 bc
       -0.009564144 0.004539206 0.004032151 -0.020138975
0000b0 7f b0 81 bd 02 e3 c6 3c 1e 78 31 bd 1c cb 9e 3d
       -0.06332492 0.024278168 -0.043327443 0.07753584
0000c0 cc 89 df bc 23 15 f7 bc 01 ce bc 3b 10 f0 02 bb
       -0.027287386 -0.030161446 0.0057618623 -0.0019979514
0000d0 e4 29 17 bd 59 0f c4 3b 78 2f a1 3a 12 21 08 bd
       -0.036905184 0.005983275 0.0012297472 -0.033234663
0000e0 38 ea 43 3b 42 be af bc e2 24 c9 ba 67 d6 fa 3b
       0.0029894244 -0.021453027 -0.0015346075 0.0076549533
0000f0 51 cb 9f 3b e2 da c0 bd d7 22 96 bc 30 d6 58 bc
       0.004876532 -0.094167486 -0.01832716 -0.01323466
000100 bc 29 19 3b c2 94 c0 b9 2f 47 1f 3b 4e 63 54 3d
       0.0023370823 -0.00036731927 0.0024303903 0.051852517
000110 62 bc cb bc 7e 6f 15 3c de 5e ed bc c6 9c 7f ba
       -0.024870101 0.00912082 -0.0289759 -0.0009750839
000120 da 52 97 bb ac e0 5f 3d 23 44 be bc 94 1f 7f ba
       -0.004618031 0.054657623 -0.02322585 -0.00097321835
000130 4e 4d 1b 3c ab da 4d 3a 44 0e fa ba 25 ca 18 bb
       0.00947888 0.00078527135 -0.0019077738 -0.0023313847
000140 39 06 d7 3b c0 c3 ef 3c d2 ff e5 3a 4c f2 fa 3a
       0.006562021 0.029268146 0.0017547554 0.0019145696
000150 9d 6e 9a 3d 48 8a 95 3a 26 23 e9 bc 9c 73 5e 3d
       0.07540629 0.0011409009 -0.028459143 0.054309472
000160 f9 d8 b1 ba 8e 9e 0f b9 de 6c be 3c 51 2b 2a bd
       -0.0013568691 -0.00013696609 0.023245271 -0.041545216
000170 45 d5 3c 3c d4 13 80 3b ac 13 cf 3c a6 53 12 3d
       0.011525457 0.0039086137 0.025277935 0.035724305
000180 46 60 02 3d 1a 78 14 3a f6 44 ba 3b 94 fa 26 3d
       0.031830095 0.00056636485 0.0056844903 0.040766314
000190 85 87 36 bd aa 0d b4 3c 09 48 fb 3b fc 96 c7 3c
       -0.044562835 0.021979172 0.0076684994 0.024363987
0001a0 c5 32 51 bb a8 b1 87 3a 08 60 cb b9 58 78 db 39
       -0.003192113 0.0010352628 -0.00038790726 0.00041860598
0001b0 69 0d 2b 3d 48 69 45 3d 54 e5 b5 bc 59 13 3c 3c
       0.041760836 0.048196107 -0.022204079 0.011479222
0001c0 60 6d 82 bc f7 1d 65 3d c4 0d 4a 3d b2 c5 40 3d
       -0.015921295 0.05593678 0.049329534 0.047063537
0001d0 a8 99 34 bb 6a 9d 1d 3d 2e 9a b1 3c 91 82 3f 3b
       -0.0027557407 0.0384802 0.021679964 0.002922211
0001e0 bc ec 07 3c 2d de 46 bc 3a e3 59 36 d2 e5 d5 3c
       0.008296188 -0.012137932 3.2467783e-06 0.026110563
0001f0 e2 af aa 3d 42 de 24 bd 2d e7 0a 3c 13 8a 0b 3c
       0.08334328 -0.040251024 0.008477968 0.008516806

linear5.weight f4 [1, 128]
000000 50 44 5a 3c 09 6c ab bc 31 66 01 3c e4 fb 96 3b
       0.013321951 -0.020925539 0.0078978995 0.0046076644
000010 fe 6e 0b bc 15 11 e8 b9 25 a6 b1 3c 3d ec f6 ba
       -0.008510349 -0.00044263215 0.02168567 -0.0018838715
000020 83 e1 89 bb 41 78 4a 3b cb ed 03 bc 21 48 82 3b
       -0.0042077913 0.003089443 -0.0080523 0.0039758836
000030 7f ce c0 bb fc c1 4f 3c bd 73 be 3b a2 67 0d 3b
       -0.0058839913 0.012680527 0.005812137 0.0021576663
000040 3e 89 09 ba 6a ba 0d bb 00 c4 36 b9 43 ca cf bc
       -0.0005246586 -0.0021626004 -0.00017429888 -0.025365
000050 d1 af 94 bb bf 6b 13 3a 38 65 b7 39 5a a5 27 3d
       -0.0045375605 0.00056236604 0.00034979894 0.040929176
000060 36 30 b2 3d c0 66 4d 3a 9c af 19 ba 04 11 14 3c
       0.08700602 0.00078354403 -0.00058626547 0.00903726
000070 35 f9 ef ba 90 ee 48 ba e6 18 20 bd 80 50 53 3b
       -0.0018308522 -0.0007664943 -0.039086245 0.0032244027
000080 64 05 6a 3b 67 d3 21 3a 4d 48 a0 bc a6 93 0e 3b
       0.003570878 0.0006173164 -0.019565726 0.0021755486
000090 7c 6a 14 bc e5 74 8c ba c4 be 22 3c a4 ce b9 3c
       -0.009058591 -0.001071599 0.009933177 0.022681542
0000a0 11 0f 00 bc 08 c0 11 ba 2d 72 2d bd 87 15 d8 bc
       -0.007816092 -0.0005559926 -0.042345215 -0.026377453
0000b0 6a 74 05 3d 57 bb 30 bd 81 aa b1 bc 26 f8 c1 3c
       0.032581724 -0.04314741 -0.021687748 0.023677897
0000c0 7b 5a 56 3c 4f 9a 6e 3c 68 86 1a 3b 17 29 09 3a
       0.013083096 0.014563157 0.0023578648 0.0005232258
0000d0 e2 b1 41 3d da 07 e2 3a a6 3a 30 bb ae dc b8 bc
       0.047288783 0.0017244772 -0.0026890426 -0.022566166
0000e0 de 2f 23 3b f5 c6 76 3b 85 95 0a 3c 57 22 b4 b9
       0.0024900357 0.0037655209 0.0084585 -0.0003435786
0000f0 3e 89 00 ba 7c 0f bd 3b 06 30 56 3d 3e e7 e1 bb
       -0.0004903263 0.005769668 0.052291892 -0.0068940213
000100 88 76 d9 3a 08 36 8a 39 81 40 a8 3a 73 97 bf bc
       0.0016591111 0.00026361668 0.0012836606 -0.023387646
000110 2f 3d 93 3c 6c 1a 6f b7 85 f8 75 bb 93 5c 4b bc
       0.01797351 -1.4251662e-05 -0.0037532162 -0.012412208
000120 20 82 05 3a dd 84 12 bd f1 26 ca 3c 3a 74 0e bb
       0.00050929375 -0.03577124 0.024676772 -0.0021736757
000130 a9 d7 80 3b 1d 58 ce 3c e8 46 35 3b 52 e5 08 3b
       0.0039319587 0.0251885 0.0027660672 0.0020888639
000140 08 a2 71 3b 23 c7 1e 3c 57 a1 e6 ba 98 d2 e9 b9
       0.003687026 0.009691033 -0.001759569 -0.00044598128
000150 65 5d e7 bb 44 89 0a 3b 82 d2 c9 3c 18 e8 67 bb
       -0.007060694 0.0021138946 0.02463651 -0.0035386141
000160 38 e0 74 3a 54 fa be 3c 74 65 2b bd f0 fb eb 3c
       0.00093412725 0.023312725 -0.0418448 0.028806657
000170 ad 0d f7 bb bf ff 02 3a 45 85 7f bc ba 47 a6 bb
       -0.007539472 0.00049972156 -0.015595739 -0.0050744684
000180 7f 81 e5 bc 3d 55 de 3a a4 e1 87 3a 3c f0 62 bb
       -0.02801585 0.0016962659 0.0010366929 -0.0034628054
000190 54 65 93 3c 36 3b 1c 3b 36 9c c7 bb 74 7a fc bb
       0.017992653 0.0023839003 -0.00609162 -0.0077050272
0001a0 fe 2d 0e 3d 60 de c2 38 cf 03 ce ba cc ba b2 3a
       0.03471183 9.2920614e-05 -0.0015717688 0.0013635992
0001b0 d5 fb b3 bc dc 01 a5 bd 95 53 d0 bc b4 a9 6d 3b
       -0.021970669 -0.08056995 -0.02543048 0.003626448
0001c0 fd a5 c6 3c a9 3f 93 3b 6f 96 70 bc 17 67 a3 bc
       0.024249071 0.004493673 -0.014684304 -0.019946618
0001d0 6d 27 66 39 a1 ad 18 bc e6 91 cd 3b b2 dd 81 bc
       0.00021949197 -0.00931874 0.006273496 -0.015852783
0001e0 38 d4 43 bb 16 7c ba 3c 97 73 2b bb 16 59 b9 39
       -0.002988113 0.022764247 -0.0026161426 0.00035352324
0001f0 f8 6f c0 3b f0 ae c9 bc da 5d af 3a e0 11 c1 bd
       0.0058727227 -0.02461955 0.001337941 -0.094272375
