TDQN/MicroGrid/TDQN(改进)+SA/model/actor_model.ckpt (torch, 95812 bytes, 11 tensors)

lstm.weight_ih_l0 f4 [96, 1]
000000 18 7b 1a 3e 93 68 4d be 90 ac 34 3e 68 a1 e9 bc
       0.15086019 -0.20059423 0.17643952 -0.028519347
000010 58 ac 88 3d 48 95 9a 3c 44 ed 02 3e f0 cf 5b 3d
       0.06673497 0.018870011 0.12785822 0.0536651
000020 64 98 1c be 64 03 84 bd 20 35 84 3d 44 1e ec bd
       -0.15292507 -0.06445959 0.06455445 -0.1152921
000030 d0 0e 78 3d 87 64 3a be b4 b7 a3 3d 64 f0 94 bd
       0.060561 -0.1820241 0.07994023 -0.072724134
000040 6c ba 40 3e 8a 5f 3e 3e fe 36 c2 bd e0 da c4 bc
       0.18821114 0.18591133 -0.09483145 -0.024030149
000050 24 ff 2d 3e 2e 8e 83 bd 09 e2 27 be 6e 4e 3a be
       0.1699186 -0.06423603 -0.1639482 -0.18193981
000060 08 ab 45 3d 4a 6f b1 bd 86 b4 3b be d8 f4 02 3e
       0.04825881 -0.08663805 -0.18330583 0.12788713
000070 50 e6 9a 3d 54 fe 14 be 3a 7a 30 3e bd 09 be bd
       0.0756346 -0.14550143 0.17234126 -0.09279201
000080 58 ac 99 3c a4 0b 23 bd 10 93 de bd 1e a3 25 3e
       0.018758938 -0.039806023 -0.10867894 0.16175506
000090 d9 8e a5 bd 54 9d 50 3e d2 80 18 3e 20 6b f3 bd
       -0.08083887 0.20372516 0.14892891 -0.11885667
0000a0 50 11 49 3d 04 75 97 bd 78 cf fe bd f0 38 1d be
       0.049088776 -0.07395366 -0.12441915 -0.15353751
0000b0 a0 b3 f0 bb e0 26 4d bd 44 08 08 3e 00 b2 96 bb
       -0.0073456317 -0.050085902 0.13284403 -0.004598856
0000c0 98 67 c5 3d 0a 4a 1f be c2 f8 cf bd 40 38 49 3d
       0.096388996 -0.15555587 -0.10154869 0.04912591
0000d0 55 ef c1 bd 00 1f 1d 3c 70 ed 48 3c 24 99 9f 3d
       -0.09469477 0.0095899105 0.012263641 0.07792881
0000e0 39 99 e3 bd aa db 07 3e 30 55 46 3d f0 90 6f 3d
       -0.11113209 0.13267389 0.048421085 0.058487833
0000f0 34 70 ce bd dc 4b f9 3d 48 4f 2c 3d 14 33 87 bd
       -0.10079995 0.12172672 0.042067796 -0.06601539
000100 b8 cf a8 3d 5a 0e 8e bd a0 86 f9 bd e0 3e 6e bd
       0.08242744 -0.06936331 -0.12183881 -0.05816543
000110 aa 89 0c be 98 9f 7d 3d 72 ac 85 bd ee 67 3a be
       -0.1372439 0.06191978 -0.06527032 -0.18203709
000120 e7 68 3d be 20 4b ed bb 24 06 0b 3e 4c 05 1c be
       -0.18497048 -0.0072416216 0.13576561 -0.15236396
000130 24 69 0e 3d d8 18 35 be 0a 4c 1b 3e 96 2f 47 be
       0.03476824 -0.17685258 0.15165725 -0.19451746
000140 6d 15 22 be 48 97 0b bd 1c a3 ab 3d 48 d3 a2 3d
       -0.15828486 -0.03407982 0.0838072 0.07950455
000150 4c 66 d1 3d d0 58 77 3c 80 33 d7 bd 04 90 a0 3d
       0.1022459 0.015096858 -0.1050787 0.07839969
000160 88 50 6e 3d c7 14 16 be 20 52 31 bd bc 76 3c bd
       0.05818227 -0.14656363 -0.04329121 -0.04601167
000170 8a b5 ca bd da 37 16 3e d1 3f 1f be b4 57 f8 bd
       -0.09897907 0.14669743 -0.15551688 -0.12126103

lstm.weight_hh_l0 f4 [96, 24]
000000 c8 ae b4 3d 30 44 19 bd 20 03 16 3d 40 36 33 3c
       0.088223994 -0.037418544 0.036624074 0.010938227
000010 a1 ee 11 be 18 cc 1a be a4 ed 4f 3e 16 65 42 be
       -0.14251186 -0.15116918 0.20305496 -0.18983874
000020 84 ee 10 3e 18 00 62 3d 2c 84 1b 3d fe a9 13 be
       0.14153486 0.05517587 0.037967846 -0.14420316
000030 74 60 c0 3d a0 b4 14 be 5e f4 23 be 20 40 04 be
       0.09393397 -0.14522028 -0.16011187 -0.12915087
000040 42 57 1d 3e 68 0a a0 bd 92 e8 e1 bd 1d ce e5 bd
       0.15365317 -0.07814485 -0.110306874 -0.112209536
000050 f4 86 b3 3d 18 ea 4c be f0 10 3c 3d 64 a2 f3 3d
       0.08765975 -0.20011175 0.04591459 0.11896208
000060 c0 1a ab 3d 54 20 b1 3d e8 41 5b 3d c0 46 3e bc
       0.083547115 0.08648744 0.05352965 -0.011613548
000070 e4 d6 dc bd 40 9b 9e bd 61 92 03 be ca fa 42 3e
       -0.10783175 -0.07744455 -0.12848808 0.19040981
000080 30 0a 7a 3c f4 bf 74 bd 9e 99 06 3e d4 0f 80 3d
       0.015261218 -0.059753373 0.13144538 0.06253019
000090 e2 b2 24 be 28 aa 72 bd d0 f6 2e 3e 68 5e b2 bc
       -0.16083863 -0.059244305 0.17086339 -0.021773532
0000a0 52 86 36 be d8 47 ef 3d 7c 48 d1 3d 79 ee 40 be
       -0.17824677 0.11683625 0.102189034 -0.1884097
0000b0 8f 7e 3b be e8 70 0a bd e7 ca c8 bd ff 5b f2 bd
       -0.18309997 -0.033799082 -0.098043256 -0.11833953
0000c0 30 b8 01 bd 22 be 01 3e fc 38 d2 3d 52 51 47 3e
       -0.031669796 0.12670186 0.10264775 0.19464615
0000d0 40 c0 f3 3c c4 74 1d 3e 40 c5 f5 bd 04 d8 32 3e
       0.029754758 0.15376574 -0.12000513 0.17465216
0000e0 36 c3 05 3e a0 3e d1 bb f0 f7 a7 3c 96 95 33 be
       0.13062748 -0.0063856393 0.020503968 -0.17537531
0000f0 b0 12 8e 3d c2 70 87 bd 8c cb 23 be 92 e6 26 be
       0.06937158 -0.06613304 -0.15995616 -0.16298893
000100 04 42 3d 3e 56 d0 92 bd e6 c2 4e 3e 5c 79 9c bd
       0.18482214 -0.07168643 0.20191535 -0.07640335
000110 f8 79 ab 3d 6e 3c 98 bd fe a7 21 be d0 f7 11 3c
       0.08372873 -0.07433401 -0.1578674 0.008909181
000120 60 7e 23 bd ce 9d 0b 3e 04 2f df 3d 0c 15 4f be
       -0.039915442 0.13634416 0.108976394 -0.20222872
000130 0c ce ca 3d 20 96 1f 3e 74 36 07 be 54 2b 5b bd
       0.099025816 0.15584612 -0.13204366 -0.053508118
000140 88 3e 59 3d 86 07 2c be 10 42 34 bd f4 e8 a3 3d
       0.05303815 -0.16799745 -0.044008315 0.08003417
000150 f3 58 f1 bd ec bb 1a bd e8 82 f6 3d 60 19 a0 3c
       -0.11784544 -0.037776873 0.12036687 0.01954335
000160 d8 b7 a7 bd 04 6a ac 3d 2c 43 56 bd d8 b3 43 3d
       -0.08189362 0.084186584 -0.052310154 0.047778934
000170 da 94 21 be 60 9f 89 3b 4a a1 15 be fc 3a 4c 3e
       -0.15779439 0.004199907 -0.14612308 0.19944376
000180 60 38 a4 bc 6c bb ca bd 18 d9 2a 3e f8 43 5a bd
       -0.020046413 -0.09899029 0.16684377 -0.053287476
000190 44 69 45 3e a0 df 7f 3c 04 e9 dc 3d 2e 4f 4e be
       0.19278437 0.015617281 0.10786632 -0.20147392
0001a0 f0 a9 21 3c 10 d5 40 bc 62 75 0e 3e 58 c2 e5 3d
       0.009867176 -0.011769548 0.13911965 0.11218709
0001b0 88 df 41 bd 14 c2 29 3e 54 a4 80 bd 40 b9 62 3d
       -0.047332317 0.16577941 -0.06281343 0.05535245
0001c0 f4 a3 d2 3d d1 45 07 be d6 8d 27 3e e4 c2 a7 bd
       0.10285178 -0.13210227 0.163627 -0.08191469
0001d0 70 a3 f5 3d 07 5f 48 be d3 6a 43 be fc e8 bc 3d
       0.11994064 -0.195675 -0.19083719 0.09224126
0001e0 2e 6a 41 be 5c 8e 8a 3d b0 1c 5c bc bc fe dc 3d
       -0.1888816 0.06765434 -0.013434574 0.10790774
0001f0 d0 ba 54 3d fc bb 46 bd a7 c6 26 be 84 df ae 3d
       0.05193597 -0.04851912 -0.16286717 0.08538726
000200 e9 a8 fc bd c1 53 e5 bd 54 9b ad 3d f4 e0 0a 3e
       -0.123369046 -0.111976154 0.08476892 0.13562375
000210 84 ba 47 3e bb de 4d be 6c cc 8a 3d 34 54 18 bd
       0.19504744 -0.20104496 0.06777272 -0.037189677
000220 18 7e cc 3d a4 25 37 be e0 34 ec bc ac e7 c8 3d
       0.09984988 -0.17885453 -0.028833807 0.09809813
000230 c4 2f 6d bd b0 ff 48 bc e9 37 17 be ca 7d 45 be
       -0.05790688 -0.012267992 -0.14767422 -0.19286266
000240 24 00 cb 3d 20 40 95 bc b2 62 8e bd fe 51 19 be
       0.09912136 -0.018219054 -0.069524184 -0.14972684
000250 38 16 7f 3d b4 66 00 bd 0e cf 2a 3e 92 32 a5 bd
       0.06227705 -0.031347945 0.16680548 -0.08066286
000260 d0 8a 3c 3d ec 4d 99 3d 78 fd e7 3c 94 b7 77 bd
       0.04603082 0.074855655 0.028319106 -0.060477808
000270 f2 35 de bd ce 9f a0 bd 0e b3 44 be 46 c5 1f 3e
       -0.10850133 -0.0784298 -0.19208929 0.15602598
000280 70 80 c6 3d 94 6f 4e 3e 75 fe da bd 80 45 2c 3e
       0.09692466 0.20159751 -0.10693065 0.16823387
000290 70 dc af bc f0 0b ae bd d8 63 aa 3d 10 84 79 bc
       -0.021467417 -0.08498371 0.08319825 -0.01522924
0002a0 50 0d 48 3c 58 37 4e 3e e4 05 c2 3d 65 6f e2 bd
       0.012210205 0.201383 0.0947378 -0.11056403
0002b0 50 c6 a6 bd 42 9b af bd e8 94 de bc d0 e8 83 3c
       -0.08143294 -0.08574535 -0.027170613 0.016102225
0002c0 7c 7c f2 3d 74 cc a6 3d 44 c7 e6 3d 60 dd 4f 3e
       0.1184015 0.08144465 0.11268476 0.20299292
0002d0 82 37 23 be e6 87 89 bd 72 99 15 3e 86 c2 17 3e
       -0.15939143 -0.06715374 0.14609316 0.14820299
0002e0 90 52 b8 bc 78 4e ff 3d 63 00 2c be 70 f9 1e bd
       -0.022500306 0.124661386 -0.16797023 -0.0388121
0002f0 a1 74 37 be d8 cb 3d bd 11 40 3e be 82 0d b8 bd
       -0.17915584 -0.04633698 -0.18579127 -0.089869514
000300 60 ed 98 bc d4 b6 9d 3d c8 7e 0d bd fb d7 c3 bd
       -0.018667877 0.07700887 -0.034544736 -0.095626794
000310 63 b8 b7 bd c4 c0 34 be 08 51 f9 bc f8 8a 0f 3e
       -0.08970716 -0.17651659 -0.030434147 0.14017856
000320 e8 77 03 bd 01 01 4e be 5c ef c0 3d 48 a5 60 3d
       -0.032096773 -0.2011757 0.09420654 0.054845124
000330 89 6c c3 bd 26 c4 89 bd 60 89 38 3d 08 6c 3e 3d
       -0.09542186 -0.067268655 0.045052886 0.046489745
000340 ca 56 32 be 50 03 e1 bc ec cf 12 3d 58 09 1f 3e
       -0.1741592 -0.0274674 0.03584282 0.15530908
000350 88 d3 4e bd 38 b4 6c 3d 18 40 e5 3c 1c 5d 33 bd
       -0.0504947 0.057789057 0.027984664 -0.043789968
000360 fc a3 c0 3d 00 92 f5 3c 2c 3e db 3d e0 ab 30 3c
       0.094062775 0.029976845 0.10705218 0.010783166
000370 d5 eb 25 be 3b d6 4d be 04 23 8d 3d e0 b8 da 3d
       -0.16203244 -0.20101254 0.06891444 0.10679793
000380 68 20 a0 bd e8 af cf bc b8 9e db 3d 2f eb a2 bd
       -0.07818681 -0.025352433 0.107236326 -0.07955014
000390 b6 5f 18 3e fc 61 10 bd 60 ee 1a 3d 9e 50 47 3e
       0.14880261 -0.035249695 0.03782499 0.19464347
0003a0 60 6d f8 bc a4 0c b5 3d c4 0f 02 3e 88 aa d5 3c
       -0.030325592 0.08840302 0.12701327 0.026082292
0003b0 c4 27 7b bd 58 bb 43 be a4 0e 29 be 0e 48 2a 3e
       -0.06131722 -0.19114435 -0.16509491 0.16629049
0003c0 84 36 4d be 1e 8e 2e 3e 36 3d 44 3e ee c9 42 be
       -0.20040327 0.17046401 0.19163975 -0.19022343
0003d0 90 4c 4d bc 96 6c 9f bd a0 c2 6b 3d b4 52 32 bd
       -0.012530461 -0.07784383 0.057558656 -0.043535903
0003e0 60 a8 c5 3b 52 5e 14 3e cb f7 30 be 52 ef e0 bd
       0.0060320348 0.14489105 -0.17282026 -0.10983147
0003f0 f0 f1 be 3d 64 06 a8 3d 45 8d 31 be 00 93 72 ba
       0.0932349 0.08204344 -0.17339046 -0.0009253472

lstm.bias_ih_l0 f4 [96]
000000 a0 d2 91 3b 7b f9 18 be 28 71 2b 3e 36 42 36 3e
       0.0044501573 -0.14938919 0.16742384 0.17798695
000010 c4 d5 7f bd 46 ca 2e be fb 68 fc bd ae 99 e9 bd
       -0.062459722 -0.17069349 -0.12324711 -0.11406265
000020 7d 80 a3 bd f0 16 07 be 58 90 a8 3d 80 0a 78 bb
       -0.079834916 -0.13192344 0.082306564 -0.0037848055
000030 34 8c 30 3d 73 b8 4e be 1e c9 39 3e 90 75 3a 3d
       0.043102458 -0.2018755 0.18143126 0.045522273
000040 26 4e 0c 3e b2 f9 39 be 74 7f 39 3e 52 bb 4f 3e
       0.13701686 -0.18161657 0.18115026 0.20286301
000050 80 df 08 be c4 5f 3e bd 18 b5 11 bd 40 bc ea bd
       -0.13366508 -0.046478048 -0.035573095 -0.11461687
000060 e8 7c 3b 3e 00 72 a1 3c e8 6e 05 bd a0 18 c0 bc
       0.18309367 0.01970768 -0.03257647 -0.023449242
000070 28 39 e8 bd 90 e8 33 3e fe ef 14 be 5c 29 09 3d
       -0.11339027 0.17569184 -0.14544675 0.03348671
000080 aa 03 49 3e 30 01 15 3e 80 c9 44 3b 28 74 17 3e
       0.19630304 0.14551234 0.003002733 0.14790404
000090 3a 1b 06 be c0 a5 3f be 40 f5 e1 3c e8 22 18 3d
       -0.13096324 -0.18715572 0.027582765 0.037142664
0000a0 00 54 dd 3d 60 c1 6b 3d 64 11 b0 3d e8 0e fb 3d
       0.10807037 0.057557464 0.08597067 0.122587025
0000b0 72 34 05 3e 2c 60 32 3e 0c 71 21 bd 92 dd 40 3e
       0.13008288 0.17419499 -0.03941445 0.18834522
0000c0 3f ce 41 be 0c 37 be 3d 79 35 49 be cc 91 1f 3e
       -0.18926333 0.09287843 -0.19649304 0.15582961
0000d0 58 5f 16 bd d0 57 33 3c 98 8e d6 bd 68 81 88 3c
       -0.03671202 0.010946229 -0.10476416 0.016663268
0000e0 a6 74 1c be 30 c2 d4 3d 60 1f 94 3b 52 a2 9a bd
       -0.15278873 0.10388601 0.0045203418 -0.075504914
0000f0 97 1a 2a be 52 76 2a be ec 83 09 be ec 11 1c be
       -0.16611706 -0.16646698 -0.1342923 -0.15241212
000100 c8 88 fe 3d 18 1d 00 3d 04 bc e4 3d 84 b1 d1 bd
       0.12428433 0.031277746 0.11168674 -0.102389365
000110 10 9d 80 3d 30 92 0c 3c af f5 f8 bd 9c 35 b9 3d
       0.06279957 0.008579776 -0.121562354 0.09043428
000120 10 c8 0f 3e c2 e7 32 be 80 28 c6 bd 68 ba f6 bc
       0.14041162 -0.17471221 -0.096756935 -0.030118182
000130 e8 28 b7 bc 53 ba c0 bd ea 3c e5 bd ee 4e 4c be
       -0.022358373 -0.094105385 -0.11193259 -0.19951984
000140 74 bf 3c 3e 5a a8 c8 bd a4 3e 63 bd 3a b9 13 3e
       0.18432409 -0.097977355 -0.05547966 0.14426127
000150 24 30 b4 bd 18 d5 e2 bc 14 03 13 3d 14 5e 39 3e
       -0.087982446 -0.027689502 0.035891607 0.18102294
000160 8e cc 41 3e 84 e7 84 3d a3 10 3d be cf 20 d4 bd
       0.18925688 0.064894706 -0.18463378 -0.1035782
000170 60 3a 10 3c a0 03 4d be 94 60 44 be ab 5f 35 be
       0.00880298 -0.20020914 -0.19177467 -0.17712276

lstm.bias_hh_l0 f4 [96]
000000 80 9f 0a 3b aa 8e 2d 3e 65 ee 01 be 5c 6f 03 bd
       0.0021152198 0.16948953 -0.12688597 -0.032088622
000010 e8 6e a9 3d 9e 94 c8 bd 40 7a c4 bb e1 7b c8 bd
       0.08273107 -0.097939715 -0.0059960186 -0.09789253
000020 a4 fc 36 3e d0 c4 bf 3d b0 bf bf bd 5f 20 fe bd
       0.17869812 0.09363711 -0.09362733 -0.12408518
000030 6c 0d 2d bd 54 76 ab 3d 20 34 b3 bd 74 ac cc 3d
       -0.04224913 0.08372179 -0.087501764 0.0999383
000040 22 0c 4d be e0 04 3c be e2 ad 98 bd e0 48 53 bd
       -0.2002416 -0.18361235 -0.074550405 -0.05158317
000050 2e fc 05 3e c8 d2 70 3d 84 b9 43 be d4 19 2d be
       0.1308448 0.058794767 -0.19113737 -0.16904384
000060 3e 64 21 3e 2e 85 43 3e 18 ab 7f 3d 8a 92 bf bd
       0.15760896 0.19093773 0.062419027 -0.09354122
000070 f2 0a 48 3e 10 35 2d 3c aa 00 0d be 62 fe de bd
       0.19535425 0.010571733 -0.13769785 -0.108883634
000080 88 33 2f be d0 5b 24 3d 90 68 d7 3d b8 0b ba bc
       -0.17109501 0.04012662 0.105179906 -0.022710666
000090 af f4 1f be f0 8c 0b bd 50 68 e2 bd 0f ea 43 be
       -0.15620683 -0.034069955 -0.11055052 -0.19132255
0000a0 50 93 5f bc 51 f3 22 be 67 f2 c3 bd d0 38 0f bd
       -0.013645962 -0.1591313 -0.09567719 -0.03496629
0000b0 ea 54 13 be ac 2e a0 3d 10 35 60 bc 10 be cc 3d
       -0.14387861 0.07821402 -0.013684526 0.09997189
0000c0 77 16 ee bd ca 18 02 3e b2 ad 49 be d3 3e 45 be
       -0.116253786 0.12704769 -0.19695166 -0.19262247
0000d0 36 f4 c4 bd b2 8c 10 be e8 b7 dd 3d 84 ed f1 3d
       -0.09616892 -0.14116171 0.10826093 0.11812881
0000e0 cc 2e 3d be 30 bf 3e 3d 0c c7 41 bd 96 07 4b 3e
       -0.18474883 0.04656905 -0.047308967 0.19827113
0000f0 33 1e 41 be 06 22 1f 3e 14 a3 98 3d d8 67 c1 bd
       -0.18859176 0.15540323 0.0745298 -0.09443635
000100 10 4a 54 3d f0 ac d8 3d 12 f5 03 3e 1f 59 cf bd
       0.051828444 0.1057986 0.12886456 -0.101244204
000110 63 bd 15 be 00 10 34 bc d0 4e 0a bd 5c 00 1d 3d
       -0.14623027 -0.010990143 -0.033766568 0.03833042
000120 20 f4 4a 3c 0c c3 2a bd 74 89 24 bd 17 15 34 be
       0.0123873055 -0.041689917 -0.040170148 -0.1758617
000130 14 15 91 3d c7 90 ad bd 44 89 4c be 30 a7 ad 3c
       0.070840985 -0.0847488 -0.19974238 0.021197885
000140 e0 1d f9 3b d0 06 d6 bd 30 74 38 be 41 fb cd bd
       0.0076024383 -0.10450518 -0.18013072 -0.100576885
000150 ee ac 09 3e 9c 6f e2 bd ad 0d 30 be 56 72 96 bd
       0.13444874 -0.11056444 -0.17192717 -0.073460266
000160 ea 41 15 3e 1a 7c 28 be d8 9b 6b 3d 04 03 57 bd
       0.14575925 -0.16453591 0.05752167 -0.05249311
000170 d6 9e 4c 3e c0 ba 61 bb bc 0b b1 3d dc f3 39 be
       0.19982466 -0.0034443587 0.08644816 -0.18159431

linear1.weight f4 [128, 27]
000000 06 8a cd 3d 5d 75 49 3d ab 4d 07 be 1b e1 ef bc
       0.100360915 0.049184192 -0.13213222 -0.029282143
000010 9d 2c 18 be d3 96 2f be a8 b4 a2 bb 05 13 76 be
       -0.14860769 -0.17147379 -0.0049653836 -0.24030693
000020 bf 44 52 3d 39 95 48 bc b2 30 1b be ed c8 98 bc
       0.051335093 -0.012242609 -0.15155295 -0.018650496
000030 cb 5b 39 3e 97 0e 51 3e fc d2 37 3e 04 93 7a bd
       0.18101422 0.20415722 0.17951578 -0.06117536
000040 2c 62 ac 3d b5 94 5d 3d a0 a4 1d be 18 4b 73 3c
       0.08417162 0.054096896 -0.1539483 0.014849447
000050 73 a4 1d 3e 64 b8 92 bd 8d 5e 8d 3c d8 69 7e 3e
       0.15394764 -0.07164076 0.017257 0.24845064
000060 7c d1 69 3c a9 6c 12 3e 02 cb c2 bd 0e 38 a5 bd
       0.014271136 0.14299263 -0.09511377 -0.08067332
000070 4e 29 4d 3e 51 62 ea 3c 6b 3c e3 3d 37 9f 2f bd
       0.20035288 0.028611334 0.11095508 -0.04287645
000080 3d 00 ee 3d d3 58 a5 3d f5 67 d1 bd 83 b5 14 be
       0.11621139 0.080735825 -0.10224906 -0.14522366
000090 a4 8a 04 bd 8f 12 80 3c 16 8c 28 3c a3 83 04 bd
       -0.03235878 0.01563385 0.010287305 -0.0323521
0000a0 ff 0e 18 be d5 07 19 be dd 5e 00 3e 41 9c 20 be
       -0.1484947 -0.14944394 0.12536187 -0.15684606
0000b0 0c 4f 0f 3e fc e6 ad bd 6f c5 91 3d 14 b9 bf 3d
       0.13994998 -0.084913224 0.071177356 0.09361473
0000c0 a0 de 2f 3e d8 94 e9 3c 49 18 ec 3d db 8c ee 3c
       0.17174768 0.028513357 0.115280695 0.0291199
0000d0 e7 a1 7d bd d1 9b e6 bd 28 9d 09 be b9 33 9e 3c
       -0.06192198 -0.11260188 -0.13438857 0.019311773
0000e0 73 8c 24 3e 2a e1 2c be 0a 18 87 3d f9 ab 1b bc
       0.16069202 -0.16882768 0.06596382 -0.009501451
0000f0 fc fd 07 be 0a 40 08 be bd 5d 2a 3e 21 1a 87 3d
       -0.13280481 -0.13305679 0.16637321 0.065967806
000100 cb 3b d2 3d 9d 80 62 3d 23 74 dd bd 1c e3 a6 3d
       0.10265311 0.055298436 -0.10813167 0.081487864
000110 cf 08 3d 3d 47 37 15 be ff 28 3f 3d 78 4a fc bd
       0.04615098 -0.14571868 0.046669956 -0.12318891
000120 a9 df 6a bc 23 f3 36 be 05 8b e1 bd b3 dd 94 3d
       -0.014335551 -0.17866187 -0.11012844 0.07268848
000130 a2 bf 27 3e 9a 6a 9f bd 97 a4 a5 3d 04 cd 33 be
       0.16381696 -0.077840045 0.08088034 -0.17558676
000140 84 be 79 3e 94 8f 82 bd dc 9e 21 3e 7f 9a 05 3e
       0.24389082 -0.063750416 0.15783256 0.13047217
000150 a2 d2 00 bd ae 64 4d 3d ae e6 1c be 73 bc 16 3e
       -0.031450875 0.050144844 -0.15322372 0.14720325
000160 9e 46 a1 bd d2 42 27 be 7c e7 b9 3c ed 70 0e be
       -0.07874797 -0.16334084 0.022693388 -0.13910265
000170 c7 6e b9 3d 69 92 7c bd fa 07 f6 3c 49 ed 66 3d
       0.09054332 -0.061663065 0.0300331 0.056378637
000180 11 cc 40 be e9 31 83 bd 1a 9a 0f 3e 4d d4 1e bd
       -0.18827845 -0.06406004 0.14023629 -0.038776685
000190 bf 00 5f bd a2 af 91 bb 06 f4 9c bd 1b 49 38 be
       -0.05444407 -0.004445986 -0.07663731 -0.17996638
0001a0 0f 03 13 3d 0d 67 0e 3e 96 1e 17 3e a2 4f 54 be
       0.03589159 0.13906498 0.14757761 -0.20733503
0001b0 b2 af 07 3b 24 a6 33 3e b3 f2 22 3e 4a 05 34 3d
       0.0020704088 0.17543846 0.15912895 0.043950357
0001c0 b2 6d 2c bd 01 7d 28 bd 9c 61 43 bd 5a 1c 0e 3e
       -0.0420968 -0.041134838 -0.04770051 0.13878003
0001d0 6b 49 6b 3c 9d 63 16 bd 50 37 d8 bd d9 fa 50 bd
       0.014360766 -0.036716092 -0.10557425 -0.051020477
0001e0 3d 23 1f be 6e 48 bb bd 01 b9 9b 3d 10 1f 12 3e
       -0.15540786 -0.09144674 0.07603646 0.14269662
0001f0 2c c3 49 bc e2 36 35 3e 44 d6 28 3d d8 45 01 be
       -0.012314599 0.17696717 0.041219965 -0.126243
000200 1d 7b c6 bc bb a8 90 bc 40 23 aa 3d ed f5 a4 bd
       -0.024228627 -0.017658582 0.08307505 -0.08054719
000210 43 3a f4 3d eb da ab bc 69 42 57 be 74 da 76 3d
       0.11925175 -0.020978412 -0.21021427 0.060266927
000220 fa c1 ae 3d f6 69 ff 3d 29 94 d6 bd a7 e7 1d 3e
       0.08533092 0.12471382 -0.10477478 0.154204
000230 48 97 93 bc a5 f9 1c 3e 30 ef 92 3c 90 86 8e bc
       -0.018016472 0.15329607 0.01793632 -0.017398149
000240 f0 4c ce bc d2 d4 85 bd 9d ba 9d bd 7b 24 19 3e
       -0.025183171 -0.06534733 -0.07701609 0.14955322
000250 28 ce 1d 3d b0 59 d7 3c 84 e1 76 3d 0e 9b b2 3d
       0.038526684 0.026287884 0.060273662 0.087209806
000260 55 d2 26 3e e4 6b 0d be e0 0c 2c bc ac b1 a5 bd
       0.16291173 -0.13810688 -0.0105011165 -0.08090529
000270 9e cf d4 3d 5e 40 f3 3d 10 5e 42 3c ac c3 a6 bd
       0.10391162 0.118775114 0.011863247 -0.0814279
000280 34 50 37 be ba a5 a3 3d 9c a8 8c 3d 3a fe 6d 3e
       -0.17901689 0.07990594 0.06868097 0.23241511
000290 55 1e 71 bc bd fb 42 3e 40 98 86 3c c6 56 2b 3e
       -0.014716704 0.19041343 0.01643002 0.1673232
0002a0 b5 9e c8 bd 59 a6 bd 3d 2a 74 9e 3c 31 48 30 3c
       -0.09795896 0.09260244 0.0193425 0.010759399
0002b0 bb 6f 22 be d8 b8 30 3b 8b 78 10 3e 1a bd 8f bd
       -0.15862934 0.0026965644 0.14108483 -0.0701849
0002c0 c1 f4 49 bb ef d6 16 3e 15 b1 b5 bd 37 83 f5 bd
       -0.003081605 0.14730428 -0.08871666 -0.11987918
0002d0 28 d6 20 3e 7e 02 b4 bd 32 eb ab 3d b4 19 46 3e
       0.15706694 -0.08789538 0.08394469 0.19345742
0002e0 d3 8d 97 3c ce db 29 be 31 98 11 be 9b bb e1 3d
       0.018500244 -0.16587755 -0.14218213 0.11022111
0002f0 3f 9a 86 be c9 aa 0c 3e 13 66 1d 3e 27 23 20 be
       -0.26289555 0.13737024 0.1537097 -0.1563841
000300 c9 d9 1f 3e d0 71 a3 bd 66 b9 b2 bd d4 41 2b be
       0.15610422 -0.079806924 -0.08726768 -0.1672433
000310 52 6d e6 bd cc d3 04 bd 9e 44 c5 3d e1 12 16 be
       -0.1125132 -0.032428548 0.09632228 -0.14655639
000320 64 e2 47 3d b8 14 9e bd 0d 95 40 3e 00 48 cb 38
       0.048799887 -0.077187955 0.18806858 9.693205e-05
000330 f9 63 31 be 1a 2d d4 bd 1d 97 35 be 3d 3f 8e bd
       -0.17323293 -0.10360165 -0.17733426 -0.069456555
000340 c4 45 1b bd 00 20 f2 bc 5d 18 26 be 1b f3 f0 bd
       -0.03790833 -0.029556274 -0.16220231 -0.11765119
000350 5d 3d 1c 3e f0 14 28 3c 6a 65 06 be b8 a8 8d bd
       0.15257783 0.010258898 -0.13124624 -0.06916946
000360 d7 03 64 3d 1e 47 2e 3d 61 8e 9a 3d d1 3f 94 3d
       0.055667724 0.04254829 0.07546688 0.072387345
000370 74 19 4f 3e 2d d5 a3 3d c1 f9 17 bd d8 e7 1c bd
       0.20224553 0.079996444 -0.03710342 -0.03830704
000380 10 0c 2c be 35 8d 10 be 39 87 cd bc a2 90 84 bd
       -0.16801476 -0.14116366 -0.025088893 -0.06472899
000390 cf 47 ab bd c8 f7 89 3d 88 e5 2d 3e e5 8a 23 3e
       -0.08363306 0.06736714 0.1698209 0.15970953
0003a0 6a 1b db bb 09 da ef 3d dd 0e cc 3d 8b df 4f 3e
       -0.0066866176 0.11711509 0.099637724 0.20300119
0003b0 1e b3 2a 3e 37 42 3a 3e 60 85 26 be c7 3e 26 bd
       0.1666989 0.18189321 -0.16261816 -0.040587213
0003c0 7d f6 ec bd 7b 2f 43 3e b0 8b 49 bd 27 58 cc 3d
       -0.115704514 0.19061081 -0.049205482 0.09977751
0003d0 b0 30 b5 bd de 5a 42 3e 03 44 05 bc 9d a3 2d 3e
       -0.08847177 0.18979976 -0.008133891 0.16956945
0003e0 6f d6 87 bd b9 95 28 bc 26 71 ae bd b5 d0 02 bd
       -0.06632697 -0.010289603 -0.08517675 -0.03193732
0003f0 fc 12 16 be 47 06 22 be c0 6f 39 3d 40 76 2e 3d
       -0.1465568 -0.15822707 0.04527259 0.04259324

linear1.bias f4 [128]
000000 29 b0 3c be e9 79 57 3d ee b2 3a be 97 7f 93 bd
       -0.18426575 0.052606497 -0.18232319 -0.0720207
000010 87 ab 72 3d 5d b8 eb bd 5e f4 24 3d b4 fc 72 bd
       0.059245612 -0.11509774 0.04027211 -0.059323028
000020 4c 41 a2 3d ab 05 eb bb c3 bb a2 bd 6c 41 8f bd
       0.07922611 -0.0071723065 -0.07945969 -0.069949
000030 21 76 01 be 57 7c 22 be dd 1c e0 3b f4 f3 dd 3d
       -0.12642719 -0.15867744 0.0068393783 0.10837546
000040 40 0e 3d be 61 f4 dd 3d 74 94 44 3e 1a 7d 1a 3e
       -0.18462467 0.10837627 0.19197255 0.15086785
000050 c9 fb e8 bd 89 63 19 3e e5 2b bc 3d 92 48 99 bb
       -0.11376149 0.14979376 0.0918806 -0.0046778405
000060 48 ae 87 bd 2c e8 ab bd 65 72 7b bd 27 d3 76 bd
       -0.066250384 -0.08393893 -0.061388392 -0.060259964
000070 65 cf 01 3e 1b 89 f1 bd 5b 67 96 3d bf 97 2f 3e
       0.12676771 -0.11793729 0.07343932 0.1714773
000080 fc 92 f2 bd 68 d9 a2 bc 25 d9 01 3e 14 0b 15 be
       -0.11844441 -0.019879058 0.1268049 -0.14555007
000090 5e 7c e5 3d c4 bb e3 3d 93 84 ef 3d 36 65 1b 3e
       0.11205362 0.11119798 0.116952084 0.15175328
0000a0 26 6e e6 3d 1b fd 0f 3e 4a 24 bd 3d e2 37 54 bb
       0.11251478 0.14061396 0.09235437 -0.0032381942
0000b0 34 0d ee 3c 75 f5 48 3d 55 91 16 3e 38 16 56 3d
       0.02905903 0.04906221 0.14703877 0.052267283
0000c0 38 b5 94 3c 6b 6a 29 be 33 ac 55 3d 38 74 13 bd
       0.018152818 -0.16544501 0.052166175 -0.035999507
0000d0 20 16 10 3e 9b 81 3a 3e bb 9c c1 bd 7e 95 01 3d
       0.1407094 0.18213503 -0.09453722 0.031636707
0000e0 77 bb 1d be d8 80 f4 3c 99 9c 1e 3e 22 85 22 be
       -0.15403543 0.029846594 0.15489425 -0.15871099
0000f0 d9 9c 0e 3e d5 fc 07 3e 52 af 1a be 4b e7 27 be
       0.1392702 0.13280042 -0.15105942 -0.16396825
000100 a2 0e 8e bd b0 a7 74 bc 17 ce 3c 3e a7 07 35 be
       -0.06936385 -0.014932558 0.18437992 -0.176787
000110 ee 37 e9 3d 63 32 2e bd 51 f3 4a 3e 8b 7d 6b 3d
       0.11387621 -0.04252852 0.1981938 0.057492774
000120 77 14 30 3e 43 7c 29 3e 9f 51 d4 3d c4 e0 5a bd
       0.17195307 0.16551308 0.103671305 -0.05343701
000130 08 0d 97 bd 26 5a 06 3e 42 61 88 3d 42 cd 5a bd
       -0.073755324 0.13120326 0.066591755 -0.053418405
000140 fc b6 22 be bb 3d 36 3e 8e 78 8b 3d 4f e8 1f 3e
       -0.15890115 0.17796986 0.06810103 0.15615962
000150 40 b0 62 3d 0b a1 0b be 86 54 4d be b9 05 3a 3e
       0.055343866 -0.13635652 -0.20051774 0.18166246
000160 93 69 44 be 82 b2 c1 3d d9 d1 12 3e 23 aa 2f 3e
       -0.19180898 0.09457876 0.14337863 0.17154746
000170 7e cf c8 bd 50 b6 64 bc 0b c3 76 bd 3a 3e 79 3d
       -0.09805201 -0.013959482 -0.0602446 0.06085036
000180 b0 ae 34 be 70 86 04 3e 58 e0 06 bd 5c ae 0e 3d
       -0.17644763 0.12941909 -0.032928795 0.03483425
000190 66 da 3f be f7 ea cd 3c 2d 60 cd 3a 8b f7 fc 3c
       -0.18735656 0.025136454 0.0015668921 0.030879756
0001a0 b0 53 d2 bc 1d 46 06 be 29 98 09 3e eb ac d3 bd
       -0.025674671 -0.13112684 0.1343695 -0.10335716
0001b0 39 82 34 3e 78 85 56 bd 2b 70 95 3d d4 da 42 be
       0.17627801 -0.05237338 0.07296785 -0.19028789
0001c0 d1 9c 59 bd b0 d8 94 bd 08 32 c1 bb e9 aa af bd
       -0.053128067 -0.07267892 -0.005895857 -0.085775204
0001d0 8a 82 f7 bd 6c d3 09 be 12 40 d3 3d ea b1 97 bd
       -0.12085445 -0.13459557 0.10314955 -0.07406981
0001e0 b5 3d b3 3d b8 e6 dc bd 21 1d 13 3b de b9 01 3e
       0.08752004 -0.107861936 0.0022447782 0.12668559
0001f0 88 7b 06 3c 05 3a 28 be 62 69 d4 3c 25 c5 28 be
       0.008208163 -0.16428383 0.025929157 -0.16481455

linear2.weight f4 [128, 128]
000000 66 34 7b 3c fb 33 20 3e 5d e0 50 3b 0f 85 39 3c
       0.015332317 0.15644829 0.0031872012 0.011323228
000010 be 7b 32 3d 27 7c 96 3d 35 84 53 3d fc 47 92 bd
       0.04357504 0.07347899 0.051639754 -0.07142636
000020 de 21 fc bc 14 22 bd 3d 1d 05 c3 3d 14 62 83 bd
       -0.030777868 0.092350155 0.0952246 -0.06415191
000030 7b ad d6 3d 75 75 91 3d 2b 40 b2 bd af be af bd
       0.104823075 0.07102481 -0.08703645 -0.08581292
000040 b7 90 22 bd ee 25 d7 3c 3c ad a4 3c f9 b0 f5 3d
       -0.039688792 0.026263203 0.020102136 0.119966455
000050 98 1d 70 3c b3 d5 14 bc ef 10 c5 bd 41 57 cf bd
       0.014655493 -0.009084153 -0.096223705 -0.10124064
000060 b6 02 7f 3d 7c ca 85 3d 00 9f c8 bc a0 63 67 bc
       0.062258445 0.065327615 -0.02448988 -0.014122874
000070 12 70 39 3d d9 19 a7 bd 3c df d8 3c 84 2a 57 3d
       0.045272894 -0.08159227 0.026473634 0.05253078
000080 9d 72 cf 3d dc 06 bc bc dc df 7d 3d 0b c2 6c 3d
       0.101292826 -0.02295249 0.061981067 0.05780224
000090 2e b3 3e bd f0 0d ca 3c 5d 58 64 bc 80 34 51 3c
       -0.046557598 0.024664849 -0.013937083 0.012768865
0000a0 d2 bd 06 3d 9c aa 57 bd 8c cb 5f bd 1d 18 02 bc
       0.03289587 -0.05265294 -0.054637477 -0.007940319
0000b0 e3 c5 86 3d 8f 7b 62 bd 2a 07 19 bd a3 70 99 bd
       0.06580713 -0.055293616 -0.037360348 -0.07492187
0000c0 30 ef e4 bb 55 6c 0b 3d 7a aa 07 be 2e 0d 91 bd
       -0.006986521 0.03403886 -0.13248625 -0.07082592
0000d0 df 3b b7 3d c2 65 7e bd 71 6d 15 3d ea c6 d9 3d
       0.089469664 -0.062108763 0.036481325 0.10633643
0000e0 7b 66 65 3d 13 e6 ad 3d 0b 74 a0 bd 62 e0 ce 3d
       0.056005936 0.08491149 -0.078346334 0.101013914
0000f0 13 b0 ea bc e8 af 1f bd 3d 56 67 bb 84 b7 08 bd
       -0.028648412 -0.038986117 -0.0035299205 -0.03337814
000100 40 2c 07 3e 85 12 d7 3c 5e 28 1d 3d 40 a0 c1 3c
       0.13200474 0.026253948 0.038368575 0.023635983
000110 94 6a 06 bd b4 a7 8d 3d af 7b d6 3d d0 78 c1 bd
       -0.032816485 0.069167525 0.104728095 -0.09446871
000120 ae b5 06 3d 31 e6 1f 3d 1e df ea bc 6a 5e 3e 3d
       0.032888107 0.039037887 -0.028670844 0.04647676
000130 7e 77 4c 3d 70 e1 6a bc 67 0d b0 3d 6b 7d be 3c
       0.049918644 -0.014335975 0.08596306 0.023253163
000140 40 0f 8a 3b b8 75 18 bc 99 00 9b bd 08 8f 05 bd
       0.0042132437 -0.00930541 -0.07568473 -0.03260711
000150 48 cd 92 bc 93 38 55 3c da 78 bf 3d 61 a1 ee bb
       -0.017920151 0.013013977 0.093492225 -0.0072824215
000160 38 65 ab bd 52 f6 6c 3d 19 be 9d bd ff fc c2 3d
       -0.08368915 0.057852097 -0.07702274 0.095209114
000170 f9 80 72 3d 96 76 93 bd 5e 19 12 3c d4 2c ce bd
       0.05920503 -0.07200353 0.008917181 -0.10067144
000180 1f e6 9c 3d dd 4a b8 3b 9e b8 74 3d 30 85 10 3d
       0.076610796 0.005624159 0.059746377 0.035283267
000190 ed 77 59 3d 48 6a 98 bc 67 07 89 3d bd 02 93 3d
       0.053092886 -0.018605366 0.06690865 0.07178257
0001a0 d6 7e de bd 88 20 21 bc 1a f2 bc 3d 0d 67 08 3e
       -0.10864036 -0.009834416 0.09225865 0.13320561
0001b0 cf c1 94 bd 34 92 06 bd e0 b0 bf be c8 84 26 bc
       -0.072635286 -0.032854274 -0.37439632 -0.010163493
0001c0 33 55 61 3d 78 c9 29 bd c9 c2 9f bd 80 95 42 bd
       0.055012893 -0.0414519 -0.07800824 -0.047505856
0001d0 0c 0a 82 3d 4a b4 43 3d 7f 57 9b ba 80 26 af bc
       0.063495725 0.04777936 -0.0011851637 -0.021380663
0001e0 24 12 ff 3d c8 0d 46 bd 4f e9 6e be 38 7d 7c bd
       0.12454632 -0.048352987 -0.23331188 -0.061642855
0001f0 41 46 89 bd a1 f6 8e 3d 70 56 11 bc 0b a5 96 bd
       -0.06702853 0.069806345 -0.008870706 -0.07355698
000200 17 ad 16 3d 8a b9 34 bc a1 d5 e8 bd 2e 02 dd bc
       0.036786165 -0.011030564 -0.113688715 -0.026978578
000210 12 17 f9 bc 62 b6 62 bd a3 f1 93 bd 92 bc 5f 3d
       -0.030406509 -0.055349715 -0.07223823 0.054623194
000220 72 4f b9 3d df 6f 31 bd d5 98 14 bd 1c 72 98 bc
       0.09048356 -0.04331958 -0.036278564 -0.0186091
000230 d4 80 94 bd 90 41 22 bd 75 f8 61 bd bb 7c af 3d
       -0.072511345 -0.039613307 -0.055168588 0.08568712
000240 d9 36 a0 3d 86 b6 a2 3d 93 40 88 3c ae 01 1b bd
       0.07822961 0.0794497 0.016632354 -0.0378434
000250 86 59 6f 3d e7 aa b1 bd 76 ad 1a bd 95 e2 46 3c
       0.058434986 -0.08675175 -0.03776308 0.012138982
000260 59 9f b2 bd 39 f2 9d 3d 50 c6 2b bd c6 87 a8 bc
       -0.087217994 0.07712216 -0.041937172 -0.020572554
000270 14 f7 48 3d 8b 11 37 3d d3 77 a7 bd 73 f9 03 3d
       0.049063757 0.044694465 -0.081771515 0.032220315
000280 5b 7a ab 3d 3e 7d 1a bd 8c 54 8c 3c 39 46 85 3c
       0.08372947 -0.037717097 0.017130159 0.016268836
000290 0d 5a 71 bc f1 15 2f 3d 7b 72 d2 3d 96 52 23 3d
       -0.014730942 0.042745534 0.10275742 0.039873682
0002a0 fa 88 6d 3d 4e 35 e9 3d 67 62 97 bd b3 ca 9c 3c
       0.05799196 0.1138712 -0.07391816 0.019139623
0002b0 1c 64 6e bc 4e a3 83 bc 1c d1 6d bd 08 69 9c bc
       -0.014550235 -0.01606908 -0.05806075 -0.019093052
0002c0 12 da 71 bd 6c 7f 1e bd 8c e4 12 be ac 3b c5 bc
       -0.05904586 -0.038695738 -0.14344996 -0.024076305
0002d0 b3 1f c4 3d c0 e8 46 3b 36 2f 9b bd 96 40 05 bc
       0.09576359 0.0030351132 -0.07577364 -0.008133074
0002e0 02 bc 9c bd b0 cb 74 bc c8 73 3e bd 11 86 92 3d
       -0.07653047 -0.014941141 -0.046497136 0.071544774
0002f0 1a 9a 75 3d 28 6c c2 bd 43 22 ed bb 83 b8 e0 bb
       0.059961416 -0.094932854 -0.0072367503 -0.006857933
000300 38 b2 11 bd 1b f9 88 bb 80 c4 72 bc 4e 2b 4f bd
       -0.035570353 -0.0041800863 -0.014817357 -0.050578408
000310 01 ad af 3d 72 79 30 3d 59 03 0e be 83 54 81 3d
       0.0857792 0.04308457 -0.13868465 0.063149475
000320 37 c0 7c bd c7 34 81 3d 87 fd 21 bd 5f 12 57 bd
       -0.061706748 0.063088946 -0.039548423 -0.052507754
000330 fd 63 ae bd f7 f0 d7 bd a1 e7 9f 3d 53 9b 50 bd
       -0.08515165 -0.10544007 0.078078516 -0.05092938
000340 6d d2 89 3d 50 8d 9f 3c 6c 26 61 bd 0a cd 94 3d
       0.06729589 0.019476563 -0.054968283 0.072656706
000350 4c e6 a3 bd 56 01 85 3d ba 18 60 bd 0f be c5 bb
       -0.0800291 0.064943954 -0.05471108 -0.0060346196
000360 2e 66 13 3c 50 64 3f 3c 13 41 4b 3d d8 1e 13 b9
       0.0089965295 0.011681631 0.049622606 -0.00014030503
000370 86 8d ea 3d f9 ee b3 3d a4 a7 91 3d c2 71 83 bd
       0.11452775 0.08785815 0.07112053 -0.06418182
000380 ae 6f 85 3d 3b 5f 8f 3d db 4c a4 3d d7 03 b3 3d
       0.06515442 0.07000586 0.080224715 0.08740967
000390 3d ec 79 3d d7 e4 8a 3d cc 44 9f 3b c0 f9 54 3d
       0.06101631 0.06781929 0.004860496 0.051995993
0003a0 dc a7 48 3e 3a 39 54 bd b2 5b bd 3b 8c 10 d2 ba
       0.19595283 -0.051812388 0.005778753 -0.001602666
0003b0 92 2d 10 3d c8 11 7c 3d 34 02 30 3e f4 1d aa bd
       0.03519971 0.061540395 0.1718834 -0.08306494
0003c0 03 6d aa bd dd 89 55 3c 2f 08 ac bd 8f 80 a2 3d
       -0.083215736 0.013033357 -0.083999984 0.07934677
0003d0 ed de 3a bc 2d a1 b0 bd 97 78 9c bd d0 b2 d5 bb
       -0.011405689 -0.08624492 -0.07640188 -0.0065215603
0003e0 bc ca af bd 5b a9 83 3d 1b 34 25 be c1 fc 24 bd
       -0.085835904 0.06428786 -0.16133158 -0.040280107
0003f0 5b 11 4e 3d a0 8b 04 bd f4 15 44 3c c2 63 d2 3c
       0.05030952 -0.03235972 0.011968125 0.025682334

linear2.bias f4 [128]
000000 c8 12 96 3d 74 4c bd 3c 27 9e a9 bd c2 5a 8f bd
       0.07327801 0.023107745 -0.08282118 -0.069997326
000010 cb 3f b6 3d cb 97 32 3c 7c 26 a5 bd 3f 4c ee bc
       0.08898886 0.010900448 -0.08063981 -0.029089091
000020 62 ca 83 3c 07 ac 6a bd 90 8a ef bb cb 87 36 bc
       0.016087715 -0.057292964 -0.007310219 -0.011140774
000030 16 f0 cb 3d bb 70 7b 3d db 56 8a bc 8f 8e 90 3d
       0.09957902 0.061386805 -0.016887119 0.07058441
000040 dd 50 26 3d 16 01 2d bd 4d 73 9b bd fd 49 18 bd
       0.04060446 -0.042237364 -0.07590351 -0.037179936
000050 d7 73 95 3c 87 01 a6 bd f0 45 ef 3b bd 5a da 3c
       0.018243713 -0.0810576 0.0073020384 0.026654596
000060 0f 24 97 3d c8 f6 7e 3d 88 c2 ff 3c 0c 6d 4c bd
       0.073799245 0.062247068 0.03122069 -0.049908683
000070 38 29 bc bd 48 53 a0 bc c7 56 04 bd b7 bf c5 3c
       -0.09187549 -0.019570962 -0.03230932 0.024139268
000080 18 8b 80 bc 8f d4 84 3d ab af 81 3d 11 53 a9 3d
       -0.015691325 0.06485855 0.06332334 0.08267797
000090 ce a7 82 3c 68 a2 7c 3c ab c9 7e bc 2d 76 96 3d
       0.015949156 0.01541958 -0.015551011 0.07346759
0000a0 28 01 8c bd 06 43 3d bd 06 29 92 bd 99 5a 73 bd
       -0.06836158 -0.046206497 -0.07136731 -0.059412573
0000b0 93 a1 a0 bd 28 0d d3 3c db 9b b2 bd 1e 07 29 3d
       -0.07843318 0.02576311 -0.08721133 0.041266553
0000c0 92 27 3b bc 0e b5 ad 3c 33 fd a7 bd 38 65 bc 3c
       -0.0114230085 0.021204498 -0.08202591 0.022997484
0000d0 0e f2 03 bd 34 db 43 3d 18 6f 06 bc 0a a9 41 3c
       -0.032213263 0.04781647 -0.008205198 0.011820087
0000e0 4c 2f d5 3c 82 0f bb 3c 3a fc 94 bd a7 c1 0e 3d
       0.02602353 0.022834543 -0.07274671 0.03485265
0000f0 ed 99 c3 3d d6 68 40 bd c7 2a bf bc 8e 3a 89 3d
       0.095508434 -0.04697498 -0.023335828 0.067006215
000100 c8 e1 4a bc 65 b3 c9 3d ce 68 2e 3d 17 87 21 bc
       -0.012382932 0.0984867 0.04258042 -0.009858868
000110 12 bc 97 bd b6 39 a2 bd 3a 63 5c 3d 3f 30 36 3c
       -0.074089184 -0.07921164 0.053805567 0.011119901
000120 08 8d 84 bd 36 60 70 bd 3a 88 9f bd 7e b4 5f 3d
       -0.06472212 -0.058685504 -0.07789655 0.05461549
000130 9e b0 80 bd be d0 a4 3d 52 37 77 3d 7a 03 4e 3d
       -0.06283687 0.08047627 0.060355492 0.050296284
000140 3b 0f 1a bc 64 9a f0 bc 5a dc 97 bd e2 9d 8d bd
       -0.009403045 -0.029370494 -0.074150756 -0.069148794
000150 fd 0b a8 3c c0 69 00 3c ad 8f 4d 3d e6 5b 95 bd
       0.020513529 0.007837713 0.050185848 -0.07292919
000160 f6 13 6c 3d 38 d1 47 bd f6 f7 c2 bc 30 ae e8 3b
       0.057636224 -0.04878351 -0.023799878 0.007100843
000170 3c f0 59 bc 3c 03 90 3d 74 69 a3 3d a3 c8 99 3d
       -0.013301905 0.07031867 0.07979098 0.075089715
000180 3c 7a 2c bd dc 1a 81 3c 8c 3e 27 bd 70 df 41 3c
       -0.04210876 0.015759878 -0.040831134 0.011833057
000190 ca b8 a0 bd 79 41 bb 3c 79 4f f9 3b 83 62 8a bd
       -0.07847746 0.022858368 0.007608351 -0.06757071
0001a0 e4 f2 47 bd e4 e1 09 3c f1 10 96 3d 7a 96 19 3d
       -0.048815623 0.008415673 0.0732745 0.03749702
0001b0 24 f5 a8 bb ba 3a a4 bd ef e7 9a 3d 70 68 93 3d
       -0.005156176 -0.08019014 0.07563769 0.07197654
0001c0 b2 c8 42 bd 7e d2 44 bd 86 84 a5 bc 69 ae 3e bd
       -0.04755468 -0.048052303 -0.020204794 -0.04655305
0001d0 1a 2a 23 3d fd a0 2b bc a8 f1 84 bd e8 93 2e bd
       0.039835073 -0.010475394 -0.06491405 -0.042621523
0001e0 e2 d1 96 3d b9 cc c1 bc 88 35 b3 3c 9f 25 88 bc
       0.07364251 -0.02365719 0.021876112 -0.016619502
0001f0 3a 90 65 3d 81 0d 90 3d ec 55 44 bc ae 04 6d bd
       0.05604575 0.07033826 -0.011983376 -0.05786579

linear3.weight f4 [1, 128]
000000 d8 f1 49 3d 97 51 52 bc 5e c5 1d 3b a9 69 d9 b9
       0.049302906 -0.012836835 0.002407394 -0.00041468188
000010 38 dc 45 3c 99 fe b8 bc cf 3f 49 b9 87 4b 18 bd
       0.01207643 -0.02258234 -0.00019192624 -0.037181403
000020 42 f6 a1 ba ae 19 35 ba 24 d0 69 3c fc 03 cc 3a
       -0.0012356716 -0.00069084286 0.014270816 0.0015565152
000030 ef 51 92 bd 21 be d7 bb 86 b1 ab bb 64 ba 07 bd
       -0.07144534 -0.0065839444 -0.0052396683 -0.03313674
000040 ff 8b 37 bc 42 ff 96 bb 30 71 4c b9 8c 5a d4 3b
       -0.011202811 -0.004608066 -0.00019497122 0.0064805206
000050 25 5d 58 3c 90 8f e8 3c f0 9a 72 b9 b7 14 e6 bb
       0.013205801 0.028388768 -0.00023136637 -0.0070215124
000060 fb 1c 96 b9 80 03 8d b8 d5 43 ac ba 0d 43 86 bc
       -0.00028631822 -6.724056e-05 -0.0013142774 -0.016389394
000070 4a af 8c bc c0 54 a9 39 0c a6 3c 3d d5 28 42 3c
       -0.017173428 0.00032297336 0.046056792 0.011850555
000080 0b 69 c1 bb 62 f5 c5 bc 5a ae e0 bc f9 4e a4 3c
       -0.0059024147 -0.02416486 -0.027426887 0.020057188
000090 2d 55 98 3c 20 82 66 b9 1e 5d 2b 38 08 a8 e9 3c
       0.018595302 -0.00021982985 4.08563e-05 0.028522506
0000a0 71 ec a0 3c b3 37 7c 3c c9 67 29 bc ed 4d 0b 3b
       0.019643994 0.015394139 -0.010339686 0.0021256164
0000b0 fd 11 10 bd a8 fa 1f bc bd e4 e0 3c ee 64 c8 ba
       -0.035173405 -0.009764351 0.02745282 -0.0015288868
0000c0 bb 3a 15 3b 43 d6 c6 ba c4 3b 41 bb e0 d8 21 bb
       0.0022770602 -0.0015170056 -0.0029485086 -0.0024695918
0000d0 6e 75 8e bc d6 a5 6a 3c aa 88 19 3b 67 9e 7a ba
       -0.01738998 0.014321765 0.0023427405 -0.0009560347
0000e0 ce 58 30 3b 7e a6 ef bb fd d7 41 bd c9 d9 1b 3b
       0.00269084 -0.0073135486 -0.047325123 0.0023780933
0000f0 df 6b a5 bd d2 12 26 3a 1a fe 88 3c 8e 32 99 ba
       -0.080772154 0.0006335202 0.016722728 -0.001168804
000100 19 e3 a0 ba 48 08 93 3c 80 b2 34 3b 6c ab 97 bc
       -0.0012274712 0.017948285 0.0027572215 -0.018514358
000110 2a 0a 1b 3b cd e8 42 3c a9 cc dd bb 1f 0d 72 3c
       0.0023657181 0.011896324 -0.006768782 0.014773636
000120 dc 8b 01 37 8b a9 0a 3c a2 91 08 bc aa 01 36 3b
       7.721563e-06 0.008463274 -0.008335503 0.0027771988
000130 e6 9c 46 bc 37 1e 1a 3b 26 81 04 bb 5c 75 43 bb
       -0.012122368 0.0023516545 -0.002021858 -0.002982459
000140 a0 53 0d bb 5c 9e 1e bc bf 88 bf bd e8 c2 7f ba
       -0.0021564737 -0.0096813105 -0.09352254 -0.00097565213
000150 8a ba 54 3c ea 60 0e bb 39 43 ce bd 48 fb b3 3b
       0.0129839275 -0.0021725246 -0.100714155 0.0054926015
000160 fc 40 60 ba 0a 91 7e 3b f5 cc 3b bc e2 0a 82 39
       -0.00085546053 0.0038843774 -0.01146244 0.0002480364
000170 63 5a a7 3c 9b 5c 89 ba ab 47 d5 bb dd ef f3 bb
       0.020428842 -0.0010479869 -0.0065087876 -0.0074443654
000180 07 bf 87 3c ac 21 31 bd c5 03 9d bc d2 6f 74 3a
       0.016570581 -0.043245003 -0.019166837 0.0009324524
000190 37 0c de 3a 59 bc 99 3b e5 40 e8 3c 56 b3 9b 3c
       0.0016940896 0.0046916422 0.028351257 0.019006412
0001a0 85 51 07 3b 59 5a 3f 3c 67 8f b4 ba 96 ef 89 ba
       0.0020647955 0.011679255 -0.0013775647 -0.0010523673
0001b0 4b eb 1a 3d dd dd 7c 3c 60 34 1e ba c6 15 8c bb
       0.03782205 0.015433756 -0.0006035026 -0.0042750565
0001c0 40 1d 9c 3d 61 84 50 3d f5 d3 0f 3d 0d 2c a9 3b
       0.076227665 0.050907496 0.035114247 0.005162722
0001d0 94 6e 05 3b 94 93 a2 3c b2 7c a2 bd 89 cc 9e 3a
       0.00203601 0.019845761 -0.0793394 0.00121154
0001e0 44 0f 4d 3b 44 0d 81 bc 44 ed 31 ba 10 91 0b bc
       0.0031289617 -0.015753396 -0.00067873695 -0.008518472
0001f0 4a 6a 52 3a 1c 21 2a bd c0 97 f2 3c 25 83 0c bd
       0.00080267026 -0.04153548 0.029613376 -0.034304757

linear4.weight f4 [1, 128]
000000 39 f1 cd 3d 18 03 95 bd e9 37 89 3c d6 3e 43 b9
       0.10055775 -0.07275981 0.016750293 -0.00018620057
000010 e5 5a d7 3d 4e 42 84 3b 5a 4d 09 3b 23 22 3c bd
       0.10515384 0.0040362244 0.0020950646 -0.045930993
000020 dc 22 0c bb a6 dc bf ba 57 09 91 3d 60 cb 2d 3c
       -0.0021383082 -0.0014637902 0.070818596 0.01060757
000030 c1 74 94 bd f1 76 a6 bc 0f 71 7e bc 5c aa b2 bd
       -0.072488315 -0.020320388 -0.015529885 -0.087239
000040 74 17 93 bc 00 f8 75 bd 0c f2 2e 3a 1d b0 89 bc
       -0.01795552 -0.060050964 0.0006673641 -0.01680761
000050 c1 0b 89 3c 18 6f 6c 3d 64 83 32 3b f2 42 99 bc
       0.016729238 0.057723135 0.002723896 -0.01870868
000060 40 c6 82 ba aa 02 80 ba 40 e6 db 3a 1f fa c8 bc
       -0.0009977296 -0.0009766419 0.0016776994 -0.02453333
000070 47 82 e3 3c cd 8b 3d bb 1d 74 8d 3d b7 a3 e3 3c
       0.027772082 -0.002892244 0.069069125 0.027788026
000080 9e 48 93 bc ab b0 dd bc d4 f3 36 bc b9 a2 54 3b
       -0.017978963 -0.02706178 -0.011166532 0.0032445623
000090 7f ba 33 3d 49 ee f0 ba 55 1e f4 3b ab 62 c7 bc
       0.04387903 -0.0018381561 0.007449905 -0.02433904
0000a0 6d 45 2e 3c 49 b3 d1 3c 37 6b 1e bc 71 e6 7f 3d
       0.01063667 0.025598185 -0.009669117 0.062475625
0000b0 8d 66 a3 ba 2f b9 ca bc 2e 9b 87 bd 92 da df ba
       -0.0012466476 -0.024746506 -0.06621395 -0.0017078689
0000c0 05 1c d6 bb c5 d3 19 3d 27 44 ac ba 30 34 c2 b9
       -0.006534102 0.037555475 -0.001314287 -0.00037041446
0000d0 c9 28 19 bd e1 d2 97 3c 78 2f a1 3a 19 0f 97 ba
       -0.03739241 0.018533172 0.0012297472 -0.0011524885
0000e0 38 ea 43 3b 68 78 84 bd 0a 5f f0 bd 56 cd 02 bd
       0.0029894244 -0.06468278 -0.11736877 -0.031934105
0000f0 1e 9e 94 bd 4b 31 ff bc 2d 77 3f 3d cc 26 54 3c
       -0.07256721 -0.031151434 0.046744514 0.012948703
000100 bc 29 19 3b b5 0d ae 3c d0 14 19 ba 03 ef f5 bc
       0.0023370823 0.02124677 -0.0005839588 -0.030021196
000110 80 a4 da 3a 7c b9 b3 3d 08 fb be 3c 6a ad 02 3d
       0.0016681105 0.08775613 0.02331306 0.03190366
000120 89 f6 13 3b 07 3f a5 bb 3b 55 94 3d 94 1f 7f ba
       0.0022577366 -0.005042914 0.07242819 -0.00097321835
000130 9d 05 ef bc 9a 2a 02 3b 44 0e fa ba 25 ca 18 bb
       -0.029177481 0.0019861818 -0.0019077738 -0.0023313847
000140 cb 41 87 bb 8f 9f 49 bb 88 02 3a be 4c f2 fa 3a
       -0.004127716 -0.003076527 -0.18165028 0.0019145696
000150 9b 57 a5 3c 48 8a 95 3a 9f 41 cf bd a9 51 a9 3c
       0.020183375 0.0011409009 -0.10119938 0.020668821
000160 f9 d8 b1 ba 00 01 70 bc 2b 40 91 bd 36 41 e7 3a
       -0.0013568691 -0.014648676 -0.07092317 0.0017643336
000170 f5 b3 b3 b8 ff e6 98 bb ce 70 90 bc f2 de a5 3c
       -8.568905e-05 -0.0046662088 -0.017631914 0.02024791
000180 a4 2c 0e 3d 61 4a 06 be 7b 51 84 bd 5a ce 95 38
       0.03471054 -0.13114311 -0.06460854 7.1433096e-05
000190 45 c5 2c bc 1e 95 e8 bc 55 ce c2 bc a1 f4 75 3d
       -0.01054508 -0.028391417 -0.023780027 0.06004775
0001a0 33 2a 32 3b d4 ad b2 bd 08 60 cb b9 58 78 db 39
       0.0027185797 -0.08724561 -0.00038790726 0.00041860598
0001b0 b2 19 32 3c 49 02 61 3d 35 f4 9a ba 03 22 a1 bd
       0.010870384 0.05493382 -0.0011822047 -0.07867815
0001c0 7f 5f 07 3d 37 71 af 3c 19 d0 25 3d 7f bd cb bc
       0.033050057 0.02141629 0.04048166 -0.024870632
0001d0 7a 91 96 ba c1 a2 4b 3d 02 40 51 bd f1 ce 8a b9
       -0.0011487447 0.04971576 -0.051086433 -0.00026475594
0001e0 de b3 80 bc cc 1f 3c bc 28 1a c9 3a ae 6d 0c bd
       -0.015710767 -0.01148219 0.0015342878 -0.034284286
0001f0 36 58 3d 3a 65 5f dc bd 73 56 7d 3d 3e 46 88 bd
       0.0007222922 -0.107603826 0.061850023 -0.06654023

linear5.weight f4 [1, 128]
000000 18 3f b1 ba a3 ff 7a bc 6c 58 6e bc c6 d0 ee bb
       -0.0013522832 -0.015319738 -0.014547449 -0.0072880713
000010 f6 e6 04 bd e1 d6 d1 3b 51 1e d0 bb d4 20 3f 3b
       -0.032446824 0.0064037894 -0.0063512702 0.0029163854
000020 6d 9b 76 3a ce 79 a9 3a 32 a2 d2 bb 4f f3 6f bb
       0.00094073155 0.0012929977 -0.0064280266 -0.003661353
000030 65 5a a1 3b 3b ef b9 bc 95 1a ce bb 14 12 ff 3c
       0.004924106 -0.022697082 -0.00628979 0.03113655
000040 b1 09 2d bc 27 0f 33 bc 00 c4 36 b9 76 5f c6 ba
       -0.010561393 -0.010928906 -0.00017429888 -0.0015134651
000050 94 6c c2 bc 25 6a 69 bc 38 65 b7 39 85 d8 e7 bc
       -0.023733415 -0.014246498 0.00034979894 -0.028301487
000060 f4 63 00 bb d7 cc 9b ba 9c af 19 ba 13 51 36 bc
       -0.0019590827 -0.0011886609 -0.00058626547 -0.011127728
000070 23 83 3d 3c bc 15 11 3a 0c 62 7b bb 93 6e 92 bc
       0.01156691 0.000553455 -0.0038358 -0.017874992
000080 3f ac 93 bc fb 28 10 bd a5 12 e1 3c 5a 77 ff 3c
       -0.01802647 -0.035195332 0.02747471 0.031184841
000090 d7 f2 08 bc e5 74 8c ba 14 75 ec bc 75 1b 19 3c
       -0.008358679 -0.001071599 -0.028864421 0.009344925
0000a0 e0 bb a5 bb 88 a7 15 3d 8f e1 0f 3b 30 a0 78 bc
       -0.005057797 0.036536723 0.0021954512 -0.01517491
0000b0 bf d1 46 bd 64 d0 d9 3c e7 eb 08 bd a0 36 63 3c
       -0.048539873 0.026588626 -0.0334281 0.013868004
0000c0 5c 40 49 3c 8c 89 03 bd a6 f5 a8 ba c2 fe 27 3b
       0.012283411 -0.032113597 -0.0012890592 0.0025634025
0000d0 01 1d 36 3d b8 18 ea bb a6 3a 30 bb 4d b0 37 3b
       0.044461254 -0.00714406 -0.0026890426 0.0028028667
0000e0 de 2f 23 3b a9 e0 b4 bc 7e 35 71 3b 7e 9b 01 3d
       0.0024900357 -0.022079783 0.0036805565 0.03164243
0000f0 a4 f8 67 3c fb 5e e1 bc 33 95 9d bc 40 f2 32 bc
       0.014158402 -0.02751111 -0.019236183 -0.010922015
000100 88 76 d9 3a b9 cf 26 bc ec 34 3d bb 40 64 08 bd
       0.0016591111 -0.010181361 -0.0028870655 -0.03329873
000110 8c 96 a8 3a ef c1 ff bc 7f 38 bc bb a1 24 e8 3c
       0.0012862249 -0.031220404 -0.0057440395 0.028337779
000120 58 07 4f 3a af d7 2f 3c 86 8f 7a 3b 3a 74 0e bb
       0.00078975176 0.010732575 0.003823252 -0.0021736757
000130 49 18 50 3c 45 55 c6 ba e8 46 35 3b 52 e5 08 3b
       0.0127011025 -0.0015131613 0.0027660672 0.0020888639
000140 fd 49 0c bc a1 e5 01 bc d9 47 87 3c 98 d2 e9 b9
       -0.008562562 -0.007928283 0.016513752 -0.00044598128
000150 24 71 db bb 44 89 0a 3b fb 62 f6 3c bd 53 74 bb
       -0.006696837 0.0021138946 0.030076494 -0.0037281357
000160 38 e0 74 3a 69 1d 28 3c 70 da 88 bc 58 da a6 3a
       0.00093412725 0.010260918 -0.016705722 0.0012729866
000170 2f 8f 90 3c 0f d4 9d 3b a0 f0 61 3c 0f 31 96 3c
       0.0176464 0.004816539 0.01379028 0.01833394
000180 dd ba c0 bc 0c 7d ea 3d 5f 2c bb b9 cf 57 08 bb
       -0.023526603 0.11449632 -0.00035700478 -0.002080429
000190 f1 3b 45 bc 3d cd 6a 3d e7 ce 44 3d 63 46 d6 bb
       -0.012038217 0.057324637 0.04804888 -0.0065391525
0001a0 38 4d 7e ba 66 a4 be 3c cf 03 ce ba cc ba b2 3a
       -0.00097008375 0.02327175 -0.0015717688 0.0013635992
0001b0 ad 15 6e bc 97 c3 0e bc ae b6 b3 39 ce aa 19 bc
       -0.014531535 -0.008713624 0.00034277648 -0.009379102
0001c0 95 0c 7f bb e8 44 43 3d 83 60 4e 3a 8d e7 38 bb
       -0.0038917412 0.047673136 0.0007872658 -0.0028214187
0001d0 4c e8 c1 3a 1c bd 09 bc 65 d3 8c 3c c9 a8 f5 38
       0.0014793961 -0.008406904 0.017190645 0.00011713949
0001e0 ca 5d 11 3c 22 18 3f bb d8 f1 dc 39 3e 7d 16 3d
       0.008872459 -0.0029158671 0.00042141858 0.036740534
0001f0 7b af c3 ba 0f 6f 23 3d 8f 19 64 bd 27 77 09 3d
       -0.0014929617 0.039900836 -0.055688437 0.0335609
