算法对比/PPO_beta/model/actor_model.ckpt (torch, 148999 bytes, 10 tensors)

liner.0.weight f4 [128, 27]
00000000: 292d 2c3d d6dc 6d3c f9d7 45be 9c56 b63d
00000010: 4bed 21be 0eea cdbd 335c c43c 0ba7 a4bc
00000020: 7291 cd3d 4a86 96bd 2a8b 0d3c 6ee5 1dbe
00000030: c055 22be 7d2e 0b3e 8c91 0bbe 2b27 8a3c
00000040: 2c34 fc3d e470 b3bc 3687 2cbc 4730 12be
00000050: 8384 ee3c 0f36 8bbd ca91 afbd 4423 e03d
00000060: 1224 40bd e9fd 8a3d 0456 de3b c161 dabd
00000070: c80c 07be d49b eabd 33f6 34be 6eb6 6fbd
00000080: 1b97 c23d 5f31 b9bd 10a6 8f3d 9431 c6bd
00000090: ae58 18be 2786 4e3e 92cd 04be 8e10 9cbd
000000a0: 9b26 45be 026f 40be bdad f03d ba6b bcbc
000000b0: e3ec b2bd 43e5 cb3d 47bf a73d 2af1 efbd
000000c0: 6875 81bc 7d11 4c3d b44b be3d 6f61 0e3e
000000d0: e2e8 5dbd c329 d03d 9bd6 cb3d a10e 23be
000000e0: 2282 a53c 91ba 473d 99f6 133e 4bac a13d
000000f0: fad8 e33d c2c5 34bc 4ab6 0c3e 0891 643d
00000100: 687f a4bd 7685 43bd 1201 3e3e 441f aa3d
00000110: 0c17 5a3c e586 243e 3aeb bb3c b01f 3cbd
00000120: 52c5 1a3e 0162 2d3e fb49 ef3d 9101 2dbe
00000130: 933a d4bc 9775 a83d b0f2 c73c 17ce 163e
00000140: a0df 31be fbe2 17be 8a46 16be 4af3 40bd
00000150: efec 343d abb8 06be 3cdc 043e 6e3a 39be
00000160: 5ca1 143e ac6a 38be a306 053e f5d2 05be
00000170: 20fc edbd dadb 57bb 4016 7f3d 6ece 233c
00000180: 3eae 4cbd 533d 0bbe 6684 eebd fe40 c1bd
00000190: 401d cb3d 2e01 12be 11d8 95bd 22d7 a7bd
000001a0: aaa8 a2bc c389 8b3c 9de4 9abd 5c50 30be
000001b0: ebba 683d cd09 e43d a30e 493e 7987 013e
000001c0: 7e8d 1a3e 0c78 8abd 8403 2ebe 27f5 39be
000001d0: dba5 f83c 3832 9fbd bf10 0bbd 11db 1b3e
000001e0: 0b33 2a3d 9ba9 a53d 67ad ce3d 1676 943d
000001f0: 0368 113e d1c0 823c 940e dbbd 7172 12be
00000200: 8f08 d7bd d8cc d0bc 79e7 b0bc aad5 20be
00000210: 765c 023e 5289 3cbe dd7d ec3c 7158 bbbd
00000220: 08d0 053b ca3b 5d3e e7ed 063e 3481 1abd
00000230: 1033 ab3d 154f 74bd d073 d7bb 8e74 39be
00000240: 3aa1 4cbc 6d8e 433e 626a c2bd 879f b43d
00000250: 5f3a 463e c8a2 08be a61a 9e3c 718d fc3d
00000260: 7f5f 4e3d 0d97 f63d 321e 583e fe3f 3bbd
00000270: 6fd5 4dbd 5d0d 253e fbb3 35be 9860 c7bd
00000280: 0212 9e3d 8bc1 a6bd 85a3 9f3d 5e39 aa3d
00000290: 9194 5abd 37d6 093e 3696 d63d 8a7b 1fbd
000002a0: 54ac b7bd 7406 523c 90f2 b9bd a946 8bbd
000002b0: ff4d 1c3d c4f7 9cbd 0134 ee3d 5c24 c33d
000002c0: 19b9 e2bd 6d4b e8bd 3075 a2bd 1fc3 e23d
000002d0: 558f 16bd 0115 41be ca96 173e b96e efbd
000002e0: 234d 05be e143 8bbe c240 8a3d 2132 e3bc
000002f0: 80f9 4fbd a2aa c23d 406b 83bc eeea a4bd
00000300: 8c06 333d a756 09be 009b 57bd 12e7 bb3d
00000310: f250 873d b541 0f3e 1522 0b3e 7e6b 9a3d
00000320: be3f d63d 987d b0bd 3479 2a3d 7a20 863d
00000330: b1f2 41be 4034 06be 746a 7a3d c01d 203d
00000340: df3e 25be 967b 86bd 9cc3 5abd 9210 843d
00000350: 627f f7bd 5168 273e ab6d 2e3e a802 3dbe
00000360: 2d83 17be 564e 6c3d aae2 08bd 13bd e5bd
00000370: 17b2 c23c 3173 70bd 4132 093d 2c35 20be
00000380: bc4b 5d3c bde6 2c3e 2bb6 9b3d 4a49 30bd
00000390: a54f 1f3e 2a5b 363e 1a74 223e ed56 08be
000003a0: 0df1 6c3e 0e3d 2b3e 817e 243d 8436 523e
000003b0: 0e5c 53bd e842 d3bd 3dff 183e 6f9b 48bd
000003c0: dcfd f8bc b3c8 dfbd 7d9d 34bd f4d9 c0bc
000003d0: 6d54 b1bd 22f6 b4bd 43c6 023c a73d 393e
000003e0: 6c3b 123e cf80 f63d cc25 2b3e 38cd bf3d
000003f0: 890b 263e 6502 e9bd 0b08 043e 629c 2b3e
0.042035256 0.014517983 -0.19320668 0.08903238 -0.15813176 -0.10054408 0.023969745 -0.020099184
0.10037507 -0.07349832 0.008639136 -0.15419552 -0.15853024 0.13591953 -0.1362974 0.01686438
0.123146385 -0.021904416 -0.010530284 -0.14276229 0.02911592 -0.0679742 -0.08572729 0.109442264
-0.0469094 0.06786711 0.006785156 -0.10663176 -0.1318847 -0.11455503 -0.17672043 -0.058523588
0.09501477 -0.0904262 0.07014096 -0.09677425 -0.14877579 0.20168363 -0.12969044 -0.07620345
-0.19253008 -0.18792346 0.11751888 -0.023000587 -0.08736589 0.099558376 0.0819078 -0.1171592
-0.015803054 0.049821366 0.09291783 0.13904355 -0.054177172 0.101642154 0.09953042 -0.15923549
0.020203654 0.048761908 0.14449538 0.078941904 0.11125369 -0.011033477 0.13741413 0.055802375
-0.08032113 -0.0477347 0.18555096 0.08306745 0.013311159 0.16067083 0.022939313 -0.045928657
0.15114334 0.16931917 0.116840325 -0.16895129 -0.025906837 0.082255535 0.024407715 0.14727055
-0.17370462 -0.1483268 -0.14675346 -0.04710702 0.04417127 -0.13156383 0.12974638 -0.18088695
0.14514679 -0.18009442 0.12990813 -0.13068755 -0.11620355 -0.0032937438 0.06227708 0.009997947
-0.049970858 -0.13597612 -0.11646347 -0.094362244 0.09917688 -0.14258263 -0.07316602 -0.0819533
-0.019855816 0.017033463 -0.07563136 -0.17218155 0.056818884 0.11134682 0.1963449 0.12649335
0.15093037 -0.067611784 -0.16993529 -0.18159924 0.030352524 -0.0777325 -0.033951517 0.15220286
0.041552585 0.0808899 0.100916676 0.072490856 0.14199834 0.015961083 -0.1069614 -0.14301468
-0.10499679 -0.025488302 -0.02159475 -0.15706506 0.12730584 -0.18411759 0.02886861 -0.09147728
0.0020418186 0.21604839 0.1317669 -0.037720874 0.08359349 -0.05964573 -0.006575085 -0.18110868
-0.012489611 0.190973 -0.09492947 0.0881949 0.19358204 -0.13343346 0.019299816 0.12331665
0.05038404 0.120405294 0.21105269 -0.045715325 -0.050252374 0.16118379 -0.17744438 -0.09735221
0.077182785 -0.08142384 0.07794861 0.08311723 -0.05336434 0.13460623 0.10477869 -0.038936175
-0.08968416 0.012818921 -0.09079468 -0.06800587 0.03816032 -0.07664445 0.11631013 0.095284194
-0.11070461 -0.11342511 -0.07932508 0.11072373 -0.036757786 -0.18855669 0.14803615 -0.116910405
-0.13017707 -0.27200225 0.06750633 -0.027733864 -0.05077505 0.09505202 -0.016042352 -0.08052622
0.043707415 -0.13411961 -0.052638054 0.091749325 0.06607236 0.13989909 0.1358722 0.07540034
0.104613766 -0.08617705 0.041619495 0.06549163 -0.18940236 -0.1310587 0.061136678 0.03909087
-0.16137265 -0.06566541 -0.053409204 0.06448473 -0.12084843 0.16348387 0.17034023 -0.18458045
-0.14796133 0.057691894 -0.03341929 -0.11217704 0.02376656 -0.058703605 0.03349519 -0.15645283
0.013506826 0.16884895 0.07603105 -0.043038644 0.15557726 0.17808214 0.15864602 -0.1331441
0.23138829 0.1672251 0.040159706 0.20528609 -0.051601462 -0.10315496 0.14941116 -0.048976358
-0.030394487 -0.10926952 -0.044095505 -0.023541428 -0.08658681 -0.088360086 0.00798184 0.18089925
0.1428048 0.12036287 0.16713637 0.09365314 0.16215338 -0.1137741 0.12893693 0.16758874

liner.0.bias f4 [128]
00000000: d5f4 21be 85d3 1c3e 01a9 3a3d 9124 05be
00000010: 5887 c8bd 7fad 55bd 4e7c 3abe e084 793c
00000020: 26d6 0b3e 5c0d fabc 70bf b33d 95bf 2c3e
00000030: 8ad0 863d af42 e3bb 2200 31be fcc2 0abe
00000040: e2fd 0dbe 2930 02be c753 5d3e c9c1 20bc
00000050: 0e19 983d b97e b63d 8b40 0e3e 4546 403e
00000060: e176 f1bd 369b 243e 791d 033e ea28 cabd
00000070: 67aa fb3c 4ad0 df3d 242f e73d 4e94 98bc
00000080: 1996 933d 13e4 c93d 01db 0e3e 5970 38be
00000090: 0aec 853d 2b5a 643d ab79 5bbd 94cf c4bc
000000a0: ed89 c73c 4a99 353e df38 2bbe 85c2 b03c
000000b0: da4f edbc f1b8 45bb dbef a3bd 60e0 e0bd
000000c0: a218 093e 9174 21be 40be 2d3d 4701 f73d
000000d0: b55f b13c 2095 c93b 71e7 03bd 0b7c 4abe
000000e0: ef18 4b3e 27eb 1cbe f0f9 0bbd f98c 993d
000000f0: 80a9 09be c48e fe3c f774 90bd df64 073e
00000100: 400b ac3d 80ab fcbc 31c9 13be 465e df3d
00000110: 6819 52bd 433f 1d3e af6f 3cbe ae0c 97bb
00000120: 5fcf c23c 0a00 6f3c 382f 37be a052 21bc
00000130: 4e0a 42be 1ec4 d6bd db40 9dbc 224d d4bd
00000140: ccaf 8cbd 832f c9bd d9ee a23d 93e6 b7bd
00000150: 3540 643d 8c5a 53bd 2620 3bbe 880b 35bd
00000160: 7557 30bd 5ff5 e2bd 20d1 3ebc b159 2cbe
00000170: d5d4 0ebe 62ab c4bd 8df8 cfbd a473 02be
00000180: 1374 5cbc 4c5f b1bd 16bc c83d bfa9 e5bc
00000190: f1d5 10be 673c 25be cd36 41be 339e d73d
000001a0: 887b 343d 82b6 d23d 30a1 6a3d 5458 663d
000001b0: 6b78 04be 91fd 06be 504f 1d3e e5cf 1ebe
000001c0: bd38 653d b9b5 373e 0d57 11be c07c 523d
000001d0: 7fc4 a43d cdcd 31be 6d89 02bd df7a 213e
000001e0: 6aee df3d ef7b 083e 41e7 9d3d 4779 933d
000001f0: 02ce c8bd 6bab 04be 529f 48be c748 0dbe
-0.15816052 0.15315063 0.04557133 -0.1300223 -0.0979144 -0.052167412 -0.18211481 0.015229434
0.1365591 -0.030523948 0.08776748 0.16869958 0.065827444 -0.0069354395 -0.17285207 -0.13550943
-0.1386638 -0.12713684 0.2161399 -0.009811827 0.07426654 0.08910889 0.13891809 0.18776806
-0.117902525 0.16074833 0.12804212 -0.09871085 0.030720903 0.109284 0.11288288 -0.018625405
0.07206363 0.09857955 0.13950731 -0.18011607 0.065391615 0.055750053 -0.05358283 -0.024024762
0.02435776 0.17734256 -0.16720913 0.02157713 -0.02896874 -0.0030170048 -0.08004733 -0.10980296
0.13388303 -0.15767123 0.042417765 0.120607905 0.021652082 0.0061518103 -0.03220314 -0.19773881
0.1983373 -0.15324079 -0.034173906 0.074975915 -0.13443565 0.031073935 -0.07053559 0.13222073
0.08400583 -0.030843496 -0.14432217 0.10906653 -0.05129376 0.15356164 -0.18401979 -0.004609666
0.023780523 0.014587412 -0.17889106 -0.0098463595 -0.18949243 -0.10486625 -0.019195965 -0.103662744
-0.06869468 -0.09823515 0.07955713 -0.089795254 0.055725295 -0.051600024 -0.18273982 -0.04420045
-0.043052156 -0.11081957 -0.011646539 -0.1683109 -0.13948376 -0.09603001 -0.10154829 -0.12739426
-0.013455409 -0.086607546 0.098014995 -0.028035043 -0.14144112 -0.16136323 -0.18868561 0.10528221
0.04406312 0.10288717 0.057282627 0.05623658 -0.12936561 -0.13182665 0.15362287 -0.15508993
0.055962313 0.17940415 -0.14193363 0.051388502 0.08045291 -0.17363663 -0.03186934 0.15769528
0.10934146 0.13328527 0.07710124 0.07200866 -0.09804918 -0.12956016 -0.19592026 -0.13797294

liner.2.weight f4 [128, 128]
00000000: c8f3 e93d 0f4c 81bc 5562 0ebe c9f1 9e3d
00000010: 895b 6e3d 448e 9fbd cd3c eb3d 069b 8ebc
00000020: 1106 2b3d a335 cb3d 1efd b9bc f850 0abd
00000030: a460 363d a9a5 953d 5b88 abbd 315a 48bd
00000040: ba39 d73c 873a 4b3d 8b05 323e ae2f e8bd
00000050: e938 12bd 0137 843d 78f3 3b3d dc26 013e
00000060: e6cb 45bd eb81 b0bd 750a 97bc 852a 423d
00000070: dc76 e7bd a9a7 cebd ce88 0bbe 8f58 c2bd
00000080: 96a9 59bd 904e 7dbd 872f ec3d 7b22 cc3c
00000090: e124 2dbe 91dc e1bd 3496 df3d 0467 b03d
000000a0: c5b1 503d 2858 1e3d 8e9e 91bc 5bd3 b03b
000000b0: e95f c83d bb33 d13b 0bad 69bd c4e5 b8bd
000000c0: dbd8 bebd 588f dabd cbe1 4abd cdc0 b13d
000000d0: 7a3b 14be f7c5 a5bd fc17 453d 8d71 f1ba
000000e0: 44ac 4fbd 31e4 8abd 71a3 2ebe df92 f23d
000000f0: 5724 01bb 3870 e13c 665e 94bc 8f0f f4bc
00000100: 2673 36bd ed38 36bd dc8c 1b3e 2239 343e
00000110: bcdf dfbd 7198 ef3c 33ad 06be 732b 04be
00000120: 8539 ecbc a4d2 073e 6bfe d8bd 765e 863d
00000130: 4bc5 0c3c 7c5a ca3c e123 773d e7c9 23be
00000140: 815b 06be a323 16be 07b2 6a3d 9f68 4f3c
00000150: 61c8 d33d b5c7 14be 1d35 983d 640e 1abe
00000160: f772 30bd 64f3 e6bc 2b06 993d d356 d63d
00000170: 1ff2 94bd 05fb babb a73d eebb e98c d53d
00000180: 89be 7f3a 93d2 61bc 9c52 0b3e 568e 0fbd
00000190: 0b34 15be c053 a23d a546 bdbd b1e0 e2bd
000001a0: 5170 3cbe e9ba d1bc 4150 ce3b 2381 71bd
000001b0: 841e 2b3c 9fc4 50bd 2013 81bc 3ff6 3f3e
000001c0: 86b7 f1bd 712c a13d 4708 f9bb 8e28 11be
000001d0: b1ab 7ebd 5f9d adbd 4f4f f43d 7f55 bd3d
000001e0: 293e 14ba a467 a03c 0df8 09be cbd7 fcbb
000001f0: d94c 65bd d142 c73d 35d3 60bd acec 403d
00000200: 0d97 363d 00cd 903d 096b d2bc abad 5a3d
00000210: 8aeb b43d 0e98 7d3d 3b87 913d 41ae 0f3d
00000220: a8d1 283d 1652 25bd 7930 463d f8c3 afbd
00000230: 639b b73d a479 6abc 922f 253d eb4b 82bd
00000240: 872f 87bc 59fb 8a3d 407a ba3c 08cf 693d
00000250: d3f1 863d 1c4e 193e 3d2e 403e 5aad 90bd
00000260: 8078 993d 886c 9fbd f3f1 91bc 2e37 7a3c
00000270: 88a8 c2bd 1718 3a3d c6c0 47be 2523 a3bc
00000280: 0dd3 16bd 9b55 9dbd 51ea c03c 9a71 8c3d
00000290: 9a87 4ebd 86c7 95bd 3283 1e3e fc6a ba3d
000002a0: a746 713d f6f7 973d 2f99 75bc 1e18 33be
000002b0: e3c5 f13c b0d8 13bb 12ac 7f3d 4d8e ebbc
000002c0: 37b3 473d d296 cdbc 4995 eb3d 8646 013e
000002d0: 66fe 76bc 3b26 50bd 0963 da3a f704 a13d
000002e0: 560e 2abc 8e3e b13c 5451 2cbd 28a6 b3bd
000002f0: 0357 20be 26a7 fe3b fccb 52bd 024e 85bc
00000300: 91cc 883d 0090 a63c 610b 423d 584d 323c
00000310: a36b 0f3d 79d3 c23d 753e 943d 677a 24bc
00000320: 3d93 0ebd aaf1 b3bc 7f8a 21bd 9f53 8f3c
00000330: 246d ab3d 9d10 723d c800 dbbd 27ab eebd
00000340: ea24 4c3d 5465 49be 0b56 a7bc ebb0 f33a
00000350: 4950 bf3d 3504 87bd eca4 a4bd ca1e 64bd
00000360: a058 6d3d 4f40 93bd 1422 37bd 7782 8cbd
00000370: 763d bbbd 0b97 7abc b0e4 b73d 1972 07bd
00000380: 1bfd 213e 52e8 543d ab7c 303d 3303 01bd
00000390: cbee a6bd 1550 1cbc bed0 9fbc 8a6f 8bbd
000003a0: 229f c33c 82a6 40bd d259 fbbc 475a 99bd
000003b0: a2da 8bbc 26f1 23bd bb1f 43be ca83 4ebc
000003c0: 1718 093d 5ae8 423e 3e57 a03d 5244 febc
000003d0: 5cef 533d d728 cfbd e966 473d 661d f1bc
000003e0: ee37 84bb 56e1 bb3c f304 7f3c 355c 0a3d
000003f0: f3b7 7a3d 7b7f 54bd 318e 653b dd16 a6bd
0.11423451 -0.015783338 -0.13904698 0.077609606 0.058192763 -0.07790807 0.11486206 -0.017407905
0.041753832 0.0992234 -0.022703703 -0.033768624 0.044525757 0.07306988 -0.08375617 -0.04891414
0.026272643 0.049616363 0.17384927 -0.11337219 -0.035698805 0.06455804 0.045886487 0.1261248
-0.048290156 -0.0861853 -0.018437603 0.04740383 -0.113019675 -0.100905724 -0.13626406 -0.094895475
-0.053140245 -0.0618425 0.115325026 0.024918785 -0.169086 -0.11028398 0.10917321 0.08613399
0.050950784 0.03865829 -0.0177758 0.0053962893 0.097839184 0.0063843406 -0.057049792 -0.09028199
-0.09318706 -0.10671872 -0.04953174 0.08679352 -0.14475814 -0.080943994 0.048118576 -0.0018420682
-0.050701395 -0.06781805 -0.17054535 0.1184442 -0.0019705498 0.02751933 -0.018111419 -0.029792575
-0.044543408 -0.044487882 0.15190452 0.1759992 -0.10931346 0.029247494 -0.13152008 -0.129072
-0.028836021 0.13263947 -0.105954014 0.06560986 0.00859196 0.02470135 0.06033695 -0.15994988
-0.13120843 -0.14662032 0.057298686 0.012659221 0.103409536 -0.14529307 0.074320056 -0.15044552
-0.04307839 -0.02819223 0.074718796 0.10465779 -0.072727434 -0.0057061934 -0.007270533 0.10427267
0.000975587 -0.013783115 0.13605732 -0.03504785 -0.14570634 0.0792613 -0.0924199 -0.11078013
-0.1840222 -0.025601821 0.006296188 -0.058961045 0.010444287 -0.050968762 -0.01575619 0.18746279
-0.118025824 0.07869805 -0.0075998637 -0.14175627 -0.062175456 -0.08477282 0.119291894 0.09244823
-0.00056550145 0.01958067 -0.1347353 -0.007716154 -0.05598149 0.09729541 -0.054888923 0.047100708
0.044577647 0.07070351 -0.025685804 0.05338828 0.08833988 0.06191259 0.07105871 0.03507829
0.04121557 -0.040361486 0.04838607 -0.085823 0.089651845 -0.014311228 0.04032857 -0.063621365
-0.016502155 0.06786222 0.022763371 0.057082206 0.06589093 0.14971203 0.18767639 -0.07064314
0.07493687 -0.077843726 -0.017815566 0.015271945 -0.09504801 0.04543313 -0.19507131 -0.01991422
-0.036822367 -0.076823436 0.02354923 0.06857605 -0.05042229 -0.07313447 0.15479735 0.09102437
0.05890527 0.07420342 -0.014990135 -0.17489669 0.029513305 -0.0022559576 0.06241996 -0.028754378
0.048754897 -0.02509633 0.11503083 0.12624559 -0.015075302 -0.05081771 0.0016661595 0.07862275
-0.0103793945 0.021636274 -0.042069748 -0.08771926 -0.15658192 0.0077713905 -0.051464066 -0.016272549
0.06679643 0.020332336 0.047374133 0.010882698 0.03501476 0.095129915 0.07238475 -0.010038949
-0.034808386 -0.02196582 -0.03943872 0.017495928 0.08370426 0.059097875 -0.106935084 -0.116537385
0.04983989 -0.1966756 -0.02042677 0.0018592154 0.09341485 -0.06592599 -0.08039269 -0.055693425
0.057945848 -0.0719 -0.044710234 -0.06860822 -0.09142582 -0.0152948005 0.089791656 -0.033067796
0.15819208 0.05197937 0.043087643 -0.03149719 -0.08151015 -0.009540577 -0.019508716 -0.06808384
0.023879591 -0.047033794 -0.030682478 -0.07487922 -0.017072026 -0.0400249 -0.19055073 -0.012604663
0.03347024 0.19033948 0.0782914 -0.031038437 0.051741943 -0.101152115 0.048682127 -0.029432964
-0.0040349877 0.022934597 0.015565145 0.03377934 0.061210584 -0.051879387 0.003502738 -0.081098296

liner.2.bias f4 [128]
00000000: abb7 09be b151 8fbb 13d3 aabb e983 973c
00000010: 9b70 8d3d 9bc7 dcbc 8148 96bd caae 443d
00000020: f5b7 6ebc 9145 9bbd b32e fabc 886a e13d
00000030: b816 6e3d c9f6 453d 5d55 0abb a14a b9ba
00000040: a662 563d 836f b4bd 81d9 5c3d 0eeb 093d
00000050: 9ae2 ecb8 24b5 bb3c 3cab db3d e2c5 723b
00000060: f283 e23c a089 d7bd c7b5 9bbb 84bf 8c3d
00000070: 067f a2bd 550e 083d 0e62 823d 1b0f cc3c
00000080: 1da0 1e3e b4b2 be3c c217 82bb 4b4a 873d
00000090: 6215 843d 8ef1 e8bd 14d2 c7bd 441b c8bd
000000a0: 7d63 37be 54c2 0a3d 47a8 893d 8d3e 24bd
000000b0: 5b00 623d a5e9 b43b a2c4 623d 0a5a 6b3d
000000c0: 6dcd 90bd 832c 063e 7d7b 7ebc 2665 983d
000000d0: 5bf2 1f3d 3ba7 d8bd 44bb ffbd 0528 a0bd
000000e0: 3dc8 b63d b7ba 16be cffb 6a3d 7688 03bd
000000f0: 3900 343d ba74 983d 3e56 953c de68 283c
00000100: ca40 d0bd 7ede a1bd c475 1f3d b226 993d
00000110: 991e 0cbd 8304 f23c 5bb7 adbd c7f9 27bb
00000120: f51c bc3d 8f72 c2bd fed2 b33c 9441 febc
00000130: 6486 8d3c ccf1 87bc 4f9d 81bc 06e9 b7bd
00000140: 620e e1bb 06f3 873d b623 ea3d 1c19 c13d
00000150: 8078 d93c fa95 4b3c 888c 9fbc ffe6 283d
00000160: 3b52 b1bb 51a3 cfbb 8829 d5bc 88d0 81ba
00000170: 13fb 373d e6f1 96bd 5cc7 883c 6b7a 783d
00000180: db6a 193d 156f b03d 518b ec3d 6945 cc3c
00000190: 647f c93d 8775 ab3d 529c 6f3d 519c 623d
000001a0: 2f9f 123e 1a37 44bc f739 81bd 89dd 54bc
000001b0: 7ba1 52bc ffdd d4bd 04b0 79bc b790 333d
000001c0: 9d18 033e 1a1d 9bbd 3551 b73c 9999 033c
000001d0: de43 03bd 7acd 923b f506 08be b369 cf3d
000001e0: 28cd b83d d883 47bd b70b ba3d bb29 853d
000001f0: f347 463d 0587 97bd 2c9a 44bd 6f02 dbbd
-0.1344897 -0.004373752 -0.0052131503 0.018495517 0.069062434 -0.026950648 -0.07338048 0.048018254
-0.014570226 -0.07581628 -0.030539846 0.11006647 0.058127135 0.048331056 -0.002110801 -0.0014136621
0.052340172 -0.08810332 0.053918365 0.03367143 -0.00011295565 0.022913523 0.1072602 0.0037044217
0.027650807 -0.10524297 -0.004751894 0.06872466 -0.07934384 0.033216793 0.06366359 0.024909547
0.15490766 0.023278572 -0.0039701173 0.06605967 0.06449391 -0.11374198 -0.09756866 -0.097708255
-0.17909046 0.033876732 0.067215495 -0.040098716 0.05517612 0.0055210167 0.055363305 0.057458915
-0.07070432 0.13102917 -0.015532372 0.074411675 0.039049488 -0.10578772 -0.1248689 -0.07820133
0.08924911 -0.14719664 0.05736905 -0.03211256 0.043945525 0.07444139 0.0182296 0.010278909
-0.101686075 -0.07903765 0.03893067 0.07478084 -0.034208868 0.029543167 -0.08482238 -0.0025631057
0.091852106 -0.094945066 0.021951195 -0.03103713 0.017275997 -0.01659479 -0.01582208 -0.089799926
-0.0068681696 0.0663815 0.114325926 0.09428617 0.026546717 0.012425894 -0.01947619 0.04123592
-0.005411414 -0.0063366075 -0.02602078 -0.0009904066 0.044917177 -0.07370357 0.016696624 0.060663622
0.03745542 0.08614937 0.1155001 0.024935441 0.09838751 0.08372026 0.058498688 0.055324856
0.14318536 -0.011976028 -0.06309884 -0.012992271 -0.012855883 -0.10393905 -0.015239719 0.043839183
0.12802358 -0.0757391 0.02237759 0.008032226 -0.032047145 0.004480061 -0.13283904 0.101275824
0.090235054 -0.04870972 0.09084266 0.065021 0.04840846 -0.073988 -0.047998592 -0.106938235

d_prob.0.weight f4 [121, 128]
00000000: dc3f b93d fa34 9fbd 700b 033d 63e4 76be
00000010: dec0 e4bd eaa6 163e 3067 683e b96e 243d
00000020: 0002 013e 95fd 663e 827c 973e a3a6 2cbe
00000030: 4c04 3cbe 3084 5fbc 4a8a a9bd 3e1b abba
00000040: 5ead 9b3c df9b c93c c493 09be c197 a9bd
00000050: 2bec 473c 8df0 54be 87db 52be 5f92 f4bd
00000060: c9a3 30be 40bf 5a3e cd5c 88bd 60d2 783e
00000070: 6f13 f63d b59c 15be 0630 24be 6d7a 4abd
00000080: 47a1 f3bd 1edd d83d 973e ef3c dd1d 55be
00000090: 4a54 c0bd 5f6b 1d3e dbb6 163e 8c87 c53c
000000a0: 536f 493e 2673 d9bd ce45 dd3d 4ae8 b23d
000000b0: b2ff 60bd 6c6c 6cbd d2a6 83bc 0aed 90bd
000000c0: 8c4a cfbd ba61 66be faaa 5cbe 1523 fb3d
000000d0: caa1 cdbb 1385 ca3d 8288 6b3e 0c94 1b3e
000000e0: 0229 2fbe 0d3a c93d 883a b3bd 3f1c ab3d
000000f0: 519c 923c 6fe6 75be 79cb 72bd b11d 403e
00000100: 0764 783d 3a9d fbbc 7f0b 8cbd 1cc9 48bc
00000110: 365c 1e3e a902 773c 24d4 f93c 1926 153d
00000120: 0a83 8abd a000 093d 1f64 99bc 8ff0 053e
00000130: 431d 203e b2ca 8fbe 3800 0cbe e2ef 3f3e
00000140: be04 853e 7079 adbd 843a d4bd 91bc c9bd
00000150: 30ae a2bd 6111 55bd 5b2d f53d 1bf2 07be
00000160: f1a1 30be 254d 043d fe47 b53a c813 e33d
00000170: c85f ae3d 841d 223e 8833 5bbe 3393 a43d
00000180: d04f 8dbc 2d2b b73d 678c 3bbe 1c9d 4dbc
00000190: e2f5 76be 5f2a efbd 8c4a 65be 9944 953d
000001a0: ea5e 94be 6315 74bd d614 c3bd 0724 3d3e
000001b0: 094d c0bd 21b7 a13e e571 3cbe 2757 efbd
000001c0: c985 81be 6102 323e 5715 263e 526c 0c3e
000001d0: d31c 8e3c f99e 733c f083 a53e 2b87 5bbd
000001e0: f51f 8abe 6b0a 0c3e 8bc7 89be 034c 65be
000001f0: 6212 2cba 234f 483d 388b 32be 0299 753d
00000200: 5b92 623d 4213 b5bd 224b 133d 6b0a b2bd
00000210: 241a d5bd 72e2 d13d 988d 0ebc f96c 2e3d
00000220: 19b0 c03d 06b2 ebbb 7605 c2bc 61b1 64bd
00000230: afb8 cfbc a454 493d cad5 6cbb e433 0ebd
00000240: 6a7c ba3d 3659 4c3d 9e52 b7bd 2d6b 7cbc
00000250: f3dc 9a3d 08ac 1ebe f175 bdbd b14e 99bc
00000260: f775 e1bd c944 d13c ef35 433c 048c 24bb
00000270: 2348 71bd 8c47 5b3c f11c 06be 0e03 36bd
00000280: 93e3 cc3b c828 8ebc 6331 073b c430 aabd
00000290: 7062 f5bd b2e5 fb3c 8277 453e 5716 d33c
000002a0: f859 ba3d 3d78 c4b9 7444 d73d a269 0fbd
000002b0: 4872 f8bd 2417 1cbd 0614 7c3d 9a21 c3bd
000002c0: 1038 f13c 82a3 49bd 0669 fdbd 3a42 983d
000002d0: 863b 83bc 0d6b 853d b76e d7bc 14f5 81bb
000002e0: 6bd4 f1bd 89f5 2d3c 5110 f2bd c68d cb3c
000002f0: efb5 ca3d 594e cfbd 970f 5dbd 3013 c33d
00000300: 92a0 b63c b183 4f3d 87fe 05be 7be5 c53d
00000310: 0776 bc3d db96 93bc 1e1c 0fbd 6a98 1c3c
00000320: 8245 9dbd 4230 a93d b024 42bd 2179 56bc
00000330: 71f4 073e 2d87 afbd c0cc 143d d68c 1a3d
00000340: b502 893d 25bf 8ebd ff5e 683a de36 5fbe
00000350: 646d 90bc 9c13 803d 2573 733c dcee 59bc
00000360: 7b68 13be 6f9e fb3d 0b4f 05bd e7ee 3d3e
00000370: 0094 1dbd 9d20 2d3d be8d 9f3b 755b 7fba
00000380: ddad f0bd 077a 7d3d 9866 c33c 8323 9e3d
00000390: 4a6e bfbd 2024 7fbd a54a e13b 8903 633d
000003a0: 16ba 42bd f1e8 f63c 32e6 45bd 6f80 563d
000003b0: 2a62 b7bd f1f8 163d e2fe 333d b853 debd
000003c0: e5af 91bd 5e92 a63d 1ccb cd3d 3bee 2b3d
000003d0: c2a1 d0bd 10c3 f0bc 6cbf 72bc 523d debd
000003e0: 4ef2 cbbc 5aee 073d 4333 afbd 9584 37be
000003f0: 32a3 ab3d 7248 903d 489c 02bd 373d 0e3d
0.09045383 -0.07773776 0.03199333 -0.2411056 -0.11169599 0.1471211 0.22695613 0.040144656
0.12598419 0.22557671 0.2958718 -0.16860442 -0.18361014 -0.013642356 -0.0827833 -0.0013054383
0.019003566 0.024610458 -0.13435274 -0.08280898 0.012202303 -0.20794888 -0.20591556 -0.119419806
-0.17249979 0.21362019 -0.06658325 0.24299002 0.120154254 -0.1461056 -0.16033944 -0.04943316
-0.118959956 0.1058905 0.02920465 -0.20812173 -0.09391077 0.1537299 0.14718191 0.024112485
0.19671373 -0.10617666 0.1080433 0.08735712 -0.05493135 -0.057720587 -0.016070757 -0.070764616
-0.101216406 -0.22498217 -0.21549597 0.12262551 -0.0062753903 0.09888663 0.23001292 0.15193194
-0.17105487 0.098255254 -0.08751398 0.08354997 0.017896803 -0.24013685 -0.059276078 0.18761326
0.06064227 -0.03071462 -0.0683813 -0.012254979 0.15464863 0.015076318 0.030496664 0.036413286
-0.06763275 0.03344786 -0.0187245 0.13080047 0.15636162 -0.28084332 -0.13671958 0.18743852
0.2598018 -0.08470428 -0.103627235 -0.09850419 -0.0794338 -0.052018527 0.119715415 -0.1327595
-0.17249276 0.032300133 0.001383066 0.11087757 0.085143626 0.15831572 -0.21406376 0.080358885
-0.017249972 0.08943782 -0.18315278 -0.012549665 -0.24117234 -0.116780035 -0.22391719 0.072884746
-0.28978664 -0.05959071 -0.095254585 0.18470775 -0.09389693 0.3158503 -0.18402822 -0.11686545
-0.25297382 0.1738372 0.16219078 0.13713196 0.017347729 0.014869445 0.32327223 -0.053595703
-0.26977506 0.13675849 -0.26910052 -0.22392277 -0.00065640185 0.048903596 -0.1743592 0.059960373
0.055315357 -0.08841564 0.035960324 -0.08693393 -0.104053766 0.10248269 -0.008700751 0.042584393
0.09408588 -0.007192853 -0.023684245 -0.055833224 -0.025356619 0.049152985 -0.003613817 -0.034717456
0.09105761 0.049889766 -0.08951305 -0.015406412 0.07561674 -0.15495312 -0.09251011 -0.01871428
-0.11008828 0.025545495 0.011914714 -0.002510787 -0.058906686 0.013383757 -0.13096978 -0.044436507
0.006252715 -0.01735343 0.0020628802 -0.083100826 -0.11981666 0.030749176 0.1928387 0.025767488
0.090991914 -0.00037473618 0.10511103 -0.03501285 -0.121311724 -0.038108006 0.061542533 -0.09527893
0.029445678 -0.0492282 -0.12373547 0.07434507 -0.016019594 0.06514559 -0.02629791 -0.003965983
-0.11808094 0.010617622 -0.11819518 0.024847876 0.09897982 -0.101223655 -0.053969946 0.09525144
0.022293363 0.0506627 -0.13085376 0.096629106 0.092021994 -0.01801627 -0.034938924 0.009557823
-0.07679273 0.082611576 -0.04739827 -0.013090403 0.13276841 -0.085707046 0.036328077 0.037731968
0.066899695 -0.06970052 0.0008864253 -0.21798274 -0.017630287 0.0625374 0.014858996 -0.013301577
-0.14395325 0.12286078 -0.032546084 0.18548165 -0.038471222 0.04226743 0.004869192 -0.0009741106
-0.11751912 0.061883952 0.023852631 0.07721617 -0.09347208 -0.06229031 0.0068753534 0.055423293
-0.047540747 0.030140372 -0.048315234 0.052368578 -0.0895427 0.036858503 0.043944247 -0.10855812
-0.07113627 0.08133386 0.10048506 0.04197524 -0.10187103 -0.029389888 -0.014816146 -0.1085154
-0.024895813 0.033186294 -0.08554699 -0.1792167 0.083807364 0.07045068 -0.031887323 0.034726348

d_prob.0.bias f4 [121]
00000000: 5f43 35bd d6d2 f9bd 3ac4 34be 21f3 a5bd
00000010: 2085 5b3d f8d4 86bd ace2 c7bc 5ff0 8abd
00000020: 8fd3 71be f376 993d 97fb 5cbe 4bf6 bfbd
00000030: 2c65 4bbe be91 c5bd 5c2a 05be d262 203d
00000040: 9596 5abe 8dd0 49be c2c0 41be 7d05 593d
00000050: e9ed 7f3d b2da e43c 38d2 25be 2033 4ebe
00000060: 9df3 12be d4e2 c6bd de8c 05bd 42f1 28be
00000070: 1c01 68be 3c4f 9b3c 08cb 18be b5c7 da3c
00000080: 3db1 a63d 23e9 18be ed40 47bd 32e2 743d
00000090: 1f9b 85bd 555d 77be ddb4 913d 46e5 863d
000000a0: 6293 5b3d aea6 03be ffbf c63c d43a 14be
000000b0: e134 5bbe da6c 003d ac97 e0bd d02c 35bd
000000c0: 1750 c8bd d12f 1ebe 6230 c1ba 3343 05bd
000000d0: d97c e73d c1d6 ad3d a8e0 213d 3a7a 3ebe
000000e0: b07a 6fbe 0aad ad3d 7c2d 14be 51e3 0cbe
000000f0: 0df7 eebb 8aef d73d 184b 18bc b7b6 58be
00000100: 8264 b3bd bb95 bfbd 8245 24be 3c5b 43be
00000110: 7000 b33c eeed afbd da2d 1b3d e370 db3d
00000120: db97 593d 0ce2 43bd 9254 563c ef21 a73c
00000130: 9e45 02be f478 47be a055 f1bd 4be2 9ebc
00000140: 034e 903d 739f 79bd 8c50 2abe df0d 033d
00000150: bb0b b83d 6243 423d cbcd 613d 638b b0bd
00000160: 8180 52be b1e3 bfbd f5c7 6f3d 8e71 d3bd
00000170: 7f16 b73d 2d93 51bd bac5 003e 7677 e53a
00000180: 60f1 8237 9fc2 3bbd 3559 98bd 51e7 933c
00000190: 7b9b 1bbd d589 5abe c688 5abe 16a3 f73d
000001a0: 3bb0 4d3c 40a9 3bbd e167 d7bd cd20 003e
000001b0: 6111 11bd 13a8 1ebd 50d2 1ebd 55bb 82bc
000001c0: 4bff 833d 697b 98bc e8ec 9d3d f353 223c
000001d0: 383d a2bd e394 0a3e 9045 243d 2b89 f1bc
000001e0: 0047 51be
-0.044253703 -0.12198417 -0.1765298 -0.08103014 0.053593755 -0.06583589 -0.024400078 -0.067841284
-0.2361586 0.07493391 -0.21580349 -0.093731485 -0.19862813 -0.09646939 -0.1300444 0.039156742
-0.21346505 -0.19708462 -0.18921188 0.05298375 0.06248275 0.027936313 -0.16193473 -0.2013669
-0.14350744 -0.09711233 -0.032605045 -0.16498283 -0.22656673 0.01895868 -0.149212 0.026706556
0.08139274 -0.14932685 -0.048645902 0.05978603 -0.065237276 -0.24156697 0.07114575 0.06586699
0.053607352 -0.12856552 0.024261473 -0.14475566 -0.2140689 0.03135381 -0.10966429 -0.04423219
-0.09780901 -0.15447928 -0.0014739151 -0.03253479 0.1130311 0.08488227 0.03952089 -0.18601313
-0.23386645 0.0848027 -0.14470476 -0.1375859 -0.0072926343 0.10543735 -0.0092952475 -0.2116345
-0.08759405 -0.09354731 -0.1604214 -0.19077772 0.021850795 -0.08590303 0.037885524 0.10714891
0.053123336 -0.047822997 0.013081687 0.020401923 -0.1272187 -0.19479734 -0.1178391 -0.019395014
0.070461296 -0.06094308 -0.16632289 0.03199565 0.089866124 0.047427543 0.0551279 -0.08620336
-0.20556833 -0.093696006 0.058540303 -0.10324393 0.08939838 -0.05116575 0.12575427 0.0017506916
1.5609607e-05 -0.045839902 -0.0743889 0.018054636 -0.037990075 -0.21341641 -0.21341237 0.12091653
0.012554224 -0.045815706 -0.1051786 0.12512513 -0.035416964 -0.038734507 -0.03877479 -0.015958467
0.06445178 -0.018613534 0.07711202 0.00990771 -0.07921833 0.13533358 0.040105402 -0.029484352
-0.2043724

alpha_head.0.weight f4 [3, 128]
00000000: 33f0 bdbe a647 50be 13ea e7bd d59c 933e
00000010: ad0e 19bd ee24 c4be 5716 86be 37c7 afbe
00000020: f2e9 72be 59d3 acbe f434 61be eefc 033e
00000030: d0dd d73d 91b6 babe c5d0 a03e ce4c ae3e
00000040: 04d5 f1be d3cc b1be 6ebe 8c3e 4b7d 3c3e
00000050: 6a6d af3e fb9a c93e cab7 723e 4c70 213e
00000060: 567c c63e ccc7 8abe eb10 d83e 828e 37be
00000070: b048 e0be bfc8 933e ecd4 403d 0154 6b3e
00000080: 1d3a 893e c6e9 223e da49 50be 0247 383e
00000090: 5277 8d3e 87dc 8bbe 7735 9abe e503 e9be
000000a0: ab41 83be 8200 6f3e 2c76 1a3a b9ca 6a3e
000000b0: e9cc 60be 1c91 6c3e c027 443e 013e 52be
000000c0: 634b 38be 93b4 5a3e 5463 9f3e 5e47 ddbd
000000d0: 97ba a93e 16b9 b8be bea4 b5be 9c15 26be
000000e0: d229 7c3e fce5 84be 3f79 7b3e 4f98 babe
000000f0: 0c3f 72be 3491 a53e 7e5c 733e 1945 9fbe
00000100: a9bc b3be 0a38 e03d 0279 1d3e 8985 bbbe
00000110: fe88 8cbe 6380 183d 7644 0ebe 2733 87be
00000120: 37e0 d73e fdd0 903e 2683 9bbe a21c 08be
00000130: 4c92 bfbe 690b a13e 496b c43e e87d 66be
00000140: 7f50 9abe 4a23 9a3e 61b1 543e e668 32bd
00000150: 7c2d cf3d 4a23 98be e0ed 6dbe caa3 90be
00000160: 5998 ba3d 60ab 383e bd7c e9be 525d 56be
00000170: 4ccf 87be 2f0a 8dbe 37fe 383e 78ea 70be
00000180: 0baa 383e d3d1 06be 7e88 823e 461c 493d
00000190: 833a 723e 6ab7 753e 9552 9e3e 95b2 84be
000001a0: 96d3 833e 8797 863e f84f c23e 2f1e a3be
000001b0: c943 4d3e 88a8 c2be 5e18 c03e 8a9e 7b3e
000001c0: b96c 933e bc08 54be 9464 55be f1c9 5ebe
000001d0: d104 5ebe c5d9 6f3e ffc3 8abe c4a4 5f3e
000001e0: 69b4 b63e a86c 65be 1950 a13e 907e 683e
000001f0: f966 20be a5e5 58be e1de 3c3c af84 90be
00000200: 237a 59be 80de 69be 6ab1 e8bc 0895 973d
00000210: 8b1c 1cbd 8c57 56be 9cb7 1dbe 8b51 a7bd
00000220: b27d a9bd ae52 d4bc 813d 8fbd af3d 2c3e
00000230: 3d26 ab3d 6837 aabe 5067 0f3e 0860 d83e
00000240: 998a c3be 678a a4be 99f7 8b3d 4595 983d
00000250: b1b6 683e ee33 113e 2910 ac3d 08f6 603e
00000260: a6f9 143e dead debd ccc5 a73e 3e78 a9bc
00000270: 2ad8 35be f8fa e73d 09ef 593d a772 2f3c
00000280: 2741 313e 051d a43d 93af 8abe 3e69 a23d
00000290: 8353 103e a126 13be 7822 5bbe e81b 20be
000002a0: 3597 04be d919 0f3e c3b9 b23c 7f33 7d3e
000002b0: bd5e dbbb 1f0d 113e f4a9 5d3d 686e 25be
000002c0: 11fa 81be e4d5 123e bd28 9c3d 7d00 12be
000002d0: 83a7 c03e 7ae8 ddbd 72c0 b4bd 67bd 8ebd
000002e0: bcc4 823d 8ade 0abe fee1 653e b36a 79be
000002f0: 120e eabd a68f c93d 5a6c 5b3e a14f 05be
00000300: 85b7 24be 3f89 983c ab2d 9bba 13ec 58be
00000310: 84f8 91be 2c81 603d 5cde 8dbd 79da 3cbe
00000320: c3f4 823e 68c6 6d3e d555 99be cbff 05be
00000330: 091f 11be 8e87 a43d 88bc b13e 822e c1bd
00000340: 8c53 8abd bde4 253d e926 233e a341 ccbd
00000350: 330a bb3c 68fa a1be 08f8 7abd da3a b7be
00000360: 5bde debd e80e 883e 651d 8ebe e4a1 e3bd
00000370: d7fd 46be 3fb5 3dbe 2fe8 343e b24c 65be
00000380: 9218 443d 8cfc 70be 383b a93d 1dad 1ebe
00000390: fc18 013e dd53 573e b145 153e 5dd1 02be
000003a0: 6ab2 523e 621e 5b3e 3b66 a03e 4206 3fbe
000003b0: dbcf 223e 586d 50be 19ee fe3d c135 003e
000003c0: 9e55 233e 595a 0abe 014e 46be 79be 0abe
000003d0: e25b d5bd d616 773d 8581 10be d088 9a3d
000003e0: 6874 f83d 825e abbd 6a6e 283e dc84 aebc
000003f0: 8be2 edbd 0751 1cbe 1161 f5bd 06f3 38be
-0.3709732 -0.20339832 -0.11323943 0.2883059 -0.03736751 -0.38309425 -0.2618892 -0.34331676
-0.23722056 -0.33754995 -0.21992856 0.12889454 0.10540354 -0.36467412 0.3140928 0.34042972
-0.4723283 -0.3472658 0.27489036 0.1840717 0.34263164 0.39376053 0.23702922 0.15765494
0.38766736 -0.27105558 0.42200407 -0.17925456 -0.43805456 0.28864095 0.047078058 0.22981264
0.2680215 0.1590949 -0.20340672 0.17995837 0.27630097 -0.27316687 -0.30118915 -0.45510784
-0.25636038 0.23340037 0.0005892243 0.22928895 -0.21953167 0.2310223 0.19155788 -0.20531465
-0.17997508 0.21357946 0.3113047 -0.10804628 0.3315017 -0.3607871 -0.3547725 -0.16219181
0.24625328 -0.25956714 0.2455797 -0.36444327 -0.23656863 0.32337344 0.23765752 -0.31107405
-0.35104874 0.109481886 0.15378192 -0.36625317 -0.27448267 0.037231814 -0.13893303 -0.26406214
0.4216325 0.28284445 -0.30373496 -0.13292173 -0.37416303 0.31454018 0.38363102 -0.22508967
-0.3013954 0.30105048 0.2077079 -0.04355707 0.10116097 -0.29714423 -0.23235273 -0.2824996
0.09111089 0.18034124 -0.4560298 -0.20934036 -0.26525342 -0.27546832 0.18065725 -0.23526943
0.18033616 -0.13165979 0.2549476 0.04909923 0.23655133 0.23995748 0.3092238 -0.25917497
0.25747365 0.2628748 0.37951636 -0.31858966 0.20045389 -0.38019204 0.3751859 0.24572197
0.28793886 -0.20706457 -0.20839149 -0.21756722 -0.21681525 0.23422916 -0.27102658 0.21840197
0.35684517 -0.2240473 0.31506422 0.2270453 -0.15664281 -0.21181352 0.011527748 -0.2822623
-0.21237998 -0.22838783 -0.02840491 0.07401472 -0.03811316 -0.20931834 -0.15402073 -0.0816985
-0.082759276 -0.025918331 -0.06994153 0.16820405 0.08356903 -0.33245397 0.14004254 0.42260766
-0.3819168 -0.32136843 0.06834335 0.07450346 0.22725941 0.14179966 0.0840152 0.21968853
0.14548358 -0.10873006 0.32768095 -0.020687219 -0.17758241 0.11327165 0.053206477 0.010708488
0.1731001 0.080133475 -0.27087077 0.079302296 0.14094357 -0.14370205 -0.21399868 -0.15635645
-0.12948306 0.13974704 0.021817094 0.24726675 -0.0066946433 0.14165162 0.054117158 -0.16155398
-0.25386098 0.14339405 0.07624958 -0.14257999 0.376278 -0.10835357 -0.088257685 -0.069697194
0.0638518 -0.13561454 0.2244949 -0.24357109 -0.11428465 0.09841852 0.21428052 -0.13018657
-0.16085632 0.018620132 -0.0011839172 -0.21183805 -0.28509915 0.054810688 -0.06927177 -0.18442716
0.25577363 0.23220217 -0.29948297 -0.13085859 -0.14171995 0.080336675 0.3471415 -0.09432699
-0.067542166 0.040501345 0.15932812 -0.09973457 0.022832012 -0.31636357 -0.061271697 -0.35787088
-0.10882255 0.26573873 -0.277568 -0.111148626 -0.1943277 -0.18526171 0.17666696 -0.22392538
0.047874995 -0.23533839 0.08263248 -0.15495725 0.12607187 0.21028085 0.14577366 -0.12775178
0.20575872 0.21398309 0.31327996 -0.18654731 0.15899603 -0.20354211 0.12447757 0.12520505
0.15950629 -0.13511027 -0.19365694 -0.13549222 -0.10417916 0.060324512 -0.14111908 0.07545626
0.12131578 -0.08367635 0.1644837 -0.021303587 -0.11615475 -0.15265284 -0.119814046 -0.18061456

alpha_head.0.bias f4 [3]
00000000: 59cb a13e f2c6 ef3d 00f7 ed3c
0.31600454 0.11707868 0.029048443

beta_head.0.weight f4 [3, 128]
00000000: 7bb8 a03d 4100 273e bd59 463e 3388 683c
00000010: 1dd9 243d e03f 3fbd 95ed 6fbd 0bd0 063e
00000020: 7cd4 1c3e 377c a83d f489 a33d 410b a53c
00000030: 7e24 f8bb 83cd cd3d 3231 11bd ea41 4dbd
00000040: a41a 7c3e 6e27 4f3e f140 6d3d 3ce9 953c
00000050: 5705 7dbe 1cf2 43bd 2d6b 803b ac7a 9b3c
00000060: 43d1 48bd 2d86 a63d 7cdf 6ebe de9b 7f3d
00000070: 3507 fbba 904f 753c d2a2 15bd b67e 7dbd
00000080: d777 bd3b 4537 09be 7a40 283e 74eb 113c
00000090: 0ee7 b0bd 8b41 bbbd 5a3b 973d 1d8c d63d
000000a0: 30a5 59bd ba90 dabb c043 34bd 6901 29be
000000b0: e677 0b3e 100b 1fbe 5d0b 16bd 8505 ce3d
000000c0: 46c5 153e 7d20 4cbd 30b9 083d 6608 0a3e
000000d0: 1bed 77be bbef 333c 0de7 fb3c 0946 aa3c
000000e0: 141d 8e3c 9d1f ac39 74ee f73b 9a78 213e
000000f0: fb3e 03bd 3fd2 a9bd f38a 91bd 3627 643d
00000100: 6d4f ecbc d168 ba3d b1ad 423d e248 e03d
00000110: 1e1c 98bd 489b 863d e194 b23d 34ae 333d
00000120: 4163 b6bd e802 8dbd 65e5 adbc a414 b73d
00000130: a1bb d33d f192 64bd f8cb 05be 6bb5 ac3c
00000140: 6823 9c3d ef02 1fbc b13f 3a3d 199c 763d
00000150: a292 513d a8fb 4f3e 92e6 1f3d 48e5 cc3d
00000160: bb03 8d3d 86bb 35be 7701 883d e234 05bd
00000170: 8362 3c3e d16d 93bc 7708 64bd 37e5 febb
00000180: 47f8 20bd ebf5 553d b6b5 923d be8f 52bd
00000190: 7395 b0bd 0a0a babd e7b4 f63c 01e4 153c
000001a0: ed04 babc 1d8d b23c 9dd0 a2bd 7065 5a3d
000001b0: 50e2 763c 2b1b 423c 3f92 34bd 6210 09bd
000001c0: 0fe6 b0bc 844d 1fbd 179c 503d 025c ac3d
000001d0: c0a3 c53d 8d5a 1dbd 08aa 74bd f08c ab39
000001e0: d0d2 f3bc 5869 e63d a75f b33d c22b 5b3d
000001f0: d6f8 193c c9ed 013d dee8 b53d 32c3 3a3c
00000200: eebb 9bbd d9df 503d 018b f93d 7f3e 34bd
00000210: cc4c c43c f87c 853d 7ee2 bb3c fd35 403d
00000220: f546 263e 85a8 bcbd 3a97 d4bd 9f8e babc
00000230: a3bd 8d3c 8899 843e 572b 8c3d 6b14 6abe
00000240: fd07 133e d65d 663e 0c23 d63c 7ae3 39bc
00000250: 1e7b edbd 8b5f 79bd 2bc4 ab3c 50e6 e4bc
00000260: f360 5fbd 36d0 afbc c7d5 44be 7188 90bd
00000270: abd2 19bd f5c9 703d e8a9 4a3d 61d4 a13c
00000280: 6928 493d f5cc 53bd e18b 393e 5c56 2b3d
00000290: 1c68 49be 1765 e3bc 3419 d4bc 5d5d 353d
000002a0: f04e 41bd fed3 0abd 0c92 13be ac32 abbe
000002b0: 3ef8 97bd f03a f03b 9539 84bd 362d 4c3e
000002c0: e88f e63d c09f 103d 915b 0e3c db03 1f3e
000002d0: 5ef3 97be 8a50 b0bd c635 893d 2ab3 9fbd
000002e0: af0b 593c 3f91 0e3d 407e 9dbd 5f3e 123e
000002f0: cc01 0bbc 6d29 a03c f9c5 59bd bc55 2c3d
00000300: 5665 cd39 52dd 55bc 9d8d aabc 31ae a13d
00000310: e23f b63d 661f 253e 6683 083e 8058 91bd
00000320: 61a6 6c3b 8d55 66be e149 ce3d 1995 9b3d
00000330: 8c8f 5e3d 9367 5eba 7446 03be be79 a9bd
00000340: b71c 7b3c 7622 aa3d 579c 2e3d c389 a33d
00000350: c08a be3d 42d6 a03e 508f 033d 4330 a43e
00000360: 5e99 1b3e dc16 5cbe b512 f83b 487f 383d
00000370: 4fe1 3b3e 77be 9fbd 4d10 a83d 7d0a c53d
00000380: ef1c 2c3d 2843 603e 58c9 833c 83ff ef3d
00000390: 0eb3 3d3d 4eab 6cbd f32c 27bd fe0d 9f3d
000003a0: 4d7f e73d 0f34 55bd ee20 42bd 75bd cebd
000003b0: 6de5 2f3d c672 91bd 9934 073d c44e 08bd
000003c0: 19fb 023e 9351 fcbc a3c6 3ebc 6e5b 023d
000003d0: fce6 0a3e 08d8 a43c 9d46 a2bd ef0e d5bc
000003e0: e6ae 77bd 4948 abbd c322 963d 22ae 00bd
000003f0: 0758 353d 79a1 d3bd 8cc2 9d3a b63a a6bd
0.07847687 0.1630869 0.1937017 0.014192629 0.040246118 -0.046691775 -0.058576185 0.131653
0.15315431 0.08226817 0.07985297 0.020146968 -0.0075727096 0.10048964 -0.035447307 -0.05011169
0.24619538 0.20229885 0.05792326 0.018299691 -0.24709068 -0.047838315 0.0039190263 0.018979393
-0.049027693 0.08131061 -0.2332744 0.062404506 -0.0019151928 0.014972582 -0.03653223 -0.06188842
0.0057821083 -0.1339999 0.16430846 0.008906234 -0.0863782 -0.09143361 0.07384367 0.10475943
-0.05313605 -0.006670085 -0.044009924 -0.16504444 0.13619956 -0.15531564 -0.03663193 0.100596465
0.14626035 -0.04983567 0.033379734 0.13479766 -0.24211542 0.010982449 0.030749822 0.020785348
0.01734785 0.0003282995 0.0075662676 0.15768662 -0.032042485 -0.082920544 -0.071065806 0.055701457
-0.028846467 0.091020234 0.047528926 0.10951401 -0.07427238 0.06572586 0.08719803 0.043867305
-0.0890565 -0.0688532 -0.021227548 0.08939484 0.10338522 -0.055804197 -0.13066089 0.0210826
0.07623941 -0.009705289 0.045470897 0.06020746 0.05116523 0.20310843 0.03903825 0.100046694
0.06885477 -0.17747316 0.066409044 -0.032521136 0.18396954 -0.0179967 -0.055672135 -0.0077787894
-0.039299276 0.05223648 0.07163565 -0.051406614 -0.08622255 -0.09083946 0.030115558 0.009148599
-0.022707427 0.021795804 -0.07949946 0.053319395 0.015068606 0.011847298 -0.044084784 -0.03346289
-0.021594075 -0.038892284 0.05093011 0.084159866 0.096503735 -0.038416434 -0.059732467 0.00032720668
-0.02976361 0.112505615 0.087584786 0.053508528 0.009397706 0.03172091 0.088823065 0.011399077
-0.07604204 0.050994728 0.12184716 -0.044004913 0.0239624 0.065179765 0.022935148 0.046926487
0.16238005 -0.0921183 -0.10380407 -0.022773085 0.01730234 0.25898385 0.06844204 -0.22859351
0.14358516 0.22496733 0.026139759 -0.011345739 -0.11595748 -0.060882133 0.020967564 -0.027941853
-0.054535817 -0.021461587 -0.19222175 -0.07057274 -0.037554424 0.05878635 0.04947844 0.01975459
0.049110804 -0.051709134 0.18119766 0.041830406 -0.19668621 -0.027758164 -0.025890924 0.04427849
-0.04719442 -0.033893578 -0.14411181 -0.33437097 -0.07420395 0.0073312446 -0.064562954 0.19939122
0.11257917 0.0353086 0.008688823 0.15528814 -0.29677862 -0.086091116 0.066997096 -0.07797845
0.0132474145 0.034806486 -0.07690096 0.14281605 -0.008484315 0.019551003 -0.053167317 0.04207395
0.00039176148 -0.013053255 -0.02081948 0.078945525 0.088989034 0.16125259 0.13331375 -0.07096958
0.0036109912 -0.22493573 0.10072685 0.075967975 0.054336116 -0.00084840617 -0.12819844 -0.082751736
0.01532667 0.08307354 0.042629566 0.0798526 0.09303808 0.31413466 0.032119095 0.3206807
0.15195224 -0.21493095 0.0075705894 0.04504326 0.18347667 -0.078 0.08206234 0.09621141
0.04201978 0.21900618 0.01608722 0.11718657 0.046313338 -0.057780556 -0.04081435 0.07766341
0.113035776 -0.0520516 -0.047394685 -0.1009473 0.042943407 -0.071019694 0.033009145 -0.03327824
0.12791099 -0.030800616 -0.011644038 0.031825475 0.13564676 0.020122543 -0.07923625 -0.026008097
-0.06046953 -0.08363397 0.07330849 -0.031416066 0.044273403 -0.10333533 0.0012036129 -0.08116667

beta_head.0.bias f4 [3]
00000000: c567 a0bd 2c17 a93d e61f 1f3c
-0.078322925 0.08256373 0.009712195
