算法对比/PPO_beta/model/critic_model.ckpt (torch, 82903 bytes, 5 tensors)

critic.0.weight f4 [128, 27]
00000000: ef82 b9bd 5a3a b43b c410 bd3d 75fc 923d
00000010: 1047 0dbe de0b 2f3e 4db1 9d3d b7b3 443e
00000020: 0011 a6bc 9b89 81bd 1bfb 343d bd6f 2e3e
00000030: b467 323e 2f11 e5bc 048c f5bd 56bb 0a3e
00000040: 2ca4 373e 60fe bd3d 04ad 693d 3283 203e
00000050: 0aea 03be 49c2 af3d 9554 213e 2cb6 2a3e
00000060: 3847 cc3d 3b28 33bc f440 7dbd 0333 ae3d
00000070: 9f60 9bbc e8d3 1d3d 642a bc3b 083d 0cbd
00000080: db42 81bc f427 1ebd 3e21 81bd dbbb c0bd
00000090: 6b8a b2bd 7a61 3fbd 5ff8 e4bb fb17 033c
000000a0: 3b1a 253c 6635 93bd 2206 a9bc 2c01 85bd
000000b0: 3d86 83bc a8f2 e5bc 9b35 e33c 437c a7bd
000000c0: aa59 ddbc 8d37 80bd cccb 8bbb b7f8 edbd
000000d0: a605 0c3e cc1f 93bd f6f8 afbd 5e66 cebd
000000e0: 8aef a3bd 2401 753d 0146 453d 4a04 2cbd
000000f0: 4787 5cbb f106 6a3d 55a6 a83c aa37 213d
00000100: 9d29 7a3c 17a3 96bd 7f1d 1abd 716e 85bd
00000110: b5a4 883d e52d 023c 35d7 64bd 4dea 713d
00000120: 1873 58bd 0185 e0bc 3db4 563d fa28 9a3c
00000130: 3b1f 2b3c 0943 6dbc 8f11 b0bd 99e2 bb3d
00000140: be62 963d 11c5 4f3c 9047 f53b 5b7d 6dbd
00000150: bb55 03bc 6dc0 42bd 2120 843d 4373 aebc
00000160: b4cd f0bc c342 83bd a510 fcbc 977b 9cbc
00000170: 67d6 1a3d 6e0a 273d bd14 0ebd 8054 523d
00000180: 63e3 0d3c 3fda 033c f2f5 aabc a437 cdbc
00000190: 812f 48bd a48a 89bd a190 ae3c 40e5 7ebd
000001a0: 59ad babd 48a3 793d 69e5 c2bd 9d2a 8a3d
000001b0: be66 213e 70ac cbbd c777 793d 10d0 113e
000001c0: cbff 74bb 4f97 aa3b 9445 8fba a8f0 86bd
000001d0: 8d16 78bc 5f56 563e dcd3 253e 0736 523e
000001e0: ebe5 003e 9cdf e53c c94b 2f3e 241f b13d
000001f0: 21bc e13d 4be6 0fbd 12e2 003e 4732 2a3e
00000200: 6c62 303e 291d 023e 7491 363c ac5b 193d
00000210: 8995 b7bd 7aa7 063e 1efb 8cbd d960 073c
00000220: fd49 8abd 9c95 66bd 6882 ddbc 100f 743d
00000230: 04e7 90bb a23d e6bc c9ac 23bd a025 523d
00000240: 3e2d c7bd 126d 73bd 063e ddbc 4ca0 a9bc
00000250: 9b65 b9bc cbcd fb3b 905e e6bc badb d7bc
00000260: bea0 4d3d a2eb 9ebc 7683 703d edd1 19bd
00000270: f06a 8bbd 60bb a5bd 8d59 94bd 84f7 b03d
00000280: cb72 dfbd b21b 173d 1164 f2b6 ef62 d6b6
00000290: 7cc6 f5b6 bb3a beb6 a3f9 2db6 2456 22b6
000002a0: ea18 ccb5 e2cc 26b6 5f4b 10b6 ac12 33b6
000002b0: 5f31 97b6 c322 7bb6 ed89 8bb6 93d8 57b6
000002c0: cfb6 14b6 75cc a4b6 594b bdb6 4c6e eeb6
000002d0: 3cda 28b7 1465 8db6 faab d0b6 ad57 e1b6
000002e0: a78b a9b6 b7b4 9cb6 3fdc 06bb 9132 edba
000002f0: ec83 3fb7 6519 0080 0a34 0080 3724 0080
00000300: 5547 0080 1d70 0080 c42a 0080 eb05 0080
00000310: ae50 0080 6052 0080 492a 0000 be05 0000
00000320: b833 0000 0a47 0000 1a06 0080 4d53 0000
00000330: f23e 0080 1223 0000 0526 0080 c26d 0080
00000340: 9553 0000 b718 0000 db29 0080 0b4b 0080
00000350: 5825 0080 4626 0000 7e27 0000 7b4a 0080
00000360: d014 e63a 6515 8dbd dee3 e1bd 772d 2a3e
00000370: a0a7 273e d282 7a3d d992 7f3d 6c40 483e
00000380: e4eb 5b3e 7a16 78bb f036 3a3e a15f 353e
00000390: 321e 8cbd 8418 71bd 96d9 b93c 05b1 043e
000003a0: c06b 203e 5abf 1c3e 16df 1e3e 3383 b1bd
000003b0: 2b5f 813c f925 9b3d 3ab2 603e 6578 f33c
000003c0: 59fe 793d fab9 e0bd ed3f 2abd 2cb8 783d
000003d0: c197 12be fddc 153c 6eb1 b8bd 671a 2c3d
000003e0: 526c d43d 9d29 c23d efbe 87bd c18f 3f3d
000003f0: 44c4 ac3c 6dd1 b73c f312 16bd 232f 1dbc
-0.09058177 0.00550012 0.092317134 0.071770586 -0.1379664 0.1709437 0.07699833 0.19209181
-0.020271778 -0.06325074 0.044184785 0.17034812 0.17422372 -0.027962295 -0.119895965 0.13548025
0.1793372 0.09277034 0.057049766 0.15675047 -0.12882248 0.08581979 0.15754922 0.16671056
0.099745214 -0.010934885 -0.061829522 0.085058235 -0.018966971 0.038532168 0.005742358 -0.03423789
-0.01577895 -0.03861232 -0.063051686 -0.094108306 -0.087178074 -0.04672382 -0.006987616 0.008001323
0.010077055 -0.07187919 -0.020632807 -0.06494364 -0.01605522 -0.02806981 0.027735522 -0.08177998
-0.027020294 -0.062605955 -0.004266238 -0.11619704 0.1367403 -0.07183799 -0.085924074 -0.10078119
-0.08004673 0.05981554 0.048162464 -0.041996278 -0.0033649968 0.057135526 0.020587126 0.039359726
0.01526871 -0.07355326 -0.037625786 -0.06515206 0.066720404 0.007945512 -0.0558693 0.059061337
-0.052844137 -0.027407171 0.052417982 0.018818367 0.010444458 -0.014481314 -0.08597099 0.091740794
0.07343052 0.012681262 0.0074853376 -0.057980876 -0.008016045 -0.047546793 0.064514406 -0.021295195
-0.029394962 -0.06409218 -0.030769655 -0.019101901 0.037802126 0.04078143 -0.034687746 0.051350117
0.00866017 0.008047639 -0.020869229 -0.025050946 -0.04887343 -0.06715897 0.021309199 -0.06223035
-0.09115095 0.060946733 -0.09516413 0.06746409 0.1576185 -0.09944999 0.060905244 0.14239526
-0.003738391 0.0052060257 -0.001093077 -0.0658887 -0.015142095 0.20931385 0.16194099 0.20528422
0.12587707 0.028060727 0.17118753 0.08648518 0.11022211 -0.035131734 0.12586239 0.16620742
0.17225045 0.12706436 0.011143077 0.03744094 -0.089640684 0.13149825 -0.06883834 0.008262836
-0.067523934 -0.056295022 -0.027039722 0.059584677 -0.0044220705 -0.02810556 -0.039959703 0.051305413
-0.09725426 -0.05943019 -0.027007114 -0.020706318 -0.022631457 0.0076844445 -0.028121263 -0.026349891
0.050202124 -0.019399468 0.05871912 -0.037553716 -0.06807506 -0.080923796 -0.07243643 0.0864096
-0.10910567 0.036891647 -7.2238113e-06 -6.3892144e-06 -7.3246756e-06 -5.6692784e-06 -2.5924317e-06 -2.4190022e-06
-1.5206435e-06 -2.4855185e-06 -2.1501544e-06 -2.6683947e-06 -4.5058982e-06 -3.7422149e-06 -4.1585795e-06 -3.216356e-06
-2.2160127e-06 -4.911383e-06 -5.6414106e-06 -7.105793e-06 -1.0064392e-05 -4.2138945e-06 -6.2189038e-06 -6.7157293e-06
-5.05285e-06 -4.6702003e-06 -0.0020578054 -0.0018096735 -1.1415203e-05 -9.11e-42 -1.8668e-41 -1.2991e-41
-2.5589e-41 -4.0219e-41 -1.5341e-41 -2.123e-42 -2.8942e-41 -2.955e-41 1.5169e-41 2.06e-42
1.8553e-41 2.5484e-41 -2.189e-42 2.9883e-41 -2.258e-41 1.2581e-41 -1.3639e-41 -3.9374e-41
2.9984e-41 8.866e-42 -1.5015e-41 -2.692e-41 -1.3396e-41 1.373e-41 1.4167e-41 -2.6719e-41
0.001755381 -0.06888846 -0.1102979 0.16618906 0.16372538 0.061159916 0.062395904 0.19555825
0.21476704 -0.0037855194 0.1818502 0.17712261 -0.06841697 -0.05886127 0.02268676 0.12958153
0.15666103 0.1530737 0.15514788 -0.086676024 0.01579245 0.07575602 0.21942988 0.029720495
0.06103358 -0.10972972 -0.04156487 0.060722515 -0.14315702 0.009146926 -0.09018217 0.042017367
0.10372223 0.09480593 -0.066282146 0.046767954 0.02108968 0.02243873 -0.036639165 -0.009593758

critic.0.bias f4 [128]
00000000: 2f19 3b3e 03c7 2e3d b114 80bd d9dc f1bd
00000010: 0502 24bd 46e2 333d d53b 8a3d a008 3bbe
00000020: ef5c a33d 3a28 04bd dc28 cd3c 1618 483d
00000030: ed93 283c 3f95 e0bd fe95 bc3d 3ef3 02be
00000040: 6ee6 22be e985 4e3e 44ad d43d e229 2cbe
00000050: dc52 51bd 1338 41bd 8c37 0e3d 0a94 483e
00000060: 00f5 963d 6f30 ca3a 3382 c43c 50f8 ffbd
00000070: 5359 883d dfff 833d 4bc5 9bbc 0b1e 783d
00000080: 2729 ebbd 6bd9 0a3d 5e00 9cbd bde4 91bd
00000090: f07e b7bd b4f6 a5bd ca7d c3bc 4c12 823d
000000a0: f8a5 c6bd d614 5abd 710f 16bd b27e e5bd
000000b0: ad57 333e 7583 5a3e e55b 7b3c 09bf a73c
000000c0: 0b98 473e 7c0a f33d ec14 b13d eeba fbbb
000000d0: 74d2 6abd 8948 973d 7e4e 25bd e54e 3dbe
000000e0: 6c09 9fbc a2cf fe3d 2ca3 e23d c882 953d
000000f0: 9c3c ccbd 3b14 703c b63b 1e3d aadc 343d
00000100: d804 1cbe 5434 323e 06f1 6dbd de99 9fbc
00000110: 3b7a 5f3d 4845 ec3d 6d42 62bd 4dd3 27bb
00000120: 6676 1c3e eeda 073e 56dd 033e 2ce5 8cbd
00000130: 392c 063e b03b da3d d422 183e d296 08be
00000140: 5a6e 203d 477e a23b 5523 83bd f1e1 06be
00000150: a23e 33bb e544 f3bd 92df 40be 8f91 42be
00000160: e7e9 b83d 128f b3bc 6c0b cabd c87d 223e
00000170: 5573 0dbe bb1f 9b3d 5bbb e6bc 917c a83d
00000180: 3bf4 a7bc fb0b 9b3d e426 503d db05 aa3d
00000190: 8685 273c cf79 0dbe b0ec f23d 4e9a 8c3c
000001a0: 4f0c 033e dbb6 2d3e f790 08be 01fe 423e
000001b0: edba adbb 80e0 83be 13d8 66bd 8895 ae3d
000001c0: ab1c 29bd 9f10 a7bd a743 a7bd be7b a73d
000001d0: c877 fabd 3654 063d eee7 91bd 1023 ea3d
000001e0: e2f6 a83c c75b afbd 12d3 07be 3436 2dbc
000001f0: 8627 29bd 9e6a 433e 0679 43be a463 1cbe
0.18271326 0.04267026 -0.062539466 -0.118097015 -0.04004099 0.043916963 0.06749693 -0.18265009
0.0797671 -0.032264926 0.025043897 0.048851095 0.0102891745 -0.109659664 0.09208296 -0.12788102
-0.15908214 0.2016827 0.1038461 -0.16812852 -0.05110441 -0.047172617 0.034720942 0.19587722
0.07370949 0.0015425811 0.023987865 -0.12498534 0.06657662 0.06445288 -0.019014975 0.060575526
-0.114824586 0.033898752 -0.076172575 -0.071237065 -0.08959758 -0.081036955 -0.023863692 0.06351146
-0.09699625 -0.053242527 -0.03663582 -0.11205806 0.17513914 0.2133921 0.015341734 0.020476835
0.19491594 0.11867234 0.08646569 -0.007682196 -0.05732961 0.07386882 -0.04035806 -0.18487127
-0.019413672 0.124419466 0.11066279 0.07300335 -0.09972498 0.014653261 0.038631164 0.044155754
-0.15236223 0.17402774 -0.058091186 -0.01948255 0.054559927 0.11536652 -0.05523913 -0.0025608123
0.1527954 0.13267109 0.12877402 -0.068796486 0.13102807 0.10655916 0.14857036 -0.13338783
0.03916774 0.004958901 -0.064032234 -0.13172127 -0.0027350564 -0.11878375 -0.18835285 -0.19000839
0.09028988 -0.021918807 -0.0986546 0.15868294 -0.13813527 0.075744115 -0.02816551 0.08226884
-0.0205022 0.075706445 0.05081834 0.08301898 0.010224706 -0.13815998 0.11861551 0.017163422
0.12797664 0.16964285 -0.1333655 0.19042207 -0.0053018243 -0.25757217 -0.05635841 0.085246146
-0.041287106 -0.08157467 -0.081672005 0.08177899 -0.12229878 0.032795154 -0.07124315 0.11432469
0.020625535 -0.08562427 -0.1326411 -0.010572005 -0.041297458 0.1908364 -0.19089136 -0.15272385

critic.2.weight f4 [128, 128]
00000000: 2f1d ba3d a4ce 84bc 4670 f53c 5386 35bc
00000010: 1130 5bbd 629b ba39 12fa 60b5 644c 0080
00000020: 7d42 953d 113f 063d 3dd2 c8b8 e704 88bd
00000030: 5456 3a3d bd13 b4bc 590e a1bc 303d a73d
00000040: ab57 df3c 2f4a cd3c 9f2b 4333 393a 553c
00000050: c22e 0080 f605 71ba 8556 f8b7 8ae0 703d
00000060: c78d 11bd cae1 ab3d b2d7 c1b6 dff3 253c
00000070: 2a72 81bb cfa9 2b3d 5785 4c3d b0ee 913d
00000080: c5bc 963d 4dd7 bc3d 9121 2fbc 54bb 56bc
00000090: e1fa 08bd e915 0080 a50c 25bd 5443 783d
000000a0: 3b16 d93c a8a8 b63c 8193 62bd a979 233d
000000b0: 697f 0a3d b0d5 32bc 3c0e 983c adca 7d28
000000c0: c732 a13d 29fa 5cbb ed2c 443a ce5c 233d
000000d0: 5928 0080 319e 933c 695c 71bd 5f4c 0080
000000e0: 3530 bd39 41f0 87bc ff2b 68bd 4dd4 5cbc
000000f0: f130 563d e2e2 703d bae5 4f3c 5d54 8fbd
00000100: b714 0000 d9b3 84bc a25a af3c 5670 46bd
00000110: b0a1 98bc 39a3 8c3d 8f1d 39bc d6c2 9ebd
00000120: 1d70 94bc d83e 9c3d 7ad4 3a3d 80cf 9ebd
00000130: 9206 e93d 88b6 94bc fc2a 8d3d f4ec f53a
00000140: 89be 003c e0be 1e3d 9ce9 9bbc cf31 0000
00000150: 2ff5 cfbb 0fc4 be3c 4845 ab3d 4928 0000
00000160: ed3f 7abc f696 a13c d21b 0c3c b2f4 57bb
00000170: f956 263d 17fb 06bd 72fb eebc 7bf0 583d
00000180: 9b51 0000 3fee d93d 01a5 5abd 6dc9 98bd
00000190: b9c5 d43d 0899 11bd 597c 9ebc 0468 a33d
000001a0: 4c07 7ebc a8d7 27bd caef 02bd 4baa 253d
000001b0: fdcd 9a3d c3a4 a13b 7b35 0080 c233 ee3b
000001c0: 8969 613d 71f9 593d 942e 0080 7354 dd3c
000001d0: 8732 70bd 24d6 63bd 7d2d 0080 cb59 943c
000001e0: 584f f5bc 690a 063c 6b11 0000 2166 813d
000001f0: 2ef3 5539 6983 963d dab3 493a de03 0000
00000200: b460 f9bc a9ec 003c 681c 07bc 6962 0ebb
00000210: 09f7 bcbc 80d1 c33a dbfb ab30 cc0f 0080
00000220: dfbf 333d 501c 9dbc eaf5 be36 b403 72bd
00000230: 7377 a93c fa6d 873c dbfa 7ebd afb1 e43b
00000240: c360 ef3b ce42 a9bc 5065 8cad d133 643c
00000250: db12 0080 17f0 373a d7bc fc37 4e8f 8d3d
00000260: 746f e5bc f846 a8bd 0cbf bb36 8ac1 f4bb
00000270: 0ae7 d63c e6f2 f63a 248c bd3c 1a47 4d3d
00000280: e38d 763d c8ae 513d 8443 c13b e920 6a3c
00000290: 0863 12bd 1b2a 0000 01a2 d43c 6292 16bd
000002a0: b7cb 10bc 93c9 2abd 49e6 6d3d 6b55 863d
000002b0: 9ce4 84bc a960 85bd 2f6c dc3c 489b 7597
000002c0: 3e9f 423d 3333 16bd 35a4 2dbd 1593 4cbc
000002d0: 2925 0000 c5c2 ccbb 480b 6a3d 8b7b 0080
000002e0: 0675 413d ffb8 873d ef22 3e3d ed29 113d
000002f0: 08ce 11bd 7f54 7e3a 040a 06bc 66fd 983d
00000300: 1449 0000 596b 4c3c b4ae 86bc 3e9d e03c
00000310: f3a2 883d 80b9 87bd 652d 753d 6fb4 1a3d
00000320: bbde 31bd 223d c9bc 7a79 babd dc07 9f3b
00000330: 4f41 cabd 1a42 91bd e376 1d3d f39a 3fbb
00000340: f3f0 2dbd b861 0c3d 38f1 3c3c fd4f 0000
00000350: ac4f fd3a b430 8a3d 192f ca3c 200e 0080
00000360: 4331 d93b 2cc7 5abc 82f1 32bd d710 d6bc
00000370: 00d5 bbbd 00a7 c03c 4533 acbd c511 3abd
00000380: 474a 0080 6f62 e63c 3f1d 4d3d e530 25bc
00000390: 85f6 ecbc 0403 193b 9abb 04bd de87 693d
000003a0: ef6c 353c abaa b9bc 7012 a6bc 7f73 eebc
000003b0: 31eb 713d 77d1 86bb 363f 0000 6604 8fbb
000003c0: aee9 793d 6d9d 753a 0e48 0000 b145 5c3d
000003d0: 7334 babc 5b37 8c3c d22a 0000 050d 30bd
000003e0: 8300 333c ac4b af3c 5133 0000 b0a7 1ebd
000003f0: 9244 5fbc 2183 73bd 1090 5dbc da14 0000
0.090875976 -0.016211815 0.029960763 -0.011079389 -0.053512637 0.00035592454 -8.3810403e-07 -2.7404e-41
0.07288072 0.03277499 -9.575903e-05 -0.0664156 0.045492485 -0.021982068 -0.019660162 0.081659675
0.027263483 0.025059788 4.544165e-08 0.01301437 -1.6774e-41 -0.00091943087 -2.9604193e-05 0.058807887
-0.0355356 0.08392675 -5.7769585e-06 0.010128944 -0.003950377 0.04190999 0.04993185 0.07125604
0.07360224 0.09220753 -0.010689155 -0.013106186 -0.03344238 -7.86e-42 -0.040295262 0.060611084
0.026499858 0.022297218 -0.055316452 0.039910946 0.033812914 -0.010915205 0.018561475 1.40882696e-14
0.07871013 -0.0033718443 0.0007483501 0.039883427 -1.4474e-41 0.018019767 -0.05892602 -2.7397e-41
0.00036084806 -0.016594054 -0.056682583 -0.013478351 0.052292768 0.058810122 0.012689048 -0.06998513
7.431e-42 -0.01619904 0.021405522 -0.048446976 -0.018631786 0.0686707 -0.011298551 -0.07752006
-0.018119866 0.07629174 0.04561279 -0.07754421 0.11378206 -0.018153444 0.06892964 0.0018762634
0.007857927 0.03875625 -0.019032292 1.7868e-41 -0.006346367 0.023286847 0.08362824 1.4452e-41
-0.01527403 0.019725304 0.008551555 -0.0032952246 0.040610287 -0.0329543 -0.029172633 0.052963715
2.9275e-41 0.10641145 -0.053380016 -0.07460294 0.10389275 -0.035546333 -0.019346403 0.07978824
-0.015504669 -0.04097715 -0.031966962 0.040445607 0.075588204 0.004932971 -1.9185e-41 0.0072693536
0.055032287 0.0532164 -1.6709e-41 0.027017808 -0.058641937 -0.055624142 -1.6318e-41 0.018109223
-0.02994506 0.008181193 6.248e-42 0.06318308 0.00020403854 0.07349283 0.00076943415 1.387e-42
-0.03044162 0.007868924 -0.008246519 -0.0021726137 -0.023067014 0.0014939755 1.2513469e-09 -5.667e-42
0.043884154 -0.01917854 5.6910694e-06 -0.059085563 0.02068684 0.016531933 -0.062250953 0.0069791893
0.007305236 -0.020661738 -1.5961149e-11 0.01392837 -6.764e-42 0.0007016672 3.0128676e-05 0.06912099
-0.028007247 -0.08216661 5.595275e-06 -0.0074693607 0.026233215 0.00188407 0.023138113 0.050116636
0.060193907 0.051192075 0.005897941 0.014290073 -0.035738975 1.5105e-41 0.025956156 -0.036760695
-0.008837632 -0.041696142 0.058080945 0.06559261 -0.01622229 -0.06512577 0.026907055 -7.935976e-25
0.047515146 -0.03666992 -0.04239293 -0.012486239 1.333e-41 -0.0062488043 0.057139665 -4.4319e-41
0.047230743 0.06627082 0.046420034 0.035440374 -0.035596877 0.0009701922 -0.008181099 0.07470207
2.6215e-41 0.012476766 -0.016440727 0.027418729 0.06671705 -0.06627178 0.059857745 0.03776973
-0.043425303 -0.024565283 -0.09105201 0.004853232 -0.09875738 -0.07092686 0.038443457 -0.0029236644
-0.042466115 0.03427288 0.01153212 2.8694e-41 0.0019326112 0.06747571 0.024680661 -5.067e-42
0.006628187 -0.01335315 -0.04368735 -0.026131077 -0.09171486 0.023517132 -0.084082164 -0.045427103
-2.6646e-41 0.028123109 0.05007672 -0.010082458 -0.028926143 0.0023347745 -0.032405473 0.05701434
0.011073335 -0.022664389 -0.020272464 -0.029107807 0.059062187 -0.0041143256 2.2676e-41 -0.004364538
0.06101387 0.00093694666 2.5848e-41 0.0537774 -0.022730088 0.01711624 1.5361e-41 -0.042981166
0.010925415 0.021398388 1.8409e-41 -0.038734138 -0.013627188 -0.059451226 -0.013523117 7.48e-42

critic.2.bias f4 [128]
00000000: 8035 ad3c 1c52 273d e40e 4d3b b4e4 9ebc
00000010: d4c0 8e3c 7f2e 99bd 3f0d b7bd dc0d b2ba
00000020: f008 40bb 881d 46bc 6353 89bd 561b 75bc
00000030: ff51 a03d 803d d2bb 2be1 5abd 5b6f a8bb
00000040: 05bf 04bb c8f8 573d f414 9dbc 8758 e3bb
00000050: 0d27 36bc bd84 6cbd 0101 afb9 d618 cf3d
00000060: 1121 babc a247 cd3c 6d45 77ba 20a5 35bb
00000070: 1081 913d 34dc 4e3c e323 bebd 0db4 32bd
00000080: 3921 5fbd 71ad 353d 764c 94bd f983 1f3a
00000090: d6e2 df3c 7acd b6ba 89e4 b53b 105c 7dbc
000000a0: d6ea 4cbd 0589 803d 994b 18bb f2e2 9f3c
000000b0: 2cec 6e3d 0b0d 97bd 6975 aabc 6e74 d43d
000000c0: 9dd3 8e3d 2688 f2bc dd34 afbb 60a5 35bc
000000d0: 88b4 c43c fe80 9b3d fc11 aa3c f8ad c7bc
000000e0: 136d dfbc 1167 003c 14f6 babc 0624 90bc
000000f0: 99f4 5a3b d347 57bd 71f9 b43c e4bc 97bd
00000100: 5bc2 8b3d f396 9f3c e565 fe3c 1a04 7f3d
00000110: 6f01 edbb 17a1 b4bd 703c c1bd e06f 99bc
00000120: 65b0 973c 75a2 853c 0ced b93c a568 59ba
00000130: 6a40 0cbd b063 5fbd abb0 bebc 131b 933d
00000140: a665 11bc dbeb 02bd ee73 90ba 258c dab8
00000150: e1d8 b23d c8c5 85bd a63f 953d a850 5c3c
00000160: 87cc f0bc 0cff 95bd cd82 b9bc 2d65 3c3d
00000170: 9366 38bb 7f9d b7bc f594 d73c 8561 b03d
00000180: f90b 94bd 675f 29bc 75b5 3e3b 16a8 683b
00000190: edf0 2eba 2111 acbd 45d2 953c 74a2 afba
000001a0: 8f61 bdbd e224 02bd 2b72 863d 09b1 843d
000001b0: f261 61bc 1cfa e5b9 e080 a3ba cd82 5bb8
000001c0: 67fc a2bc 8be4 ac3d a2bf dbbc b4b5 0aba
000001d0: 2bdb e43c 3a43 923d c210 64bc fdcc dc3d
000001e0: e172 d6b9 634c 833d 5916 bd3d 7875 863d
000001f0: 0d96 723d 3c47 323d d450 c7bc 02f5 8b3d
0.021143675 0.04084979 0.0031289393 -0.019396164 0.017425932 -0.074795716 -0.08938073 -0.0013584453
-0.0029302202 -0.012092002 -0.06705358 -0.014960131 0.078281395 -0.006416023 -0.053437393 -0.0051402277
-0.0020255458 0.05272749 -0.01917503 -0.0069380435 -0.011117709 -0.057743777 -0.0003337935 0.10112159
-0.022720845 0.025058571 -0.00094326475 -0.002771683 0.07104695 0.012625743 -0.092841886 -0.04362874
-0.054475043 0.04435486 -0.07241146 0.0006085034 0.027329843 -0.0013946735 0.005550925 -0.015463844
-0.050028645 0.062761344 -0.002323842 0.019517396 0.0583307 -0.073755346 -0.020807939 0.1037377
0.06973956 -0.029605936 -0.005346878 -0.011086792 0.024011865 0.07592963 0.020760529 -0.024374947
-0.02727369 0.007837073 -0.022822417 -0.017595302 0.0033409952 -0.05255873 0.0220916 -0.07409075
0.0682418 0.019481158 0.031054446 0.06225977 -0.007232837 -0.08819788 -0.09435356 -0.018730104
0.018516729 0.016312817 0.02269604 -0.00082934863 -0.034241118 -0.05453843 -0.023277601 0.07182898
-0.0088743325 -0.03196321 -0.0011020878 -0.00010421154 0.087327726 -0.065318644 0.072875306 0.013446964
-0.029394401 -0.07324037 -0.022645378 0.045994926 -0.002813731 -0.022413967 0.026316145 0.086123504
-0.07228846 -0.010337687 0.0029099856 0.0035500578 -0.0006673474 -0.084017046 0.01828874 -0.0013399855
-0.092471235 -0.031773455 0.065647446 0.06479079 -0.013756262 -0.0004386463 -0.0012474321 -5.2335487e-05
-0.019895745 0.084420286 -0.026824776 -0.0005291358 0.027936539 0.07141729 -0.013920011 0.10781286
-0.00040902852 0.06411054 0.09232778 0.06565374 0.05922513 0.043524966 -0.024330534 0.06833841

critic.4.weight f4 [1, 128]
00000000: a2b4 7ebd 2675 133d cfa0 1abd d907 0000
00000010: 5a26 7e3d d31f 0000 e605 0080 6846 0000
00000020: f02e 0080 8726 0080 3e76 0080 7229 0000
00000030: 43d8 bcbd 6525 0000 93bf d0bd 526a 0080
00000040: 0910 0000 1021 673d 1d9b 9b3d 9617 0000
00000050: 21c0 83bd d928 0080 aa53 0000 126c bebd
00000060: c21b 0080 f930 b3ba a92b 0000 362e 0080
00000070: f8d1 bebd 05c4 d8ba 4640 0080 152f ed3d
00000080: fc7f b8bd 61da 0c3a 9e23 0080 52a8 ef3a
00000090: 2b1a 233b 4b51 0080 bb6f a136 5252 0080
000000a0: 1f2d 0080 3814 4cbd 0d51 68b0 60bd c8bb
000000b0: 9ae2 52bd 506d 0080 5c2b 0080 90ff 06bd
000000c0: f083 88bd 9400 933c fc1f a9bd df45 0000
000000d0: a71a f9bd d6cd 7ebd f605 48bd a914 0080
000000e0: 3601 0000 8652 2037 07e0 31bd b404 0000
000000f0: 8def 0dbd 714c 0080 d17b 3fb8 6d47 0000
00000100: a0e0 10bd 3fa4 29ba 5ef6 11bd 444f eabc
00000110: ce47 87bd 6eee c23d 1bd9 fe3d 2235 683c
00000120: e099 3db9 f14d d73a dc3b 29bb 1915 0080
00000130: 2d28 0000 a33d 0080 7864 0080 3bd1 263d
00000140: b985 8f3d 5048 e9bc b92c 0000 b803 0000
00000150: 0279 e7bd ec68 0000 fbb2 9a3d d1e2 ccbd
00000160: 0b67 c6bd c075 443d 23cf cabd 36b6 eeba
00000170: 9e02 0000 e346 0000 aa07 5dbd 543b b03d
00000180: bc1e 0000 c05a 0080 5188 3eba 3c4e 20bb
00000190: 900b 0000 7719 0080 8fd1 5cbc 810a 0000
000001a0: ef54 0000 7608 0080 cb71 0abd 372e 703a
000001b0: 5908 0000 bc56 adb9 de02 0000 7528 0000
000001c0: 362b 0080 91af f6bd 5894 a7bd f121 0080
000001d0: dece 4dbd 75c5 d4bd dd2d 0080 0128 44bd
000001e0: 29f0 778b 5c22 cabd ed7a 4dbd 44bd 92bd
000001f0: 5d36 94bc 38ca 3f3d 290e 0000 e1d8 3bbd
-0.062183984 0.036000393 -0.037751015 2.815e-42 0.062048294 1.1416e-41 -2.116e-42 2.5257e-41
-1.6838e-41 -1.3821e-41 -4.2417e-41 1.4868e-41 -0.09220936 1.3415e-41 -0.1019279 -3.814e-41
5.752e-42 0.056428015 0.07597945 8.461e-42 -0.0643313 -1.4653e-41 3.0013e-41 -0.092979565
-9.958e-42 -0.0013671211 1.5662e-41 -1.6577e-41 -0.09317392 -0.001653791 -2.3057e-41 0.11581246
-0.09008786 0.0005373117 -1.2777e-41 0.0018284416 0.0024887423 -2.9162e-41 4.811181e-06 -2.9531e-41
-1.6186e-41 -0.04982397 -8.451629e-10 -0.006126091 -0.051485635 -3.9214e-41 -1.5554e-41 -0.032958567
-0.0666579 0.017944612 -0.08258054 2.5065e-41 -0.12163287 -0.06220802 -0.04883381 -7.411e-42
4.34e-43 9.555957e-06 -0.04342654 1.687e-42 -0.03465228 -2.7422e-41 -4.565326e-05 2.5623e-41
-0.03537047 -0.0006471313 -0.035635345 -0.02860225 -0.066054925 0.09518133 0.12443753 0.014172824
-0.00018081767 0.0016426427 -0.0025823032 -7.568e-42 1.4412e-41 -2.2111e-41 -3.6041e-41 0.04072688
0.070079274 -0.028476864 1.6043e-41 1.334e-42 -0.11302377 3.7639e-41 0.07553669 -0.10004199
-0.09687623 0.047963858 -0.099027894 -0.0018212262 9.39e-43 2.543e-41 -0.053962387 0.08605066
1.1025e-41 -3.2555e-41 -0.00072682375 -0.0024460694 4.148e-42 -9.135e-42 -0.013477697 3.768e-42
3.0468e-41 -3.035e-42 -0.033799928 0.000916216 2.995e-42 -0.00033061753 1.029e-42 1.4513e-41
-1.5501e-41 -0.120452054 -0.08182591 -1.2176e-41 -0.050246112 -0.103892244 -1.6453e-41 -0.047889713
-4.7751146e-32 -0.09869835 -0.05016606 -0.07165006 -0.018092329 0.04682371 5.08e-42 -0.04586113
