TDQN/Sliding/TDQN+buffer/model/critic_model.ckpt (torch, 431578 bytes, 26 tensors)

lstm.weight_ih_l0 f4 [96, 1]
0	0xbc8eb570	-0.0174205
1	0xbd8cd904	-0.0687733
2	0x3e236022	0.1595464
3	0xbe0d873c	-0.13821119
4	0x3dd7377c	0.1050863
5	0xbe23df26	-0.16003093
6	0x3e2b0e14	0.16704589
7	0x3dbabd20	0.09118104
8	0xbd6b657c	-0.05746983
9	0x3d5adc30	0.053432643
10	0x3ddf80a0	0.10913205
11	0x3d2ad7b0	0.041709602
12	0xbdd6bee2	-0.10485627
13	0x3e2c1546	0.1680499
14	0x3db77220	0.089573145
15	0x3e2e2d4c	0.17009467
16	0xbe334342	-0.17506126
17	0x3e0b9b8a	0.13633552
18	0xbe4503c9	-0.19239725
19	0x3e1967e6	0.1498104
20	0xbc8f8278	-0.017518267
21	0x3d76de50	0.060270607
22	0xbe2557b5	-0.16146739
23	0x3d0396b8	0.03212616
24	0xbcb82a78	-0.022481188
25	0xbe18999b	-0.14902346
26	0xbcbca190	-0.023026258
27	0xbd584414	-0.0527993
28	0xbd166f5c	-0.036727294
29	0xba897300	-0.0010486543
30	0x3e1cad80	0.1530056
31	0xbe0c45d0	-0.13698506
32	0x3c8e78d0	0.017391592
33	0xbe3a355e	-0.1818442
34	0xbc608340	-0.013703167
35	0x3d1dbb28	0.038508564
36	0xbde6842a	-0.11255677
37	0x3cf76080	0.030197382
38	0x3dd818b4	0.10551587
39	0xbda764eb	-0.081735454
40	0xbd335df4	-0.043790773
41	0x3e020726	0.1269804
42	0x3e43e4c8	0.19130242
43	0xbbe73640	-0.0070560277
44	0xbce00390	-0.027345449
45	0xbddaab64	-0.106772214
46	0xbdbe8560	-0.09302783
47	0x3e31066c	0.17287606
48	0xbc264240	-0.010147631
49	0x3d5d5a10	0.05404097
50	0xbe16d0a9	-0.14728035
51	0x3e04ae16	0.12957034
52	0xbe0a7822	-0.1352239
53	0xbd8a3142	-0.067476764
54	0x3d917f34	0.0710434
55	0x3d22447c	0.039616093
56	0x3ce7c150	0.02829042
57	0x3e16fce0	0.14744902
58	0x3d1f52b0	0.038897216
59	0x3dbff6a4	0.09373215
60	0xbcbbfee0	-0.022948682
61	0x3db13e04	0.08654407
62	0xbd9775e4	-0.07395533
63	0xbd81c0ca	-0.063356
64	0xbe4b31ac	-0.19843167
65	0xb9c27e00	-0.0003709644
66	0xbda2c2ad	-0.07947288
67	0xbe18dddf	-0.14928387
68	0xbdd17fc9	-0.10229451
69	0x3cd0f3a8	0.02550681
70	0xbdd99d0e	-0.10625659
71	0xbd82f004	-0.063934356
72	0xbe181bea	-0.14854398
73	0x3ddf1634	0.10892907
74	0xbe0742de	-0.13209102
75	0x3d73f160	0.059556365
76	0xbe441aac	-0.191508
77	0x3e4a5554	0.19759113
78	0xbe13402b	-0.14379947
79	0xbe4d4756	-0.20046744
80	0x3e09f770	0.13473296
81	0x3e455ca4	0.19273621
82	0xbcf16240	-0.029465795
83	0x3d2099e4	0.03920926
84	0xbd5fcbf0	-0.05463785
85	0x3cd30a28	0.025761679
86	0x3e3ef872	0.18649462
87	0xbcb43270	-0.021996707
88	0xbde9dae6	-0.11418705
89	0xbc1b8e90	-0.009494439
90	0x3e4f6376	0.20252785
91	0x3e367016	0.17816195
92	0x3d78dfa8	0.06076017
93	0xbce6b750	-0.028163582
94	0x3d9beab0	0.076131225
95	0x3d02655c	0.031834945

lstm.weight_hh_l0 f4 [96, 24]
0	0xbde0c1eb	-0.10974487
1	0xbce3c8a8	-0.027805641
2	0x3d05d980	0.032678127
3	0xbdf2f39c	-0.11862871
4	0xbdd0f8ec	-0.10203728
5	0xbe44a889	-0.19204916
6	0x3d74f518	0.059804052
7	0x3c960298	0.018311784
8	0xbe4d6c8d	-0.2006094
9	0x3e4403e0	0.19142103
10	0xbd8a0252	-0.06738724
11	0xbe1d162b	-0.15340488
12	0x3dc3ad4c	0.09554538
13	0x3e16b502	0.14717487
14	0xbd8d8712	-0.06910528
15	0x3d90f348	0.07077652
16	0x3dc51984	0.09624007
17	0x3dccc114	0.09997764
18	0x3bf13560	0.007361099
19	0xbdf14b2f	-0.11781918
20	0x3c513ee0	0.012771338
21	0xbe121378	-0.14265239
22	0x3dd4a868	0.103836834
23	0xbb94d280	-0.004541695
24	0x3d9cfc40	0.076653
25	0xbe1f2b35	-0.15543826
26	0xbe19bdf6	-0.1501387
27	0xbe45bf34	-0.1931122
28	0xbd3e33e8	-0.04643622
29	0xbdd41846	-0.10356192
30	0x3caddb98	0.021222875
31	0x3e2d1ed4	0.16906291
32	0xbd62f714	-0.055411413
33	0x3df54fe0	0.119781256
34	0xbd605464	-0.05476798
35	0x3d908adc	0.07057735
36	0x3cedf790	0.029048711
37	0x3df229c8	0.118243754
38	0x3dcf9568	0.10135919
39	0x3e496908	0.19668972
40	0xbe168716	-0.14699969
41	0x3d93c374	0.07215014
42	0x3dbdfc34	0.092766196
43	0x3d16ef94	0.036849573
44	0xbe011450	-0.12605405
45	0xbc573880	-0.013136029
46	0x3e2e9ba2	0.17051557
47	0xbd944c88	-0.0724116
48	0xbe25d94a	-0.1619617
49	0x3d815f90	0.06317055
50	0x3ce43110	0.027855426
51	0x3e4c9f90	0.19982743
52	0xbe1d2d22	-0.15349248
53	0xbe0a2c56	-0.13493475
54	0x3d8dc878	0.06923002
55	0xbd12b120	-0.03581345
56	0xbc9ae2d0	-0.01890698
57	0xbdfac7de	-0.12245153
58	0x3d9c15cc	0.07621345
59	0x3e27d46c	0.16389626
60	0xbe4be933	-0.19913177
61	0x3e127060	0.1430068
62	0x3dec24d4	0.11530462
63	0xbe1a2402	-0.15052798
64	0xbdea54d3	-0.1144196
65	0x3d3772e0	0.044787288
66	0xbe3c1532	-0.1836746
67	0x3e068044	0.13134867
68	0xbe46aeb8	-0.19402587
69	0x3dadfad0	0.08495104
70	0xbe1c1d64	-0.15245587
71	0x3c34fe90	0.011047021
72	0x3da6e11c	0.08148405
73	0x3e2e1b70	0.17002654
74	0x3da9c5c0	0.08289671
75	0x3cc6d310	0.024270564
76	0xbe382048	-0.17981064
77	0x3cfa5c98	0.03056173
78	0xbdb2e320	-0.08734727
79	0x3c90d9a8	0.017681912
80	0xbd52de98	-0.051481813
81	0xbe20887e	-0.15677068
82	0x3c25bec0	0.010116279
83	0x3c714550	0.014725998
84	0x3c3cc890	0.011522427
85	0x3e00b228	0.12567961
86	0x3e0f225a	0.13977948
87	0x3e107eea	0.14110914
88	0x3e129dba	0.1431798
89	0x3d2968fc	0.041359887
90	0xbd4ecf74	-0.05049081
91	0xbb5872c0	-0.003302738
92	0xbd470e50	-0.048597634
93	0xbc812308	-0.015763775
94	0xbe20540a	-0.15657058
95	0x3da69d54	0.08135477
96	0x3d0f641c	0.03500758
97	0xbc9a45e0	-0.018832147
98	0xbe21f3b7	-0.15815626
99	0x3deb16ec	0.114789814
100	0x3df48714	0.119398266
101	0x3e11dac6	0.14243612
102	0x3dcab8a4	0.09898499
103	0x3d531cf0	0.05154127
104	0xbde23908	-0.11046034
105	0xbcf161c0	-0.029465556
106	0xbe3d7786	-0.18502626
107	0xbcf88280	-0.030335665
108	0xbddce020	-0.10784936
109	0xbde65ce2	-0.11248185
110	0xbc959100	-0.018257618
111	0xbdcb7dd9	-0.09936113
112	0x3e23f298	0.16010511
113	0x3e1110fa	0.14166632
114	0x3e48358e	0.1955168
115	0x3e213fe8	0.15747035
116	0xbc538760	-0.012910694
117	0xbe0ec11e	-0.13940856
118	0xbc9898c8	-0.01862754
119	0xbba12640	-0.00491789
120	0x399eec00	0.00030311942
121	0x3dc6da28	0.09709579
122	0x3d95d898	0.073167026
123	0x3e0b139e	0.13581702
124	0x3e413ad8	0.18870103
125	0x3c895fa0	0.01676923
126	0x3dce25b4	0.10065785
127	0xbe229e6d	-0.15880747
128	0x3e1c0f0e	0.15240118
129	0xbd68543c	-0.056720957
130	0x3d2c01c4	0.04199387
131	0xbdc969e0	-0.09834647
132	0x3d8f2290	0.06989014
133	0x3de53844	0.111923724
134	0x3d3398b8	0.043846816
135	0xbd63d388	-0.055621654
136	0x3e42b118	0.19012868
137	0x3e3a1640	0.1817255
138	0xbd17f9a0	-0.037103295
139	0x3e2daa0e	0.16959402
140	0x3e2d1f0e	0.16906378
141	0xbdc23d58	-0.09484357
142	0xbe3e5c10	-0.18589807
143	0x3e0fa98c	0.14029521
144	0x3e02bc28	0.12767088
145	0x3dbc1eb4	0.09185544
146	0xbe29389a	-0.16525498
147	0x3ce2fc58	0.027708218
148	0x3e1643e8	0.14674342
149	0xbc03ee40	-0.008052409
150	0x3e4335b4	0.19063455
151	0xbde8be8a	-0.113644674
152	0x3dbe8dc0	0.093043804
153	0xbd04b0d0	-0.032395184
154	0xbdc09506	-0.09403424
155	0x3e04c898	0.12967145
156	0x3e3bc0fc	0.18335336
157	0x3e1c5cb0	0.15269732
158	0xbdb62cb1	-0.08895243
159	0xbe1e6154	-0.15466815
160	0x3ca7ab70	0.02046749
161	0x3e50a5b6	0.20375714
162	0xbdb4e92e	-0.08833538
163	0x3dbe7b4c	0.09300861
164	0x3ad6fe80	0.0016402751
165	0xbd3981f8	-0.045289963
166	0xbe0372a4	-0.128367
167	0x3e3fc31c	0.18726772
168	0xbe4114ee	-0.1885564
169	0xbd4aebdc	-0.04954134
170	0x3e4f4b00	0.20243454
171	0xbdf291c5	-0.118442096
172	0x3e21fac2	0.15818313
173	0x3d3e6220	0.046480298
174	0xbcc1ad68	-0.023642257
175	0x3e22e8fe	0.15909192
176	0x3e047e38	0.12938774
177	0x3e14b1de	0.14520976
178	0x3e308924	0.17239815
179	0x3c4c27c0	0.012460649
180	0x3df6f66c	0.1205872
181	0x3e0f24b6	0.13978848
182	0x3c8a9668	0.016917422
183	0x3da4fbec	0.08055863
184	0x3e19aec6	0.15008077
185	0x3c9a59c0	0.018841624
186	0x3dc54e2c	0.09634051
187	0xbe0153e8	-0.12629664
188	0x3e443088	0.19159138
189	0xbdb70d03	-0.08938029
190	0xbd6fc83c	-0.058540568
191	0xbe105b27	-0.14097272
192	0x3dc09570	0.09403503
193	0xbcb08848	-0.021549359
194	0x3e1b4f12	0.15166882
195	0xbbaf2520	-0.005345002
196	0xbdd51172	-0.10403718
197	0xbe3c0f36	-0.18365178
198	0x3e208a28	0.15677702
199	0xbe06783c	-0.13131803
200	0x3dd8e4b8	0.105905
201	0xbe3acbae	-0.1824176
202	0xbda03574	-0.078226954
203	0x3e3c7ffc	0.18408197
204	0x3cc1c490	0.023653299
205	0xbdf27221	-0.118381746
206	0xbdbea0db	-0.093080245
207	0xbd44b2fc	-0.048022255
208	0x3dadbb9c	0.08483049
209	0xbdac03e2	-0.08399178
210	0xbe3be4c9	-0.18348993
211	0x3d94d160	0.072664976
212	0xbe2a2295	-0.16614754
213	0x3c323160	0.01087603
214	0x3e3aa974	0.18228704
215	0xbe242cf2	-0.1603277
216	0xbe3de66e	-0.18544933
217	0x3dbc715c	0.09201309
218	0xbe08c536	-0.1335648
219	0xbd8653c0	-0.06558943
220	0xbe4e3da0	-0.20140696
221	0x3d6417c8	0.055686742
222	0x3e3f50f4	0.18683225
223	0x3cebbfb8	0.028777942
224	0x3d480ad0	0.048838437
225	0x3e39f46a	0.18159643
226	0x3e10f9b0	0.14157748
227	0x3dee7d2c	0.116449684
228	0x3e43e66a	0.19130865
229	0x3d2b5174	0.041825727
230	0xbe29f730	-0.16598201
231	0x3dcc2c04	0.09969333
232	0xbd9bf684	-0.076153785
233	0x3d9bc5ec	0.0760611
234	0x3d28575c	0.041098937
235	0x3c69c390	0.014267817
236	0x3e0cd76a	0.13754049
237	0xbe1ffa51	-0.15622832
238	0xbe120af0	-0.14261985
239	0x3d14f06c	0.036362097
240	0x3da6b32c	0.08139643
241	0xbe3f6b55	-0.18693288
242	0xbded7a56	-0.11595599
243	0x3d42bea8	0.047545105
244	0x3e1ef7dc	0.15524238
245	0x3e02b51e	0.12764403
246	0x3d7c4348	0.061587602
247	0x3dd043f0	0.10169208
248	0xbdeb0a05	-0.114765204
249	0xbe383e89	-0.17992605
250	0x3e07e40c	0.13270587
251	0x3da0f1ec	0.07858643
252	0x3dcae378	0.099066675
253	0xbe44327d	-0.19159885
254	0x3de290ec	0.11062798
255	0x3d8395c8	0.06425053

lstm.bias_ih_l0 f4 [96]
0	0x3e0b0f7e	0.13580129
1	0xbe4353d7	-0.19074951
2	0xbbba8dc0	-0.0056931674
3	0xbe365cba	-0.1780881
4	0xbe119d31	-0.1422012
5	0x3d2e7edc	0.04260145
6	0x3bc1b5e0	0.005911574
7	0x3e493a42	0.1965113
8	0x3e3c2ea0	0.18377161
9	0xbe45cd57	-0.19316612
10	0x3e2e1212	0.16999081
11	0xbc904ca8	-0.017614678
12	0x3d724f10	0.05915743
13	0xbddded23	-0.10836246
14	0x3cf89b78	0.03034757
15	0xbe0e977c	-0.13924974
16	0x3e2c08e6	0.1680027
17	0xbdcddad6	-0.10051505
18	0xbe106d2b	-0.14104144
19	0x3d3f3d98	0.0466896
20	0xbd3eaedc	-0.046553478
21	0x3e2c34c8	0.1681701
22	0xbd448620	-0.047979474
23	0x3db2b024	0.087250024
24	0xbdc55d00	-0.09636879
25	0x3e1d8d74	0.15385991
26	0x3e0c15e0	0.1368022
27	0xbda00a28	-0.07814437
28	0xbdea9d1c	-0.114557475
29	0x3e1fffa2	0.1562486
30	0xbd7b1f8c	-0.061309382
31	0x3e12d872	0.1434038
32	0xbdd3a4fb	-0.10334202
33	0xbd4af810	-0.049552977
34	0xbd30a2e8	-0.04312411
35	0xbe01cd70	-0.12676024
36	0xbdccf712	-0.100080624
37	0xbd0b7e44	-0.034055963
38	0xbdcb483e	-0.099258885
39	0x3e2609c2	0.1621466
40	0xbe0f79f4	-0.14011365
41	0x3ddd0dc4	0.10793641
42	0x3dc19c84	0.09453681
43	0x3d2ca1c4	0.04214646
44	0xbe335865	-0.17514189
45	0xbccca840	-0.024982572
46	0xbd3bfdf8	-0.0458965
47	0xbd2f9324	-0.042864934
48	0xbd9acb42	-0.075582996
49	0xbd5cbb40	-0.053889513
50	0x3e454310	0.19263864
51	0xbe3e7555	-0.18599446
52	0xbcb41990	-0.021984845
53	0xbd9ee4ca	-0.07758482
54	0x3e38d5ac	0.1805026
55	0xbd528474	-0.05139585
56	0x3d90883c	0.07057235
57	0x3e088876	0.13333306
58	0xbcd15360	-0.025552452
59	0x3e3bbee6	0.1833454
60	0x3d87d774	0.06632891
61	0xbe2cdc6f	-0.16880964
62	0x3dfc0ea8	0.12307483
63	0xbc695730	-0.0142419785
64	0xbd69d4d8	-0.05708775
65	0xbe423961	-0.18967201
66	0x3e0378da	0.1283907
67	0xbe0ec72e	-0.13943169
68	0x3dfba2ec	0.12286934
69	0xbd15c830	-0.036567867
70	0x3dba9694	0.09110752
71	0xbe30efa6	-0.17278919
72	0xbe2613f9	-0.16218556
73	0x3e076928	0.13223708
74	0xbdca1bc8	-0.0986858
75	0x3ded1ec4	0.11578134
76	0xbe3d2953	-0.18472795
77	0x3dec4400	0.115364075
78	0xbb8aa440	-0.004231006
79	0xbd9dac74	-0.076989084
80	0xbc031e80	-0.008002877
81	0x3e27d5c6	0.16390142
82	0x3e33a42e	0.17543098
83	0xbe21aad8	-0.15787828
84	0xbe01b8cb	-0.12668149
85	0xbb279f80	-0.0025577247
86	0xbe0a0265	-0.13477476
87	0xbe259225	-0.16169031
88	0xbd9adfb6	-0.07562201
89	0x3e33c21c	0.17554516
90	0xbe3ae7f8	-0.18252552
91	0x3d772df0	0.060346544
92	0xbe4da0ea	-0.20080915
93	0xbcbfae28	-0.023398474
94	0x3dae4440	0.085091114
95	0x3de1b824	0.1102145

lstm.bias_hh_l0 f4 [96]
0	0xbded9e60	-0.11602473
1	0x3dfe90e0	0.124299765
2	0xbcccbe80	-0.024993181
3	0xbe039c9a	-0.12852708
4	0x3e29ea26	0.16593227
5	0x3df9ec04	0.122032195
6	0xbd952dfc	-0.072841614
7	0xbccfb548	-0.025354996
8	0x3d792810	0.060829222
9	0x3c989c58	0.018629238
10	0x3c608c00	0.013705254
11	0xbe3c1cb7	-0.18370329
12	0xbe15eabf	-0.1464033
13	0x3e03e76c	0.12881249
14	0x3e48e058	0.1961683
15	0x3dd291c8	0.10281712
16	0xbe491984	-0.1963864
17	0xbe34bc13	-0.1764987
18	0xbe06991a	-0.13144341
19	0x3e14c902	0.14529803
20	0x3cf2b4f0	0.029627293
21	0x3dcd1950	0.100145936
22	0xbe4b7741	-0.1986971
23	0x3dd2ec24	0.102989465
24	0x3da3cf94	0.07998577
25	0xbab2a300	-0.00136289
26	0x3d86b51c	0.065775126
27	0x3ddb9db4	0.10723439
28	0x3e292506	0.1651803
29	0x3d0c58a0	0.034264207
30	0x3d602578	0.054723233
31	0xbdec0e1a	-0.11526127
32	0xbe2cf3ea	-0.16889921
33	0xbe3224a2	-0.17396787
34	0x3e20031c	0.15626186
35	0xbdd523ca	-0.10407217
36	0xbb130fc0	-0.0022439808
37	0xbda76de0	-0.08175254
38	0xbdcc1a6d	-0.09965978
39	0x3d86db14	0.065847546
40	0x3e05e94e	0.1307728
41	0x3a2ba900	0.0006548315
42	0xbdff1d34	-0.12456742
43	0xbdfd9e3e	-0.12383698
44	0x3e45d8e2	0.19321015
45	0x3e103466	0.14082488
46	0x3e2403a4	0.16017014
47	0x3e4b1326	0.19831523
48	0x3e306e7a	0.17229643
49	0x3e4972d6	0.19672713
50	0x3d6e4528	0.05817142
51	0x3e079f44	0.13244349
52	0xbe422544	-0.18959528
53	0x3da0c500	0.07850075
54	0xbe21c9a4	-0.15799576
55	0x3d16bd30	0.036801517
56	0xbe424fc4	-0.1897574
57	0xbdfbe17b	-0.12298866
58	0x3d7873d0	0.060657322
59	0x3d26d858	0.040733665
60	0x3e266768	0.16250384
61	0x3e4e0238	0.20118034
62	0x3df5fec8	0.12011486
63	0x3e318ba8	0.17338431
64	0x3df08888	0.11744791
65	0x3dfb42fc	0.12268636
66	0xbe1c11f2	-0.1524122
67	0xbe355c95	-0.17711098
68	0x3c6e15c0	0.014531553
69	0xbd8194a4	-0.06327179
70	0x3e395dc6	0.18102178
71	0x3d83c334	0.064337164
72	0x3cc67c20	0.02422911
73	0xbe0bf73a	-0.13668528
74	0xbd97318a	-0.07382496
75	0x3cfa66d8	0.030566618
76	0xbe268324	-0.16260964
77	0x3e108780	0.14114189
78	0xbd59ac70	-0.053142965
79	0x3e460c06	0.19340524
80	0x3c356b20	0.011072904
81	0xbde8b234	-0.113621145
82	0x3e3bb5b2	0.1833103
83	0xbd54b14c	-0.051926896
84	0xbd99547a	-0.07486816
85	0x3e2b8d0c	0.16753024
86	0xbe4226f5	-0.18960173
87	0xbda8162d	-0.08207355
88	0x3dd270e0	0.102754354
89	0x3ddc1eec	0.107480854
90	0xbca68b90	-0.02033022
91	0x3de65f58	0.11248654
92	0xbe43cf2f	-0.19122003
93	0x3cd3b878	0.025844797
94	0xbd8dcf64	-0.06924322
95	0xbdcc2154	-0.09967294

linear1.weight f4 [128, 12]
0	0xbe0cc736	-0.13747868
1	0x3e97ad0d	0.29624215
2	0xbeb5b91a	-0.35492784
3	0x3df73503	0.12070658
4	0xbeff6d04	-0.4988786
5	0xbe275e3d	-0.16344543
6	0x3d06d7b7	0.032920565
7	0x3e72f90c	0.23727816
8	0x3f91b786	1.1384132
9	0xbf08a705	-0.5337985
10	0xbcee526f	-0.029092042
11	0x3f12278d	0.570916
12	0xbf22d5cc	-0.6360748
13	0xbe182fae	-0.14861938
14	0xbf10a65e	-0.56503856
15	0xbe1b1871	-0.15146042
16	0x3edc9dd6	0.4308917
17	0xbf652375	-0.8950723
18	0xbdd6db28	-0.104910195
19	0x3e0e418c	0.13892192
20	0xbde20fab	-0.11038145
21	0xbeba12e8	-0.3634255
22	0x3df43b3a	0.11925359
23	0x3ad99725	0.0016600831
24	0x3ee5d40d	0.44888344
25	0xb9dded8e	-0.00042329397
26	0xbe2e7fc8	-0.17040932
27	0xbd1268de	-0.03574454
28	0xbd24e13b	-0.04025386
29	0xbe9d8acf	-0.30769965
30	0x3c6eea4c	0.014582228
31	0x3eaac3de	0.3335256
32	0x3ebe2f1e	0.37145323
33	0x3f05c106	0.52247655
34	0x3cd7cd13	0.026342904
35	0xbc824714	-0.015903033
36	0x3f02ea0b	0.5113837
37	0x3f3fcf7b	0.74925965
38	0xbef4427d	-0.47706977
39	0xbed5ec65	-0.41781917
40	0xbe918545	-0.2842199
41	0xbe654872	-0.22390917
42	0x3ef04e62	0.469348
43	0xbe398fa5	-0.18121202
44	0x3f99ed2e	1.2025506
45	0xbf03b378	-0.5144572
46	0x3ea8822f	0.32911822
47	0xbd9ada80	-0.07561207
48	0xbc30b421	-0.010785134
49	0x3e901ec4	0.28148472
50	0x3dd326af	0.10310113
51	0xbe13ace1	-0.14421417
52	0xbbc75cc0	-0.0060840547
53	0xbe22ada5	-0.15886553
54	0x3e62542a	0.22102419
55	0xbf07131c	-0.52763534
56	0x3cb9a16c	0.02265998
57	0x3ed71813	0.42010555
58	0x3e034779	0.12820233
59	0x3d9a26da	0.075269416
60	0xbe2c1991	-0.16806628
61	0x3e5d6fe7	0.21624719
62	0xbd579c54	-0.05263932
63	0x3ecef896	0.4042403
64	0xbdf18025	-0.1179202
65	0xbe924115	-0.2856528
66	0xbe124f4b	-0.1428806
67	0xbec65fd7	-0.38744995
68	0x3e8b5e86	0.27220553
69	0xbbd5ef6d	-0.006528786
70	0x3e255535	0.16145785
71	0xbed5d0dc	-0.4176091
72	0xbe0bc973	-0.13651066
73	0xbe8a6ae0	-0.27034664
74	0xbc69bb9f	-0.014265924
75	0x3d7d7939	0.061883185
76	0xbf2c8c13	-0.67401236
77	0xbda043cc	-0.07825431
78	0xbde94dbd	-0.113917805
79	0xbd2fb6cb	-0.042898934
80	0xbf3a75b2	-0.7283584
81	0x3d22f226	0.039781712
82	0x3d9fa5b8	0.0779528
83	0x3f238032	0.63867486
84	0xbef374fa	-0.47550184
85	0x3ee80df0	0.45323133
86	0xbe4cbed9	-0.19994678
87	0x3f040130	0.5156431
88	0xbf2a860a	-0.6661078
89	0x3d77cbb4	0.060497
90	0xbf108fd9	-0.56469494
91	0xbe519d80	-0.20470238
92	0xbf6b0509	-0.9180456
93	0x3de7dd29	0.1132148
94	0x3cda1a17	0.026623769
95	0xbe08ecfd	-0.13371654
96	0xbef3f0a1	-0.47644523
97	0x3ee1677d	0.44024268
98	0x3d75a508	0.05997184
99	0x3d154a35	0.036447722
100	0xbe3782c2	-0.17920974
101	0x3ebc7bde	0.36813253
102	0xbf2fe82a	-0.6871363
103	0x3d89c119	0.067262836
104	0xbe3aa703	-0.18227772
105	0x3dd7943f	0.105263226
106	0xbe411f38	-0.18859565
107	0x3da55929	0.080736466
108	0xbea390dd	-0.3194646
109	0xbeb2d0e2	-0.3492499
110	0x3d2130de	0.039353244
111	0x3e012a85	0.12613876
112	0x3dc4306d	0.09579549
113	0x3ed05cc9	0.4069579
114	0x3e955ad7	0.29170868
115	0xbfb8f560	-1.4449883
116	0x3dd9de4b	0.10638102
117	0xbeaeaeab	-0.34117636
118	0xbc998e56	-0.018744629
119	0xbd2ac604	-0.04169275
120	0xbe41faef	-0.1894338
121	0x3e9c3833	0.30511627
122	0xbe4e5248	-0.20148575
123	0xbeee41a4	-0.46534455
124	0x3edcfe62	0.4316283
125	0x3e45eb97	0.19328152
126	0xbf135336	-0.57548845
127	0xbddff200	-0.1093483
128	0xbf1008fe	-0.5626372
129	0x3f5ec544	0.87019753
130	0xbebe11a0	-0.37122822
131	0x3e2d56b4	0.16927606
132	0xbeab2813	-0.33429012
133	0x3eed62be	0.46364397
134	0xbe47fc0a	-0.19529739
135	0x3c8d782c	0.017269216
136	0xbe8f7168	-0.2801621
137	0x3eb50f4c	0.35363233
138	0x3d954a14	0.0728952
139	0xbdc1d642	-0.094646946
140	0x3f972b31	1.1810056
141	0xbf6a4398	-0.9150939
142	0xbe4f3c73	-0.20237903
143	0xbebc6712	-0.36797386
144	0xbed6d757	-0.41961166
145	0x3e8f4817	0.27984688
146	0xbe3ec037	-0.18628012
147	0xbeab3ca5	-0.33444706
148	0xbe0b36e5	-0.1359516
149	0xbe545c74	-0.20738393
150	0x3ebb174f	0.3654122
151	0x3ef0b667	0.47014162
152	0x3e67b35c	0.22627014
153	0xbf02b939	-0.5106388
154	0xbb2e25ff	-0.002657294
155	0x3c2bae7f	0.010478615
156	0xbf1eb309	-0.61991936
157	0x3f4117fe	0.75427234
158	0x3d92de14	0.07171264
159	0x3ec5afbd	0.3861064
160	0xbe84265a	-0.2581051
161	0x3e713f8b	0.23559396
162	0xbf50898b	-0.81459874
163	0xbeb4d6d6	-0.35320157
164	0x3e6ac738	0.22927558
165	0xbe8f62ee	-0.28005165
166	0x3e873e40	0.2641468
167	0xbdbc487b	-0.09193512
168	0x3eeaac85	0.45834747
169	0x3bb5670d	0.0055359663
170	0xbecb9f65	-0.39770046
171	0xbd9e1bcc	-0.077201456
172	0x3ccb6678	0.024829134
173	0x3e647fd9	0.22314395
174	0xbec2f806	-0.38079852
175	0x3d109b5b	0.03530441
176	0x3f38db95	0.72210056
177	0xbeb3d36c	-0.3512224
178	0x3e89adc5	0.26890388
179	0x3d29c84e	0.04145079
180	0xbd899c09	-0.067192145
181	0x3e7693aa	0.24079767
182	0x3b3d4992	0.0028882963
183	0xbe38e200	-0.18054962
184	0x3ecb0b35	0.39656988
185	0xbdd67884	-0.10472205
186	0x3ee24682	0.44194418
187	0xbf118660	-0.56845665
188	0x3e347ece	0.17626497
189	0xbe971c0e	-0.29513592
190	0x3de11c2a	0.109917
191	0xbd3bc8b0	-0.045845687
192	0x3d09db78	0.033656567
193	0xbed40528	-0.41410184
194	0xbf12e8ad	-0.57386285
195	0xbddcfa2f	-0.10789906
196	0xbeb09006	-0.3448488
197	0x3ea83d2f	0.3285918
198	0xbecc3631	-0.39885095
199	0x3e1f3ec3	0.15551285
200	0x3e58768e	0.21138975
201	0xbc94d228	-0.018166617
202	0x3ef93bc5	0.48678413
203	0x3e5ad120	0.21368837
204	0xbeaef5d5	-0.3417193
205	0x3d9eca3b	0.07753416
206	0xbb9d9e1b	-0.0048101074
207	0xbca7653d	-0.020434016
208	0xbc57dd6e	-0.013175352
209	0xbbe3dba2	-0.0069536725
210	0x3d506195	0.05087431
211	0x3f1e0629	0.6172815
212	0xbcf067b1	-0.029346319
213	0xbed1d746	-0.40984553
214	0x3e04a8fc	0.12955087
215	0x3bbab144	0.0056974012
216	0x3dc32c54	0.09529939
217	0x3cc3fcbf	0.02392423
218	0xbdd47449	-0.10373742
219	0x3ee05c5b	0.43820462
220	0x3e62aedc	0.22137016
221	0x3f8470d1	1.0346929
222	0x3e2b0ee1	0.16704895
223	0x3d2347a3	0.03986324
224	0xbed72641	-0.42021373
225	0xbf02920b	-0.51004094
226	0xbee24097	-0.44189903
227	0x3f36824a	0.71292555
228	0x3f2c1cad	0.67231256
229	0xbf0d7ee0	-0.5527172
230	0x3d03edc4	0.032209173
231	0xbe318c52	-0.17338684
232	0x3b790cb8	0.0038001966
233	0xbdd61974	-0.104540735
234	0x3f769375	0.9631875
235	0xbe9f2742	-0.3108464
236	0xbd7091ce	-0.0587328
237	0x3f185d46	0.59517324
238	0x3c238ed7	0.009982786
239	0xbdc7ee56	-0.09762256
240	0x3e897a0d	0.2685093
241	0xbe0ab990	-0.13547349
242	0x3d5784d7	0.05261692
243	0xbed9c2f3	-0.42531547
244	0x3ee32ef1	0.4437175
245	0x3ee4a122	0.44654185
246	0xbe64ad9a	-0.22331849
247	0xbe2177d3	-0.15768366
248	0xbefc5238	-0.49281478
249	0xbf574303	-0.84086627
250	0x3e436ed2	0.19085243
251	0xbd15419b	-0.03643952
252	0x3e34b9ab	0.17648952
253	0xbdb628c5	-0.08894495
254	0xbe39d786	-0.18148622
255	0xbea333b7	-0.31875393

linear1.bias f4 [128]
0	0xbe1a96b6	-0.15096554
1	0x3e3ae195	0.18250115
2	0xbe902b53	-0.28158054
3	0xbdf2674e	-0.1183611
4	0x3d819e95	0.06329075
5	0x3ee30d31	0.44346002
6	0xbea5d44f	-0.3238854
7	0xbe1197c3	-0.14218049
8	0xbf0e770f	-0.5565042
9	0x3f56bc2d	0.83880883
10	0xbe1dcb5e	-0.1540961
11	0x3e46224e	0.19349024
12	0x3d9bf2f6	0.076147005
13	0xbc7d539a	-0.015461827
14	0x3cbf4aa3	0.02335102
15	0x3f0352c9	0.51298195
16	0x3eba98fc	0.36444843
17	0xbebf2673	-0.37334022
18	0xbd9b86ce	-0.07594071
19	0xbe8e8033	-0.27832183
20	0xbf14b736	-0.5809206
21	0x3d9d1751	0.07670463
22	0xbf19f12a	-0.6013361
23	0xbec31c5c	-0.38107574
24	0xbf049d78	-0.5180278
25	0xbd0b5548	-0.034016877
26	0x3c797ef7	0.015228025
27	0x3ea41a2e	0.32051224
28	0x3d8d3ab6	0.06895964
29	0x3f2e22ad	0.6802166
30	0xbefed97c	-0.49775302
31	0xbee65907	-0.44989797
32	0x3db673ff	0.08908843
33	0xbeb4a9e0	-0.35285854
34	0xbe154f32	-0.14580992
35	0xbeeba7c5	-0.46026435
36	0x3ee6c3a0	0.45071125
37	0xbefac414	-0.4897772
38	0xbe9c4c58	-0.30526996
39	0xbe4cdac6	-0.2000533
40	0xbe24a421	-0.16078235
41	0xbd65a0ac	-0.05606143
42	0x3ecdd6ab	0.4020284
43	0x3d8b2af6	0.067953035
44	0x3e0761bb	0.13220875
45	0x3e6b7ea2	0.22997525
46	0x3d9cdc0c	0.07659158
47	0x3e3dd373	0.18537693
48	0x3e183b5a	0.14866391
49	0xbdf80023	-0.12109401
50	0x3cd7a8be	0.02632558
51	0xbdefbba9	-0.11705715
52	0xbf014e40	-0.50510025
53	0x3e1dd9cd	0.15415116
54	0xbdc33cf8	-0.09533113
55	0xbeb5b4e5	-0.35489574
56	0xbe2e7415	-0.1703647
57	0xbe6a0598	-0.22853696
58	0xbdb1dc35	-0.08684579
59	0x3e59b41a	0.2126011
60	0x3cee6a03	0.029103285
61	0xbe05ac5c	-0.13054031
62	0x3e88ae01	0.26695254
63	0x3cdade80	0.026717424
64	0xbf3b969a	-0.73276675
65	0xbe08e766	-0.13369521
66	0xbe63a4e0	-0.22230864
67	0x3f10d8d0	0.5658083
68	0x3e551c95	0.20811684
69	0x3ddca049	0.107727595
70	0xbe0cced0	-0.13750768
71	0xbe7d413f	-0.2473192
72	0x3f002f2e	0.5007199
73	0xbc04a454	-0.0080958195
74	0xbe5aaaaa	-0.21354166
75	0x3f44cc55	0.76874286
76	0xbe19885a	-0.1499342
77	0xbece81e9	-0.4033349
78	0xbdc62678	-0.09675306
79	0x3e928344	0.28615773
80	0xbe268db0	-0.16264987
81	0xbe5dc385	-0.21656616
82	0xbf129895	-0.5726407
83	0x3e406dee	0.18791935
84	0xbe860c37	-0.26181194
85	0x3e56ad8d	0.20964642
86	0xbf58c9f9	-0.84683186
87	0x3e99624e	0.29957813
88	0xbf0f1cca	-0.55903304
89	0x3e17411f	0.14770935
90	0xbcca9637	-0.024729831
91	0x3e7713bb	0.2412862
92	0xbd09e6c8	-0.033667356
93	0xbd8296f4	-0.06376448
94	0xbe3a5808	-0.18197644
95	0xbe59ab15	-0.21256669
96	0x3c400247	0.011719293
97	0xbd5c8fbb	-0.05384801
98	0xbf080ab8	-0.53141356
99	0xbd57a246	-0.05264499
100	0x3cf9b5c8	0.030482188
101	0x3ef58a63	0.47957143
102	0x3c8f48d1	0.017490776
103	0xbe44850f	-0.19191383
104	0x3a01649b	0.0004935951
105	0xbf0609f0	-0.52358913
106	0x3edd03d4	0.43166983
107	0x3f12f6de	0.5740794
108	0x3e36c421	0.17848255
109	0xbdf5e1ae	-0.120059356
110	0xbef42f21	-0.47692207
111	0xbec767a8	-0.3894627
112	0x3e0a0f3b	0.13482372
113	0xbbdefdf9	-0.0068051782
114	0xbde95d10	-0.113947034
115	0xbedd961f	-0.43278596
116	0x3dd5efa6	0.104461
117	0xbee26dba	-0.4422434
118	0xbf23ca83	-0.63980883
119	0x3efeae75	0.49742475
120	0xbe69202b	-0.22766177
121	0x3f08380e	0.5321053
122	0xbf3673d6	-0.712705
123	0xbcb43beb	-0.022001227
124	0x3e02797b	0.12741654
125	0x3e69da0c	0.22837085
126	0x3d9229ac	0.071368545
127	0xbeda7a99	-0.4267166

linear2.weight f4 [128, 128]
0	0x3eecfeec	0.4628824
1	0xbe9caaeb	-0.3059915
2	0xbdc80fe3	-0.09768655
3	0x3ea84017	0.32861397
4	0xbe8ffd40	-0.28122902
5	0x3dfcc609	0.1234246
6	0x3ed5cd6e	0.41758293
7	0xbecb7d31	-0.3974395
8	0x3d19edb5	0.03758021
9	0x3ebbc603	0.36674508
10	0x3d3f069a	0.046637155
11	0x3e8dd74e	0.27703327
12	0x3d69339b	0.05693398
13	0x3e60ac89	0.21940817
14	0xbeafd84d	-0.34344712
15	0x3e8de081	0.27710345
16	0xbe2371d1	-0.15961386
17	0x3c45c92f	0.012071892
18	0xbec20028	-0.37890744
19	0xbe5364bb	-0.20643894
20	0xbf31246b	-0.69196194
21	0xbdeb76a0	-0.11497235
22	0x3ea87da5	0.3290836
23	0xbf8cbcb4	-1.0995088
24	0xbe4cef7a	-0.20013228
25	0xbfe2deda	-1.7724259
26	0xbd72bc84	-0.059261814
27	0x3e362cb1	0.17790486
28	0xbede5a8a	-0.4342845
29	0xbe9f2309	-0.31081417
30	0x3d3e7cc3	0.0465057
31	0xbeeece1d	-0.46641627
32	0xbe1d6bf6	-0.15373215
33	0xbe834587	-0.25638983
34	0x3e28ea40	0.1649561
35	0xbe10c7a3	-0.14138655
36	0xbe4fb50d	-0.20283909
37	0xbe019c01	-0.12657167
38	0xbf10dfd1	-0.56591517
39	0x3e93e6ef	0.28887126
40	0x3e5c6d5b	0.21526091
41	0xbccf5469	-0.025308805
42	0xbfa6b761	-1.3024713
43	0xbcf7da3b	-0.030255428
44	0xbeb03b5e	-0.34420294
45	0x3ec1f32a	0.37880832
46	0xbeb452bb	-0.35219368
47	0x3d0a0265	0.03369369
48	0x3ccae9a6	0.024769615
49	0xbe28f9e7	-0.1650158
50	0xbe5e58d8	-0.21713579
51	0x3e241f0a	0.16027465
52	0xbe1c2d00	-0.15251541
53	0x3d1c3945	0.038140554
54	0xbd1b7021	-0.03794873
55	0x3e949392	0.29018837
56	0x3e132a63	0.14371638
57	0xbd02eba6	-0.031963013
58	0x3d12e5eb	0.035863798
59	0x3e040d40	0.1289568
60	0xbf088fc3	-0.5334436
61	0x3dbadcbc	0.09124133
62	0xbe12d77d	-0.14340015
63	0x3dc84492	0.09778704
64	0xbecb66be	-0.39726824
65	0x39030ad0	0.00012497162
66	0xbf098504	-0.5371859
67	0x3d751dcd	0.059842873
68	0xbf7b6114	-0.98195004
69	0xbf879108	-1.0591135
70	0xbcaa872f	-0.020816414
71	0x3e970036	0.29492348
72	0xbeeae5a7	-0.45878336
73	0xbe9d9171	-0.30775025
74	0xbe1aee39	-0.15129937
75	0x3eea8dee	0.4581141
76	0x3ea39056	0.31946057
77	0xbeb8324b	-0.3597587
78	0x3e9b7968	0.30366063
79	0xbed13d26	-0.40866965
80	0x3e9791f0	0.2960353
81	0xbec6213b	-0.38697228
82	0xbe692ab5	-0.22770198
83	0xbea120a6	-0.3147022
84	0xba219fc1	-0.0006165468
85	0x3e4e717d	0.2016048
86	0x3c88704a	0.016655106
87	0x3e57ee52	0.21087006
88	0xbe0bca38	-0.13651359
89	0xb9fda739	-0.0004838051
90	0xbd76141c	-0.06007777
91	0xbe89f73d	-0.2694644
92	0x3ed03063	0.40661916
93	0xbcbc2ac1	-0.022969605
94	0xbb7abebc	-0.003826066
95	0xbf62c958	-0.88588476
96	0xbe76eb46	-0.24113187
97	0xbea0e859	-0.31427267
98	0x3d6274b0	0.055287063
99	0xbe4bc8d3	-0.19900827
100	0x3e9359ec	0.28779542
101	0x3e2112ef	0.15729879
102	0xbd720bb2	-0.059093185
103	0x3d948837	0.072525434
104	0xbf3dd0b0	-0.74146557
105	0xbf2a7aee	-0.66593826
106	0xbd8ef62a	-0.06980546
107	0x3d1ae85d	0.037819255
108	0xbebd6876	-0.3699376
109	0xbf63fe33	-0.8905975
110	0x3e3aab2e	0.18229362
111	0xbf33bac3	-0.7020685
112	0xbd4f7593	-0.050649237
113	0x3eaccd25	0.33750263
114	0xbe8b6098	-0.27222133
115	0xbf81068a	-1.008012
116	0xbdd5169d	-0.10404704
117	0xbcd835cc	-0.02639284
118	0x3edf0eba	0.43565923
119	0x3d88eef0	0.06686199
120	0xbf07f9aa	-0.5311533
121	0xbd382159	-0.044953678
122	0xbee786bc	-0.45219982
123	0x3e8aecce	0.27133793
124	0xbe120b28	-0.14262068
125	0xbe957833	-0.29193267
126	0x3e50b4ca	0.20381466
127	0x3eaf094d	0.34186783
128	0xbe95a24d	-0.29225388
129	0x3e14741f	0.14497422
130	0xbb9706cc	-0.0046089645
131	0xbe4933d0	-0.19648671
132	0xbdd47b26	-0.10375051
133	0x3e039935	0.12851413
134	0x3edaedbe	0.42759508
135	0x3eb83516	0.35978
136	0x3df0ae21	0.117519625
137	0x3e9b6545	0.303507
138	0xbf4fa363	-0.81108683
139	0xbe1478fe	-0.1449928
140	0xbe6dff47	-0.23241912
141	0x3e7aa53f	0.24477099
142	0xbe8cceb0	-0.2750144
143	0x3db02fef	0.086028926
144	0xbd89d169	-0.06729395
145	0x3d8c7855	0.06858889
146	0xbe9ec7a3	-0.31011686
147	0xbbb54c02	-0.0055327425
148	0x3e9d7aba	0.30757695
149	0x3e0ed91e	0.13950011
150	0xbe3b00c9	-0.18262018
151	0xbe0655aa	-0.13118616
152	0x3efe2c66	0.49643248
153	0xbeba13a3	-0.36343107
154	0x3dda48ca	0.10658415
155	0x3e47297d	0.1944942
156	0x3e8ef0d7	0.2791812
157	0x3df366df	0.118848555
158	0xbd617311	-0.055041377
159	0xbe47df6c	-0.19518822
160	0xbf29cb43	-0.6632578
161	0x3eb2e0ea	0.3493722
162	0x3ec5efe2	0.3865958
163	0xbe86aa41	-0.26301768
164	0xbe761545	-0.24031551
165	0xbe2adf48	-0.16686738
166	0x3d7ade55	0.06124719
167	0xbe6aff5f	-0.22948979
168	0x3e3934b4	0.18086511
169	0xbd432fc3	-0.04765297
170	0xbea69cb0	-0.32541418
171	0x3eb3941a	0.3507393
172	0xbe1a6b98	-0.15080106
173	0x3d9d6df4	0.076869875
174	0x3d95a73c	0.07307288
175	0x3e87e1f8	0.26539588
176	0xbd90ffa6	-0.07080011
177	0xbe08a902	-0.13345721
178	0xbe9c8644	-0.30571187
179	0xbf434e38	-0.7629123
180	0xbd273566	-0.04082241
181	0x3e676016	0.22595248
182	0xbe7ee007	-0.24890147
183	0x3dff220f	0.12457668
184	0xbe47b647	-0.19503127
185	0xbe373b88	-0.17893803
186	0xbc243a2b	-0.010023634
187	0x3e10cd57	0.14140831
188	0x3cbd0fdb	0.02307885
189	0xbe48ed72	-0.19621828
190	0xbde28e3c	-0.11062285
191	0xbdbaf567	-0.09128838
192	0x3eeb2123	0.4592372
193	0x3f04dd3e	0.5190009
194	0x3e1dc35e	0.15406558
195	0xbe03c957	-0.12869774
196	0xbe326134	-0.17419893
197	0xbd959960	-0.073046446
198	0x3e53cdf9	0.20684041
199	0xbcce1ad3	-0.025159275
200	0x3d61aec2	0.055098303
201	0x3db01281	0.08597279
202	0xbe198ed9	-0.14995898
203	0x3e4e1418	0.20124853
204	0x3e005ac7	0.12534629
205	0x3eec19fe	0.4611358
206	0xbe490132	-0.19629362
207	0xbf20c54a	-0.6280104
208	0xbf0d54eb	-0.552077
209	0xbead2844	-0.33819783
210	0x3eff2216	0.49830693
211	0xbd61559a	-0.055013277
212	0xbefb5127	-0.49085352
213	0xbc940552	-0.018068943
214	0xbe2f2a7e	-0.17106053
215	0x3eeef8cf	0.466742
216	0x3ee6de8b	0.45091662
217	0xbdc65229	-0.096836396
218	0x3d7f75f8	0.062368363
219	0xbd679693	-0.056540083
220	0x3f02db56	0.5111593
221	0xbe4b5f56	-0.19860587
222	0xbe5988d9	-0.2124361
223	0x3e86cc72	0.26327854
224	0xbd46f578	-0.04857394
225	0x3d1da2ea	0.038485445
226	0xbe5a683c	-0.21328825
227	0xbe3662c0	-0.17811108
228	0x3e8e2601	0.2776337
229	0xbb55799f	-0.0032573713
230	0x3d2a6a3a	0.04160521
231	0x3eb3834d	0.35061112
232	0xbe06c955	-0.1316274
233	0xbd61fb00	-0.055171013
234	0x3d5cebf0	0.053935945
235	0x3e226fa1	0.15862896
236	0x3e3c65f6	0.1839827
237	0x3ccfec10	0.025381118
238	0xbea48989	-0.3213618
239	0xbdbfc534	-0.093637854
240	0xbe1b51d8	-0.1516794
241	0xbe89f0a1	-0.26941398
242	0xbde29c8a	-0.11065014
243	0x3d461c12	0.048366614
244	0x3d7d2370	0.061801374
245	0xbec34cd3	-0.3814455
246	0x3ea95d68	0.33079076
247	0xbd0d49ab	-0.034494083
248	0x3e93bfdb	0.28857312
249	0xbf196c2b	-0.59930676
250	0x3e46d2d7	0.19416367
251	0x3e7f03e2	0.24903825
252	0xbec9ae4e	-0.39390796
253	0xbe62fe45	-0.22167309
254	0x3ee744f4	0.45169795
255	0x3ea24d33	0.31699523

linear2.bias f4 [128]
0	0xbdf312bd	-0.118688084
1	0xbd3dd8b7	-0.046349254
2	0xbe8a4c96	-0.27011555
3	0x3acf29b9	0.0015805281
4	0x3d8c84fc	0.06861302
5	0xbed87366	-0.42275542
6	0xbe5724ce	-0.21010134
7	0xbd5dca6b	-0.05414812
8	0xbdf8339d	-0.121192195
9	0xbddb15c0	-0.10697508
10	0xbd80450b	-0.06263169
11	0x3d8fa803	0.070144676
12	0xbc9be9c9	-0.019032376
13	0xbde437ac	-0.11143431
14	0xbdd6b25d	-0.10483239
15	0x3d9cb9df	0.076526396
16	0xbd566481	-0.05234194
17	0x3d460488	0.048344165
18	0xbd5d747d	-0.05406617
19	0xbe2f5ff0	-0.17126441
20	0x39c49860	0.0003749756
21	0xbe06d3e7	-0.13166772
22	0xbe60c7e1	-0.21951248
23	0xbe291821	-0.1651311
24	0x3d1b60a3	0.037933957
25	0x3d9c9fc6	0.07647662
26	0x3d5920d3	0.05300982
27	0xbe065aa3	-0.13120513
28	0xbe118837	-0.14212118
29	0x3e0b0b12	0.13578442
30	0xbdac041b	-0.083992206
31	0xbdf3729c	-0.118870944
32	0x3ca06a86	0.019582044
33	0xbd87ecc0	-0.06636953
34	0x3cbb7e82	0.022887472
35	0xbd0f78fa	-0.03502748
36	0x3c689c57	0.014197431
37	0x3db660d6	0.08905189
38	0xbe0d0124	-0.13769966
39	0xbe96b1cf	-0.29432532
40	0x3df2dd18	0.118585765
41	0xbe895831	-0.26825097
42	0xbd3dd8c6	-0.04634931
43	0x3d2c2b43	0.042033445
44	0xbe28dcce	-0.1649048
45	0xbdee4233	-0.1163372
46	0x3ea00859	0.3125637
47	0xbe3b41a9	-0.18286766
48	0xbd5f86ab	-0.05457179
49	0x3e3bc999	0.18338622
50	0x3d7d023f	0.06176972
51	0xbdd002c9	-0.10156781
52	0xbec6edf9	-0.38853434
53	0xbdc19986	-0.094531104
54	0xbdcb70b2	-0.09933604
55	0x3e0625f0	0.1310041
56	0x3ebb10ef	0.36536357
57	0xbdc0bac7	-0.09410625
58	0xbdf58c74	-0.1198968
59	0xbe522b30	-0.20524287
60	0xbe2d0925	-0.1689802
61	0xbedab6d9	-0.42717627
62	0xbd9511f9	-0.07278819
63	0xbde42083	-0.111390136
64	0xbe016e68	-0.12639773
65	0xbdbed0d0	-0.093171716
66	0x3c7c3a00	0.015394688
67	0xbdda553a	-0.10660787
68	0xbe7eda87	-0.24888049
69	0xbd1e296d	-0.038613725
70	0xbe6256b4	-0.22103387
71	0x3bbdd2fd	0.005792974
72	0x3cb5cf28	0.022193506
73	0xbd1caa38	-0.03824827
74	0xbd891d72	-0.066950694
75	0xbed01e48	-0.40648103
76	0x3c79b39e	0.015240578
77	0xbd2cde69	-0.042204294
78	0x3d9399ec	0.07207093
79	0xbe302c20	-0.17204332
80	0x3e7691ed	0.24079104
81	0xbd42292a	-0.04740254
82	0xbda01420	-0.078163385
83	0xbec3163b	-0.38102898
84	0x3d1659ac	0.03670661
85	0xbdc263ed	-0.094917156
86	0xbdc6b36d	-0.097021915
87	0xbd93fb14	-0.07225624
88	0x3c4db48a	0.012555251
89	0xbe1f08b6	-0.15530667
90	0x3ddc991e	0.10771392
91	0xbda410d8	-0.08011025
92	0xbd37398c	-0.044732615
93	0xbe156ed1	-0.14593054
94	0xbc009670	-0.007848367
95	0x3b020cd2	0.0019844067
96	0xbddd57b7	-0.10807746
97	0xbb58adb6	-0.0033062524
98	0xbc432330	-0.011910245
99	0x3cd721e6	0.026261281
100	0xbe250f33	-0.1611908
101	0x3d05e3c3	0.032687914
102	0x39ddb9a4	0.00042290718
103	0xbe3b347b	-0.18281738
104	0x3aeda241	0.001813002
105	0xbe3166bd	-0.17324348
106	0x3e2ff5ea	0.17183653
107	0x3d3c3907	0.045952823
108	0xbd79db53	-0.06100018
109	0xbc5a2d84	-0.013316516
110	0x3cc5db67	0.02415247
111	0x3d3db410	0.0463143
112	0xbd849573	-0.06473818
113	0x3d2dbe75	0.042417962
114	0xbdbc9fe6	-0.09210186
115	0xbd865340	-0.065588474
116	0xbeb90087	-0.36133215
117	0x3dc80f84	0.09768584
118	0x3ece4d87	0.40293524
119	0xbea76ad7	-0.326987
120	0xbdf7a62e	-0.12092243
121	0xbd347530	-0.04405707
122	0xbc769be5	-0.015051817
123	0xbd60943d	-0.05482887
124	0xbcd72d9f	-0.026266871
125	0xbe805d95	-0.25071397
126	0xbd9addc8	-0.07561833
127	0xbd964210	-0.07336819

adv1.weight f4 [128, 128]
0	0xbd9ce5a1	-0.07660986
1	0xbe5687fe	-0.20950314
2	0x3baa95ee	0.0052058613
3	0xbdafe483	-0.08588507
4	0xbd7a647b	-0.061130982
5	0x3c313aad	0.010817212
6	0xbe142427	-0.14466916
7	0x3d0dba30	0.03460139
8	0x3e823422	0.254304
9	0xbed06fe4	-0.40710366
10	0xbd2b9d9f	-0.041898366
11	0xbdaf2c4a	-0.08553369
12	0xbf006085	-0.5014728
13	0x3eb5e376	0.355251
14	0x3c1cb9a0	0.009565741
15	0xbe887ded	-0.26658574
16	0xbdf1cc50	-0.11806548
17	0xbca44654	-0.020053066
18	0x3dca6657	0.09882801
19	0xbd2e6ba4	-0.042583123
20	0xbe9c2ba4	-0.30502045
21	0xbe453366	-0.19257888
22	0x3eb58347	0.3545172
23	0xbef06571	-0.46952394
24	0x3e0175f7	0.12642656
25	0xbebf4c1a	-0.37362748
26	0xbdfaacdf	-0.12240004
27	0x3d45df16	0.048308454
28	0x3d7e239c	0.06204568
29	0xbe80073a	-0.25005513
30	0xbd82aa1a	-0.063801005
31	0xbdc51898	-0.096238315
32	0xbd71f968	-0.059075743
33	0xbe663da4	-0.22484452
34	0xbd043c7c	-0.032284245
35	0xbf13d29c	-0.5774324
36	0xbe988869	-0.29791573
37	0xbdb9f5eb	-0.09080108
38	0xbd9c7c88	-0.0764094
39	0xbe72d9e6	-0.23715934
40	0xbe082128	-0.13293898
41	0xbddcc521	-0.10779787
42	0x3c9c8d84	0.019110449
43	0xbdf1d1ed	-0.11807618
44	0xbd8c2646	-0.068432376
45	0x3d34e82b	0.044166725
46	0xbe142f00	-0.14471054
47	0xbda05d30	-0.07830274
48	0xbf0acd98	-0.5421996
49	0xbe075ddd	-0.132194
50	0xbdad18d4	-0.08452001
51	0xbe5b7f27	-0.21435224
52	0x3e9933ca	0.29922324
53	0xbe196853	-0.14981203
54	0x3e08cc29	0.13359131
55	0xbec309e9	-0.38093498
56	0x3df7720b	0.12082299
57	0xbe05f4c5	-0.13081653
58	0x3d3b42c9	0.04571799
59	0xbe6df23b	-0.23236935
60	0xbe0cf40a	-0.13764969
61	0x3d057582	0.032582767
62	0xbd30e15f	-0.04318368
63	0x3d839951	0.06425727
64	0x3dce4bff	0.10073089
65	0xbe81cc80	-0.25351334
66	0x3e0daecd	0.13836212
67	0xbdb0f919	-0.086412616
68	0xbde21994	-0.11040035
69	0xbe15c4ec	-0.14625901
70	0x3e1ce0ca	0.15320125
71	0x3d231be4	0.03982152
72	0xbd11a254	-0.0355552
73	0x3d8415d2	0.064494744
74	0x3e4ff463	0.2030807
75	0x3ec81053	0.39074954
76	0xbe2e0e01	-0.1699753
77	0x3e29f239	0.16596307
78	0x3ec14d1c	0.37754142
79	0xbe74265e	-0.23842761
80	0xbedfa7dc	-0.43682754
81	0xbf020fd3	-0.50805396
82	0x3d36ead5	0.044657547
83	0xbd179315	-0.037005503
84	0x3d33ad8e	0.043866687
85	0xbd58a106	-0.05288794
86	0x3b8293f4	0.0039849225
87	0xbd846856	-0.06465213
88	0x3d985cd1	0.07439578
89	0x3e77690b	0.24161164
90	0xbf7553da	-0.9583107
91	0xbdb342e3	-0.08752992
92	0x3e25f6d8	0.16207445
93	0x3ea95fc4	0.33080876
94	0x3d2f75e4	0.04283704
95	0xbf28fb44	-0.660084
96	0xbe8702b6	-0.26369256
97	0x3d8d111b	0.06888028
98	0x3da15c0e	0.07878886
99	0xbd868fc6	-0.06570391
100	0xbd1fc5dc	-0.039007053
101	0xbddabb79	-0.10680289
102	0xbc699e89	-0.014258989
103	0xbea493db	-0.32144055
104	0xbeb1bf3f	-0.34716222
105	0x3de50664	0.111828595
106	0xbe87eff8	-0.2655027
107	0xbea5322d	-0.32264844
108	0x3d4c0c00	0.04981613
109	0xbe622f9e	-0.22088477
110	0xbe2dd9ff	-0.1697769
111	0x3d86e7c4	0.065871745
112	0x3d104111	0.035218302
113	0x3e9a4bae	0.30135864
114	0xbcc75be9	-0.024335818
115	0xbdb7f0c1	-0.08981467
116	0x3e11fa24	0.14255577
117	0xbed5a72e	-0.4172911
118	0x3e851abd	0.25996962
119	0x3d4b5ae7	0.049647238
120	0xbc30fd63	-0.0108026
121	0x3e97b822	0.2963267
122	0xbdbb5d76	-0.09148686
123	0x3f276b71	0.6539832
124	0x3d848ebd	0.06472538
125	0x3ef25f0b	0.47338137
126	0xbce3a744	-0.02778972
127	0x3ca2724b	0.01982989
128	0xbefd4c4b	-0.4947227
129	0xbf2ddce1	-0.6791516
130	0x3efc042c	0.49221933
131	0x3e0ec538	0.1394242
132	0x3e08ca0b	0.13358323
133	0xbe1dfec6	-0.1542922
134	0xbd819d4b	-0.063288294
135	0xbf0f6df2	-0.5602714
136	0x3e751b7f	0.2393627
137	0xbf12e9f1	-0.57388216
138	0xbefa4532	-0.48880917
139	0xbf3a78a8	-0.72840357
140	0xbf8c5e18	-1.0966215
141	0xbdadca95	-0.08485905
142	0x3d6a064c	0.05713491
143	0xbed89230	-0.42299032
144	0xbe5b26c3	-0.21401505
145	0x3b534898	0.0032239314
146	0xbd393d42	-0.045224436
147	0x3cbc3fca	0.022979636
148	0xbe8a03f9	-0.26956156
149	0x3e8f596f	0.2799792
150	0x3ec15413	0.37759456
151	0xbeb3f272	-0.3514591
152	0x3e58f70a	0.21187988
153	0x3e3e3f49	0.18578829
154	0xbeccde43	-0.40013322
155	0x3eae017d	0.3398551
156	0xbec13756	-0.3773753
157	0xbe4d95d6	-0.20076689
158	0x3d88f6ec	0.066877216
159	0xbd226cdf	-0.03965461
160	0x3e3a28ab	0.18179576
161	0xbf090ade	-0.53532207
162	0xbd32ff85	-0.043700714
163	0x3e0d7067	0.1381241
164	0xbd9e6e31	-0.07735861
165	0xbcd09395	-0.025460998
166	0x3e273caf	0.16331743
167	0xbe8dd1c9	-0.27699116
168	0xbe284b4f	-0.16434978
169	0xbeef411f	-0.4672937
170	0xbe1b70d5	-0.15179761
171	0xbf3a9418	-0.72882223
172	0x3d692479	0.05691955
173	0xbda56deb	-0.08077606
174	0xbc1304a2	-0.0089732725
175	0xbe9fd77b	-0.31219086
176	0xbed8d77c	-0.42351902
177	0xbf0ec1b7	-0.55764335
178	0xbe6e0544	-0.23244196
179	0xbe8abc81	-0.27096942
180	0x3ed8c629	0.42338684
181	0xbe9b8546	-0.30375117
182	0x3ce7c8e9	0.028294044
183	0x3e481059	0.19537486
184	0xbe1424b8	-0.14467132
185	0x3d912abd	0.0708823
186	0xbd6c0fc8	-0.057632238
187	0xbdaf407f	-0.085572235
188	0x3df6bf97	0.120482616
189	0x3e1a4295	0.15064462
190	0x3d8273f4	0.063697726
191	0x3d808bb6	0.06276648
192	0x3de30203	0.11084368
193	0x3c7f11cd	0.015568209
194	0xbeac8c18	-0.33700633
195	0x3e78ddcc	0.24303359
196	0x3caf05f3	0.021365141
197	0xbd0a1aa8	-0.033716828
198	0x3e4d013a	0.20019999
199	0xbe2da260	-0.16956472
200	0x3c664d39	0.014056497
201	0x3e012ca6	0.12614688
202	0xbecb7d7d	-0.39744177
203	0xbe888251	-0.26661924
204	0xbe779c81	-0.24180795
205	0x3e766632	0.24062422
206	0x3d8845ca	0.06653936
207	0xbddd62e6	-0.10809879
208	0xbe01cde9	-0.12676205
209	0xbee63414	-0.44961607
210	0xbcd50e87	-0.026007904
211	0x3ce9b2c2	0.028527621
212	0xbf0261c8	-0.5093045
213	0xbcad1124	-0.021126337
214	0xbb273423	-0.0025513254
215	0xbc64679d	-0.013940719
216	0xbdf8f4e4	-0.12156084
217	0x3e4f89d7	0.20267425
218	0x3d7927fc	0.060829148
219	0xbcfc1bfa	-0.030775059
220	0x3ea398c8	0.319525
221	0xbe42ceec	-0.19024247
222	0x3d85d0cf	0.06533968
223	0xbe8739f7	-0.2641141
224	0xbd8277b8	-0.06370491
225	0xbee9e115	-0.45679536
226	0xbcca034b	-0.024659773
227	0xbb5eb495	-0.0033982147
228	0xbe323444	-0.1740275
229	0xbe247c8a	-0.16063133
230	0xbc63d200	-0.013905048
231	0xbd8e8b86	-0.06960206
232	0x3c45e3a9	0.012078204
233	0xbdacd9de	-0.08439992
234	0xbe96e310	-0.2947011
235	0xbd084140	-0.033265352
236	0x3e35cdc3	0.17754273
237	0xbe55a097	-0.20862041
238	0x3e459aa4	0.19297272
239	0xbc55eb8b	-0.013056646
240	0xbcad1b0e	-0.021131065
241	0x3e8953c2	0.26821715
242	0x3d314d32	0.04328651
243	0xbd9be9fd	-0.07612989
244	0x3c6171b4	0.013760019
245	0xbedb1be3	-0.42794713
246	0xbc928bb8	-0.017888889
247	0xbb4eed49	-0.0031574538
248	0x3e0f9988	0.14023411
249	0xbce1547a	-0.027506102
250	0xbd8446e0	-0.06458831
251	0x3db552e9	0.088537045
252	0xbbd41b2c	-0.0064729657
253	0x3cc21239	0.02369033
254	0x3ced9639	0.029002296
255	0xbe9dcec2	-0.30821806

adv1.bias f4 [128]
0	0xbd0f3961	-0.03496683
1	0xbe438868	-0.19095004
2	0xbe45b16e	-0.19305965
3	0xbd7ed081	-0.062210564
4	0xbe48ed66	-0.1962181
5	0xbe24ea4a	-0.16104999
6	0xbe06bf38	-0.13158882
7	0xbdecb33f	-0.11557626
8	0x3e45419f	0.19263314
9	0xbe27e37b	-0.1639537
10	0xbdedb8c0	-0.11607504
11	0xbd6a6664	-0.057226554
12	0xbdb495d4	-0.0881764
13	0xbca0a065	-0.019607732
14	0xbe88f350	-0.26748133
15	0xbe208579	-0.15675916
16	0xbe0c8fe8	-0.13726771
17	0xbdd6c8c7	-0.10487514
18	0x3dfa2780	0.12214565
19	0xbe31533d	-0.17316909
20	0xbd8cc89f	-0.06874203
21	0xbb6c9bfa	-0.0036103711
22	0x3bd2babc	0.006430952
23	0xbea8c533	-0.3296295
24	0xbe35aa35	-0.1774071
25	0xbdf496e6	-0.11942844
26	0xbe2bee2b	-0.16790073
27	0x3ce3bac9	0.027799027
28	0xbd1aa434	-0.037754253
29	0xbe25566f	-0.16146253
30	0xbe5c9b07	-0.21543513
31	0xbe713805	-0.23556526
32	0xbd9f91a0	-0.07791448
33	0xbe1c7fed	-0.15283175
34	0xbcf348fb	-0.029697886
35	0xbe584e72	-0.21123675
36	0xbe1650ce	-0.14679262
37	0xbeabcfad	-0.33556882
38	0x3d3d5a4a	0.046228684
39	0xbd8b40c8	-0.067994654
40	0xbe14c001	-0.14526369
41	0xbc86b0a9	-0.01644166
42	0xbe28ebfd	-0.16496272
43	0xbd984e34	-0.07436791
44	0xbdf89b52	-0.12139
45	0xbdd0e933	-0.10200729
46	0xbe4e57bc	-0.20150656
47	0xbdb00296	-0.08594243
48	0xbe2d17ba	-0.16903582
49	0xbe57e831	-0.21084668
50	0xbda2162c	-0.07914385
51	0xbe1edc6c	-0.15513772
52	0xbe6b4bc7	-0.22978126
53	0xbe3e235b	-0.18568175
54	0xbf331ae0	-0.69962883
55	0xbe1ee67e	-0.15517613
56	0xbe345d59	-0.17613734
57	0xbe051c75	-0.12999137
58	0xbde1ec45	-0.11031393
59	0xbcfcc716	-0.03085665
60	0xbde5bdad	-0.112178184
61	0xbe123091	-0.14276339
62	0xbd8c5db0	-0.06853807
63	0xbcf5f344	-0.030023225
64	0xbe8e59eb	-0.27802977
65	0xbe7e772f	-0.24850152
66	0xbd586c86	-0.05283787
67	0xbefdf5ce	-0.49601597
68	0xbe4cf243	-0.2001429
69	0xbdefcf80	-0.11709499
70	0x3dcabc16	0.09899156
71	0xbd932b1c	-0.07185957
72	0xbe87b483	-0.26504907
73	0x3d6fd813	0.058555674
74	0xbda5709b	-0.080781184
75	0xbe1c45c1	-0.15260984
76	0xbcc52c8f	-0.024069099
77	0xbd699327	-0.0570251
78	0xbe63014c	-0.22168463
79	0xbd6856c1	-0.05672336
80	0xbd8b62e4	-0.06805971
81	0xbcf9dc6b	-0.030500611
82	0xbe13fdc8	-0.14452279
83	0x3cf08c58	0.029363796
84	0xbd3b3ba7	-0.045711186
85	0xbd3c03d7	-0.0459021
86	0xbe5624f4	-0.20912534
87	0x3e4f50e3	0.202457
88	0x3d017b01	0.031611446
89	0x3cf89f42	0.030349378
90	0x3cb4530a	0.022012252
91	0xbb7601ab	-0.0037537615
92	0xbd9c50b6	-0.07632582
93	0xbc9cec46	-0.019155633
94	0x3c8ffccb	0.017576596
95	0x3d10836c	0.035281584
96	0xbe45245a	-0.19252148
97	0xbde6b866	-0.1126564
98	0xbdb29865	-0.08720473
99	0xbd6f85c0	-0.058477163
100	0x3e1030f1	0.1408117
101	0xbe4647d0	-0.19363332
102	0xbd87b2e1	-0.06625915
103	0xbd15790a	-0.036492385
104	0xbc4a853c	-0.012360867
105	0xbe1ed2f7	-0.15510164
106	0xbc1a1b14	-0.00940587
107	0xbbed9e09	-0.0072515053
108	0xbde431ee	-0.11142336
109	0xbda64c16	-0.08119981
110	0x3ce0e47b	0.027452698
111	0xbe09efbf	-0.13470362
112	0xbdbb7fd2	-0.09155239
113	0xbe83855b	-0.2568768
114	0xbe4398c2	-0.19101241
115	0xbdaad9aa	-0.083422974
116	0xbd246467	-0.040134814
117	0x3cc257e8	0.023723558
118	0xbc8ef602	-0.01745129
119	0xbe59d68d	-0.21273251
120	0xbd2aece3	-0.04172982
121	0x3b2ac135	0.0026055102
122	0xbe3e96c3	-0.18612199
123	0xbe1d85b3	-0.15383033
124	0xbdc3ee6c	-0.0956696
125	0xbccafa85	-0.02477766
126	0x3b4c160d	0.0031141073
127	0xbe04d134	-0.1297043
