算法对比/DDQN&DQN/ddqn_model.ckpt (torch, 107095 bytes, 6 tensors)

linear1.weight f4 [128, 27]
0.044052266 -0.06511947 0.07715377 0.18085268 -0.06243358 -0.13263787 0.16716784 -0.064096615
0.16537519 -0.0864851 0.057490043 0.07566262 0.18506025 0.062140606 0.11723456 0.018621063
0.022830645 0.15548871 -0.08921441 0.064155184 0.15562192 0.037135035 0.1404121 0.18963857
-0.008095953 -0.0013593774 0.07973832 0.1183073 -0.06728361 0.1235234 -0.059328854 0.06582565
0.062115468 0.15448074 0.010647751 -0.028465476 0.16751473 0.032083422 0.14318578 0.13070877
0.07007743 0.08721608 0.051716592 0.06364867 -0.04497776 0.14810249 -0.052583348 0.032531925
-0.08328996 -0.13994661 -0.23069115 0.04865381 -0.007671924 -0.020835442 0.047636017 0.06767206
0.18444495 0.012923732 0.10331808 0.0949121 0.07439439 -0.15823296 -0.18287313 0.1015514
0.16754626 0.037690133 0.12657078 0.14976694 0.036330327 -0.17976178 0.08301942 -0.11020752
0.023619056 0.12015636 0.06121792 -0.094761446 -0.0676511 -0.13082945 -0.13590392 -0.13616937
0.12809987 -0.055091824 0.13062792 -0.036745224 0.037978247 -0.131289 -0.011218032 -0.23725311
0.12549008 -0.11503471 -0.027104003 0.051317453 0.18589272 0.010852217 -0.15542412 -0.02112151
-0.09719333 -0.1295626 0.006419552 0.007730156 0.14108375 -0.19188206 0.1855455 -0.11857257
0.10223792 -0.080692895 0.06954929 -0.10616686 0.04423633 0.12392755 0.110661596 -0.025301026
0.10875806 0.15937035 0.12941816 0.020769147 0.112314686 0.08819454 0.0335597 0.008897014
-0.13060442 -0.07087179 0.080390655 -0.11952622 0.0051694247 -0.12138892 -0.036327142 -0.13175246
-0.07208657 0.09422655 -0.13611351 -0.046479598 0.0981438 0.12341265 -0.30331334 0.13160834
0.09768696 0.022164008 0.06150392 0.12797056 0.16991903 0.026654143 -0.16651148 -0.098152414
0.13577844 0.033242583 0.06225053 -0.03403664 0.0398922 0.06288021 0.09042693 -0.030360647
-0.018980462 -0.01013392 0.12555712 -0.04214569 0.049828965 0.044744287 0.02968532 0.14616944
0.0320135 -0.080605984 -0.008462446 0.13872144 0.04080172 -0.18269084 0.11876815 0.17956288
-0.07287618 -0.11660927 0.16839951 -0.01593732 0.13374482 0.099134944 -0.031239485 -0.18050288
0.08844461 -0.1494098 0.07952442 -0.061513614 0.08473987 -0.18229781 0.12193757 -0.0027401608
-0.1501427 0.2831289 0.09843411 -0.13207069 -0.020541396 -0.09658132 0.016553994 -0.15569577
0.05362043 -0.040954437 0.09135719 0.010901168 0.002238061 -0.04161883 -0.1313166 0.06905847
0.1658218 -0.027169863 0.012348373 -0.11258234 -0.004862178 0.09318766 -0.14247246 -0.03442437
-0.06569647 0.0007512174 0.044590957 0.074377745 0.046558615 -0.1037737 0.06606882 0.16559927
-0.1414373 0.0069457293 0.04839936 0.15555833 -0.045538306 0.12303464 -0.0745624 -0.17567718
0.15504806 0.049432024 -0.15736872 -0.15285167 0.016610071 -0.10529088 -0.09554255 -0.07076249
-0.14300315 0.08091159 -0.02473174 -0.10735078 -0.090723045 0.040108323 0.15212934 -0.09994543
-0.06718528 -0.008188248 -0.18542668 0.09118903 -0.089321926 0.11592889 0.09863708 0.040063802
-0.033042986 -0.13875502 -0.096679665 0.09338249 0.17801686 -0.017762046 -0.019958038 -0.14440843
00000000: 2670 343d 5b5d 85bd cc02 9e3d 7231 393e
00000010: 5bba 7fbd 39d2 07be 0c2e 2b3e 1645 83bd
00000020: 1d58 293e 1a1f b1bd ae7a 6b3d 01f5 9a3d
00000030: 6f80 3d3e 2687 7e3d ac18 f03d 338b 983c
00000040: 5507 bb3c 6f38 1f3e 0bb6 b6bd cb63 833d
00000050: 5a5b 1f3e e81a 183d 31c8 0f3e 9d30 423e
00000060: e3a4 04bc 232d b2ba d84d a33d 194b f23d
00000070: fdcb 89bd d6f9 fc3d d002 73bd 99cf 863d
00000080: ca6c 7e3d 3330 1e3e e873 2e3c 6e30 e9bc
00000090: fb88 2b3e e869 033d 4b9f 123e 85d8 053e
000000a0: c184 8f3d 589e b23d c7d4 533d 3c5a 823d
000000b0: 9a3a 38bd 2ea8 173e a361 57bd 3240 053d
000000c0: ed93 aabd 2a4e 0fbe 4d3a 6cbe 3849 473d
000000d0: c364 fbbb 17af aabc fc1d 433d a697 8a3d
000000e0: 23df 3c3e 10be 533c 6e98 d33d 4661 c23d
000000f0: 165c 983d d207 22be 1843 3bbe 2efa cf3d
00000100: 3f91 2b3e f860 1a3d c59b 013e 815c 193e
00000110: 1ccf 143d 7913 38be 1606 aa3d 7bb4 e1bd
00000120: c07c c13c 8a14 f63d a4bf 7a3d 4a12 c2bd
00000130: a98c 8abd 28f8 05be 662a 0bbe fc6f 0bbe
00000140: 9d2c 033e f7a7 61bd 53c3 053e 2982 16bd
00000150: 148f 1b3d a070 06be d6cb 37bc 7bf2 72be
00000160: 7980 003e 5197 ebbd 3709 debc 4032 523d
00000170: a95a 3e3e 7fcd 313c 8027 1fbe 0407 adbc
00000180: 4c0d c7bd 0fac 04be 1b5b d23b 404d fd3b
00000190: 4278 103e bb7c 44be a4ff 3d3e 2dd6 f2bd
000001a0: 1d62 d13d 5142 a5bd dc6f 8e3d 036e d9bd
000001b0: 2731 353d bacd fd3d 8ca2 e23d 1944 cfbc
000001c0: 8cbc de3d fb31 233e 3286 043e 0f24 aa3c
000001d0: 3e05 e63d 579f b43d e575 093d c8c4 113c
000001e0: 2abd 05be 3b25 91bd dba3 a43d 2aca f4bd
000001f0: 4764 a93b c19a f8bd c5cb 14bd 1eea 06be
00000200: 20a2 93bd d9f9 c03d 5761 0bbe 6461 3ebd
00000210: 9eff c83d c5bf fc3d e34b 9bbe 56c4 063e
00000220: 1a10 c83d 4b91 b53c 89eb 7b3d b70a 033e
00000230: 41ff 2d3e ca59 da3c fc81 2abe 2204 c9bd
00000240: 8109 0b3e 6029 083d 69fa 7e3d 016a 0bbd
00000250: 0166 233d 57c7 803d c131 b93d e4b6 f8bc
00000260: ea7c 9bbc be08 26bc 0c92 003e f6a0 2cbd
00000270: 7519 4c3d c945 373d a12e f33c 71ad 153e
00000280: 9620 033d c014 a5bd 12a6 0abc fe0c 0e3e
00000290: b41f 273d 4f13 3bbe b73c f33d 55df 373e
000002a0: 1b40 95bd d7d0 eebd ec70 2c3e fc8e 82bc
000002b0: 67f4 083e 4307 cb3d f3e9 ffbc bfd5 38be
000002c0: 7322 b53d e2fe 18be b3dd a23d b3f5 7bbd
000002d0: 198c ad3d 47ac 3abe 68ba f93d 4594 33bb
000002e0: 02bf 19be 45f6 903e d397 c93d 8a3d 07be
000002f0: 6e46 a8bc 6dcc c5bd 3e9c 873c b66e 1fbe
00000300: 19a1 5b3d d7bf 27bd 7a19 bb3d d09a 323c
00000310: 6fac 123b 8278 2abd dc77 06be 876e 8d3d
00000320: 31cd 293e 5593 debc d550 4a3c 9291 e6bd
00000330: e852 9fbb 2cd9 be3d 4de4 11be 9100 0dbd
00000340: df8b 86bd 59ed 443a 02a5 363d 5c53 983d
00000350: 3fb4 3e3d 4e87 d4bd 174f 873d db92 293e
00000360: f1d4 10be 0099 e33b 683e 463d af4a 1f3e
00000370: 6086 3abd 96f9 fb3d 2cb4 98bd b8e4 33be
00000380: ebc4 1e3e 3c79 4a3d 4425 21be 2685 1cbe
00000390: d811 883c bfa2 d7bd d0ab c3bd edeb 90bd
000003a0: 6b6f 12be fab4 a53d 389a cabc bada dbbd
000003b0: 01cd b9bd a048 243d cbc7 1b3e 31b0 ccbd
000003c0: 7098 89bd 0028 06bc 7ee0 3dbe 50c1 ba3d
000003d0: 6aee b6bd 206c ed3d 3d02 ca3d f119 243d
000003e0: 1558 07bd cc15 0ebe fdff c5bd 523f bf3d
000003f0: 0d4a 363e b681 91bc 0a7f a3bc cedf 13be

linear1.bias f4 [128]
0.124078944 0.014292431 0.063831195 -0.049656987 -0.16529803 -0.15559618 -0.07245507 -0.17326038
0.16810475 -0.006456739 -0.14409909 -0.1170499 -0.019525751 0.14162078 -0.058835767 -0.00509198
0.09419851 -0.03260971 -0.14649871 -0.16682898 -0.16345143 -0.08662053 -0.15050124 -0.092522874
-0.18459083 0.05046089 -0.17738454 0.1710876 0.17827325 -0.1857718 0.044543616 0.121914774
-0.092169896 -0.092226125 -0.11802384 0.029019475 -0.10508403 0.021988884 -0.06581296 -0.021398427
0.105862185 -0.07927652 -0.15681984 0.024720877 -0.078841105 -0.05269672 -0.041094974 -0.09880591
-0.0030080825 -0.10710397 0.17484662 -0.13463454 -0.08395146 -0.14021522 -0.07524276 0.045600295
-0.042134758 -0.09432394 -0.008960232 -0.14558192 -0.07144382 -0.14895968 -0.009032518 0.005897366
-0.14074965 0.0068104267 -0.13019808 0.12051235 0.052694604 -0.10622482 0.02737335 0.002207868
-0.13609973 0.04537338 0.08018468 -0.12510113 0.06890931 0.031289887 -0.15226991 -0.08788527
-0.09787853 0.13610075 0.001112568 -0.06970835 0.17067997 0.07252972 -0.064114794 -0.051631622
-0.13693206 -0.001216352 0.11346897 -0.08444468 0.13261844 -0.107322656 0.21505772 0.17747511
0.16893744 0.05322878 -0.15057124 -0.1590137 -0.09974122 0.13121717 0.07595067 0.0031590126
0.059294857 -0.03533362 0.19298726 0.10197005 -0.18455072 -0.13700885 0.14509878 0.15472792
-0.1725359 0.122854486 0.1887408 -0.055137455 -0.10306539 0.12672703 0.13396825 0.117235065
0.056487985 0.03514643 -0.15264486 -0.16282281 0.18680564 -0.11327649 0.08390057 0.12941287
00000000: 1a1d fe3d cd2a 6a3c eeb9 823d 2065 4bbd
00000010: e343 29be 9b54 1fbe 5363 94bd 2b6b 31be
00000020: a723 2c3e 0d93 d3bb b68e 13be dcb7 efbd
00000030: 78f4 9fbc 0a05 113e c6fd 70bd a0da a6bb
00000040: 26eb c03d c291 05bd c203 16be 37d5 2abe
00000050: d05f 27be 1b66 b1bd ff1c 1abe a27c bdbd
00000060: 6105 3dbe 14b0 4e3d 4ba4 35be 9631 2f3e
00000070: 438d 363e f63a 3ebe 5e73 363d 74ae f93d
00000080: 92c3 bcbd 0de1 bcbd 7cb6 f1bd 40ba ed3c
00000090: 4c36 d7bd 0822 b43c f2c8 86bd c14b afbc
000000a0: 46ce d83d ba5b a2bd 6195 20be 7083 ca3c
000000b0: 7277 a1bd 84d8 57bd 3453 28bd c15a cabd
000000c0: 4023 45bb 5459 dbbd fe0a 333e a3dd 09be
000000d0: beee abbd 9494 0fbe e018 9abd 60c7 3a3d
000000e0: 7f95 2cbd e92c c1bd f0cd 12bc 6d13 15be
000000f0: 2351 92bd e388 18be 20fd 13bc b13e c13b
00000100: ad20 10be 002a df3b a552 05be 2ecf f63d
00000110: 4cd6 573d 668c d9bd 133e e03c e1b1 103b
00000120: ba5d 0bbe 70d9 393d de37 a43d 831a 00be
00000130: 5320 8d3d d329 003d a5ec 1bbe 31fd b3bd
00000140: 8a74 c8bd ff5d 0b3e 96d3 913a 40c3 8ebd
00000150: bbc6 2e3e 768a 943d 9e4e 83bd ae7b 53bd
00000160: eb37 0cbe 006e 9fba 6b62 e83d 55f1 acbd
00000170: 21cd 073e fbcb dbbd 1738 5c3e 09bc 353e
00000180: f0fd 2c3e 6c06 5a3d 592f 1abe 7dd4 22be
00000190: 2045 ccbd cb5d 063e 068c 9b3d 7007 4f3b
000001a0: 2adf 723d fcb9 10bd 749e 453e acd5 d03d
000001b0: ddfa 3cbe 0c4c 0cbe c694 143e ff70 1e3e
000001c0: 40ad 30be 229b fb3d 4545 413e d0d7 61bd
000001d0: f213 d3bd bbc4 013e f92e 093e f018 f03d
000001e0: f25f 673d b4f5 0f3d ef4e 1cbe 06bb 26be
000001f0: fa49 3f3e 81fd e7bd 10d4 ab3d cf84 043e

linear2.weight f4 [128, 128]
-0.038611054 0.050915647 0.027755499 0.066978745 -0.08693483 -0.018822776 -0.087787814 0.037086777
-0.040792376 -0.022316119 -0.029473415 0.068946876 -0.08132611 0.078634985 -0.038023427 -0.037885264
-0.009619073 0.097067215 -0.067012616 0.0745729 0.049349338 -0.0062694335 -0.026916422 -0.046857085
0.08145568 -0.072487764 -0.052991588 0.0018161451 -0.05286287 -0.06856636 0.07476761 -0.08893224
0.0017081574 -0.07991116 -0.00048023823 -0.0003939569 0.040904365 0.072716616 -0.06509193 -0.0136849275
0.023989841 0.04110785 0.05521354 -0.042563364 -0.008146069 0.053438403 0.039612673 0.053481944
-0.0035058558 0.0841498 0.009390674 0.070850074 -0.045039345 -0.04175712 -0.084311344 0.00014711171
0.053205997 -0.035606913 0.0809933 0.00913325 0.033612333 -0.023436056 -0.03609137 -0.004191184
-0.065955855 -0.043246407 -0.01801963 0.06155265 -0.031130526 0.04442454 -0.04267962 0.07618487
-0.063805625 -0.050112844 0.035491627 -0.049512625 -0.012686039 0.046029683 0.022611119 0.045314234
-0.12353389 0.008663955 -0.092541024 -0.038913067 -0.0499398 -0.08981461 0.037422713 -0.06858403
-0.06075903 0.06401738 0.020851787 0.03793535 -0.028709954 0.01898148 -0.0013491731 -0.05757069
0.07736976 -0.020689659 -0.052187517 -0.0582614 0.042781964 -0.033071868 -0.06683604 0.024159316
-0.08576193 -0.06393639 0.040702946 0.0074391905 -0.075583436 0.046946593 0.054678924 -0.011133075
0.011119276 0.08018204 0.012975725 0.009996146 0.04882673 -0.031979606 -0.038364194 0.07023569
0.020275887 0.08257359 0.024500946 0.09704131 0.07204348 -0.017715856 -0.016706469 -0.06559795
-0.07480138 0.046209328 0.072527744 0.035067003 0.051638477 0.07212337 -0.053717386 0.061124913
-0.08666463 0.031660046 0.037509438 -0.023758575 -0.055298984 0.002193829 0.01996786 -0.02030655
0.07805261 -0.04958947 0.03186766 0.03814382 0.051456667 -0.020100024 0.056415137 -0.058863163
-0.007809598 -0.07247553 -0.017519182 -0.03060693 0.04997169 -0.055904917 0.025873985 -0.017449027
0.039025985 -0.003365375 0.065609425 -0.04753883 -0.07102117 -0.043910354 -0.013811394 -0.046166234
-0.03417685 0.03737273 -0.019397555 0.042227946 -0.05077547 -0.0125258565 -0.050976433 0.031749345
0.036010295 0.004170318 0.07268302 0.04140003 -0.08768881 0.041801915 0.07282091 0.057527028
0.03191867 0.009031298 0.036492288 -0.057248484 -0.06229091 0.06636474 0.08692416 -0.048291028
0.068480305 0.008549668 0.058775052 -0.10088053 -0.04133239 -0.08817756 -0.06081916 -0.044506725
0.06436468 -0.026437968 -0.011230669 -0.08032671 -0.07259361 0.017420456 -0.06252247 -0.05154914
-0.025681948 -0.040100306 -0.08636474 -0.034374155 -0.05905038 0.028825581 -0.0024732032 -0.026867678
-0.07901674 -0.06587839 -0.013436312 0.029896248 0.0010396866 0.038463645 0.035447072 -0.07146618
-0.016665936 -0.082304396 0.016486486 0.007976236 -0.027222337 0.08968747 -0.032092802 0.0008530202
0.002443294 -0.043019075 0.030004784 0.05724255 -0.025719231 -0.044215452 -0.020474406 -0.06801764
-0.03562279 -0.036355555 -0.015834551 0.032799616 -0.047449585 0.06748491 0.060970422 0.04140874
0.02862006 0.06765157 -0.0150085315 -0.032631733 0.00988487 0.013577191 -0.018217575 0.033095412
00000000: a026 1ebd ed8c 503d 805f e33c 272c 893d
00000010: e30a b2bd 3932 9abc 19ca b3bd 4ee8 173d
00000020: e815 27bd 4bd0 b6bc 3b72 f1bc 0534 8d3d
00000030: 4e8e a6bd 610b a13d 74be 1bbd 942d 1bbd
00000040: 5199 1dbc 2dcb c63d e93d 89bd adb9 983d
00000050: 8822 4a3d d26f cdbb d47f dcbc 37ed 3fbd
00000060: 3cd2 a63d 7774 94bd b50d 59bd b80b ee3a
00000070: bd86 58bd 856c 8cbd c31f 993d 1b22 b6bd
00000080: 40e4 df3a 76a8 a3bd 7cc8 fbb9 008c ceb9
00000090: 568b 273d 73ec 943d eb4e 85bd bf36 60bc
000000a0: 5886 c43c b460 283d 9827 623d ec56 2ebd
000000b0: 1777 05bc 3ae2 5a3d e640 223d e20f 5b3d
000000c0: 80c2 65bb bb56 ac3d 57db 193c d819 913d
000000d0: 2d7b 38bd 8409 2bbd 6dab acbd 0042 1a39
000000e0: 88ee 593d 8ed8 11bd d1df a53d a1a3 153c
000000f0: 16ad 093d f9fc bfbc 8bd4 13bd 3356 89bb
00000100: dd13 87bd 2523 31bd e79d 93bc a21e 7c3d
00000110: 7205 ffbc 82f6 353d d3d0 2ebd d006 9c3d
00000120: 86ac 82bd 2043 4dbd ab5f 113d c0cd 4abd
00000130: 1bd9 4fbc 9f89 3c3d f43a b93c 6b9b 393d
00000140: 56ff fcbd 43f3 0d3c 2686 bdbd 4f63 1fbd
00000150: ad8d 4cbd b9f0 b7bd 8f48 193d c975 8cbd
00000160: 76de 78bd 8b1b 833d 5ed1 aa3c 1962 1b3d
00000170: 2331 ebbc 0c7f 9b3c bdd6 b0ba 3ecf 6bbd
00000180: 0974 9e3d 5c7d a9bc 94c2 55bd 81a3 6ebd
00000190: 243c 2f3d 5e76 07bd 55e1 88bd c2e9 c53c
000001a0: f3a3 afbd 15f1 82bd 22b8 263d 74c4 f33b
000001b0: 7dcb 9abd 124b 403d 02f7 5f3d 8067 36bc
000001c0: a02d 363c 7b36 a43d 2398 543c e0c6 233c
000001d0: 8afe 473d 0cfd 02bd c623 1dbd bbd7 8f3d
000001e0: 9e19 a63c 581c a93d 35b6 c83c 98bd c63d
000001f0: 888b 933d d820 91bc 01dc 88bc 3858 86bd
00000200: 7731 99bd fe45 3d3d 6d89 943d 6ba2 0f3d
00000210: de82 533d 6bb5 933d c306 5cbd 1e5e 7a3d
00000220: 3a7d b1bd f7ad 013d 7fa3 193d 58a1 c2bc
00000230: 3081 62bd 58c6 0f3b a393 a33c ec59 a6bc
00000240: 0cda 9f3d 541e 4bbd aa87 023d b23c 1c3d
00000250: 3ac4 523d cea8 a4bc 8f13 673d 801a 71bd
00000260: a8e7 ffbb 0d6e 94bd 6384 8fbc 62bb fabc
00000270: 1daf 4c3d 8efc 64bd aef5 d33c 43f1 8ebc
00000280: b6d9 1f3d a08d 5cbb 3c5e 863d 14b8 42bd
00000290: 8c73 91bd 58db 33bd 2f49 62bc ce18 3dbd
000002a0: 06fd 0bbd 2614 193d 9fe7 9ebc 36f7 2c3d
000002b0: f0f9 4fbd 4039 4dbc aacc 50bd 9a0b 023d
000002c0: 887f 133d 2aa7 883b d6da 943d 1493 293d
000002d0: 3196 b3bd 7c38 2b3d 2123 953d 76a1 6b3d
000002e0: 27bd 023d 02f8 133c f078 153d 637d 6abd
000002f0: c124 7fbd 3dea 873d 4b05 b23d d0cc 45bd
00000300: 673f 8c3d e813 0c3c 1cbe 703d 749a cebd
00000310: 274c 29bd 7096 b4bd 831d 79bd af4c 36bd
00000320: a1d1 833d 7094 d8bc d700 38bc 5582 a4bd
00000330: f5ab 94bd 58b5 8e3c c80b 80bd 3125 53bd
00000340: f362 d2bc 3840 24bd ffdf b0bd eacb 0cbd
00000350: d0de 71bd a023 ec3c 7715 22bb 9b19 dcbc
00000360: 87d3 a1bd 40eb 86bd fa23 5cbc fae8 f43c
00000370: 1846 883a 0e8c 1d3d f330 113d dc5c 92bd
00000380: 0087 88bc 358f a8bd ab0e 873c c2ae 023c
00000390: 6101 dfbc 10ae b73d be73 03bd 379d 5f3a
000003a0: ac1f 203b c534 30bd 98cc f53c 2a77 6a3d
000003b0: 23b1 d2bc 431b 35bd f1b9 a7bc d54c 8bbd
000003c0: 34e9 11bd 90e9 14bd 76b7 81bc e458 063d
000003d0: 7f5a 42bd 8735 8a3d 1fbc 793d 369c 293d
000003e0: 9e74 ea3c e88c 8a3d 58e6 75bc daa8 05bd
000003f0: 26f4 213c de72 5e3c 063d 95bc 0e8f 073d

linear2.bias f4 [128]
0.0011209082 0.059771642 -0.050099395 0.037120625 0.026737722 -0.021796377 0.0358646 -0.04584949
0.061406124 0.066961005 0.0816903 -0.020568892 -0.044407364 -0.022349888 0.06897991 0.046188578
-0.009098083 -0.061493725 -0.025644008 -0.08465219 0.027463622 0.009976512 -0.08394301 -0.0046133385
-6.6990986e-05 -0.009333126 -0.06751563 -0.049781602 -0.06577437 0.04543644 0.055465933 -0.043411173
0.022140592 0.01930962 -0.022820987 -0.04925833 -0.051600084 -0.030235186 0.07687189 0.027640492
0.08953973 -0.06573407 0.0133105805 0.07581244 0.041138384 0.035347268 0.0643647 0.03692538
-0.07395589 -0.039060336 -0.021521712 -0.045460403 0.012323585 0.06959919 -0.094141014 -0.030910363
0.067815244 0.012540737 -0.057113867 0.00030700117 0.04132066 0.058556225 0.082870774 -0.075723685
0.07032412 0.06799837 0.053223535 0.03774309 -0.021979962 0.046997696 0.047083944 -0.0119849015
-0.010651626 -0.0054545617 0.08674653 -0.017983802 0.085792266 -0.010470972 -0.020329505 -0.097288124
0.0028049485 -0.034082163 0.076621294 0.054550163 -0.0621619 0.018997647 -0.040385537 -0.065916404
0.0696193 0.070228994 0.09168519 -0.024633456 -0.060504347 0.043780632 -0.021665098 0.01319628
0.06755249 -0.069437094 -0.06078706 -0.019489117 -0.042494062 0.07737119 0.06607294 0.035211336
-0.04238666 0.021937346 0.09365729 0.03915753 -0.059765935 -0.06683153 -0.041973837 0.025244057
0.041050818 0.031623572 0.03793022 0.0397092 0.011194838 -0.07330406 -0.031763624 0.020283092
-0.088441715 -0.048418436 0.056476623 0.013344645 -0.03710656 -0.025841441 0.0010299981 -0.009564227
00000000: 70eb 923a 1cd3 743d 0635 4dbd cc0b 183d
00000010: 1109 db3c 518e b2bc c2e6 123d adcc 3bbd
00000020: fd84 7b3d da22 893d 3e4d a73d 1880 a8bc
00000030: 7fe4 35bd 1d17 b7bc 5745 8d3d 3c30 3d3d
00000040: 2010 15bc d8e0 7bbd 6213 d2bc 215e adbd
00000050: 64fb e03c 8674 233c 50ea abbd 7d2b 97bb
00000060: 837d 8cb8 f8e9 18bc a245 8abd cbe7 4bbd
00000070: b7b4 86bd 8f1b 3a3d 3f30 633d eacf 31bd
00000080: 3060 b53c 352f 9e3c 14f3 babc 1ac3 49bd
00000090: 9c5a 53bd c8af f7bc 026f 9d3d 506e e23c
000000a0: 9b60 b73d 969f 86bd 9f14 5a3c 8d43 9b3d
000000b0: b980 283d 4cc8 103d a4d1 833d 113f 173d
000000c0: 3076 97bd bbfd 1fbd 4d4e b0bc b034 3abd
000000d0: dde8 493c 058a 8e3d 01cd c0bd bb37 fdbc
000000e0: b8e2 8a3d aa77 4d3c 3bf0 69bd 00f5 a039
000000f0: da3f 293d a7d8 6f3d 27b8 a93d 0515 9bbd
00000100: 1806 903d bb42 8b3d ec00 5a3d 8098 1a3d
00000110: 520f b4bc a880 403d 18db 403d 525c 44bc
00000120: 2884 2ebc 2ebc b2bb 2aa8 b13d c452 93bc
00000130: dbb3 af3d 718e 2bbc 108a a6bc ff3e c7bd
00000140: 3ad3 373b bd99 0bbd a0eb 9c3d fe6f 5f3d
00000150: 7a9d 7ebd f4a0 9b3c 4e6b 25bd 2eff 86bd
00000160: 9094 8e3d 38d4 8f3d 72c5 bb3d 1acc c9bc
00000170: 68d3 77bd 5253 333d 017b b1bc 3635 583c
00000180: f658 8a3d 0935 8ebd dafb 78bd a4a7 9fbc
00000190: 410e 2ebd c974 9e3d 4051 873d c339 103d
000001a0: a29d 2dbd f3b5 b33c 65cf bf3d a563 203d
000001b0: 20cd 74bd f8de 88bd c2ec 2bbd a0cc ce3c
000001c0: e724 283d b887 013d b85c 1b3d 1da6 223d
000001d0: 8e6a 373c 7020 96bd 931a 02bd ba28 a63c
000001e0: ee20 b5bd 6952 46bd 0854 673d 7fa3 5a3c
000001f0: 0cfd 17bd 6eb1 d3bc 0001 873a 47b3 1cbc

linear3.weight f4 [48, 128]
-0.046278067 -0.03268521 0.028597537 0.05147182 -0.08769785 -0.04918727 0.063323885 -0.017326735
-0.013350695 0.0736325 -0.083528385 0.048177846 0.08648191 -0.07084416 -0.07162784 0.034721114
0.068839885 -0.058850877 -0.029767679 0.015850555 0.0054970467 0.08076602 0.07931963 -0.003648238
0.056447987 0.0070711276 0.033058647 0.005892552 0.017406413 0.047417276 0.0149836205 -0.0008679273
-0.017748922 0.04980365 0.08515189 0.053859398 -0.054292526 0.009889469 0.0017805004 0.032629065
0.067931175 -0.00020574933 -0.0040319343 -0.080642976 -0.016256284 -0.07149768 0.053641316 -0.051631257
0.072340354 0.014078742 -0.05456238 0.0033542812 0.025386201 0.026216071 -0.046729952 -0.01588326
0.030231055 -0.08222999 0.0016363589 -0.031653505 0.010469652 -0.08752349 -0.12925264 -0.04727194
0.11212178 0.020099435 -0.06339755 -0.020420061 0.043451414 -0.058365736 -0.026728613 0.08846064
-0.012542956 -0.08481879 0.013456416 -0.0021845507 0.08657315 0.0038539278 -0.015319699 0.09688115
-0.024141371 0.05351159 -0.07650696 0.020574033 -0.03655846 -0.03841328 0.028502604 0.07639439
0.035243906 0.042152327 -0.014350276 0.08625247 -0.012433019 -0.04823675 0.08601698 -0.03052654
0.035640817 -0.05319925 0.039878946 -0.016911931 0.06363546 0.04924117 0.059721183 -0.023056997
-0.020119527 -0.0060961023 -0.0336715 -0.018524181 0.036280893 -0.021718385 -0.0041186735 0.06775052
-0.033967376 0.0033934563 -0.040811047 -0.09509378 -0.07424104 -0.01844159 -0.07150213 0.0154551305
-0.023394445 0.0059686676 0.0064926418 0.012151268 -0.056270447 0.0019831832 0.07704312 -0.10154048
0.034690633 0.002259835 -0.0097502535 0.059102453 -0.0025623788 0.085622706 0.009610642 -0.019865654
-0.021278363 -0.036798947 -0.049975537 0.04288829 0.03646341 0.00075107213 -0.05344347 -0.00683352
0.008735746 0.015031777 -0.018083341 0.060732793 -0.097554944 -0.0066454285 -0.003727036 -0.06084064
0.026200997 -0.072010286 0.014319277 -0.105914526 0.08744845 0.015001899 -0.054289725 -0.06800532
-0.0018419027 0.0045098597 0.0751685 0.049598597 0.052392043 0.065064274 0.043833945 -0.028502893
-0.06642052 -0.08488052 -0.0038966546 -0.09860783 0.005711913 -0.042846896 -0.066823445 0.044443063
-0.03713674 0.018180776 0.022982873 -0.02004487 0.015744217 -0.016154625 -0.04194879 -0.062836275
-0.071776465 -0.03248521 -0.045355316 -0.0382028 0.08304266 -0.025496053 0.039438143 -0.119431034
0.1402787 0.041251894 0.023192925 0.0065082638 0.02983001 0.02035368 -0.02690694 -0.012013804
0.010784216 0.08415023 -0.043729775 -0.06635018 -0.060178004 0.06087232 -0.03830202 -0.04601837
-0.073691435 -0.08286467 -0.043717276 -0.071263015 0.013550948 -0.0710339 -0.02876411 -0.02598485
-0.06900197 0.030726869 -0.020847121 -0.0782819 0.024667913 -0.005515453 0.0037132737 0.069699876
0.05272384 0.022043943 -0.020437593 0.048321463 0.0022524537 -0.028603034 -0.04587183 0.05035688
-0.07741348 -0.03520515 -0.0042855702 -0.080496214 -0.0520349 -0.030851524 -0.0017114654 0.027718484
0.006792787 -0.067900926 -0.02175906 0.037844636 0.017782636 -0.055939216 -0.052824214 0.006602627
0.03673394 0.018964648 0.040457893 0.042796977 0.022720575 0.020877687 0.07205745 -0.008968173
00000000: 128e 3dbd ede0 05bd 6245 ea3c 1dd4 523d
00000010: ee9a b3bd 9778 49bd f4af 813d ccf0 8dbc
00000020: e0bc 5abc a3cc 963d ee10 abbd 2256 453d
00000030: 6d1d b13d be16 91bd 9eb1 92bd ba37 0e3d
00000040: edfb 8c3d 9e0d 71bd 59db f3bc 06d9 813c
00000050: 9220 b43b a868 a53d 5572 a23d 4717 6fbb
00000060: 0136 673d ebb4 e73b 8168 073d 4f16 c13b
00000070: e597 8e3c 9e38 423d dc7d 753c 9d85 63ba
00000080: 3066 91bc e9fe 4b3d 1d64 ae3d ac9b 5c3d
00000090: d761 5ebd 7007 223c ae5f e93a 0ea6 053d
000000a0: 801f 8b3d 6abe 57b9 511e 84bb 2528 a5bd
000000b0: e62b 85bc 606d 92bd ffb6 5b3d 4c7b 53bd
000000c0: 2e27 943d 86aa 663c cd7c 5fbd 80d3 5b3b
000000d0: b9f6 cf3c 16c3 d63c e867 3fbd 9c1d 82bc
000000e0: 1ea7 f73c 3268 a8bd 187b d63a 1ba7 01bd
000000f0: e788 2b3c 843f b3bd ce5a 04be 39a0 41bd
00000100: 1ba0 e53d 92a7 a43c 93d6 81bd f947 a7bc
00000110: 1cfa 313d e910 6fbd f7f5 dabc da2a b53d
00000120: f880 4dbc 79b5 adbd 4d78 5c3c ae2a 0fbb
00000130: 434d b13d 2e92 7c3b 7aff 7abc a069 c63d
00000140: 20c4 c5bc f82e 5b3d aeaf 9cbd e08a a83c
00000150: 53be 15bd 3e57 1dbd 4b7e e93c a974 9c3d
00000160: ea5b 103d eba7 2c3d 6c1d 6bbc 23a5 b03d
00000170: dcb3 4bbc e693 45bd ac29 b03d cb12 fabc
00000180: 1bfc 113d 75e7 59bd 1b58 233d e48a 8abc
00000190: 4f53 823d 1cb1 493d 339e 743d 07e2 bcbc
000001a0: b5d1 a4bc d0c1 c7bb 20eb 09bd 06c0 97bc
000001b0: 469b 143d c1ea b1bc f0f5 86bb c9c0 8a3d
000001c0: 6021 0bbd c064 5e3b 7c29 27bd 87c0 c2bd
000001d0: b00b 98bd d112 97bc b56f 92bd 8437 7d3c
000001e0: b5a5 bfbc d094 c33b 3ac0 d43b 1d16 473c
000001f0: d77b 66bd 4bf8 013b c9c8 9d3d 75f4 cfbd
00000200: c417 0e3d bd19 143b 87bf 1fbc 6a15 723d
00000210: 95ed 27bb f55a af3d f475 1d3c 4cbd a2bc
00000220: f64f aebc 7eba 16bd 26b3 4cbd a2ab 2f3d
00000230: a85a 153d 99e3 443a 8ae7 5abd b8eb dfbb
00000240: 6020 0f3c d847 763c 8423 94bc f3c2 783d
00000250: e3ca c7bd e5c1 d9bb 4a41 74bb 0934 79bd
00000260: 79a3 d63c 217a 93bd 679b 6a3c b7e9 d8bd
00000270: 2c18 b33d 86ca 753c e75e 5ebd 6046 8bbd
00000280: 006c f1ba 72c7 933b f1f1 993d e627 4b3d
00000290: 0a99 563d 6b40 853d 398b 333d e67e e9bc
000002a0: 7b07 88bd d7d5 adbd 045f 7fbb e7f2 c9bd
000002b0: 002b bb3b 3a80 2fbd bbda 88bd ee09 363d
000002c0: b21c 18bd daef 943c 9446 bc3c 2435 a4bc
000002d0: 04fa 803c b456 84bc 7fd2 2bbd 4eb0 80bd
000002e0: 8aff 92bd 360f 05bd 7fc6 39bd 8a7a 1cbd
000002f0: 4512 aa3d 19dd d0bc e489 213d 4298 f4bd
00000300: 38a5 0f3e bff7 283d 17ff bd3c 4643 d53b
00000310: 115e f43c c3bc a63c f16b dcbc 8cd5 44bc
00000320: 48b0 303c f556 ac3d fe1d 33bd 9ae2 87bd
00000330: 367d 76bd 4155 793d 94e2 1cbd c27d 3cbd
00000340: 89eb 96bd f4b4 a9bd e310 33bd 58f2 91bd
00000350: cc04 5e3c 397a 91bd b6a2 ebbc 2ede d4bc
00000360: e850 8dbd eab6 fb3c 95c7 aabc 4352 a0bd
00000370: 5d14 ca3c f9ba b4bb 655a 733b cfbe 8e3d
00000380: f4f4 573d 8095 b43c bd6c a7bc baec 453d
00000390: e79d 133b e950 eabc 1ae4 3bbd 0443 4e3d
000003a0: f58a 9ebd 4633 10bd f86d 8cbb 33db a4bd
000003b0: 8c22 55bd 56bc fcbc 4053 e0ba e011 e33c
000003c0: 0796 de3b a40f 8bbd 0e40 b2bc fa02 1b3d
000003d0: e4ac 913c 8520 65bd 345e 58bd da5a d83b
000003e0: 5476 163d c05b 9b3c 2db7 253d e24b 2f3d
000003f0: 8020 ba3c af07 ab3c db92 933d 3eef 12bc

linear3.bias f4 [48]
-0.08787351 0.076347604 0.0754034 0.011484137 -0.045301657 -0.07536587 0.027498683 0.031128658
-0.009015008 -0.07180067 0.012240171 -0.07956853 0.07251612 0.06977506 -0.013757746 -0.00930767
-0.061742768 0.032837592 0.03933658 -0.08808452 -0.018500635 -0.08329922 0.0650954 -0.04420985
-0.07634298 0.09017901 -0.061865505 0.020044146 -0.08314497 0.056152638 -0.036175285 -0.078474216
-0.021786833 0.030732086 -0.059665136 -0.042304657 -0.008898018 -0.07308539 0.0799396 0.089271545
0.022433039 -0.009252635 -0.04839306 -0.031437438 0.023391267 0.041598726 0.051465865 -0.0071891937
00000000: 07f7 b3bd 225c 9c3d 196d 9a3d f627 3c3c
00000010: 3b8e 39bd 6c59 9abd eb44 e13c 8701 ff3c
00000020: afb3 13bc 3b0c 93bd 008b 483c d3f4 a2bd
00000030: 5583 943d 3ae6 8e3d 2b68 61bc 337f 18bc
00000040: fce5 7cbd b680 063d 651f 213d a865 b4bd
00000050: a58e 97bc c898 aabd bd50 853d 6315 35bd
00000060: b559 9cbd c6af b83d af66 7dbd 9f33 a43c
00000070: e947 aabd 4f00 663d 892c 14bd 17b7 a0bd
00000080: 4d7a b2bc dbc1 fb3c 6e63 74bd a647 2dbd
00000090: fec8 11bc cbad 95bd 5fb7 a33d 00d4 b63d
000000a0: 7ec5 b73c 5d98 17bc cd37 46bd 8bc4 00bd
000000b0: 0b9f bf3c 6d63 2a3d dfcd 523d 5493 ebbb
