PDQN/PDQN/model/actor_model.ckpt (torch, 95812 bytes, 11 tensors)

lstm.weight_ih_l0 f4 [96, 1]
0.024065077 0.08437404 0.1826348 0.019232243 -0.16057853 -0.15274002 -0.19259273 -0.1901259
0.004911989 -0.15668271 -0.16145532 -0.19368942 0.10495308 0.15855539 0.06737447 -0.033776358
-0.0589834 0.14306206 0.18735841 -0.03740555 0.18002528 0.178339 -0.17184484 0.08331138
-0.08827557 -0.17669252 -0.20187287 0.18882021 0.026960462 0.011901289 0.14716479 -0.087116785
0.03809336 -0.1057367 -0.026865304 -0.059544012 0.0547176 -0.032018483 -0.13302809 -0.1822524
0.18103659 -0.19218302 -0.06868565 0.13275525 0.03605318 0.11344364 0.12945506 0.15316224
-0.019212976 0.18807119 -0.18936805 -0.0057112426 0.12229371 -0.15489286 0.009019509 -0.013855144
-0.20348367 -0.12394222 0.114664525 -0.14951898 -0.13595983 -0.011337191 -0.07715814 -0.19176738
0.070806295 -0.043414265 -0.11066956 -0.006192997 0.14021942 -0.19716343 -0.18974364 0.11767122
-0.14886227 -0.003221199 0.05009204 0.14695272 0.15816209 -0.013887122 -0.14290363 -0.1321995
0.11958489 0.058279753 0.1259661 -0.0455945 0.003517747 0.14971328 -0.10982337 -0.13407809
-0.096369326 -0.19002672 0.0949581 0.116687834 -0.018551439 -0.2033472 -0.18010466 0.18616709
00000000: 2024 c53c 4ccc ac3d 9e04 3b3e f08c 9d3c
00000010: b36e 24be e167 1cbe 0737 45be 5db0 42be
00000020: c0f4 a03b 6f71 20be 8b54 25be 8556 46be
00000030: a4f1 d63d 585c 223e a0fb 893d 1459 0abd
00000040: 9498 71bd dc7e 123e e2da 3f3e 9036 19bd
00000050: 8c58 383e 809e 363e 18f8 2fbe 289f aa3d
00000060: d2c9 b4bd e2ee 34be c3b7 4ebe 165a 413e
00000070: 30dc dc3c a0fd 423c 5eb2 163e 496a b2bd
00000080: c807 1c3d 7c8c d8bd a014 dcbc 6ce4 73bd
00000090: 901f 603d d025 03bd 8438 08be 60a0 3abe
000000a0: a861 393e a0cb 44be 10ab 8cbd fef0 073e
000000b0: 80ac 133d 2455 e83d de8f 043e 90d6 1c3e
000000c0: 8864 9dbc bc95 403e b3e9 41be 6025 bbbb
000000d0: 2075 fa3d 3c9c 1ebe 90c6 133c b000 63bc
000000e0: 065e 50be 6bd5 fdbd 3cd5 ea3d 811b 19be
000000f0: 0e39 0bbe a0bf 39bc 1605 9ebd ab5e 44be
00000100: e402 913d 28d3 31bd b9a6 e2bd a0ee cabb
00000110: ae95 0f3e 36e5 49be 284c 42be 9cfd f03d
00000120: 5a6f 18be c01a 53bb 502d 4d3d c67a 163e
00000130: 3ef5 213e d086 63bc 5455 12be 4e5f 07be
00000140: ece8 f43d c0b6 6e3d 42fd 003e 4cc1 3abd
00000150: 008a 663b 704e 193e 13eb e0bd c44b 09be
00000160: 485d c5bd 5d96 42be 6479 c23d 08fa ee3d
00000170: 30f9 97bc 403a 50be 5b6d 38be 96a2 3e3e

lstm.weight_hh_l0 f4 [96, 24]
-0.12912515 0.0073675215 -0.13999775 0.086786956 0.1987774 -0.120183714 0.02606365 0.175832
-0.1425669 -0.09771329 0.10895389 0.118284166 -0.16178808 -0.18642105 0.007811591 0.17229381
-0.05365804 0.17297238 0.10030848 0.08503926 0.03621085 0.03413692 0.1487934 0.11455214
-0.18880783 0.0437489 0.017233223 0.12032536 0.064799696 0.05816993 -0.06818214 0.1710411
-0.14740723 0.07798657 -0.15262282 0.19935912 -0.0261942 0.10539642 0.19235733 -0.1275442
-0.009699255 0.19931385 -0.008320689 -0.11208531 0.18222708 -0.10692094 -0.016169652 -0.019001156
-0.09343868 0.14046222 0.074704915 -0.05427438 0.12651938 0.17265609 -0.1448546 0.18407789
-0.096361615 0.16826445 -0.16293287 -0.15545948 -0.05433336 0.009848565 0.19605643 0.10413727
-0.0069787204 -0.15262002 -0.13115361 -0.032409444 -0.04880579 -0.15586147 0.00066047907 0.09916845
0.13850987 -0.17896397 -0.1744201 0.037346393 0.07811591 -0.20051326 0.16476268 0.10862461
0.012151539 -0.0036597997 -0.0030825883 -0.11964673 -0.16648966 -0.0007098317 -0.089420214 0.024524897
0.018122882 0.05249247 -0.074267134 -0.16981956 -0.08526406 0.011462808 -0.06279732 -0.105537
0.020219088 -0.14254868 0.18435013 0.137357 -0.036464274 -0.042188317 -0.023407027 0.14767638
0.06365138 0.19547799 0.11632764 0.033195943 -0.16575013 0.17016444 0.062220782 -0.050920755
-0.04133083 0.06864837 0.1814503 0.096328944 0.13773304 -0.03956972 -0.18033108 -0.1148749
-0.045300335 0.06931147 0.18402216 -0.19736503 0.053050876 -0.017604455 -0.0029064715 -0.14009051
-0.0010361224 -0.17867754 -0.053223655 -0.20190535 0.0804666 -0.18640445 0.028640792 0.07951033
0.019040257 -0.12359457 0.102249086 -0.036528543 0.050664514 0.021536022 -0.06375806 -0.110599115
-0.0053672343 -0.17255501 -0.013684422 -0.11312306 -0.12702236 -0.03919646 0.13876039 -0.00023192167
0.057589024 -0.053019643 0.16119483 0.123538345 0.16483226 0.18094006 -0.12395305 0.010461599
0.15318093 0.02377592 -0.105358705 -0.11340338 0.07330391 -0.009360418 -0.12501332 -0.106592946
0.18342417 -0.121503174 -0.1526261 0.047782183 0.17119503 0.16699871 -0.16686086 -0.037768602
0.014413923 -0.12094421 0.053839207 -0.19622543 0.145426 -0.09414644 0.14268896 0.18897885
-0.20257199 0.091130584 0.2004812 0.08184847 0.023396656 0.17025822 0.19690648 0.17779076
-0.1616574 -0.08979035 -0.052586198 0.07636556 -0.119170226 -0.046379104 0.0591197 0.00954403
0.19842297 -0.2018553 0.11794326 0.1825194 -0.114059 -0.20152205 0.049375504 0.010402232
0.0020945966 0.069450974 0.13946882 0.10031626 0.10133022 0.1464952 0.14577252 -0.0073836893
0.12030187 0.022410974 -0.15060718 0.0447001 -0.16345373 0.027792722 -0.15979685 0.029191822
-0.057894647 -0.07127142 0.11272195 0.09716344 -0.1906615 -0.14127526 -0.15605326 0.019112572
0.18764365 0.18368948 -0.17043537 0.17880413 -0.14712411 -0.20012115 0.09284684 -0.049997017
0.088626325 0.038756713 0.07868424 -0.035984904 0.14323795 0.121861964 -0.004392341 0.017232865
-0.12603597 0.03615032 -0.16323414 -0.034019098 0.090767205 -0.07446648 -0.10700073 -0.009011567
00000000: 6239 04be 406b f13b 925b 0fbe 5cbd b13d
00000010: 4e8c 4b3e e122 f6bd 7083 d53c 4e0d 343e
00000020: 0ffd 11be e81d c8bd 3823 df3d f83e f23d
00000030: c6ab 25be 29e5 3ebe 60f8 ff3b ca6d 303e
00000040: 88c8 5bbd ac1f 313e 886e cd3d 1029 ae3d
00000050: d451 143d 28d3 0b3d 4c5d 183e 509a ea3d
00000060: d756 41be 0c32 333d b02c 8d3c 246d f63d
00000070: b4b5 843d 9843 6e3d 14a3 8bbd 6625 2f3e
00000080: ecf1 16be 6cb7 9f3d 2849 1cbe cc24 4c3e
00000090: 3895 d6bc 14da d73d 52f9 443e f29a 02be
000000a0: a0e9 1ebc ee18 4c3e 8053 08bc fc8c e5bd
000000b0: bc99 3a3e 5ef9 dabd 3876 84bc 50a8 9bbc
000000c0: c75c bfbd 54d5 0f3e e4fe 983d d04e 5ebd
000000d0: 4c8e 013e c2cc 303e c454 14be ea7e 3c3e
000000e0: 3d59 c5bd 844d 2c3e e0d7 26be c530 1fbe
000000f0: a88c 5ebd e05b 213c 04c3 483e ec45 d53d
00000100: c0ad e4bb 6c48 1cbe 224d 06be c4bf 04bd
00000110: 94e8 47bd 269a 1fbe 0024 2d3a d418 cb3d
00000120: 88d5 0d3e 5542 37be 2f9b 32be 88f8 183d
00000130: 3cfb 9f3d 5953 4dbe 8cb7 283e 9476 de3d
00000140: 4017 473c 40d9 6fbb 4005 4abb 5809 f5bd
00000150: 447c 2abe 0014 3aba f221 b7bd 70e8 c83c
00000160: 7076 943c 5802 573d 5e19 98bd 2ee5 2dbe
00000170: ec9e aebd 80ce 3b3c e29b 80bd c823 d8bd
00000180: 80a2 a53c 48f8 11be 48c6 3c3e 50a7 0c3e
00000190: 905b 15bd a8cd 2cbd 18c0 bfbc 7a38 173e
000001a0: a85b 823d 622b 483e 303d ee3d 78f8 073d
000001b0: 67ba 29be 963f 2e3e 38db 7e3d 4892 50bd
000001c0: 844a 29bd 8497 8c3d 1cce 393e 1c48 c53d
000001d0: e409 0d3e dc13 22bd b6a8 38be 8843 ebbd
000001e0: d88c 39bd 2cf3 8d3d 4e70 3c3e 0f1a 4abe
000001f0: e04b 593d 3837 90bc 807a 3ebb e373 0fbe
00000200: 80ce 87ba 3ff7 36be 0c01 5abd 47c0 4ebe
00000210: accb a43d cfe0 3ebe 18a0 ea3c 50d6 a23d
00000220: 50fa 9b3c 261f fdbd f867 d13d f49e 15bd
00000230: 9885 4f3d 506c b03c 9693 82bd ca81 e2bd
00000240: a0df afbb 43b2 30be a034 60bc 10ad e7bd
00000250: 2612 02be 788c 20bd 3417 0e3e 0030 73b9
00000260: 78e2 6b3d 202b 59bd 4210 253e ac01 fd3d
00000270: cac9 283e 5a48 393e 19db fdbd 2067 2b3c
00000280: 76db 1c3e b8c5 c23c 4ec6 d7bd 0840 e8bd
00000290: 5c20 963d 705c 19bc 7e03 00be 674d dabd
000002a0: 8cd3 3b3e a8d6 f8bd 044a 1cbe 40b7 433d
000002b0: c04d 2f3e b601 2b3e 93dd 2abe 40b3 1abd
000002c0: 6028 6c3c 99b1 f7bd 8086 5c3d 52ef 48be
000002d0: 8eea 143e d9cf c0bd 0e1d 123e ac83 413e
000002e0: 086f 4fbe aca2 ba3d f24a 4d3e 2ca0 a73d
000002f0: 58aa bf3c 2c58 2e3e daa1 493e c80e 363e
00000300: 8489 25be 01e4 b7bd a064 57bd 8c65 9c3d
00000310: 850f f4bd 04f8 3dbd 8027 723d 905e 1c3c
00000320: 642f 4b3e 28b3 4ebe 3c8c f13d 5ee6 3a3e
00000330: c497 e9bd cc5b 4ebe f83d 4a3d 206e 2a3c
00000340: 8045 093b 503c 8e3d ead0 0e3e 9c72 cd3d
00000350: 3886 cf3d d602 163e 6445 153e e0f2 f1bb
00000360: d460 f63d 3897 b73c c538 1abe 7417 373d
00000370: 6a60 27be 90ad e33c c9a1 23be b023 ef3c
00000380: f022 6dbd c0f6 91bd c4da e63d a0fd c63d
00000390: c53c 43be 76aa 10be 6dcc 1fbe f891 9c3c
000003a0: a825 403e 1819 3c3e 9c86 2ebe 6e18 373e
000003b0: b4a7 16be 8fec 4cbe 7c26 be3d acc9 4cbd
000003c0: b881 b53d 5cbf 1e3d 3425 a13d e864 13bd
000003d0: f8ac 123e c492 f93d a0ed 8fbb f02b 8d3c
000003e0: 930f 01be 5c12 143d da26 27be 9c57 0bbd
000003f0: 28e4 b93d e281 98bd 3323 dbbd 40a5 13bc

lstm.bias_ih_l0 f4 [96]
-0.030170545 -0.04135658 0.19005209 -0.09787898 0.0265584 0.11429444 -0.039663017 -0.19914508
0.1763798 0.11382514 0.18445715 0.15251532 -0.106277585 -0.047613174 -0.018267274 -0.084678516
-0.12001733 0.110768616 -0.11033225 -0.058370262 0.08369997 -0.031645223 -0.0071953386 0.13068569
0.06997377 -0.0050402284 -0.11996459 0.12230253 0.099294156 0.018510953 0.041568592 0.07880014
0.18402359 -0.15286027 -0.12615135 -0.12026063 0.0021858513 0.09606531 0.14123622 -0.12805286
0.20271754 -0.12462049 -0.20051219 0.11075482 0.15684119 0.14117348 0.15613589 -0.076529086
0.19018 0.055994183 -0.05223839 -0.11287223 -0.00021637976 -0.09912028 -0.015914664 0.10287991
0.12597129 0.084071666 -0.124529995 0.13088387 -0.11180234 -0.116514005 0.059357673 0.14823508
0.11377123 -0.10729093 -0.17158082 -0.11527278 0.03849128 0.13805586 0.11880526 -0.061209396
-0.085671715 -0.07904062 -0.198291 -0.10493217 -0.049004227 -0.025851548 -0.020975515 0.14216289
-0.06116675 -0.15925393 -0.20272069 -0.13044634 -0.18824716 -0.05296266 0.096315056 0.016871318
-0.115470566 -0.08768899 -0.04852605 -0.13346316 0.13605782 0.03464426 0.015371129 0.1660892
00000000: 3828 f7bc 8465 29bd 049d 423e c674 c8bd
00000010: 0091 d93c 3413 ea3d b075 22bd b0ec 4bbe
00000020: e89c 343e 281d e93d 56e2 3c3e fa2c 1c3e
00000030: 10a8 d9bd 0806 43bd 40a5 95bc ee6b adbd
00000040: a5cb f5bd a8da e23d e0f5 e1bd a815 6fbd
00000050: e46a ab3d 6c9e 01bd e0c6 ebbb 78d2 053e
00000060: 684e 8f3d 8028 a5bb ffaf f5bd c079 fa3d
00000070: bc5a cb3d 48a4 973c d443 2a3d f861 a13d
00000080: ae70 3c3e 6787 1cbe d22d 01be 354b f6bd
00000090: 8040 0f3b e4bd c43d 3aa0 103e 4a20 03be
000000a0: 3095 4f3e 0739 ffbd 1153 4dbe 6cd3 e23d
000000b0: fa9a 203e c88f 103e 16e2 1f3e 48bb 9cbd
000000c0: 8cbe 423e 285a 653d ecf7 55bd 8e29 e7bd
000000d0: 00e4 62b9 93ff cabd 785f 82bc b4b2 d23d
000000e0: 9efe 003e c42d ac3d 9509 ffbd 6c06 063e
000000f0: a0f8 e4bd e59e eebd 0821 733d f0ca 173e
00000100: e400 e93d 59bb dbbd e2b2 2fbe 2314 ecbd
00000110: 08a9 1d3d 845e 0d3e 2c50 f33d b4b6 7abd
00000120: a774 afbd 0ce0 a1bd cc0c 4bbe ade6 d6bd
00000130: a8b8 48bd a0c6 d3bc d8d4 abbc 2693 113e
00000140: fc89 7abd 7613 23be 0396 4fbe ba93 05be
00000150: ddc3 40be 60ef 58bd d440 c53d b835 8a3c
00000160: d57b ecbd 4996 b3bd 40c3 46bd 91aa 08be
00000170: be52 0b3e 24e7 0d3d 30d7 7b3c 4a13 2a3e

lstm.bias_hh_l0 f4 [96]
-0.16589823 0.05769378 0.02140513 -0.09619758 -0.17322052 -0.16606492 -0.18655354 0.09859973
0.052877456 0.16212946 0.048048317 0.12515676 0.16155884 0.069551975 -0.05585949 0.13023871
0.13651824 -0.16297263 0.041823834 -0.18086007 -0.03104937 0.030834138 -0.018774748 0.19185153
-0.2017831 0.008149534 -0.087540306 -0.12736507 0.17366436 0.11376846 -0.062134102 -0.07659921
0.17878917 -0.17054091 0.1907107 -0.03888984 0.18958327 0.13087672 0.08522841 -0.0889299
0.13851222 0.13484332 -0.12448065 -0.13663095 0.0019868612 0.15193471 0.048832476 0.12525547
-0.102493875 0.064655006 0.07428822 0.024277508 -0.020350054 0.009543255 0.13243484 0.056678236
-0.026270837 0.108398676 0.07502213 -0.06421329 0.08281401 -0.0020652115 -0.09914938 -0.115688
-0.11469985 -0.08709783 -0.10350634 -0.13420653 0.10710743 -0.16618517 0.0071092695 -0.025283769
-0.20188944 0.19333044 -0.11232546 -0.026112571 -0.09213033 0.17034379 -0.14653057 0.0064726323
0.15212825 -0.08507902 0.08157253 -0.15166464 -0.07540476 0.04902205 0.026852235 0.023025468
-0.005228415 0.11966303 0.16293633 -0.029855937 -0.18120871 -0.09785751 0.17110816 0.028996736
00000000: 3ae1 29be 5050 6c3d d059 af3c 3d03 c5bd
00000010: b860 31be ec0c 2abe e407 3fbe a8ee c93d
00000020: 0896 583d 4405 263e 50ce 443d 1829 003e
00000030: ae6f 253e 4471 8e3d eccc 64bd 4c5d 053e
00000040: 70cb 0b3e 4ce2 26be 784f 2b3d 6233 39be
00000050: 405b febc e097 fc3c 80cd 99bc ba74 443e
00000060: 3ba0 4ebe a085 053c 5548 b3bd fd6b 02be
00000070: 12d5 313e 70ff e83d 5480 7ebd 0ce0 9cbd
00000080: 8214 373e 47a2 2ebe aa49 433e f44a 1fbd
00000090: 1e22 423e 8c04 063e 3c8c ae3d e120 b6bd
000000a0: 26d6 0d3e 5e14 0a3e b6ef febd fce8 0bbe
000000b0: 0036 023b c694 1b3e 9004 483d f842 003e
000000c0: 4fe8 d1bd d869 843d 6c24 983d a0e1 c63c
000000d0: 28b5 a6bc 505b 1c3c 009d 073e 7027 683d
000000e0: f035 d7bc 2000 de3d 34a5 993d 4282 83bd
000000f0: 649a a93d 8058 07bb d50e cbbd d5ed ecbd
00000100: c1e7 eabd 5960 b2bd 22fb d3bd 706d 09be
00000110: 245b db3d 722c 2abe e0f4 e83b e81f cfbc
00000120: 1bbc 4ebe 6af8 453e e40a e6bd 08ea d5bc
00000130: d4ae bcbd 9a6e 2e3e 1c0c 16be 6018 d43b
00000140: 82c7 1b3e e93d aebd 800f a73d fa4d 1bbe
00000150: d06d 9abd 58cb 483d 38f9 db3c e89f bc3c
00000160: 2053 abbb e411 f53d c8d8 263e 7094 f4bc
00000170: c78e 39be 8569 c8bd fa36 2f3e 908a ed3c

linear1.weight f4 [128, 27]
0.020743832 0.09217124 0.124437556 0.054149717 0.09982841 -0.08178818 -0.12432729 -0.084795855
-0.1835987 -0.030965656 0.15771703 0.15016274 -0.048971415 -0.07781922 -0.050978005 0.11100875
0.0040513426 -0.06708932 0.066618875 -0.11946646 0.030697137 0.11957185 -0.14079574 -0.13624045
-0.07253395 -0.18524754 -0.052685767 0.17976545 0.18544847 -0.23293252 -0.008989223 -0.08548272
-0.13289773 -0.0153502915 0.122814566 -0.110152744 -0.10844947 -0.11453542 0.091677986 0.1674393
-0.07093016 -0.12235536 -0.10207261 0.031074196 0.17667463 0.007926402 0.17000388 0.028582964
-0.18658958 -0.112454765 0.14293037 0.075587235 -0.19485517 0.15935619 -0.13507734 -0.06652017
0.19919084 0.094885595 0.06487906 -0.16833134 -0.025397347 0.13721342 0.04757943 -0.121003486
0.11551918 0.068047464 -0.015602368 -0.20196454 0.12949671 -0.14947447 -0.0075422633 0.12560679
-0.11743092 0.053382106 0.1497918 0.07428295 -0.10260353 -0.17814939 0.15625377 0.17055073
-0.092961475 0.23412085 0.14720207 -0.16520117 0.16680776 0.12795384 -0.087285824 0.18280503
-0.15956178 0.0781628 -0.028300432 0.035749335 -0.16434816 -0.14638111 -0.11544676 -0.18110535
0.043560065 -0.07443123 -0.018853007 -0.0066477875 -0.18907288 -0.032592617 -0.056172173 0.20657398
0.22445612 0.18094733 0.14070775 -0.108273715 0.15558733 -0.13070358 0.027087705 0.187296
0.10294842 -0.026734525 -0.026850283 -0.117411904 -0.17189671 0.014766966 -0.15478869 0.14019382
-0.07913102 0.1810099 0.10033466 -0.041772168 -0.09761366 -0.22621587 0.061217282 0.02833962
-0.011994751 -0.04898192 -0.082841605 0.19141065 0.17794508 0.013010513 0.037494946 -0.11616614
-0.1803596 -0.14970843 -0.18043481 0.009347588 -0.07409058 -0.03394045 -0.04597333 0.061702207
0.031185165 -0.1479293 -0.14213453 -0.14660509 0.063996926 -0.108640276 -0.18742347 0.17677121
0.054010704 -0.18754975 0.054069757 0.16561393 0.043517455 -0.17283213 0.12799619 -0.11622723
-0.104909495 -0.022541657 -0.062887035 0.13122194 0.15334466 -0.016684512 -0.13883923 0.17095964
0.08211265 0.020390552 0.062166292 0.0056210514 0.17750402 -0.025591627 -0.022490699 -0.06988494
0.14402883 -0.13239795 -0.10064839 0.12013923 0.21186115 -0.14207017 0.19106743 0.09705535
-0.044855576 -0.18571004 0.024542294 -0.05178559 -0.11133335 -0.14536512 -0.1413872 0.11706634
-0.08863816 -0.15025944 0.1897286 -0.1918527 0.11027746 -0.064742 0.03667292 0.12831317
0.022922292 0.03736092 -0.03743179 0.054798484 -0.095728695 0.065776035 0.12383689 0.030906737
-0.07216319 -0.068015695 0.15280454 0.12124653 -0.16368665 -0.16851118 -0.17662773 -0.1216611
-0.042581692 -0.07918911 0.15998225 0.114438154 0.022393506 0.11561077 -0.0063364157 0.07893292
-0.016353352 -0.14509396 -0.10130897 -0.17087474 0.16783762 0.09085789 0.12845226 0.049544692
-0.17296006 -0.15638325 -0.102389455 -0.22823991 -0.09358715 0.18718566 -0.16417427 0.1987574
0.07836574 0.05644904 -0.18133906 -0.023236869 0.17468652 0.1912497 0.15763038 -0.05744696
0.045944102 -0.08969329 0.073528185 -0.19238663 0.09293178 0.106460385 -0.0120299235 0.040155053
00000000: f8ee a93c 46c4 bc3d 1ed9 fe3d 18cc 5d3d
00000010: d672 cc3d 9080 a7bd 4e9f febd 73a9 adbd
00000020: 4c01 3cbe b0ab fdbc 9380 213e 43c4 193e
00000030: 4096 48bd af5f 9fbd 50ce 50bd 8e58 e33d
00000040: 20c1 843b 2066 89bd 7a6f 883d d5aa f4bd
00000050: 9078 fb3c 16e2 f43d c22c 10be 9e82 0bbe
00000060: ae8c 94bd 88b1 3dbe 08cd 57bd 6f14 383e
00000070: 34e6 3d3e dd85 6ebe 8947 13bc 9011 afbd
00000080: 5816 08be ca7f 7bbc 3486 fb3d c397 e1bd
00000090: c11a debd 8c91 eabd abc1 bb3d 3575 2b3e
000000a0: d543 91bd 7295 fabd 720b d1bd 508f fe3c
000000b0: 32ea 343e bddd 013c 7f15 2e3e d226 ea3c
000000c0: 5711 3fbe af4e e6bd 575c 123e 7bcd 9a3d
000000d0: 1d88 47be 452e 233e b751 0abe ba3b 88bd
000000e0: aff8 4b3e 6153 c23d 50df 843d 0d5f 2cbe
000000f0: 190e d0bc ad81 0c3e a6e2 423d add0 f7bd
00000100: 5295 ec3d 785c 8b3d 13a1 7fbc cbcf 4ebe
00000110: c99a 043e d60f 19be 1725 f7bb 119f 003e
00000120: 9f7f f0bd 32a7 5a3d 0663 193e a921 983d
00000130: cd21 d2bd cb6c 36be fd00 203e daa4 2e3e
00000140: 9662 bebd 60bd 6f3e 24bc 163e 7f2a 29be
00000150: a7cf 2a3e 5506 033e e9c2 b2bd 3e31 3b3e
00000160: 2a64 23be d113 a03d 4fd6 e7bc e56d 123d
00000170: e24a 28be eee4 15be 5a6f ecbd ae73 39be
00000180: 0a6c 323d 676f 98bd 9f71 9abc afd5 d9bb
00000190: 529c 41be d67f 05bd cb14 66bd 2188 533e
000001a0: d3d7 653e 424a 393e b115 103e 9cbe ddbd
000001b0: 4952 1f3e 29d7 05be 09e7 dd3c 86ca 3f3e
000001c0: 9fd6 d23d 5d02 dbbc 20f5 dbbc a775 f0bd
000001d0: b105 30be 25f1 713c ed80 1ebe f88e 0f3e
000001e0: 720f a2bd a95a 393e 427c cd3d 4b19 2bbd
000001f0: ace9 c7bd 22a5 67be f9be 7a3d 7e28 e83c
00000200: a285 44bc 44a1 48bd dca8 a9bd 2701 443e
00000210: 3c37 363e 0c2a 553c 4d94 193d 83e8 edbd
00000220: 30b0 38be 2b4d 19be e7c3 38be a026 193c
00000230: cdbc 97bd 2405 0bbd 884e 3cbd 74bb 7c3d
00000240: 0878 ff3c c77a 17be b78b 11be a51f 16be
00000250: d210 833d cb7e debd f0eb 3fbe 8303 353e
00000260: 543a 5d3d 0b0d 40be 4078 5d3d b396 293e
00000270: 5c3f 323d e8fa 30be 6f11 033e 8b08 eebd
00000280: cada d6bd 48a9 b8bc ebca 80bd 0b5f 063e
00000290: 6206 1d3e f5ad 88bc df2b 0ebe 0b10 2f3e
000002a0: ad2a a83d 160a a73c 15a2 7e3d cc30 b83b
000002b0: 9dc3 353e 88a5 d1bc 6a3e b8bc d61f 8fbd
000002c0: 4b7c 133e 5493 07be be20 cebd 8e0b f63d
000002d0: 21f2 583e d87a 11be 2ea7 433e f5c4 c63d
000002e0: 7bba 37bd c62a 3ebe ec0c c93c 201d 54bd
000002f0: bd02 e4bd 98da 14be cec7 10be 7ac0 ef3d
00000300: ec87 b5bd 9cdd 19be 3748 423e 0975 44be
00000310: 26d9 e13d 7497 84bd 5836 163d 8764 033e
00000320: 88c7 bb3c c407 193d 1452 19bd 6074 603d
00000330: 680d c4bd 96b5 863d 329e fd3d 2030 fd3c
00000340: 4bca 93bd d04b 8bbd cb78 1c3e 1a50 f83d
00000350: 799d 27be 328e 2cbe e6dd 34be 7429 f9bd
00000360: 246a 2ebd e62d a2bd 63d2 233e 8d5e ea3d
00000370: 9672 b73c 57c5 ec3d b5a1 cfbb 95a7 a13d
00000380: 77f7 85bc 8393 14be 147b cfbd caf9 2ebe
00000390: a0dd 2b3e b413 ba3d fd88 033e 60ef 4a3d
000003a0: 711c 31be ee22 20be 90b1 d1bd b9b7 69be
000003b0: 9faa bfbd 99ad 3f3e 4d1d 28be 0f87 4b3e
000003c0: 387e a03d 1c37 673d f2b0 39be 3f5b bebc
000003d0: 06e1 323e f6d6 433e dc69 213e 814d 6bbd
000003e0: e22f 3c3d 1eb1 b7bd f295 963d 0001 45be
000003f0: 0453 be3d e707 da3d 2819 45bc a079 243d

linear1.bias f4 [128]
0.11495851 0.18255396 0.1771727 0.17512232 0.083552144 -0.040956914 0.16730063 -0.07141588
-0.0030577118 -0.1527209 0.06324456 0.06890564 -0.10763946 -0.14636739 0.051653545 0.10600985
0.08808246 -0.09754583 -0.041005198 -0.14800791 0.1610866 -0.07082286 -0.06653027 0.09952799
0.08602885 0.16740213 0.10885088 -0.10874407 0.17093246 -0.057161663 0.08403441 -0.15817551
-0.049708616 -0.04465595 -0.058953863 0.01236941 -0.1361025 0.065136485 0.047347248 -0.05817163
0.16026549 0.073080234 -0.15978624 -0.07684685 -0.073832355 -0.061391357 0.13855658 0.14252757
-0.0014253557 -0.07570446 -0.03788289 -0.077973045 -0.027526822 0.04606289 -0.06576887 -0.045644835
-0.049240768 -0.05155465 -0.08676897 0.030656874 0.1057624 0.067701116 -0.18724139 -0.05162394
-0.05528136 -0.18857193 -0.18274254 0.12735121 -0.027529286 -0.029006463 -0.1307987 0.18663867
0.003072325 0.13255282 0.110087566 -0.09041092 -0.008977852 -0.1282217 0.1280591 0.12266224
-0.004103418 -0.18311198 -0.16015325 0.14756396 -0.03313829 -0.07470321 -0.10473355 -0.13143161
-0.047991693 -0.16142659 0.15296075 0.14857781 0.078128174 0.017031116 0.15314661 0.1321327
0.009582769 0.109961554 -0.0735088 0.005088389 -0.14623633 -0.12925877 0.16308019 -0.055097837
0.05532016 -0.050534643 0.11112509 0.02680273 0.0014865318 0.10166322 -0.12404587 -0.038990922
0.16396736 -0.05779268 -0.13949963 -0.0700112 0.10747625 -0.015592009 0.16575575 0.047268637
-0.18087502 0.02147383 -0.08446467 0.06578651 -0.198724 0.14689875 0.21237117 0.071966365
00000000: 5e6f eb3d 6def 3a3e c36c 353e 4453 333e
00000010: 631d ab3d 70c2 27bd db50 2b3e 7d42 92bd
00000020: e463 48bb de62 1cbe 5d86 813d 661e 8d3d
00000030: 1472 dcbd 55e1 15be ab92 533d b11b d93d
00000040: 9464 b43d 1cc6 c7bd 11f5 27bd 638f 17be
00000050: e3f3 243e 930b 91bd 0641 88bd 55d5 cb3d
00000060: e52f b03d 776b 2b3e 36ed de3d 36b5 debd
00000070: eb08 2f3e 5922 6abd 3c1a ac3d c3f8 21be
00000080: 439b 4bbd 28e9 36bd 9b79 71bd 11a9 4a3c
00000090: 745e 0bbe 4766 853d 30ef 413d 6045 6ebd
000000a0: a31c 243e 17ab 953d 019f 23be e261 9dbd
000000b0: 6b35 97bd 8175 7bbd c7e1 0d3e bff2 113e
000000c0: 00d3 baba f10a 9bbd 172b 1bbd 55b0 9fbd
000000d0: ee7f e1bc 71ac 3c3d d4b1 86bd 14f6 3abd
000000e0: b0b0 49bd f82a 53bd eeb3 b1bd 2024 fb3c
000000f0: f599 d83d e2a6 8a3d 35bc 3fbe a073 53bd
00000100: b56e 62bd 0019 41be dc20 3bbe 5b68 023e
00000110: 1985 e1bc f69e edbc 18f0 05be 351e 3f3e
00000120: 0f59 493b edbb 073e 9775 e13d 5c29 b9bd
00000130: d717 13bc 8d4c 03be ed21 033e 5736 fb3d
00000140: f775 86bb b581 3bbe 37ff 23be 021b 173e
00000150: 04bc 07bd fffd 98bd 8b7e d6bd 0296 06be
00000160: f092 44bd 034d 25be bea1 1c3e c824 183e
00000170: aa01 a03d d784 8b3c 77d2 1c3e cb4d 073e
00000180: 0c01 1d3c 8633 e13d c88b 96bd 80bc a63b
00000190: fabe 15be 695c 04be 7efe 263e 45ae 61bd
000001a0: 6497 623d 6afd 4ebd 8d95 e33d 6691 db3c
000001b0: bbd7 c23a ce34 d03d c30b febd f2b4 1fbd
000001c0: 0fe7 273e 04b8 6cbd fed8 0ebe 0862 8fbd
000001d0: 821c dc3d a075 7fbc e0bb 293e c29c 413d
000001e0: 4d37 39be e3e9 af3c d0fb acbd 14bb 863d
000001f0: 4e7e 4bbe a06c 163e d477 593e 1a63 933d

linear2.weight f4 [128, 128]
0.013969973 0.058827218 0.07284238 -0.005931727 0.05704339 0.025495216 0.018743461 -0.04127071
0.039731976 0.011902975 -0.0226614 -0.046167087 0.11461064 -0.01233586 0.026604153 0.08562842
0.10271196 -0.030490052 0.026810093 -0.013141528 0.08828848 -0.02304788 -0.01906123 -0.0018889175
0.009232106 0.080239676 0.08310244 -0.2636849 -0.21034192 -0.20926116 0.00975703 0.07792736
-0.03285959 0.024897873 -0.0046071867 0.06495889 0.038088433 -0.115811095 -0.04912925 -0.05161912
0.034748115 -0.07225347 -0.09982717 0.08516556 -0.09456457 0.085880265 -0.145083 0.07091715
-0.040129773 0.049253035 0.05196191 -0.087790206 -0.26658154 -0.024779247 0.01581978 0.07808522
-0.09094707 -0.04408372 0.053661786 -0.08141107 -0.010667315 0.06574843 -0.059640296 -0.14951654
0.106635116 -0.03623629 0.0031618972 0.03665568 0.081424154 0.007523072 0.062879115 -0.05303141
0.06176436 -0.105844796 -0.35158843 -0.026421774 -0.019918658 0.04452706 -0.067191996 0.026668156
-0.06850365 0.051226623 -0.019438677 -0.05437625 0.05879689 0.05397144 -0.25316694 -0.07411598
0.016137026 0.046643887 -0.09678808 -0.019955076 -0.06256753 -0.025861239 -0.15230341 -0.06835938
-0.03232055 -0.078667544 -0.025629427 0.0099283755 0.07891663 0.030167207 -0.17985016 -0.064905554
-0.02732315 -0.05336114 0.009164309 -0.06432392 -0.09879511 -0.03525979 0.048725873 -0.05175876
-0.016557314 -0.040125687 -0.046592664 -0.03096256 0.05633413 0.04543691 0.040493242 -0.07669808
-0.0007341094 -0.0065814033 0.055843703 -0.1026198 0.028313024 -0.036278237 -0.38541368 0.057040624
-0.08674367 0.03497024 -0.03814752 0.0886268 -0.02584053 0.0482027 -0.1299765 -0.07140831
0.08594689 0.0797146 -0.06670079 -0.07128527 0.08339207 -0.01440789 0.07266965 0.015381877
-0.044944875 0.043098725 0.009443117 0.022759931 0.07001447 0.0826515 0.082980625 0.032771055
-0.19386719 0.021463506 0.06339773 -0.058256846 0.09866447 -0.17684987 0.0064678 -0.077579364
-0.090324685 -0.0099401325 0.016713083 0.051751655 -0.009851322 0.0021372242 -0.06850203 -0.035401918
0.05825921 -0.021269368 0.017442534 -0.023628512 -0.04742702 0.037249293 0.012476129 -0.01446529
0.0010110959 -0.08500757 0.103082776 -0.051470973 -0.10937366 0.05575581 0.06775606 0.08145448
-0.07822726 0.025876626 0.03747163 -0.040346526 0.096430875 0.0032387525 -0.02575178 -0.003177879
-0.022878308 0.07738223 0.033014763 0.02423178 0.081044264 0.04103773 0.019615471 -0.059748527
0.07781081 0.11050012 0.049364608 0.016543724 -0.054991685 -0.00845921 -0.07736 0.09137028
-0.025957054 0.018405467 0.04785099 -0.03322711 0.08501563 0.0605763 0.024310336 -0.025910586
-0.039232623 0.080372624 -0.042368438 -0.0065789707 0.086542234 0.005165583 0.019845672 -0.07562192
-0.009881235 0.08039392 0.066154264 -0.04938202 -0.08522839 -0.030947082 -0.0814921 0.052244615
0.031515107 0.031793088 -0.04623073 0.017942924 -0.041125953 0.07258279 0.083351806 0.025300318
-0.050541624 -0.026907634 -0.16429375 -0.0034396648 0.07018634 -0.012846075 0.015027502 0.009952612
0.008406331 -0.01838721 0.0721137 -0.11139247 0.07188122 0.030652076 -0.06164124 -0.01740788
00000000: 50e2 643c cff4 703d 632e 953d ef5e c2bb
00000010: 54a6 693d 58db d03c e38b 993c 7a0b 29bd
00000020: ffbd 223d b204 433c 66a4 b9bc b319 3dbd
00000030: fcb8 ea3d 591c 4abc f4f0 d93c f45d af3d
00000040: a65a d23d 46c6 f9bc d7a0 db3c 904f 57bc
00000050: 97d0 b43d e8ce bcbc 4c26 9cbc 8e95 f7ba
00000060: 4242 173c b354 a43d 9d31 aa3d b501 87be
00000070: df63 57be 8f48 56be f3db 1f3c 6198 9f3d
00000080: c797 06bd a0f6 cb3c e2f7 96bb 2b09 853d
00000090: 9e02 1c3d 5e2e edbd c13b 49bd 926e 53bd
000000a0: 0a54 0e3d a1f9 93bd 3072 ccbd 486b ae3d
000000b0: 12ab c1bd fee1 af3d a390 14be 033d 913d
000000c0: 1e5f 24bd 8dbd 493d 03d6 543d 5acb b3bd
000000d0: 607d 88be d9fd cabc 7c98 813c 25eb 9f3d
000000e0: 7542 babd 2191 34bd 76cc 5b3d d9ba a6bd
000000f0: f6c5 2ebc 1da7 863d 6249 74bd dd1a 19be
00000100: 8363 da3d 816c 14bd d537 4f3b 4424 163d
00000110: b5c1 a63d 1a84 f63b c4c6 803d 7737 59bd
00000120: a0fc 7c3d 28c5 d8bd 6603 b4be 7a72 d8bc
00000130: 742c a3bc 0262 363d f59b 89bd 2d77 da3c
00000140: a44b 8cbd 02d3 513d dc3d 9fbc a1b9 5ebd
00000150: 02d5 703d 2811 5d3d 199f 81be 1eca 97bd
00000160: cc31 843c a90d 3f3d d438 c6bd d478 a3bc
00000170: 6823 80bd f3da d3bc 6df5 1bbe 0100 8cbd
00000180: 8e62 04bd 731c a1bd cef4 d1bc a0aa 223c
00000190: 0b9f a13d 3821 f73c a42a 38be 34ed 84bd
000001a0: ccd4 dfbc 3691 5abd e625 163c 42bc 83bd
000001b0: 1755 cabd 926c 10bd c894 473d fe00 54bd
000001c0: 34a3 87bc d55a 24bd f3d7 3ebd 32a5 fdbc
000001d0: 9ebe 663d 0e1c 3a3d 3edc 253d e213 9dbd
000001e0: 3f71 40ba d0a8 d7bb 5ebc 643d 542a d2bd
000001f0: b7f0 e73c 7d98 14bd f154 c5be 6ea3 693d
00000200: aaa6 b1bd f43c 0f3d 9340 1cbd f881 b53d
00000210: 85af d3bc 3270 453d 8f18 05be 853e 92bd
00000220: ec04 b03d 6941 a33d 6c9a 88bd 03fe 91bd
00000230: 76c9 aa3d 120f 6cbc d3d3 943d 4504 7c3c
00000240: 1e18 38bd 4a88 303d 4eb7 1a3c 0973 ba3c
00000250: bf63 8f3d 3145 a93d bff1 a93d f13a 063d
00000260: 1f85 46be 3cd4 af3c abd6 813d bb9e 6ebd
00000270: 9910 ca3d 2218 35be d7ef d33b eee1 9ebd
00000280: 26fc b8bd f0db 22bc e0e9 883c 8bf9 533d
00000290: 7067 21bc ac10 0c3b cb4a 8cbd 9a01 11bd
000002a0: 36a1 6e3d 193d aebc a5e3 8e3c 9590 c1bc
000002b0: d642 42bd b792 183d ae68 4c3c d3ff 6cbc
000002c0: c086 843a 7318 aebd 101d d33d 3ad3 52bd
000002d0: 4cff dfbd 3460 643d b0c3 8a3d 9bd1 a63d
000002e0: 9d35 a0bd 38fb d33c da7b 193d 6642 25bd
000002f0: 8d7d c53d 4041 543b 66f5 d2bc f643 50bb
00000300: 4a6b bbbc 937a 9e3d 7d3a 073d ba81 c63c
00000310: 89fa a53d 2e17 283d a0b0 a03c dfba 74bd
00000320: 465b 9f3d e34d e23d 8b32 4a3d b486 873c
00000330: f63e 61bd 8098 0abc eb6e 9ebd 5720 bb3d
00000340: e3a3 d4bc 10c7 963c 66ff 433d 2619 08bd
00000350: ad1c ae3d db1e 783d 7826 c73c 7042 d4bc
00000360: 63b2 20bd 679a a43d 878a 2dbd 6894 d7bb
00000370: 0e3d b13d 0d44 a93b 6493 a23c aadf 9abd
00000380: e7e4 21bc 91a5 a43d e37b 873d cd44 4abd
00000390: 398c aebd bc84 fdbc 55e5 a6bd 73fe 553d
000003a0: fc15 013d 7839 023d 6f5c 3dbd 0afd 923c
000003b0: b073 28bd 49a6 943d 5ab4 aa3d 9d42 cf3c
000003c0: bc04 4fbd 666d dcbc 9f3c 28be 006c 61bb
000003d0: dbbd 8f3d 5878 52bc e935 763c 4810 233c
000003e0: b5ba 093c c6a0 96bc 59b0 933d bc21 e4bd
000003f0: 7636 933d 101a fb3c 867b 7cbd f89a 8ebc

linear2.bias f4 [128]
-0.024945427 -0.08232947 -0.062722266 -0.028555173 -0.024792524 -0.044583768 0.009257302 -0.028639564
-0.049636614 0.07286648 -0.00068824174 0.015596246 -0.09446882 -0.0011037447 0.013750918 0.06318795
-0.0073905755 -0.0600112 0.038591065 0.07435957 -0.07936785 -0.005336633 -0.024991773 0.068684034
-0.020489085 0.06856897 0.039742243 0.042435624 -0.039176024 -0.09250716 -0.047189277 0.030027468
-0.047706038 0.06067524 -0.015466793 0.025775105 -0.005593526 0.031183202 -0.022775358 -0.087175176
-0.05373701 -0.022207897 0.039034463 -0.061200164 -0.07428138 -0.02647213 -0.048212737 0.0066727623
-0.031058865 -0.029661272 0.0085655525 0.08995367 -0.011770056 -0.074783355 -0.06267743 0.087261066
0.08932974 0.07837222 -0.045105714 -0.0032004595 -0.026849283 -0.0050848573 -0.0694288 0.028210491
0.06634434 -0.055933498 0.042759564 0.080549315 0.024880813 0.083514914 -0.05450502 0.0769662
0.016229242 -0.072851226 -0.040321596 0.04888453 0.07890316 0.10793042 0.0518399 -0.08096171
0.021667937 0.10850812 0.039190367 0.051372524 0.045651637 0.0004486804 0.06468534 0.01583261
-0.024555914 -0.0095863715 0.035855904 0.039300673 -0.0025425458 -0.029401928 -0.009467776 -0.039732
0.08118767 -0.057325464 -0.03533785 0.024821805 -0.07012604 0.05136008 0.10205352 -0.002969768
-0.058045704 -0.0062230085 -0.06569826 0.050135262 0.04439316 0.004046022 -0.025337461 0.07598592
-0.051199354 -0.0842956 -0.032155003 -0.026045484 0.032492656 -0.08833391 0.020475097 0.04862713
0.05171609 -0.085681416 0.017257968 0.0076058316 0.07260611 -0.046244863 -0.051900912 -0.08957196
00000000: 5a5a ccbc 5a9c a8bd 8874 80bd 8aec e9bc
00000010: b119 cbbc 789d 36bd f0ab 173c 859d eabc
00000020: c34f 4bbd 053b 953d 1f6b 34ba 6687 7f3c
00000030: de78 c1bd 87ab 90ba 884b 613c af68 813d
00000040: a42c f2bb 4ece 75bd aa11 1e3d d549 983d
00000050: 9d8b a2bd ecde aebb 8cbb ccbc 37aa 8c3d
00000060: bad8 a7bc e36d 8c3d c3c8 223d fad0 2d3d
00000070: 0a77 20bd 6574 bdbd 8b49 41bd 2afc f53c
00000080: 6867 43bd 9a86 783d 6f68 7dbc 5026 d33c
00000090: e649 b7bb ea73 ff3c 6393 babc e688 b2bd
000000a0: 571b 5cbd 56ed b5bc 9ae2 1f3d 06ad 7abd
000000b0: d620 98bd 15dc d8bc b87a 45bd 30a7 da3b
000000c0: 296f febc 32fc f2bc 8856 0c3c a139 b83d
000000d0: 31d7 40bc 0428 99bd 065d 80bd eeb5 b23d
000000e0: 83f2 b63d 9d81 a03d c5c0 38bd cdbe 51bb
000000f0: 07f3 dbbc e09e a6bb b030 8ebd b019 e73c
00000100: 8bdf 873d 861a 65bd a724 2f3d 0af7 a43d
00000110: d9d2 cb3c de09 ab3d a840 5fbd 74a0 9d3d
00000120: 30f3 843c 0633 95bd 4228 25bd 253b 483d
00000130: fb97 a13d a00a dd3d 1356 543d 41cf a5bd
00000140: f580 b13c 8139 de3d 1486 203d ff6b 523d
00000150: 36fd 3a3d dd3c eb39 bf79 843d 64b3 813c
00000160: 7c29 c9bc 2810 1dbc a4dd 123d bef9 203d
00000170: d7a0 26bb 50dc f0bc bb1e 1bbc 06be 22bd
00000180: b945 a63d 1bce 6abd 6cbe 10bd 1957 cb3c
00000190: 3e9e 8fbd f25e 523d 7001 d13d 70a0 42bb
000001a0: 55c1 6dbd 61ea cbbb cf8c 86bd a25a 4d3d
000001b0: 9ad5 353d 7e94 843b 8290 cfbc 829e 9b3d
000001c0: 6ab6 51bd 2ca3 acbd f7b4 03bd 575d d5bc
000001d0: 0517 053d 69e8 b4bd 64bb a73c 3e2d 473d
000001e0: 40d4 533d bd79 afbd 9560 8d3c 573a f93b
000001f0: 83b2 943d 416b 3dbd 0d96 54bd 8171 b7bd

linear3.weight f4 [1, 128]
-0.07213918 0.006737282 -0.0011957543 0.05900359 -0.002222875 0.037619006 -0.002492294 -0.018699145
0.0052841837 -0.05447401 -0.06325755 -0.0007222306 -0.056668837 -0.0017953375 -0.0005328015 0.009016778
0.00079089234 0.0008385598 -0.002783923 0.0011582621 0.061703864 0.001815997 0.032502413 0.108984746
0.12719408 0.0051718727 -0.011048404 0.08155367 -0.05604803 -8.286806e-05 0.07590623 0.011379773
0.00075373426 0.00044222875 0.083884634 0.0024021817 -0.001132847 0.06589363 -0.06618687 0.034623496
-0.040563494 0.01656191 -0.08733965 -0.00052497885 0.0068342844 0.03057533 -0.0025859182 -0.0024600828
0.15225816 -0.006985303 0.13793465 0.09779354 0.06311008 0.12447003 -0.00046996446 -0.021341525
-0.042199373 0.0017820307 -0.000855159 0.05687854 0.09695131 0.00010867929 0.036590803 0.06461017
-0.02388157 -0.019037519 0.00273901 0.09911506 -0.01413333 0.014130409 0.27073604 -0.0037208216
0.018623991 -0.048430532 -0.00020531518 -0.0076672807 0.017162852 -0.01725568 -0.012847805 0.09718694
0.027353268 -0.09005622 -0.033523567 -0.008515159 0.20317091 0.046523184 0.0027518775 0.0020759422
0.002192038 0.0024599442 -0.0022355616 0.0023955018 -0.07340934 0.15304722 -0.0019490316 0.07713354
0.012337327 -0.07587311 -0.06309213 -0.00048868585 -0.08819377 0.040503353 -0.010052373 -0.019218376
-0.027410386 -0.007426555 0.019927483 -0.00049959496 -0.0064382404 -0.013255137 0.054294575 0.061122533
0.0011262558 -0.0026016054 0.0033486306 0.06893083 -0.006074372 0.0012779487 0.068782695 0.09124551
-0.08463073 -0.0029839305 -0.029781777 0.019527582 -0.0027200119 0.020867998 0.0024137609 0.0011141964
00000000: b5bd 93bd 6bc4 dc3b dbba 9cba c0ad 713d
00000010: a7ad 11bb 6316 1a3d c155 23bb f32e 99bc
00000020: f226 ad3b 2420 5fbd 2d8d 81bd 1354 3dba
00000030: 951d 68bd 8851 ebba b4ab 0bba 1cbb 133c
00000040: e353 4f3a ccd2 5b3a 7a72 36bb d4d0 973a
00000050: 31bd 7c3d bf06 ee3a 4021 053d 6533 df3d
00000060: 2a3f 023e d078 a93b 5d04 35bc 9c05 a73d
00000070: 9e92 65bd 73c9 adb8 ba74 9b3d 3a72 3a3c
00000080: 4096 453a f0da e739 b5cb ab3d ec6d 1d3b
00000090: 0a7c 94ba 3df3 863d fb8c 87bd 5ed1 0d3d
000000a0: e825 26bd d8ac 873c 21df b2bd bc9e 09ba
000000b0: 22f2 df3b 1d79 fa3c 8278 29bb 5739 21bb
000000c0: 90e9 1b3e f8e4 e4bb be3e 0d3e fb47 c83d
000000d0: dc3f 813d 25ea fe3d 9065 f6b9 6cd4 aebc
000000e0: 40d9 2cbd 0793 e93a c02c 60ba 79f9 683d
000000f0: 698e c63d c0ea e338 3de0 153d 5652 843d
00000100: 48a3 c3bc 92f4 9bbc f680 333b d6fc ca3d
00000110: 7c8f 67bc 3b83 673c ea9d 8a3e 07d9 73bb
00000120: 5791 983c 185f 46bd e049 57b9 d03d fbbb
00000130: 1c99 8c3c c95b 8dbc 9a7f 52bc f209 c73d
00000140: f613 e03c 656f b8bd 0250 09bd 2a83 0bbc
00000150: 090c 503e 188f 3e3d d858 343b 880c 083b
00000160: 4ca8 0f3b 0437 213b 8082 12bb dafd 1c3b
00000170: a357 96bd 69b8 1c3e a676 ffba 30f8 9d3d
00000180: 8022 4a3c 5c63 9bbd 7236 81bd 271b 00ba
00000190: ef9e b4bd d8e6 253d b5b2 24bc db6f 9dbc
000001a0: bf8b e0bc 755a f3bb f63e a33c 40f7 02ba
000001b0: e0f7 d2bb 132c 59bc fd63 5e3d 9f5b 7a3d
000001c0: e09e 933a b27f 2abb b374 5b3b 9b2b 8d3d
000001d0: 870b c7bb d880 a73a f1dd 8c3d edde ba3d
000001e0: e052 adbd 0c8e 43bb eaf8 f3bc 4ff8 9f3c
000001f0: 3a42 32bb 5df3 aa3c 3030 1e3b 3a0a 923a

linear4.weight f4 [1, 128]
-0.10275809 -0.06091648 -0.013391382 0.071698256 0.0038449063 -0.13372181 0.0029447372 -0.06473168
-0.03974643 -0.05486435 0.037201203 -0.01134527 0.02315734 0.011580795 0.0015741861 -0.017652592
0.00411598 -0.00041330885 -0.0018384584 -0.0026548412 0.04563989 0.23705515 0.0030951677 0.13624233
0.03399574 -0.012472898 -0.05501267 0.1430554 0.027763084 0.0017784858 -0.042318482 0.005915952
0.0015425859 -0.0027235355 -0.084474474 0.0022056582 -0.002149229 -0.09493574 -0.010598345 0.00945738
-0.064341486 -0.10097123 -0.032677535 0.0010843133 -0.0021692244 0.04732642 0.00070444494 -0.0028725152
0.05269652 -0.008147111 0.009186673 -0.031554718 0.035704933 0.2660041 -0.00056080706 -0.033546124
-0.03381723 0.0021271426 0.00011560973 0.07159776 -0.10790076 0.00031879335 0.049407985 0.0723199
-0.04282694 -0.002507603 -0.0018800567 0.078055665 -0.049226306 0.033753794 -0.22124052 0.0027235586
0.004252982 0.022361556 -0.0008200032 0.034554817 0.036227524 -0.039729252 -0.005881014 0.10715542
0.023298444 -0.020742398 -0.02720402 0.0009813806 0.12640224 -0.019507846 -0.0018163136 0.0029466064
0.00041780667 0.0017722612 0.0020103785 -0.0028419597 -0.059426934 -0.07707175 0.006354507 0.0624376
0.08647787 -0.021436805 0.07948083 0.17208679 0.06221471 0.0062377797 0.024435986 -0.040063694
0.0018698424 0.14666301 0.008119717 0.0024362854 0.017009906 -0.05206559 -0.002549888 -0.020101152
0.00072059786 -0.000102629885 -0.00017702024 -0.030449675 -0.009527731 -0.0013963594 0.0874152 -0.030807853
0.020814186 -0.002448755 0.008450968 0.018492501 0.002483205 0.043503914 -0.0024237803 0.3831843
00000000: d572 d2bd 8f83 79bd 8767 5bbc 89d6 923d
00000010: d3fa 7b3b 5fee 08be 7efc 403b 0b92 84bd
00000020: 27cd 22bd 71b9 60bd 4a60 183d 83e1 39bc
00000030: 76b4 bd3c 60bd 3d3c ec54 ce3a 2b9c 90bc
00000040: 58df 863b 60b1 d8b9 6df8 f0ba d8fc 2dbb
00000050: e5f0 3a3d 96be 723e 4cd8 4a3b 1c83 0b3e
00000060: 1e3f 0b3d 205b 4cbc f754 61bd 1d7d 123e
00000070: 686f e33c 151c e93a 2556 2dbd 9ada c13b
00000080: 9830 ca3a 587d 32bb f400 adbd ce8c 103b
00000090: 14da 0cbb ab6d c2bd aea4 2dbc 20f3 1a3c
000000a0: 78c5 83bd 01ca cebd e1d8 05bd 841f 8e3a
000000b0: 8c29 0ebb 59d9 413d 80aa 383a cf40 3cbb
000000c0: 4ed8 573d 767b 05bc b383 163c 853f 01bd
000000d0: 563f 123d b031 883e 2003 13ba a967 09bd
000000e0: f083 0abd 8867 0b3b 8073 f238 d9a1 923d
000000f0: 13fb dcbd b823 a739 0760 4a3d 751c 943d
00000100: 4d6b 2fbd 9956 24bb 3c6c f6ba a6db 9f3d
00000110: 86a1 49bd 6b41 0a3d e08c 62be bb7d 323b
00000120: 995c 8b3b 952f b73c 7cf5 56ba 5a89 0d3d
00000130: 5063 143d 24bb 22bd 85b5 c0bb 4d74 db3d
00000140: 61dc be3c f6eb a9bc f7da debc aba1 803a
00000150: 976f 013e ebce 9fbc 5f11 eeba da1b 413b
00000160: 100d db39 384b e83a 8ec0 033b 2c40 3abb
00000170: a869 73bd cbd7 9dbd 7839 d03b 92be 7f3d
00000180: 4f1b b13d 3d9c afbc d8c6 a23d 8537 303e
00000190: dad4 7e3d 4a66 cc3b fa2d c83c d419 24bd
000001a0: 8015 f53a d42e 163e 9008 053c 16aa 1f3b
000001b0: 5c58 8b3c ba42 55bd 061c 27bb 2cab a4bc
000001c0: 81e6 3c3a 003b d7b8 829e 39b9 9971 f9bc
000001d0: 331a 1cbc 0c06 b7ba be06 b33d c060 fcbc
000001e0: 8382 aa3c 4b7b 20bb ee75 0a3c 967d 973c
000001f0: 44bd 223b 2931 323d 49d8 1ebb bc30 c43e

linear5.weight f4 [1, 128]
-0.062568136 -0.04308338 0.033193547 -0.033840813 -0.0015033116 0.005965075 0.0022061053 -0.03150123
0.030339744 -0.011019234 0.06705126 0.06209049 -0.06719568 -0.017757947 0.0003775356 -0.0056868475
-0.009856553 0.0014442503 -0.0021779565 0.0010616779 0.031102337 -0.020652419 0.028206287 -0.004603274
-0.015562719 0.026396776 -0.03628053 -0.027193034 -0.054447304 0.0006062892 0.0040189694 -0.014213306
0.0016030599 0.0027445224 -0.0012541877 0.0019552484 0.0005099904 0.013715716 0.023788864 -0.050655253
0.005235673 0.07983722 -0.05346942 0.0013019163 -0.0061432505 0.01387505 -0.0020602853 0.0014053215
0.010628863 -0.0057374355 -0.00017711283 -0.007403016 -0.06438676 -0.0054376433 -7.4785436e-05 -0.05057749
-0.118135214 0.00053069374 0.0011626352 -0.045154616 0.08239648 -0.00021810085 -0.101678155 -0.03490281
-0.0070739137 0.044950776 0.00090312096 -0.040383868 0.028120508 0.010921359 0.1545686 -0.0008805276
0.017016375 -0.03073361 -0.0024151187 0.06731036 -0.036437962 0.025833014 -0.0060581123 -0.011869814
0.014751839 0.009342195 -0.006282826 -0.0041020727 -0.018163387 -0.021762727 0.0017236397 0.0012205034
0.0012326771 -0.0002161488 -0.00069475034 0.0028680223 0.09615519 -0.022141142 0.001208191 0.0022469924
0.044643052 -0.048336886 -0.06022355 0.15841055 -0.100809984 0.026122972 0.08481487 0.023398545
-0.03774357 -0.048150554 -3.5384877e-05 -0.0015182984 -0.06710505 -0.017940508 -0.0054390677 -0.08849145
0.0006412317 0.00092119444 0.0016034269 0.00030551563 0.026594738 0.00054306467 -0.0036208974 -0.043772735
-0.07558905 -0.00031947118 0.007220394 -0.016432874 -0.0015938974 -0.04609884 0.0025398168 0.006148192
00000000: b923 80bd 3378 30bd f5f5 073d aa9c 0abd
00000010: c40a c5ba ad76 c33b 4e94 103b 6f07 01bd
00000020: 0e8b f83c 048a 34bc 2c52 893d 9952 7e3d
00000030: e49d 89bd 1d79 91bc f8ef c539 bc58 babb
00000040: 617d 21bc 004d bd3a 0cbc 0ebb 0028 8b3a
00000050: 54ca fe3c 432f a9bc df10 e73c 10d7 96bb
00000060: c6fa 7ebc 0d3e d83c e59a 14bd edc3 debc
00000070: 2304 5fbd 61ef 1e3a 8fb1 833b edde 68bc
00000080: c41d d23a 72dd 333b 8e63 a4ba a023 003b
00000090: e0b0 053a e2b7 603c dde0 c23c e27b 4fbd
000000a0: 0290 ab3b b281 a33d c002 5bbd 10a5 aa3a
000000b0: 524d c9bb 2d54 633c da05 07bb c432 b83a
000000c0: af24 2e3c 1901 bcbb 5db7 39b9 0095 f2bb
000000d0: 35dd 83bd 422e b2bb 20d6 9cb8 582a 4fbd
000000e0: e0f0 f1bd 411e 0b3a 9063 983a 0cf4 38bd
000000f0: 7cbf a83d 00b2 64b9 a33c d0bd 40f6 0ebd
00000100: 4acc e7bb 4e1e 383d 6cbf 6c3a 8e69 25bd
00000110: fb5c e63c 80ef 323c 3b47 1e3e 35d3 66ba
00000120: ed65 8b3c 0dc5 fbbc f846 1ebb 04da 893d
00000130: f93f 15bd c29f d33c 2183 c6bb 9c79 42bc
00000140: b3b1 713c 0110 193c 2ae0 cdbb ae6a 86bb
00000150: 62cb 94bc bf47 b2bc c0eb e13a 4cf9 9f3a
00000160: c891 a13a 00a6 62b9 e81f 36ba 6ef5 3b3b
00000170: 03ed c43d 5761 b5bc 2a5c 9e3a 4742 133b
00000180: a2db 363d e6fc 45bd f8ac 76bd 6036 223e
00000190: 7775 cebd d8ff d53c 6bb3 ad3d 4eae bf3c
000001a0: 0099 1abd 8439 45bd 396a 14b8 a401 c7ba
000001b0: 5f6e 89bd f9f7 92bc 353a b2bb 013b b5bd
000001c0: 5518 283a 507c 713a 142a d23a 9d2d a039
000001d0: 35dd d93c 745c 0e3a 944c 6dbb 0a4b 33bd
000001e0: 6fce 9abd b27e a7b9 0e99 ec3b 3c9e 86bc
000001f0: 52ea d0ba 23d2 3cbd 0e73 263b c676 c93b
