PDQN/PDQN/model/critic_model.ckpt (torch, 291262 bytes, 15 tensors)

lstm.weight_ih_l0 f4 [96, 1]
0	0xbc8eb570	-0.0174205
1	0xbd8cd904	-0.0687733
2	0x3e236022	0.1595464
3	0xbe0d873c	-0.13821119
4	0x3dd7377c	0.1050863
5	0xbe23df26	-0.16003093
6	0x3e2b0e14	0.16704589
7	0x3dbabd20	0.09118104
8	0xbd6b657c	-0.05746983
9	0x3d5adc30	0.053432643
10	0x3ddf80a0	0.10913205
11	0x3d2ad7b0	0.041709602
12	0xbdd6bee2	-0.10485627
13	0x3e2c1546	0.1680499
14	0x3db77220	0.089573145
15	0x3e2e2d4c	0.17009467
16	0xbe334342	-0.17506126
17	0x3e0b9b8a	0.13633552
18	0xbe4503c9	-0.19239725
19	0x3e1967e6	0.1498104
20	0xbc8f8278	-0.017518267
21	0x3d76de50	0.060270607
22	0xbe2557b5	-0.16146739
23	0x3d0396b8	0.03212616
24	0xbcb82a78	-0.022481188
25	0xbe18999b	-0.14902346
26	0xbcbca190	-0.023026258
27	0xbd584414	-0.0527993
28	0xbd166f5c	-0.036727294
29	0xba897300	-0.0010486543
30	0x3e1cad80	0.1530056
31	0xbe0c45d0	-0.13698506
32	0x3c8e78d0	0.017391592
33	0xbe3a355e	-0.1818442
34	0xbc608340	-0.013703167
35	0x3d1dbb28	0.038508564
36	0xbde6842a	-0.11255677
37	0x3cf76080	0.030197382
38	0x3dd818b4	0.10551587
39	0xbda764eb	-0.081735454
40	0xbd335df4	-0.043790773
41	0x3e020726	0.1269804
42	0x3e43e4c8	0.19130242
43	0xbbe73640	-0.0070560277
44	0xbce00390	-0.027345449
45	0xbddaab64	-0.106772214
46	0xbdbe8560	-0.09302783
47	0x3e31066c	0.17287606
48	0xbc264240	-0.010147631
49	0x3d5d5a10	0.05404097
50	0xbe16d0a9	-0.14728035
51	0x3e04ae16	0.12957034
52	0xbe0a7822	-0.1352239
53	0xbd8a3142	-0.067476764
54	0x3d917f34	0.0710434
55	0x3d22447c	0.039616093
56	0x3ce7c150	0.02829042
57	0x3e16fce0	0.14744902
58	0x3d1f52b0	0.038897216
59	0x3dbff6a4	0.09373215
60	0xbcbbfee0	-0.022948682
61	0x3db13e04	0.08654407
62	0xbd9775e4	-0.07395533
63	0xbd81c0ca	-0.063356
64	0xbe4b31ac	-0.19843167
65	0xb9c27e00	-0.0003709644
66	0xbda2c2ad	-0.07947288
67	0xbe18dddf	-0.14928387
68	0xbdd17fc9	-0.10229451
69	0x3cd0f3a8	0.02550681
70	0xbdd99d0e	-0.10625659
71	0xbd82f004	-0.063934356
72	0xbe181bea	-0.14854398
73	0x3ddf1634	0.10892907
74	0xbe0742de	-0.13209102
75	0x3d73f160	0.059556365
76	0xbe441aac	-0.191508
77	0x3e4a5554	0.19759113
78	0xbe13402b	-0.14379947
79	0xbe4d4756	-0.20046744
80	0x3e09f770	0.13473296
81	0x3e455ca4	0.19273621
82	0xbcf16240	-0.029465795
83	0x3d2099e4	0.03920926
84	0xbd5fcbf0	-0.05463785
85	0x3cd30a28	0.025761679
86	0x3e3ef872	0.18649462
87	0xbcb43270	-0.021996707
88	0xbde9dae6	-0.11418705
89	0xbc1b8e90	-0.009494439
90	0x3e4f6376	0.20252785
91	0x3e367016	0.17816195
92	0x3d78dfa8	0.06076017
93	0xbce6b750	-0.028163582
94	0x3d9beab0	0.076131225
95	0x3d02655c	0.031834945

lstm.weight_hh_l0 f4 [96, 24]
0	0xbde0c1eb	-0.10974487
1	0xbce3c8a8	-0.027805641
2	0x3d05d980	0.032678127
3	0xbdf2f39c	-0.11862871
4	0xbdd0f8ec	-0.10203728
5	0xbe44a889	-0.19204916
6	0x3d74f518	0.059804052
7	0x3c960298	0.018311784
8	0xbe4d6c8d	-0.2006094
9	0x3e4403e0	0.19142103
10	0xbd8a0252	-0.06738724
11	0xbe1d162b	-0.15340488
12	0x3dc3ad4c	0.09554538
13	0x3e16b502	0.14717487
14	0xbd8d8712	-0.06910528
15	0x3d90f348	0.07077652
16	0x3dc51984	0.09624007
17	0x3dccc114	0.09997764
18	0x3bf13560	0.007361099
19	0xbdf14b2f	-0.11781918
20	0x3c513ee0	0.012771338
21	0xbe121378	-0.14265239
22	0x3dd4a868	0.103836834
23	0xbb94d280	-0.004541695
24	0x3d9cfc40	0.076653
25	0xbe1f2b35	-0.15543826
26	0xbe19bdf6	-0.1501387
27	0xbe45bf34	-0.1931122
28	0xbd3e33e8	-0.04643622
29	0xbdd41846	-0.10356192
30	0x3caddb98	0.021222875
31	0x3e2d1ed4	0.16906291
32	0xbd62f714	-0.055411413
33	0x3df54fe0	0.119781256
34	0xbd605464	-0.05476798
35	0x3d908adc	0.07057735
36	0x3cedf790	0.029048711
37	0x3df229c8	0.118243754
38	0x3dcf9568	0.10135919
39	0x3e496908	0.19668972
40	0xbe168716	-0.14699969
41	0x3d93c374	0.07215014
42	0x3dbdfc34	0.092766196
43	0x3d16ef94	0.036849573
44	0xbe011450	-0.12605405
45	0xbc573880	-0.013136029
46	0x3e2e9ba2	0.17051557
47	0xbd944c88	-0.0724116
48	0xbe25d94a	-0.1619617
49	0x3d815f90	0.06317055
50	0x3ce43110	0.027855426
51	0x3e4c9f90	0.19982743
52	0xbe1d2d22	-0.15349248
53	0xbe0a2c56	-0.13493475
54	0x3d8dc878	0.06923002
55	0xbd12b120	-0.03581345
56	0xbc9ae2d0	-0.01890698
57	0xbdfac7de	-0.12245153
58	0x3d9c15cc	0.07621345
59	0x3e27d46c	0.16389626
60	0xbe4be933	-0.19913177
61	0x3e127060	0.1430068
62	0x3dec24d4	0.11530462
63	0xbe1a2402	-0.15052798
64	0xbdea54d3	-0.1144196
65	0x3d3772e0	0.044787288
66	0xbe3c1532	-0.1836746
67	0x3e068044	0.13134867
68	0xbe46aeb8	-0.19402587
69	0x3dadfad0	0.08495104
70	0xbe1c1d64	-0.15245587
71	0x3c34fe90	0.011047021
72	0x3da6e11c	0.08148405
73	0x3e2e1b70	0.17002654
74	0x3da9c5c0	0.08289671
75	0x3cc6d310	0.024270564
76	0xbe382048	-0.17981064
77	0x3cfa5c98	0.03056173
78	0xbdb2e320	-0.08734727
79	0x3c90d9a8	0.017681912
80	0xbd52de98	-0.051481813
81	0xbe20887e	-0.15677068
82	0x3c25bec0	0.010116279
83	0x3c714550	0.014725998
84	0x3c3cc890	0.011522427
85	0x3e00b228	0.12567961
86	0x3e0f225a	0.13977948
87	0x3e107eea	0.14110914
88	0x3e129dba	0.1431798
89	0x3d2968fc	0.041359887
90	0xbd4ecf74	-0.05049081
91	0xbb5872c0	-0.003302738
92	0xbd470e50	-0.048597634
93	0xbc812308	-0.015763775
94	0xbe20540a	-0.15657058
95	0x3da69d54	0.08135477
96	0x3d0f641c	0.03500758
97	0xbc9a45e0	-0.018832147
98	0xbe21f3b7	-0.15815626
99	0x3deb16ec	0.114789814
100	0x3df48714	0.119398266
101	0x3e11dac6	0.14243612
102	0x3dcab8a4	0.09898499
103	0x3d531cf0	0.05154127
104	0xbde23908	-0.11046034
105	0xbcf161c0	-0.029465556
106	0xbe3d7786	-0.18502626
107	0xbcf88280	-0.030335665
108	0xbddce020	-0.10784936
109	0xbde65ce2	-0.11248185
110	0xbc959100	-0.018257618
111	0xbdcb7dd9	-0.09936113
112	0x3e23f298	0.16010511
113	0x3e1110fa	0.14166632
114	0x3e48358e	0.1955168
115	0x3e213fe8	0.15747035
116	0xbc538760	-0.012910694
117	0xbe0ec11e	-0.13940856
118	0xbc9898c8	-0.01862754
119	0xbba12640	-0.00491789
120	0x399eec00	0.00030311942
121	0x3dc6da28	0.09709579
122	0x3d95d898	0.073167026
123	0x3e0b139e	0.13581702
124	0x3e413ad8	0.18870103
125	0x3c895fa0	0.01676923
126	0x3dce25b4	0.10065785
127	0xbe229e6d	-0.15880747
128	0x3e1c0f0e	0.15240118
129	0xbd68543c	-0.056720957
130	0x3d2c01c4	0.04199387
131	0xbdc969e0	-0.09834647
132	0x3d8f2290	0.06989014
133	0x3de53844	0.111923724
134	0x3d3398b8	0.043846816
135	0xbd63d388	-0.055621654
136	0x3e42b118	0.19012868
137	0x3e3a1640	0.1817255
138	0xbd17f9a0	-0.037103295
139	0x3e2daa0e	0.16959402
140	0x3e2d1f0e	0.16906378
141	0xbdc23d58	-0.09484357
142	0xbe3e5c10	-0.18589807
143	0x3e0fa98c	0.14029521
144	0x3e02bc28	0.12767088
145	0x3dbc1eb4	0.09185544
146	0xbe29389a	-0.16525498
147	0x3ce2fc58	0.027708218
148	0x3e1643e8	0.14674342
149	0xbc03ee40	-0.008052409
150	0x3e4335b4	0.19063455
151	0xbde8be8a	-0.113644674
152	0x3dbe8dc0	0.093043804
153	0xbd04b0d0	-0.032395184
154	0xbdc09506	-0.09403424
155	0x3e04c898	0.12967145
156	0x3e3bc0fc	0.18335336
157	0x3e1c5cb0	0.15269732
158	0xbdb62cb1	-0.08895243
159	0xbe1e6154	-0.15466815
160	0x3ca7ab70	0.02046749
161	0x3e50a5b6	0.20375714
162	0xbdb4e92e	-0.08833538
163	0x3dbe7b4c	0.09300861
164	0x3ad6fe80	0.0016402751
165	0xbd3981f8	-0.045289963
166	0xbe0372a4	-0.128367
167	0x3e3fc31c	0.18726772
168	0xbe4114ee	-0.1885564
169	0xbd4aebdc	-0.04954134
170	0x3e4f4b00	0.20243454
171	0xbdf291c5	-0.118442096
172	0x3e21fac2	0.15818313
173	0x3d3e6220	0.046480298
174	0xbcc1ad68	-0.023642257
175	0x3e22e8fe	0.15909192
176	0x3e047e38	0.12938774
177	0x3e14b1de	0.14520976
178	0x3e308924	0.17239815
179	0x3c4c27c0	0.012460649
180	0x3df6f66c	0.1205872
181	0x3e0f24b6	0.13978848
182	0x3c8a9668	0.016917422
183	0x3da4fbec	0.08055863
184	0x3e19aec6	0.15008077
185	0x3c9a59c0	0.018841624
186	0x3dc54e2c	0.09634051
187	0xbe0153e8	-0.12629664
188	0x3e443088	0.19159138
189	0xbdb70d03	-0.08938029
190	0xbd6fc83c	-0.058540568
191	0xbe105b27	-0.14097272
192	0x3dc09570	0.09403503
193	0xbcb08848	-0.021549359
194	0x3e1b4f12	0.15166882
195	0xbbaf2520	-0.005345002
196	0xbdd51172	-0.10403718
197	0xbe3c0f36	-0.18365178
198	0x3e208a28	0.15677702
199	0xbe06783c	-0.13131803
200	0x3dd8e4b8	0.105905
201	0xbe3acbae	-0.1824176
202	0xbda03574	-0.078226954
203	0x3e3c7ffc	0.18408197
204	0x3cc1c490	0.023653299
205	0xbdf27221	-0.118381746
206	0xbdbea0db	-0.093080245
207	0xbd44b2fc	-0.048022255
208	0x3dadbb9c	0.08483049
209	0xbdac03e2	-0.08399178
210	0xbe3be4c9	-0.18348993
211	0x3d94d160	0.072664976
212	0xbe2a2295	-0.16614754
213	0x3c323160	0.01087603
214	0x3e3aa974	0.18228704
215	0xbe242cf2	-0.1603277
216	0xbe3de66e	-0.18544933
217	0x3dbc715c	0.09201309
218	0xbe08c536	-0.1335648
219	0xbd8653c0	-0.06558943
220	0xbe4e3da0	-0.20140696
221	0x3d6417c8	0.055686742
222	0x3e3f50f4	0.18683225
223	0x3cebbfb8	0.028777942
224	0x3d480ad0	0.048838437
225	0x3e39f46a	0.18159643
226	0x3e10f9b0	0.14157748
227	0x3dee7d2c	0.116449684
228	0x3e43e66a	0.19130865
229	0x3d2b5174	0.041825727
230	0xbe29f730	-0.16598201
231	0x3dcc2c04	0.09969333
232	0xbd9bf684	-0.076153785
233	0x3d9bc5ec	0.0760611
234	0x3d28575c	0.041098937
235	0x3c69c390	0.014267817
236	0x3e0cd76a	0.13754049
237	0xbe1ffa51	-0.15622832
238	0xbe120af0	-0.14261985
239	0x3d14f06c	0.036362097
240	0x3da6b32c	0.08139643
241	0xbe3f6b55	-0.18693288
242	0xbded7a56	-0.11595599
243	0x3d42bea8	0.047545105
244	0x3e1ef7dc	0.15524238
245	0x3e02b51e	0.12764403
246	0x3d7c4348	0.061587602
247	0x3dd043f0	0.10169208
248	0xbdeb0a05	-0.114765204
249	0xbe383e89	-0.17992605
250	0x3e07e40c	0.13270587
251	0x3da0f1ec	0.07858643
252	0x3dcae378	0.099066675
253	0xbe44327d	-0.19159885
254	0x3de290ec	0.11062798
255	0x3d8395c8	0.06425053

lstm.bias_ih_l0 f4 [96]
0	0x3e0b0f7e	0.13580129
1	0xbe4353d7	-0.19074951
2	0xbbba8dc0	-0.0056931674
3	0xbe365cba	-0.1780881
4	0xbe119d31	-0.1422012
5	0x3d2e7edc	0.04260145
6	0x3bc1b5e0	0.005911574
7	0x3e493a42	0.1965113
8	0x3e3c2ea0	0.18377161
9	0xbe45cd57	-0.19316612
10	0x3e2e1212	0.16999081
11	0xbc904ca8	-0.017614678
12	0x3d724f10	0.05915743
13	0xbddded23	-0.10836246
14	0x3cf89b78	0.03034757
15	0xbe0e977c	-0.13924974
16	0x3e2c08e6	0.1680027
17	0xbdcddad6	-0.10051505
18	0xbe106d2b	-0.14104144
19	0x3d3f3d98	0.0466896
20	0xbd3eaedc	-0.046553478
21	0x3e2c34c8	0.1681701
22	0xbd448620	-0.047979474
23	0x3db2b024	0.087250024
24	0xbdc55d00	-0.09636879
25	0x3e1d8d74	0.15385991
26	0x3e0c15e0	0.1368022
27	0xbda00a28	-0.07814437
28	0xbdea9d1c	-0.114557475
29	0x3e1fffa2	0.1562486
30	0xbd7b1f8c	-0.061309382
31	0x3e12d872	0.1434038
32	0xbdd3a4fb	-0.10334202
33	0xbd4af810	-0.049552977
34	0xbd30a2e8	-0.04312411
35	0xbe01cd70	-0.12676024
36	0xbdccf712	-0.100080624
37	0xbd0b7e44	-0.034055963
38	0xbdcb483e	-0.099258885
39	0x3e2609c2	0.1621466
40	0xbe0f79f4	-0.14011365
41	0x3ddd0dc4	0.10793641
42	0x3dc19c84	0.09453681
43	0x3d2ca1c4	0.04214646
44	0xbe335865	-0.17514189
45	0xbccca840	-0.024982572
46	0xbd3bfdf8	-0.0458965
47	0xbd2f9324	-0.042864934
48	0xbd9acb42	-0.075582996
49	0xbd5cbb40	-0.053889513
50	0x3e454310	0.19263864
51	0xbe3e7555	-0.18599446
52	0xbcb41990	-0.021984845
53	0xbd9ee4ca	-0.07758482
54	0x3e38d5ac	0.1805026
55	0xbd528474	-0.05139585
56	0x3d90883c	0.07057235
57	0x3e088876	0.13333306
58	0xbcd15360	-0.025552452
59	0x3e3bbee6	0.1833454
60	0x3d87d774	0.06632891
61	0xbe2cdc6f	-0.16880964
62	0x3dfc0ea8	0.12307483
63	0xbc695730	-0.0142419785
64	0xbd69d4d8	-0.05708775
65	0xbe423961	-0.18967201
66	0x3e0378da	0.1283907
67	0xbe0ec72e	-0.13943169
68	0x3dfba2ec	0.12286934
69	0xbd15c830	-0.036567867
70	0x3dba9694	0.09110752
71	0xbe30efa6	-0.17278919
72	0xbe2613f9	-0.16218556
73	0x3e076928	0.13223708
74	0xbdca1bc8	-0.0986858
75	0x3ded1ec4	0.11578134
76	0xbe3d2953	-0.18472795
77	0x3dec4400	0.115364075
78	0xbb8aa440	-0.004231006
79	0xbd9dac74	-0.076989084
80	0xbc031e80	-0.008002877
81	0x3e27d5c6	0.16390142
82	0x3e33a42e	0.17543098
83	0xbe21aad8	-0.15787828
84	0xbe01b8cb	-0.12668149
85	0xbb279f80	-0.0025577247
86	0xbe0a0265	-0.13477476
87	0xbe259225	-0.16169031
88	0xbd9adfb6	-0.07562201
89	0x3e33c21c	0.17554516
90	0xbe3ae7f8	-0.18252552
91	0x3d772df0	0.060346544
92	0xbe4da0ea	-0.20080915
93	0xbcbfae28	-0.023398474
94	0x3dae4440	0.085091114
95	0x3de1b824	0.1102145

lstm.bias_hh_l0 f4 [96]
0	0xbded9e60	-0.11602473
1	0x3dfe90e0	0.124299765
2	0xbcccbe80	-0.024993181
3	0xbe039c9a	-0.12852708
4	0x3e29ea26	0.16593227
5	0x3df9ec04	0.122032195
6	0xbd952dfc	-0.072841614
7	0xbccfb548	-0.025354996
8	0x3d792810	0.060829222
9	0x3c989c58	0.018629238
10	0x3c608c00	0.013705254
11	0xbe3c1cb7	-0.18370329
12	0xbe15eabf	-0.1464033
13	0x3e03e76c	0.12881249
14	0x3e48e058	0.1961683
15	0x3dd291c8	0.10281712
16	0xbe491984	-0.1963864
17	0xbe34bc13	-0.1764987
18	0xbe06991a	-0.13144341
19	0x3e14c902	0.14529803
20	0x3cf2b4f0	0.029627293
21	0x3dcd1950	0.100145936
22	0xbe4b7741	-0.1986971
23	0x3dd2ec24	0.102989465
24	0x3da3cf94	0.07998577
25	0xbab2a300	-0.00136289
26	0x3d86b51c	0.065775126
27	0x3ddb9db4	0.10723439
28	0x3e292506	0.1651803
29	0x3d0c58a0	0.034264207
30	0x3d602578	0.054723233
31	0xbdec0e1a	-0.11526127
32	0xbe2cf3ea	-0.16889921
33	0xbe3224a2	-0.17396787
34	0x3e20031c	0.15626186
35	0xbdd523ca	-0.10407217
36	0xbb130fc0	-0.0022439808
37	0xbda76de0	-0.08175254
38	0xbdcc1a6d	-0.09965978
39	0x3d86db14	0.065847546
40	0x3e05e94e	0.1307728
41	0x3a2ba900	0.0006548315
42	0xbdff1d34	-0.12456742
43	0xbdfd9e3e	-0.12383698
44	0x3e45d8e2	0.19321015
45	0x3e103466	0.14082488
46	0x3e2403a4	0.16017014
47	0x3e4b1326	0.19831523
48	0x3e306e7a	0.17229643
49	0x3e4972d6	0.19672713
50	0x3d6e4528	0.05817142
51	0x3e079f44	0.13244349
52	0xbe422544	-0.18959528
53	0x3da0c500	0.07850075
54	0xbe21c9a4	-0.15799576
55	0x3d16bd30	0.036801517
56	0xbe424fc4	-0.1897574
57	0xbdfbe17b	-0.12298866
58	0x3d7873d0	0.060657322
59	0x3d26d858	0.040733665
60	0x3e266768	0.16250384
61	0x3e4e0238	0.20118034
62	0x3df5fec8	0.12011486
63	0x3e318ba8	0.17338431
64	0x3df08888	0.11744791
65	0x3dfb42fc	0.12268636
66	0xbe1c11f2	-0.1524122
67	0xbe355c95	-0.17711098
68	0x3c6e15c0	0.014531553
69	0xbd8194a4	-0.06327179
70	0x3e395dc6	0.18102178
71	0x3d83c334	0.064337164
72	0x3cc67c20	0.02422911
73	0xbe0bf73a	-0.13668528
74	0xbd97318a	-0.07382496
75	0x3cfa66d8	0.030566618
76	0xbe268324	-0.16260964
77	0x3e108780	0.14114189
78	0xbd59ac70	-0.053142965
79	0x3e460c06	0.19340524
80	0x3c356b20	0.011072904
81	0xbde8b234	-0.113621145
82	0x3e3bb5b2	0.1833103
83	0xbd54b14c	-0.051926896
84	0xbd99547a	-0.07486816
85	0x3e2b8d0c	0.16753024
86	0xbe4226f5	-0.18960173
87	0xbda8162d	-0.08207355
88	0x3dd270e0	0.102754354
89	0x3ddc1eec	0.107480854
90	0xbca68b90	-0.02033022
91	0x3de65f58	0.11248654
92	0xbe43cf2f	-0.19122003
93	0x3cd3b878	0.025844797
94	0xbd8dcf64	-0.06924322
95	0xbdcc2154	-0.09967294

linear1.weight f4 [128, 30]
0	0xbd86491c	-0.06556913
1	0x3d04f2a7	0.032457974
2	0xbe14cdd7	-0.14531647
3	0xbd4204af	-0.047367748
4	0xbe692c80	-0.22770882
5	0xbccfaa9b	-0.025349906
6	0xbd9fa759	-0.07795591
7	0xbd19d056	-0.0375522
8	0xbe30ac2a	-0.17253175
9	0x3d9d2676	0.076733515
10	0xbd7695fc	-0.06020163
11	0x3e16533d	0.1468019
12	0xbc9b5587	-0.018961681
13	0xbde2fc7d	-0.110833146
14	0xbe2d0ba7	-0.16898976
15	0xbdf94a97	-0.1217243
16	0xbcc16fe9	-0.023612933
17	0xbdc577de	-0.096420035
18	0xbc8d8747	-0.01727642
19	0xbd151e7b	-0.03640602
20	0xbe25df6f	-0.16198514
21	0x3d829354	0.06375757
22	0x3ddde4a1	0.10834623
23	0x3db8f793	0.09031596
24	0x3bcf9a6e	0.006335548
25	0x3dfac654	0.12244859
26	0x3e8d641d	0.27615443
27	0x3e094b57	0.13407646
28	0x3d1a30a7	0.037644055
29	0x3ce04719	0.027377652
30	0xbde67459	-0.1125266
31	0x3de03ccc	0.10949096
32	0x3af33100	0.0018554032
33	0x3e1d3024	0.15350395
34	0x3e1e7e6e	0.15477917
35	0x3dabc1a4	0.083865434
36	0x3ddb36bc	0.10703799
37	0x3e37577c	0.17904466
38	0xbdc52f92	-0.09628214
39	0xbdcae3d5	-0.09906737
40	0xbdf0bf31	-0.11755217
41	0xbe30fa72	-0.17283037
42	0xbe03876d	-0.1284463
43	0xbdf1bf4c	-0.11804065
44	0x3e19b12a	0.15008989
45	0xbe1fab01	-0.15592577
46	0x3db3af64	0.087736875
47	0x3d1bccec	0.038037226
48	0x3d925f10	0.07147038
49	0x3e13c7d2	0.14431694
50	0x3e024466	0.12721404
51	0xb9f72400	-0.00047138333
52	0x3e2cebb0	0.16886783
53	0xbd5e37c4	-0.0542524
54	0xbdbb058c	-0.09131917
55	0xbe23458c	-0.15944499
56	0x3d8bbff0	0.068237185
57	0xbe08e944	-0.13370234
58	0xbcb6ccf8	-0.022314534
59	0x3bde84a0	0.0067907125
60	0xbd8f6830	-0.07002294
61	0xbda733f1	-0.08164204
62	0xbdba9f65	-0.09112433
63	0xbd895b86	-0.0670691
64	0xbe34c57e	-0.17653462
65	0xbe8d39c5	-0.27583137
66	0xbe1edd6b	-0.15514152
67	0xbe4c8ac9	-0.19974817
68	0x3df26339	0.118353315
69	0x3cbe205f	0.023208795
70	0x3de20918	0.11036891
71	0xbdc76c7e	-0.0973749
72	0xbcac0627	-0.020999027
73	0xbd086989	-0.03330377
74	0xbdfcfeea	-0.123533085
75	0xbbe39b50	-0.006946005
76	0xbe587fbf	-0.21142481
77	0xbdf2e766	-0.11860542
78	0x3d3949c8	0.04523638
79	0xbda0ed74	-0.078577906
80	0xbdf3c8d8	-0.11903542
81	0x3c491910	0.012274042
82	0x3d476fe2	0.048690684
83	0x3e5dc05d	0.21655412
84	0xbd608fce	-0.054824643
85	0x3e086411	0.13319422
86	0xbe0c568b	-0.13704889
87	0x3dd48054	0.10376039
88	0xbdb46ef0	-0.08810222
89	0x3dcf9d31	0.10137404
90	0x3dba3610	0.09092343
91	0x3997ddd0	0.00028966228
92	0x3c677571	0.014127121
93	0x3d554ae8	0.05207339
94	0x3ca45870	0.020061702
95	0xbdea37c6	-0.11436419
96	0xbe80d947	-0.2516577
97	0xbd10347d	-0.035206307
98	0x3db0a8fe	0.08625983
99	0xbd65dea7	-0.05612054
100	0xbda7754a	-0.08176668
101	0x3e39b795	0.18136437
102	0xbc1c662b	-0.009545843
103	0x3e3e6104	0.18591696
104	0xbca37719	-0.019954251
105	0x3e0a5496	0.1350883
106	0x3e40a1dc	0.18811744
107	0x3e0b421e	0.1359944
108	0xbe17109f	-0.14752434
109	0xbe2296af	-0.15877794
110	0x3dcc6a4d	0.09981213
111	0x3e00e5e7	0.12587701
112	0xbd27e82a	-0.040992893
113	0x3e80079f	0.25005814
114	0x3bf6344e	0.0075135594
115	0xbdbba050	-0.091614366
116	0xbd08f288	-0.03343442
117	0xbcce2a15	-0.02516655
118	0xbd2b64e3	-0.04184426
119	0xbdd6968f	-0.104779355
120	0x3d9c2681	0.076245315
121	0x3dc2a85a	0.09504767
122	0xbe0bae8f	-0.13640808
123	0xbd9218e0	-0.07133651
124	0x3e13f08a	0.14447227
125	0x3dd521d8	0.10406846
126	0xbdb4c39b	-0.08826371
127	0xbc4eeebe	-0.012630163
128	0xbd653679	-0.055960152
129	0x3e09b4a5	0.13447817
130	0xbe1bf703	-0.15230946
131	0xbd7e5cc4	-0.062100187
132	0xbe0ee9fb	-0.13956444
133	0x3e0069ec	0.12540406
134	0xbbfb62d0	-0.0076716915
135	0x3da525fe	0.08063887
136	0xbe202221	-0.15638019
137	0xbd6eb301	-0.05827618
138	0x3cb3b3d9	0.021936344
139	0x3d8afd72	0.06786622
140	0x3da91bc3	0.08257248
141	0xbe1ef2eb	-0.15522353
142	0xbdab0d91	-0.08352197
143	0xbe291f62	-0.16515878
144	0xbe3a24c0	-0.18178082
145	0x3dded273	0.10879984
146	0xbe099c4c	-0.13438529
147	0xbe47d20d	-0.19513722
148	0xbc114d90	-0.00886859
149	0xbcb62d72	-0.022238467
150	0x3d1681e1	0.036744956
151	0x3dce8ce4	0.100854665
152	0x3c961b61	0.018323602
153	0xbe8706b2	-0.26372296
154	0xbd1922da	-0.037386753
155	0xbe646814	-0.22305328
156	0xbe80870d	-0.25103036
157	0xbd16088c	-0.036629245
158	0xbd3861b5	-0.045015056
159	0x3e510b11	0.20414378
160	0xbca57acd	-0.020200158
161	0x3d681590	0.05666119
162	0xbe8d90cc	-0.27649534
163	0xbe7283ef	-0.23683141
164	0x3d84045f	0.06446146
165	0xbcfa7199	-0.030571746
166	0x3ddddbf1	0.10832966
167	0x3d9e062d	0.07716022
168	0x3e6faebf	0.23406504
169	0x3d8ab49d	0.067727305
170	0xbd517b01	-0.051142696
171	0x3e2cf563	0.16890483
172	0xbddbd190	-0.1073333
173	0x3da5d209	0.08096702
174	0x3c7637a5	0.015027915
175	0xbc033b6c	-0.008009773
176	0x3e1e616d	0.15466852
177	0x3d72dc8e	0.05929237
178	0x3dc6097c	0.09669778
179	0xbb08c08d	-0.0020866722
180	0x3c91cc2a	0.017797548
181	0x3e87bfdc	0.26513565
182	0x3d28a444	0.04117228
183	0xbd2af208	-0.041734725
184	0x3e0aef3f	0.13567828
185	0xbe1ccd10	-0.153126
186	0x3d81abcc	0.06331596
187	0xbe81612f	-0.25269458
188	0xbd9973c9	-0.074927874
189	0xbe1d8b4b	-0.15385167
190	0x3d9d3192	0.076754704
191	0xbdb9dfcf	-0.09075891
192	0xbccf5d5b	-0.02531307
193	0xbe301fe2	-0.17199662
194	0xbe687993	-0.22702627
195	0xbd8440a4	-0.06457642
196	0xbddceef7	-0.107877664
197	0x3c5dc371	0.013535366
198	0xbcc5429c	-0.024079613
199	0x3d84294e	0.06453191
200	0xbe357811	-0.17721583
201	0xbcfe50fe	-0.03104448
202	0x3e1ee5a0	0.15517282
203	0x3e04261d	0.12905164
204	0x3d3cdaa7	0.04610696
205	0x3bdced05	0.006742122
206	0xbd2eb7cb	-0.042655747
207	0xbec1bdcb	-0.37840113
208	0x3c8713c1	0.016488912
209	0xbda79db0	-0.081843734
210	0x3d88d3ce	0.066810235
211	0x3e763392	0.2404311
212	0xbc995bc5	-0.018720517
213	0x3e1168a1	0.14200069
214	0x3e2c4ddc	0.16826576
215	0x3e1d39bc	0.15354055
216	0x3d0964bc	0.033543333
217	0x3d0060dd	0.031342376
218	0xbe110c33	-0.1416481
219	0x3d8eb1cb	0.06967505
220	0xbcc55ef6	-0.024093132
221	0x3d860e0f	0.0654565
222	0x3da1debb	0.079038106
223	0xbda9186f	-0.082566135
224	0xbe2d519a	-0.1692566
225	0xbafaaac7	-0.0019124382
226	0xbe028224	-0.12744957
227	0x3df8a750	0.12141287
228	0x3daa1a50	0.083058
229	0x3a91857d	0.0011102405
230	0x3d3d4a78	0.046213597
231	0xbde4b10c	-0.111665815
232	0x3de9218c	0.11383352
233	0x3c78a861	0.015176863
234	0x3e379d2b	0.17931049
235	0xbd59eaca	-0.053202428
236	0xbe97ad9a	-0.29624635
237	0x3c83accd	0.016073609
238	0xbbc8b58d	-0.006125158
239	0xbd1e3852	-0.03862793
240	0x3d0250c7	0.031815317
241	0x3d9502a8	0.07275897
242	0x3e50ddef	0.20397161
243	0x3c08ef09	0.008357772
244	0x3e81c918	0.25348735
245	0x3e353565	0.1769615
246	0x3dc807a0	0.09767079
247	0xbd461972	-0.04836411
248	0x3dc94475	0.0982751
249	0xbde4080f	-0.111343496
250	0x3c2785d8	0.010224782
251	0xbd8b3672	-0.06797494
252	0x3d4bf381	0.04979277
253	0xbe38b3c0	-0.18037319
254	0xbd579d49	-0.052640233
255	0xbd072bf3	-0.033000898

linear1.bias f4 [128]
0	0xbb440ac3	-0.002991364
1	0x3e05d3ea	0.1306912
2	0xbe04a35e	-0.12952945
3	0x3dc03c03	0.09386446
4	0xbe2c4700	-0.1682396
5	0xbcac7061	-0.02104968
6	0x3e31b21a	0.17353097
7	0xbe294d24	-0.16533333
8	0x3e28d78f	0.16488479
9	0x3c2ef9f0	0.010679707
10	0x3da185cc	0.07886848
11	0x3a48b041	0.00076556584
12	0xbd32a2e9	-0.043612394
13	0xbe2691b4	-0.16266519
14	0x3da58795	0.08082501
15	0x3a7178b9	0.00092114095
16	0x3de4298b	0.11140736
17	0xbd126950	-0.035744965
18	0xbba79c1d	-0.0051150457
19	0xbe0018ec	-0.12509507
20	0x3d09ba19	0.033624742
21	0x3dd74952	0.105120316
22	0xbe3d05b9	-0.18459214
23	0x3c726be3	0.01479623
24	0xbc95a0fa	-0.018265236
25	0xbdb2494e	-0.08705388
26	0xbd3290e8	-0.043595225
27	0x3db44548	0.08802277
28	0xbd12f248	-0.03587559
29	0xbd41287d	-0.047157753
30	0x3dd6717c	0.10470864
31	0xbd5a3773	-0.053275537
32	0xbd417c3d	-0.047237623
33	0x3e178216	0.14795718
34	0x3dc157b9	0.0944056
35	0xbd80a96f	-0.06282317
36	0x3dcd2780	0.100173
37	0x3e2746aa	0.1633555
38	0xbe32474c	-0.1741001
39	0xbdb0dd69	-0.08635981
40	0x3af6d2e8	0.0018831166
41	0xbe09deae	-0.13463852
42	0x3d3ef067	0.046615984
43	0xbdaf5d7b	-0.08562752
44	0xbe1d894f	-0.1538441
45	0x3e16379a	0.14669648
46	0xbddd14f5	-0.10795013
47	0x3d237875	0.0399098
48	0xbe30bb38	-0.17258918
49	0x3d851efc	0.065000504
50	0x3e2c4b54	0.1682561
51	0x3dac9004	0.08425906
52	0xbd4db036	-0.050216876
53	0x3e12f8bb	0.14352696
54	0x3d3d8ec5	0.046278734
55	0xbd8256fa	-0.06364246
56	0x3e21e679	0.15810575
57	0xbdfbd1ff	-0.12295913
58	0x3dfae3fc	0.12250516
59	0x3d857782	0.06516935
60	0x3dd78037	0.10522502
61	0x3d43051e	0.047612302
62	0xbddb970e	-0.10722171
63	0xbdff0d8f	-0.12453758
64	0xbe1bd22f	-0.15216897
65	0x3b22f22e	0.0024863589
66	0xbe066dac	-0.13127774
67	0xbe145da3	-0.14488845
68	0x3e3dd15a	0.18536893
69	0x3d88956a	0.066691235
70	0xbdab901c	-0.08377096
71	0xbe1faaa3	-0.15592436
72	0x3d973e76	0.0738496
73	0x3a3c0d7f	0.0007173642
74	0x3d8877f0	0.06663501
75	0x3d205b70	0.0391497
76	0xbc900b54	-0.017583527
77	0xbd64626f	-0.055757936
78	0xbe321a7d	-0.17392917
79	0x3e41f2cb	0.18940274
80	0x3d8b39d4	0.06798139
81	0x3dda17d4	0.10649076
82	0x3e159f42	0.14611533
83	0x3df52bbe	0.11971234
84	0x3db3f098	0.08786124
85	0xbe394bc0	-0.18095303
86	0xbd955733	-0.072920226
87	0x3df0b5ef	0.11753451
88	0xbde5345a	-0.11191626
89	0x3c9005c9	0.017580884
90	0x3d2ceaf2	0.04221625
91	0xbe2f4c7a	-0.17119017
92	0x3df30576	0.11866276
93	0x3e0b5c0e	0.13609335
94	0xbe336fb6	-0.17523083
95	0x3deaf325	0.114721574
96	0x3e14dd87	0.14537631
97	0x3da00dc8	0.078151286
98	0xbdcfe818	-0.1015169
99	0xbd3cbd6c	-0.046079084
100	0xbd1ecf59	-0.03877196
101	0xbbdb3a06	-0.0066902665
102	0x3d8df89d	0.06932185
103	0x3b4349b2	0.0029798565
104	0xbdc4e350	-0.09613669
105	0x3dc8995b	0.09794875
106	0x3c2a58dc	0.010397162
107	0xbdcdb752	-0.10044731
108	0x3e03bdf6	0.12865433
109	0xbe23bd91	-0.15990283
110	0xbd35493c	-0.044259295
111	0xbd580ce3	-0.052746665
112	0xbcd1051f	-0.025515137
113	0xbd18f43a	-0.037342288
114	0x3d0fdd29	0.035123024
115	0xbd3beb18	-0.0458785
116	0x3de572e1	0.11203552
117	0xbcc52618	-0.024066016
118	0xbd7ee8bc	-0.06223367
119	0x39d95f66	0.00041460543
120	0xbd5b4138	-0.053528994
121	0xbe28f6c2	-0.1650038
122	0xbe2ce3fa	-0.16883841
123	0xbdc1e0db	-0.09466716
124	0x3e0deae2	0.13859132
125	0x3a4c9a61	0.00078049867
126	0xbdd3be61	-0.10339046
127	0xbe056c11	-0.13029505

linear2.weight f4 [128, 128]
0	0x3d494c91	0.049145285
1	0xbd7bbdf4	-0.06146045
2	0x3d8cda85	0.06877617
3	0x3bf50f9f	0.007478669
4	0x3c9230d9	0.017845558
5	0xbe359af8	-0.17734897
6	0x3e1b4754	0.15163928
7	0xbdc19156	-0.09451549
8	0x3be60c9f	0.0070205475
9	0x3dab3fc9	0.083617754
10	0xbd71b44e	-0.059009843
11	0xbce49e85	-0.02790762
12	0xbdc6528c	-0.09683713
13	0x3cfbc9a7	0.030735804
14	0x3d6fe979	0.058572266
15	0xbd85002c	-0.064941734
16	0xbdbe994e	-0.09306584
17	0xbd6ae922	-0.05735124
18	0x3c0d9e4c	0.008643698
19	0xbd7963c6	-0.060886167
20	0x3d38114b	0.044938367
21	0xbdd1b7a3	-0.10240104
22	0x3d86bd0a	0.06579025
23	0x3c1d4f38	0.009601407
24	0xbdbc0b70	-0.09181869
25	0xbd95abbf	-0.073081486
26	0xbd535b37	-0.05160066
27	0xbda3152a	-0.07963021
28	0xbc609fc3	-0.013709965
29	0xbe2a1779	-0.16610517
30	0xbdae6476	-0.08515255
31	0xbcd15d8a	-0.025557298
32	0x3d299900	0.041405678
33	0x3ce9835c	0.02850502
34	0xbd505a55	-0.050867397
35	0x3ca4af8d	0.02010324
36	0x3db4e166	0.08832054
37	0x3d8b3796	0.067977116
38	0xbd238177	-0.03991839
39	0xbd03e4c7	-0.0322006
40	0x3d3bffbc	0.045898184
41	0xbd85cc01	-0.06533051
42	0x3d9de167	0.07709008
43	0xbc931dce	-0.017958548
44	0x3d8ef4a1	0.06980253
45	0xbc91d1dd	-0.017800266
46	0xbc8d01dd	-0.017212803
47	0xbdce384d	-0.10069332
48	0x3b9a2fa1	0.004705385
49	0xbe1cec07	-0.15324412
50	0x3c258b58	0.010104023
51	0xbd39cd9b	-0.045362096
52	0x3cd47060	0.02593249
53	0xbdb33a86	-0.08751397
54	0xbdc0c83c	-0.09413192
55	0xbd46d9a1	-0.04854739
56	0xbdc045fc	-0.093883485
57	0x3a1df400	0.00060254335
58	0x3c847f97	0.01617412
59	0xbe18e747	-0.14931975
60	0xbd4e7cda	-0.050412036
61	0x3d095c52	0.03353531
62	0x3d256822	0.040382512
63	0xbc50cda6	-0.012744343
64	0xbdb85487	-0.09000497
65	0x3c056722	0.008142265
66	0x3daffe57	0.08593433
67	0x3c35b298	0.011089943
68	0xbca1cf24	-0.019752093
69	0xbd6e7dd9	-0.058225486
70	0x3d82d13b	0.06387564
71	0x3d87ac9c	0.066247195
72	0x3d8ea069	0.069641896
73	0xbd152f80	-0.036422253
74	0xbd290c1d	-0.041271318
75	0x3b85b335	0.004080201
76	0x3dbd40b7	0.09240859
77	0xbda8ba1a	-0.08238621
78	0xbd8f2030	-0.06988561
79	0x3cdf14c0	0.027231574
80	0x3d89e5bb	0.06733271
81	0x3ca490d8	0.020088598
82	0x39d06dc8	0.00039754645
83	0xbdaefe92	-0.08544649
84	0xbde66359	-0.11249418
85	0xbd7af0dc	-0.061264858
86	0xbd34ca68	-0.044138342
87	0xbd9d4a25	-0.076801576
88	0xbd7c7f81	-0.061645035
89	0x3c380469	0.01123152
90	0xbd5f288d	-0.05448203
91	0x3d896273	0.06708231
92	0xbda835db	-0.08213397
93	0xbd2d27fe	-0.042274468
94	0x3d480c4a	0.048839845
95	0x3d420c95	0.04737528
96	0xbdf4c94c	-0.11952457
97	0x3d847ed7	0.06469505
98	0xbdaad095	-0.08340565
99	0x3d2d2062	0.04226721
100	0xbdce28af	-0.100663535
101	0xbd9c5603	-0.07633593
102	0xbdb19269	-0.08670504
103	0xbe11229d	-0.1417336
104	0xbd78f1a8	-0.060777336
105	0xbdd1be3a	-0.10241361
106	0x3d9006e9	0.07032568
107	0xbdaa93ad	-0.08328948
108	0xbd91c3a6	-0.07117395
109	0x3cce0e2e	0.025153246
110	0xbd15a3e7	-0.036533263
111	0xbca7a533	-0.020464515
112	0x3cd230cd	0.025658036
113	0xbd0e6244	-0.034761682
114	0xbdd14fe5	-0.10220317
115	0xbca817a9	-0.020519095
116	0x3d2c0e3d	0.042005766
117	0xbcd001de	-0.025391515
118	0xbd72648e	-0.059177928
119	0x3cd7453c	0.02627813
120	0x3c5631c8	0.013073392
121	0x3bea5510	0.0071512535
122	0x3d48136a	0.04884664
123	0xbd3d7bf1	-0.046260778
124	0x3baec01f	0.005332961
125	0xbdbd1312	-0.09232153
126	0xbdc2a43e	-0.09503983
127	0xbcc79d03	-0.024366861
128	0xbcff85df	-0.031191764
129	0xbd0f1b04	-0.034937873
130	0xbe00fc18	-0.12596166
131	0xbd4a39d0	-0.04937154
132	0x3b8f923d	0.0043814466
133	0x3c5dcfeb	0.013538341
134	0x3df4b0d2	0.11947788
135	0x3d881cde	0.06646131
136	0xbbb68685	-0.005570235
137	0xbdaac919	-0.083391376
138	0xbbcf2c30	-0.006322406
139	0x3d89d5eb	0.06730255
140	0x3d9b78c4	0.075913936
141	0xbd1494c4	-0.036274686
142	0xbc60bcfb	-0.013716931
143	0x3d03161c	0.032003507
144	0xbcaa213d	-0.020767802
145	0x3d9a4c03	0.07534029
146	0x3d283ab6	0.041071616
147	0xbbba2450	-0.0056805983
148	0x3d613eb9	0.054991458
149	0x3b4213fc	0.0029613962
150	0x3ac15676	0.0014750499
151	0x3d6693ce	0.0562933
152	0x3d1b78bb	0.037956934
153	0xbd4587c9	-0.048225198
154	0xbd1186dc	-0.035529003
155	0x3db3fe27	0.0878871
156	0x3c6fe79f	0.014642625
157	0x3cf0c49a	0.029390622
158	0x3d15f99a	0.03661499
159	0x3ce504b8	0.027956352
160	0xbc9b99b1	-0.018994184
161	0x3c99d468	0.018778041
162	0xbd1966ea	-0.037451662
163	0xbba20b18	-0.00494517
164	0xbce6ed3c	-0.028189294
165	0x3d8fddf8	0.07024759
166	0x3d8da935	0.06917039
167	0xbdb3d70e	-0.08781253
168	0x3c79e2aa	0.015251795
169	0x3c4da7c2	0.012552204
170	0xbdfdbfc4	-0.12390092
171	0xbe1afd0e	-0.15135595
172	0x3d0ce72c	0.03440015
173	0x3bd061d4	0.0063593183
174	0x3c997e8f	0.018737106
175	0xbed23ea5	-0.4106342
176	0xbdaa7f30	-0.0832504
177	0x3cb26817	0.02177815
178	0x3dacdc17	0.08440416
179	0x3d0fe314	0.035128668
180	0xbd2a0ed3	-0.041518044
181	0xbd8c2be0	-0.06844306
182	0xbdaed9fc	-0.08537671
183	0xbc455823	-0.012044939
184	0x3cf5161f	0.029917775
185	0x3cb1470c	0.021640323
186	0x3d4945e7	0.04913893
187	0xbd641673	-0.05568547
188	0xbd42c649	-0.04755238
189	0x3cf83739	0.03029977
190	0xbccfd3a5	-0.025369475
191	0x3da2ebf8	0.07955164
192	0xba1d14a9	-0.00059921533
193	0xbc222c80	-0.009898305
194	0xbd83b411	-0.06430829
195	0x3b966beb	0.0045905015
196	0xbcb2ac69	-0.021810727
197	0xbe17736f	-0.14790128
198	0xb93ca954	-0.00017992157
199	0x3d0034f8	0.031300515
200	0x3da23c6a	0.07921679
201	0xbdc7363d	-0.09727142
202	0x3c007e28	0.007842578
203	0x3d72ba41	0.059259657
204	0xbc072d1c	-0.008250501
205	0xbb251093	-0.002518688
206	0xbc0a655b	-0.008447017
207	0x3d88c653	0.06678452
208	0x3da5ffb3	0.081054114
209	0xbda68dcc	-0.08132514
210	0xbd212a3c	-0.03934692
211	0xbc464cba	-0.012103254
212	0xbca5ef93	-0.02025584
213	0x3d4cc3be	0.04999136
214	0x3d503663	0.050833117
215	0x3ca45094	0.020057954
216	0x3dca45db	0.09876605
217	0x3cfb9cd9	0.03071444
218	0xbe0eceb5	-0.1394604
219	0xbd14cff9	-0.03633115
220	0x3d5545d0	0.05206853
221	0x3d724a36	0.059152804
222	0x3db1385f	0.0865333
223	0xbd635adc	-0.055506572
224	0x3c18abe0	0.009318322
225	0xbd93774a	-0.07200487
226	0xbd7c1808	-0.061546355
227	0x3d753c24	0.059871808
228	0xbcb0fe8c	-0.021605752
229	0x3d7bbe8b	0.061461013
230	0xbbfad6ba	-0.007654992
231	0xbe09d31f	-0.13459443
232	0x3d0f1de0	0.0349406
233	0x3cbbf114	0.022942103
234	0xbbb6ad50	-0.0055748597
235	0xbd93058d	-0.07178793
236	0x3d085e40	0.03329301
237	0x3d633bc2	0.05547691
238	0xbd93bcb6	-0.07213728
239	0x3de84510	0.113412976
240	0xbd74ff4c	-0.059813783
241	0x3db89ad8	0.09013909
242	0xbc4abe75	-0.01237451
243	0xbdbcb4eb	-0.09214195
244	0x3db5696f	0.088580005
245	0x3d6edaea	0.05831424
246	0x3c667060	0.014064878
247	0xb91fab49	-0.0001522723
248	0x3db021db	0.086002074
249	0xbda3611e	-0.07977508
250	0xbd3373c8	-0.04381159
251	0xbde00ea3	-0.10940292
252	0xbca92eb2	-0.020652149
253	0xbd79d2d9	-0.060992096
254	0x3cabe79e	0.020984467
255	0x3dc44a36	0.09584467

linear2.bias f4 [128]
0	0xbd944a7e	-0.07240771
1	0xbd60bfc1	-0.05487037
2	0x3d295143	0.041337263
3	0x3d8a8a00	0.06764603
4	0x3de1c749	0.11024339
5	0x3c14fa68	0.009092905
6	0x3d4bbd5c	0.049741134
7	0xbc96ef3e	-0.018424626
8	0x3d79cd80	0.060986996
9	0x3d67660a	0.056493796
10	0x3d0b4dea	0.03400985
11	0xbce3edd0	-0.027823359
12	0x3dd45636	0.10368006
13	0xbd008411	-0.03137595
14	0xbbb13fc3	-0.0054092123
15	0xbc2e25f2	-0.010629164
16	0x3ca2bae4	0.019864507
17	0xbd97e9aa	-0.07417615
18	0xbbb5e735	-0.0055512437
19	0xbd618cbb	-0.05506585
20	0x3dc4671f	0.09589981
21	0x3ca2606c	0.019821368
22	0x3c940de5	0.018073032
23	0xbd4316a8	-0.04762903
24	0xbd432dec	-0.047651216
25	0xbcef989a	-0.02924757
26	0xbd830419	-0.06397266
27	0xba983167	-0.0011611403
28	0xbced16d4	-0.02894155
29	0x3ded8db1	0.11599291
30	0x3d36bfd3	0.04461653
31	0x3d897c29	0.06713135
32	0xbb8c47a2	-0.0042810002
33	0x3c89d706	0.016826164
34	0xbcbec654	-0.02328793
35	0xbd857f05	-0.06518368
36	0xbcf2f94d	-0.029659892
37	0xbd1d1b94	-0.03835638
38	0x3d223bc9	0.039607797
39	0x3c892ef8	0.01674603
40	0x3d3ffa17	0.046869364
41	0x3d93f81e	0.07225059
42	0xbdb34548	-0.08753449
43	0xbd0da279	-0.034578774
44	0xbb4b5cdf	-0.0031030697
45	0x3c0c57b7	0.008565835
46	0xbd495353	-0.04915173
47	0x3d8b1e6a	0.067929104
48	0xbcd9b82c	-0.026577078
49	0x3bfe74ea	0.007765402
50	0xbd2c30df	-0.042038795
51	0xbd386121	-0.045014504
52	0x3d2328e5	0.039833922
53	0xbd605f03	-0.05477811
54	0xbd76cc16	-0.060253225
55	0xbca1b281	-0.019738438
56	0xbcd4ec43	-0.025991565
57	0xbcb7d93a	-0.022442449
58	0xbc4fa1c1	-0.0126728425
59	0xbdd72b50	-0.10506308
60	0xbbfb8eb1	-0.0076769223
61	0x3d85439c	0.06507036
62	0xbc18682e	-0.009302182
63	0xbdb49831	-0.08818091
64	0x3d7c8311	0.061648432
65	0xbd000142	-0.0312512
66	0xbcaa5107	-0.02079059
67	0x3bc4bb80	0.006003797
68	0x3b1ced5c	0.0023945188
69	0x3d5c77cd	0.05382519
70	0xbbb7eba0	-0.0056128055
71	0x3d8713df	0.06595587
72	0xbcaf2339	-0.0213791
73	0xbd7008fa	-0.05860231
74	0xbc972515	-0.0184503
75	0x3d6122bb	0.054964762
76	0xbd122ae1	-0.035685424
77	0x3db60da2	0.08889319
78	0xbc80bfd4	-0.01571647
79	0xbd3dab45	-0.046305913
80	0x3d461ee8	0.04836932
81	0xbd866687	-0.06562524
82	0xbd3235bc	-0.043508276
83	0x3d6a0c45	0.057140607
84	0x3d72a747	0.05924156
85	0x3d6f4c80	0.058422565
86	0xbdbdf5d2	-0.09275402
87	0x3c301d4a	0.010749171
88	0xbdb9caa4	-0.09071854
89	0x3cfe6606	0.031054508
90	0x3d35ede3	0.04441632
91	0x3df10894	0.11769214
92	0x3d367906	0.04454901
93	0xbd3f913f	-0.046769377
94	0xbd548260	-0.051882148
95	0x3d5cc5a2	0.053899415
96	0xbd265173	-0.04060502
97	0x3db20af8	0.086934984
98	0xbd68acee	-0.056805544
99	0xbd2886e7	-0.041144278
100	0xbd7d697f	-0.061868187
101	0xbd427d9f	-0.047483083
102	0x3daad754	0.08341852
103	0x3c4f1794	0.012639899
104	0x3cd109bc	0.025517337
105	0x3d7d5f49	0.06185845
106	0xbd7d7056	-0.06187471
107	0x3d2832d5	0.041064102
108	0x3b865b5b	0.004100246
109	0x3c2efdae	0.010680599
110	0x3be86be0	0.007092938
111	0x3ddaa73b	0.10676428
112	0xbd0d94ba	-0.034565665
113	0x3d848ad1	0.0647179
114	0xbca7e7a7	-0.020496203
115	0x3b868c77	0.0041061
116	0xbd8ba298	-0.06818122
117	0xbd6d84cc	-0.057987973
118	0x3d0766e5	0.033057112
119	0xbdbd471a	-0.09242077
120	0x3d1e2cb6	0.03861686
121	0xbb99f376	-0.0046982123
122	0xbd4fe1c3	-0.050752413
123	0x3d719f12	0.058989592
124	0x3d86c309	0.06580169
125	0x3d0a7799	0.033805463
126	0x3d80c2ca	0.06287153
127	0xbdc61389	-0.09671695

adv1.weight f4 [128, 128]
0	0xbc8d6b62	-0.017263118
1	0xbc08577e	-0.008321641
2	0x3d9de01d	0.07708762
3	0xbd3aa50f	-0.04556757
4	0x3cd0804a	0.025451798
5	0x3d05999f	0.032617208
6	0x3d52ae65	0.051435847
7	0x3cd32483	0.025774246
8	0x3cded9f3	0.027203536
9	0xbd954600	-0.07288742
10	0xbd61d5ff	-0.055135723
11	0x3d8304f9	0.06397433
12	0xbc8173fb	-0.015802374
13	0x3cefa6b4	0.029254295
14	0xbd749638	-0.059713572
15	0xbdbbb4d1	-0.09165347
16	0xbd3c4dc1	-0.04597259
17	0xbda4a430	-0.08039129
18	0xbcbfa307	-0.023393167
19	0xbc3df63f	-0.011594354
20	0x3de3966e	0.111126766
21	0xbd922af0	-0.07137096
22	0xbdee8dc3	-0.11648133
23	0xbc9527aa	-0.01820739
24	0xbd11bffb	-0.035583477
25	0x3be89edb	0.007099015
26	0x3e1de2e1	0.15418579
27	0xbe13395e	-0.14377353
28	0x3dee24c1	0.11628104
29	0xbd9e4eb2	-0.07729854
30	0xbd2d025f	-0.04223859
31	0xbd890dee	-0.0669211
32	0x3d8ce0cc	0.06878814
33	0xbdadda16	-0.08488862
34	0xbc65b889	-0.014021047
35	0xbca67628	-0.020320013
36	0x3d051630	0.032491863
37	0x3d457096	0.048203073
38	0xbd9275bc	-0.07151362
39	0x3cc6dbea	0.024274785
40	0x3c5ea003	0.013587954
41	0x3d28a1b9	0.041169856
42	0xbe7236b4	-0.2365368
43	0xbca40122	-0.020020071
44	0x3d139e50	0.03603965
45	0x3c97d6ac	0.01853498
46	0xbced2801	-0.02894974
47	0xbdd3c151	-0.103396066
48	0xbd0114ba	-0.031513907
49	0xbd35591e	-0.044274442
50	0x3d7ff00b	0.062484782
51	0x3c4711a9	0.012150207
52	0xbda8978d	-0.08232031
53	0xba056a80	-0.0005089417
54	0x3b76bf36	0.0037650592
55	0xbd22e3f4	-0.039768174
56	0xbc76bfe1	-0.015060396
57	0x3d8c1f76	0.06841938
58	0xbd32bd4c	-0.04363756
59	0xbb6c3456	-0.0036041937
60	0xbc33364f	-0.010938241
61	0x3c4d3784	0.012525443
62	0xbd9278af	-0.07151925
63	0xbddafb46	-0.10692458
64	0x3cf0c0a8	0.02938874
65	0x3dfbace6	0.12288837
66	0xbd626b98	-0.05527839
67	0xbd652cc8	-0.05595091
68	0xbe5a7e2f	-0.21337198
69	0x3c54d2d3	0.012989718
70	0xbddba01c	-0.10723898
71	0xbd0f85f7	-0.03503987
72	0x3c028b30	0.007967755
73	0x3d276f9a	0.040877916
74	0x3cb9632a	0.022630293
75	0xbdc972cd	-0.0983635
76	0xbda9feac	-0.08300528
77	0xbdbcd67b	-0.092205964
78	0xbc770bec	-0.015078526
79	0xbd6f3e1a	-0.058408834
80	0xbbbddf40	-0.0057944357
81	0x3d1f0afb	0.03882883
82	0xbd9f1cb2	-0.07769145
83	0x3d950583	0.07276442
84	0xbd89abc3	-0.06722214
85	0xbcda7284	-0.026665933
86	0x3bac73c0	0.005262822
87	0xbcf14279	-0.029450642
88	0x3d9bbf0b	0.07604798
89	0xbd4708c9	-0.048592363
90	0xbd26c6aa	-0.040716805
91	0x3d8bafc5	0.06820635
92	0xbdae0780	-0.08497524
93	0x3dbf39e7	0.09337216
94	0xbdf70004	-0.1206055
95	0x3d2f4c7e	0.042797558
96	0xbc6e8a99	-0.014559411
97	0x3c6b06e8	0.014344908
98	0xb912b89b	-0.00013992416
99	0x3aceb203	0.0015769604
100	0x3db0fce7	0.08641987
101	0xbc84e2aa	-0.016221363
102	0x3bed131e	0.007234945
103	0x3e20bf6a	0.15698019
104	0x3ceb8390	0.028749257
105	0xbdf992a8	-0.121861756
106	0xbe5600e9	-0.20898785
107	0x3d06aa10	0.032877028
108	0x3c7066b4	0.014672924
109	0xbcbb0354	-0.022828735
110	0xbbe00b93	-0.0068373173
111	0x3c238713	0.009980935
112	0x3ce07dd4	0.02740375
113	0xbd715266	-0.058916472
114	0xbc4687c3	-0.012117329
115	0x39938e00	0.00028143823
116	0x3da15a59	0.078785606
117	0xbe5582bb	-0.20850651
118	0xbd57dca0	-0.05270064
119	0x3dee8570	0.11646545
120	0x3e1822e9	0.14857067
121	0xbc92a63f	-0.017901538
122	0xbdf19799	-0.11796493
123	0x3cb75097	0.022377295
124	0x3c9350b9	0.017982827
125	0xbda995ae	-0.08280502
126	0x3d31bf46	0.043395303
127	0xbd659783	-0.056052696
128	0xbd9f0534	-0.07764664
129	0xbc4b5b47	-0.012411899
130	0x3b32cc40	0.0027282387
131	0xbd4a79a5	-0.049432416
132	0xbd3fa554	-0.04678853
133	0xbd768db9	-0.06019375
134	0x3d8edc75	0.069756426
135	0x3cfeb77a	0.031093348
136	0xbd8493be	-0.06473492
137	0x3d1593be	0.03651785
138	0xbdc4dc42	-0.09612323
139	0x3d83efb5	0.06442205
140	0xbd741f42	-0.059600122
141	0x3d931584	0.07181838
142	0x3d843771	0.06455887
143	0xbdb98e69	-0.09060366
144	0xbd648bfe	-0.05579757
145	0xbd5d7c92	-0.054073878
146	0xbd869b1a	-0.06572552
147	0xbcdba8fa	-0.026813973
148	0xbd7c92f0	-0.061663568
149	0xbd89781e	-0.06712364
150	0xbd5b00be	-0.053467505
151	0x3d8caa2f	0.068683974
152	0x3d822315	0.063543476
153	0xbd832f4f	-0.06405508
154	0x3c93a2f6	0.018022042
155	0x3d16d1a0	0.036821008
156	0x3d4f23b4	0.05057116
157	0xbd5681a0	-0.052369714
158	0xbd529305	-0.05140974
159	0xbcb2de2c	-0.021834455
160	0xbd1d0e84	-0.03834392
161	0xbd7067b4	-0.05869265
162	0x3bbd5501	0.0057779555
163	0xbd8de62f	-0.0692867
164	0x3ae1eb70	0.0017236304
165	0xbd9ac1ab	-0.075564705
166	0x3ce5b7c7	0.028041733
167	0x3c8ba2c4	0.017045386
168	0xbde6f7cb	-0.112777315
169	0xbd842273	-0.06451883
170	0x3d774432	0.06036777
171	0x3d816353	0.06317773
172	0xbc4a3b09	-0.012343177
173	0x3d000d6a	0.031262793
174	0x3d254325	0.040347237
175	0x3db2a6c9	0.08723218
176	0x3d135601	0.03597069
177	0xbd74bf69	-0.059752855
178	0x3c54190a	0.012945423
179	0xbd7b4c26	-0.061351918
180	0x3d2e2ba1	0.042522077
181	0x3aabf1e2	0.0013118351
182	0x3d6c861a	0.057745077
183	0xbd8f16ee	-0.06986795
184	0x3d6e41c2	0.05816818
185	0x3d1b51a8	0.03791967
186	0xba8fb0e9	-0.0010962758
187	0xbcf4cc93	-0.029882705
188	0x3d97e127	0.07415991
189	0x3d81c4af	0.063363425
190	0xbd9cc951	-0.076555856
191	0x3c9a14fd	0.018808836
192	0x3d8de285	0.06927971
193	0xbe0769c5	-0.13223942
194	0x3d4dbd54	0.050229385
195	0x3d32708e	0.04356437
196	0x3d38d056	0.04512056
197	0x3d3f7255	0.046739895
198	0x3ddef858	0.108872116
199	0xbabdcb15	-0.0014480079
200	0xbd65cf66	-0.056105994
201	0xbd3fcdac	-0.046827003
202	0xbdfba438	-0.122871816
203	0xbe01635c	-0.12635559
204	0x3c2f24d0	0.010689929
205	0x3c35498e	0.0110649
206	0xbd844255	-0.06457964
207	0xba518f31	-0.00079940545
208	0xbdb4301c	-0.08798239
209	0x3dc2639d	0.09491656
210	0xbd0df9c3	-0.03466202
211	0xbdad7bc5	-0.08470873
212	0xbcbe9ec5	-0.023269067
213	0xbe25f750	-0.16207623
214	0xbd943a0c	-0.07237634
215	0xbd782171	-0.060578767
216	0x3d0dddd0	0.034635365
217	0x3d37b8f2	0.044854112
218	0x3d5c1430	0.05373019
219	0xbc56abb3	-0.01310246
220	0xbc11ac28	-0.008891143
221	0x3c97f8ec	0.018551312
222	0x3d3ae6ea	0.045630373
223	0xbc461069	-0.012088873
224	0x3d9a1529	0.07523567
225	0xbdbb9fe9	-0.0916136
226	0xbd4553a1	-0.048175458
227	0x3b4182ec	0.0029527498
228	0x3d3f8002	0.046752937
229	0xbcf47182	-0.029839281
230	0x3cec1288	0.02881743
231	0x3d0b8fb5	0.034072597
232	0x3d7395b2	0.059468932
233	0xbbafa8ee	-0.005360714
234	0xbdedf40a	-0.116188124
235	0xbca47ced	-0.0200791
236	0xbcd40055	-0.025879065
237	0xbd949803	-0.072555564
238	0x3d881d8d	0.06646261
239	0xbcc1881a	-0.023624469
240	0x3c904376	0.017610293
241	0x3d0e9f13	0.034819674
242	0xbe12d2bc	-0.14338201
243	0xbc2f7db0	-0.010711119
244	0x3db35f67	0.08758431
245	0xbdaafd9a	-0.08349152
246	0x3d048da0	0.032361627
247	0xbc642462	-0.01392469
248	0x3cd8ab48	0.02644886
249	0xbc3dda5a	-0.011587704
250	0xbd273261	-0.04081953
251	0xbc8e2af1	-0.01735446
252	0x3c7bcfc0	0.015369356
253	0xbd0da0ad	-0.03457706
254	0x3d88dc7a	0.066826776
255	0x3d351cda	0.044216968

adv1.bias f4 [128]
0	0xbd1842c8	-0.037173063
1	0xbda3fae0	-0.08006835
2	0xbd8b0bc4	-0.067893535
3	0x3ca0a1c7	0.019608391
4	0xbdc1d592	-0.094645634
5	0x3d063254	0.03276284
6	0x3cbbf8a8	0.022945717
7	0xbc42dd32	-0.011893557
8	0xbc74eb01	-0.014948607
9	0xbca38afd	-0.019963736
10	0x3ad9f847	0.0016629779
11	0xbdfa9d63	-0.122370504
12	0xbdbe5a9f	-0.09294628
13	0x3d079801	0.033103947
14	0xbd656ffd	-0.056015003
15	0x3c868e53	0.016425287
16	0xbd90d3fd	-0.070716836
17	0x3c89bf50	0.016814858
18	0xbd43c147	-0.047791746
19	0xbddd50e5	-0.10806445
20	0x3d2558b9	0.040367816
21	0xbdc0bb8b	-0.09410771
22	0x3d3302ad	0.043703724
23	0x3cc747c7	0.024326218
24	0xbdbba3c8	-0.09162098
25	0xbd09416a	-0.03350965
26	0xbd6887e1	-0.05677021
27	0xbd9b4502	-0.075815216
28	0xbd9f5480	-0.07779789
29	0xbd9c298d	-0.07625113
30	0xbdf11a06	-0.11772542
31	0xbd9fe94f	-0.07808172
32	0xbdb83f60	-0.08996463
33	0x3d4146cd	0.04718666
34	0xbda20d37	-0.07912677
35	0xbdc16790	-0.09443581
36	0xbc67b943	-0.014143291
37	0x3d78a3e8	0.06070319
38	0xbcd21208	-0.025643364
39	0x3d8b611b	0.06805631
40	0xbd22463b	-0.03961776
41	0x3dac4f4f	0.084135644
42	0x3cf36bf4	0.029714562
43	0x3cbcda5d	0.023053342
44	0xbd686db5	-0.05674525
45	0xbdf1dd73	-0.11809816
46	0xbd5df08a	-0.054184474
47	0xbdaa111d	-0.08304045
48	0xbd609e6e	-0.05483859
49	0x3b795ace	0.0038048509
50	0xbda3fac4	-0.08006814
51	0xbdc694e6	-0.09696369
52	0x3d2a616f	0.041596826
53	0xbc88212b	-0.016617378
54	0xbd26db6d	-0.040736604
55	0x3c392408	0.011300094
56	0x3c28e504	0.010308508
57	0xbd50905e	-0.05091893
58	0x3dc66bd8	0.09688538
59	0xbc10c150	-0.008835152
60	0x3cf980ad	0.030456865
61	0xbd3e8358	-0.046511978
62	0xbd032fd9	-0.032028053
63	0xbd75aaae	-0.059977226
64	0xbd98e6ae	-0.07465874
65	0xbca730d1	-0.02040902
66	0xbcc17bbc	-0.023618571
67	0xbdf25930	-0.118334174
68	0xbd757c06	-0.05993273
69	0xbdb4f1f5	-0.08835212
70	0x3b84317d	0.00403422
71	0x3d3913b2	0.0451848
72	0xbddc1d95	-0.1074783
73	0x3c1d24db	0.009591307
74	0xbdb82764	-0.08991888
75	0xbd0bc87c	-0.034126744
76	0x3da01f6c	0.07818493
77	0x3d4cc899	0.049995992
78	0xbdd31b45	-0.103079356
79	0xbdbc39f3	-0.091907404
80	0x3d56b123	0.052415024
81	0xbd0c70c9	-0.034287248
82	0x3d00d9e3	0.031457793
83	0xbe104a2a	-0.14090791
84	0xbd0ea2c9	-0.034823213
85	0x3d0f92bb	0.035052042
86	0x3cc9599b	0.02457886
87	0xbdd1cd89	-0.10244281
88	0xbd5c78f3	-0.053826284
89	0xbdac7497	-0.08420675
90	0xbd9a29e3	-0.075275205
91	0xbde6ba5f	-0.11266016
92	0x3d305b11	0.043055598
93	0xbd41a2c9	-0.047274385
94	0xbc1643b0	-0.009171411
95	0xbda4ed1d	-0.08053038
96	0xbd96ff08	-0.07372862
97	0xbd136b5c	-0.035991058
98	0x3d2b90a9	0.041886006
99	0xbdfa4b3a	-0.122213796
100	0xbd2b7fa8	-0.04186979
101	0x3d292f9a	0.041305162
102	0x3d106241	0.035249952
103	0xbcfa69dd	-0.030568058
104	0xbc33626a	-0.010948757
105	0x3cbaf66e	0.022822585
106	0x3b49fb92	0.0030820114
107	0xbdab0da4	-0.08352211
108	0x3d97b48b	0.07407483
109	0xbccee149	-0.025253909
110	0xbd8ba75b	-0.0681903
111	0xbda6ba66	-0.081410214
112	0xbde119c6	-0.10991244
113	0x3d1771c0	0.036973715
114	0xbd76ba17	-0.060236063
115	0x3d95cbd7	0.0731427
116	0x3c4f7f25	0.012664591
117	0xbd7f1231	-0.062273208
118	0xbd354213	-0.044252466
119	0x3c883d34	0.016630746
120	0xbddfe855	-0.10932986
121	0x3c91ebae	0.017812576
122	0xbd99d2dc	-0.07510921
123	0x3d8dcf95	0.06924359
124	0x3af581db	0.0018730717
125	0xbd9bc1ab	-0.076052986
126	0xbd86114e	-0.06546269
127	0xbd34a9a0	-0.04410708
