TDQN/MicroGrid/TDQN/model/actor_model.ckpt (torch, 95812 bytes, 11 tensors)

lstm.weight_ih_l0 f4 [96, 1]
000000 ee 11 25 be ee ce 1e be 8c fc 1f be 88 f3 46 3e
       -0.16120121 -0.15508625 -0.15623683 0.19428837
000010 7e 16 8c bd f0 29 8b bc a0 e6 c9 3b 30 d3 59 3d
       -0.068402275 -0.01698777 0.006161526 0.05317992
000020 d6 cb b5 bd 10 52 d3 3c a7 2e e1 bd 38 d4 a9 3d
       -0.08876769 0.025795966 -0.10995226 0.08292431
000030 4c af cd 3d d8 e7 02 3e ba f9 8a bd 2c 22 ae 3d
       0.10043201 0.12783754 -0.06785913 0.085026115
000040 0f 91 df bd 60 d3 a4 bc 40 1f f6 3d 84 12 1d 3e
       -0.109163396 -0.020120323 0.12017679 0.15339094
000050 bd 59 e9 bd eb 1e eb bd 44 43 83 3d 78 4e f9 bc
       -0.11394069 -0.114805065 0.06409314 -0.030432925
000060 98 7f 7c 3d c0 5c 1a 3b a4 86 1d bd ec 08 0d 3e
       0.06164512 0.0023553818 -0.03845848 0.13772935
000070 74 fa 23 3e dc 4f c6 bd 0a 11 50 3e f5 21 f3 bd
       0.16013509 -0.09683201 0.20319 -0.11871711
000080 d0 e4 cd bd 32 48 0c 3e 82 7d a1 bd c0 86 b8 3d
       -0.10053408 0.13699415 -0.07885267 0.090100765
000090 78 b4 f4 3c 24 ad e1 3d a4 42 27 be 3a 75 86 bd
       0.02987121 0.11019352 -0.16334015 -0.06565328
0000a0 a7 6b 1a be 88 fb 52 3d 60 9a cc 3c 46 c7 16 be
       -0.15080129 0.05150941 0.024975955 -0.14724454
0000b0 80 cc c4 ba 88 6f 9b bd 21 f6 d0 bd 60 50 e1 3d
       -0.0015014559 -0.07589632 -0.10203195 0.110016584
0000c0 ac 99 29 bd 35 01 4b be 40 9c d2 3d 63 75 b5 bd
       -0.04140632 -0.19824679 0.102837086 -0.0886028
0000d0 cc 0f b2 3d 4d cc d7 bd b0 64 4a 3e 84 02 4b bd
       0.08694419 -0.10537014 0.19764972 -0.049562946
0000e0 ea 08 0f 3e 58 57 90 3d 54 99 17 3e 28 66 82 bc
       0.13968244 0.070479095 0.14804584 -0.015917853
0000f0 8a 0c d2 bd 90 58 9d bd 2c 9a fd 3d 18 83 42 3e
       -0.10256298 -0.076829076 0.123829216 0.18995321
000100 48 24 d1 bc d0 b8 1c 3e 6c 35 86 bd 08 86 c9 3d
       -0.025529996 0.15304875 -0.06553158 0.098400176
000110 cc ed 05 bd 34 2e 44 be 86 6f 14 3e ea 1a 2d be
       -0.032697484 -0.1915825 0.14495668 -0.16904798
000120 a4 70 2f be 4e e2 06 be a0 c2 ab bb ac 76 cb 3d
       -0.17132813 -0.13172266 -0.005241707 0.09934744
000130 34 e0 78 bd 12 bd 4d be 58 45 2e 3d b8 85 48 3e
       -0.06076069 -0.20091656 0.0425466 0.1958226
000140 f8 6b 4d 3d 78 d8 25 3d 7e 8d 1a 3e ef d2 1f be
       0.050151795 0.040489644 0.15093037 -0.15607809
000150 2e 1c 2e 3e 30 10 5d 3c 06 2d 46 3e f5 62 b4 bd
       0.17002937 0.013492629 0.19353113 -0.08807937
000160 be 81 0b be 00 cd 93 bc 16 bd b5 bd 46 84 c9 bd
       -0.13623711 -0.018042088 -0.08873956 -0.09839682
000170 40 eb b7 bb ae bf 8a bd 16 12 10 3e 98 c7 c6 3c
       -0.005612761 -0.06774841 0.14069399 0.024265096

lstm.weight_hh_l0 f4 [96, 24]
000000 18 dd ea 3d 42 8e 07 3e a4 a8 f6 3d dc 0c 0f 3e
       0.114679515 0.13237861 0.120438844 0.13969749
000010 f8 d8 89 bd 48 e4 29 be 94 bd 67 bd b8 13 29 3e
       -0.06730837 -0.16590989 -0.05657728 0.16511428
000020 7c ec a9 3d 25 f2 d5 bd 81 d9 2c be bc 76 b6 3d
       0.08297059 -0.10446576 -0.16879846 0.089093655
000030 f4 5a f9 3d 3c c9 a9 3d 13 08 fc bd 25 a9 06 be
       0.12175551 0.082903355 -0.123062275 -0.13150461
000040 cd 56 ea bd 78 77 b7 3d c0 d8 13 be 9c e7 3b 3e
       -0.11442337 0.08958334 -0.14438152 0.1835007
000050 4a 9d 07 3e 60 44 8a 3b a8 26 89 bd de 37 33 3e
       0.13243595 0.0042195767 -0.06696826 0.1750178
000060 ec 8f 03 3d 30 d1 44 3d c4 01 d8 3d 94 cc f0 3d
       0.032119676 0.04805106 0.10547212 0.1175777
000070 5c 20 ed 3d 54 7c e6 3d bb a9 22 be 12 c3 20 3e
       0.11578438 0.112541825 -0.1588506 0.15699413
000080 04 6f c3 3d eb b6 3e be 3e 92 91 bd a8 78 f4 3c
       0.09542659 -0.18624465 -0.071079716 0.02984269
000090 2a 56 0d 3e 10 49 3d bd ca ad 47 3e 54 50 dc 3d
       0.138024 -0.046212256 0.19499889 0.10757509
0000a0 1c 1b da 3d b0 85 39 3d 14 84 22 3d 94 bc 30 be
       0.10649702 0.04529351 0.03967674 -0.17259437
0000b0 ec dc 2b 3e 62 9e 3a 3e 04 76 3b 3d 18 9d 51 3d
       0.16783494 0.18224481 0.045766845 0.051175207
0000c0 de bc 43 3e 38 59 16 3d 00 75 05 3e bf 1d ca bd
       0.19115016 0.03670618 0.13032913 -0.09868955
0000d0 0c a0 96 bd f0 42 79 3c a9 02 36 be f0 ab 04 be
       -0.07354745 0.015213713 -0.17774452 -0.12956214
0000e0 24 06 d2 3d 9c 72 c0 3d c0 5e 07 3e fc bb f0 3d
       0.102550775 0.0939686 0.13219738 0.11754605
0000f0 18 9c 47 3d 88 f2 4d 3e 6e 3c 01 3e 70 76 c7 3c
       0.048732847 0.2011205 0.12620708 0.024348468
000100 b8 bb 9d 3d 30 56 ca 3c e4 5d 08 3e 2c 48 55 bd
       0.0770182 0.0246993 0.13317066 -0.05207078
000110 81 01 f7 bd 06 0f 46 be 04 5b 0a bd d2 f9 3c 3e
       -0.12060834 -0.19341668 -0.033778206 0.18454674
000120 44 e5 9c 3d 40 04 bd 3b 5e e2 2c 3e 82 ed 10 be
       0.076609164 0.005768329 0.16883227 -0.14153102
000130 f9 34 f5 bd 24 ea 11 3e a0 5c 76 bd d8 84 28 bd
       -0.11972994 0.14249474 -0.060146928 -0.041142315
000140 22 b0 4c 3e 62 6d 06 be 08 54 81 3d 98 22 c6 3c
       0.19989064 -0.13127664 0.06314856 0.024186417
000150 1b b3 3d be 88 95 20 3e f4 1c 2b be 1e 26 af bd
       -0.18525355 0.15682042 -0.16710263 -0.08552192
000160 c0 ae 41 3c cf ac b0 bd ac f9 08 3d 6f 2e 4d be
       0.011821449 -0.086267106 0.03344123 -0.20037244
000170 2e 45 2c 3e 86 88 28 be f3 1a fe bd e2 36 4c be
       0.16823265 -0.1645833 -0.12407484 -0.19942811
000180 9c dc 65 bd 56 c7 3d 3e 18 01 ec 3d a5 65 48 be
       -0.056118593 0.18533072 0.11523646 -0.19570024
000190 74 09 04 be b0 2e 03 3e b0 a5 18 be 71 ce 3b be
       -0.12894231 0.12810779 -0.14906955 -0.1834047
0001a0 8c 34 ea 3d fd 46 d5 bd e6 13 ce bd 46 5e 29 be
       0.11435804 -0.104139306 -0.10062389 -0.16539869
0001b0 23 7d 33 be 89 35 e3 bd 6d c8 e4 bd a0 55 67 3d
       -0.17528205 -0.110941954 -0.11171041 0.056478143
0001c0 38 d9 e9 3d 54 44 6f bd f8 80 06 3e 4c 51 d9 bd
       0.11418384 -0.058414772 0.13135135 -0.10611209
0001d0 70 c4 12 bc 75 f5 e1 bd 70 6b ed 3c 38 2a 06 3e
       -0.008957967 -0.11033145 0.028981894 0.13102043
0001e0 20 aa e3 3c ea ed 3a be b0 4a 3e bd 54 04 0c 3e
       0.027791083 -0.1825482 -0.046457946 0.13673526
0001f0 e4 ee 3e 3e c8 b9 d6 bc 60 53 fb 3b 98 96 c4 3c
       0.18645817 -0.026211634 0.007669851 0.02399759
000200 a0 6f 02 3c b8 31 2a 3e e2 db fa bd 78 bb e2 bd
       0.007961184 0.16620529 -0.122489706 -0.11070913
000210 72 ac f2 bd 40 20 85 3d 4d ba a9 bd ac 2b ec 3d
       -0.118492976 0.06500292 -0.08287487 0.11531767
000220 07 30 a2 bd 77 8c b6 bd 3a 70 45 be 02 9f 13 3e
       -0.07919317 -0.0891351 -0.19281092 0.14416125
000230 00 65 3a 3e fc 27 4f bd b3 df 33 be 50 d0 bf 3c
       0.18202591 -0.05057524 -0.17565803 0.02341476
000240 5c 2f 08 3e 20 73 ae 3b 7c 48 b8 3d 38 26 8e 3c
       0.13299316 0.0053237826 0.089982 0.017352208
000250 38 4c b9 bc 98 b9 35 3e 18 82 87 3c 00 b4 de 3a
       -0.022619352 0.1774658 0.016541526 0.00169909
000260 85 7a a7 bd 1d fe c3 bd a2 82 1c 3e 8a 4f 9e bd
       -0.081776656 -0.09569953 0.15284207 -0.077300146
000270 6c f5 fa bd 60 50 6d 3d d8 e4 5f bd 18 a4 3f bd
       -0.12253842 0.05793798 -0.0546616 -0.04678735
000280 3d 23 ed bd a0 39 a9 bc ea 39 1c 3e 28 12 13 be
       -0.11578987 -0.02065736 0.15256467 -0.14362395
000290 24 e3 77 bd 90 87 08 bd 18 37 31 3e bc df 0c 3e
       -0.060519353 -0.033332407 0.17306173 0.13757223
0002a0 50 c4 ae 3d 18 67 1a 3e 70 6e f8 bc d4 e2 9f 3d
       0.085335374 0.1507839 -0.030326098 0.07806936
0002b0 4c ed 07 3e a0 71 20 bd 20 27 59 bd da e5 8f bd
       0.13274115 -0.03917086 -0.053015828 -0.070262626
0002c0 c0 39 c6 3d c0 2a 0a 3e 06 d6 4d be 77 c6 f4 bd
       0.09678984 0.1349287 -0.20101175 -0.11951917
0002d0 98 14 15 3e b2 49 18 3e 80 68 98 3d 7f e8 c0 bd
       0.14558637 0.14871863 0.07441807 -0.09419345
0002e0 5e 5d 14 be 30 58 68 3d 78 57 68 3d c0 2d 52 bd
       -0.14488742 0.056724727 0.05672404 -0.05131316
0002f0 c4 60 24 3e 98 ac 87 3d 50 d2 2c 3e 5c 69 09 3e
       0.16052538 0.066247165 0.16877103 0.13419098
000300 60 17 76 bd be d7 25 3e 28 2a 5f 3d 48 d2 37 3e
       -0.060080886 0.1619558 0.054483563 0.1795131
000310 d9 46 0c be 94 ec 2f 3e 8a b6 36 be c0 cf ff 3b
       -0.13698901 0.17180091 -0.1784307 0.007806748
000320 00 7f c1 3d 51 69 f2 bd 38 9d 33 be d3 9a 13 be
       0.094480515 -0.11836494 -0.17540443 -0.1441453
000330 f0 22 00 3d 13 cc b2 bd 3b 70 22 be 1c b7 29 3e
       0.03128332 -0.0873033 -0.15863125 0.16573757
000340 53 b3 4a be 34 21 89 3d 38 f8 3b 3d f9 fa 4c be
       -0.1979497 0.06695786 0.045891017 -0.20017613
000350 c4 de 17 3d b0 98 49 3d dc 6a 39 be 26 21 34 3e
       0.03707768 0.04921788 -0.1810717 0.1759077
000360 3c 7f b2 3d 70 cd 0a be f0 b3 23 3e 24 c2 3f 3e
       0.08715674 -0.1355493 0.1598661 0.18726403
000370 48 c7 37 bd f0 2f 20 3c 78 bb 9a bd fc 55 4a 3e
       -0.044867784 0.009777054 -0.07555288 0.19759363
000380 30 02 00 bc 60 93 2a be d2 c8 4c 3e 38 8e e7 3c
       -0.007813022 -0.16657782 0.19998482 0.028266057
000390 14 a7 d1 bd 9e aa 37 3e dc db 5f bd f8 f7 97 bc
       -0.10236946 0.17936179 -0.054653034 -0.018550858
0003a0 2a c6 29 3e 00 6e 06 3b f8 60 fb 3d 68 05 57 3d
       0.165795 0.0020512342 0.12274355 0.05249539
0003b0 74 95 3a 3d 6f 29 f7 bd e0 e5 7d bd 2c 44 00 3e
       0.045552686 -0.1206845 -0.061986804 0.12526006
0003c0 e8 22 d2 3d 56 75 3f 3e f4 ff f6 3d 64 54 18 3e
       0.10260564 0.18697104 0.12060538 0.14875942
0003d0 c4 fe af 3d dc 30 21 be 00 e4 f9 3c ca b2 2f be
       0.085935146 -0.15741295 0.030504227 -0.17158046
0003e0 b8 8b 01 be d8 17 44 3d 75 cd 44 be f0 b9 6d bd
       -0.12650955 0.0478743 -0.19219 -0.058038652
0003f0 f8 a5 29 3e d4 da 2a bd 38 1c 2f 3e c8 be 6b 3d
       0.16567218 -0.041712597 0.17100608 0.05755499

lstm.bias_ih_l0 f4 [96]
000000 00 b9 c5 ba f0 2a 4c bc 60 9b 04 be f0 67 49 bc
       -0.0015085042 -0.012461409 -0.12949896 -0.012292847
000010 c0 27 5f 3d 30 63 86 3d f8 4f c2 3d e0 b7 d7 3d
       0.054481268 0.06561887 0.09487909 0.10533118
000020 ba 0f 01 3e 54 92 c8 3d 78 0f 77 3d 58 07 e9 3d
       0.12603655 0.09793535 0.060317487 0.11378354
000030 56 16 44 3e 60 47 d5 3d b4 5d 29 bd fc bb d0 3d
       0.19149145 0.10414004 -0.041349128 0.10192105
000040 58 58 ca 3c 8b d2 34 be 28 3d 8c 3d 38 55 d5 3d
       0.024700329 -0.17658441 0.06847602 0.10416645
000050 9a 26 81 bd 60 e6 f8 3b 50 b6 8a 3c 9c fd 17 3e
       -0.06306191 0.007595822 0.016932636 0.14842838
000060 22 9e 09 3e d0 00 67 bc a0 1f e0 bb a2 86 17 3e
       0.13439229 -0.014099315 -0.0068397075 0.14797452
000070 02 22 85 bd 78 88 de 3d f2 34 31 be d0 c7 d9 3c
       -0.06500627 0.10865873 -0.17305353 0.026584536
000080 08 c4 8a bd fe fd 4b be f8 28 2e bd f0 3e b9 bc
       -0.06775671 -0.19921109 -0.04251954 -0.022613019
000090 7a c7 4b 3e bb ab b7 bd 98 e9 f6 bd 44 e1 0e 3e
       0.19900313 -0.08968302 -0.12056273 0.1395312
0000a0 d4 28 ba 3d 7c 40 aa 3d 7d 2a f9 bd a2 44 ee bd
       0.090898186 0.08313081 -0.12166307 -0.116341844
0000b0 4c b6 80 3d 3e 78 2c 3e 70 8d 86 bd 68 41 9d bc
       0.0628477 0.16842744 -0.06569946 -0.019196227
0000c0 c0 d7 10 bc e4 9b b2 3d a8 89 bb 3d e8 57 4e 3d
       -0.008840501 0.0872114 0.09157115 0.050376803
0000d0 99 17 4d be 69 ff 44 be 72 15 08 be 48 68 d0 bc
       -0.20028533 -0.19238056 -0.1328943 -0.02544035
0000e0 e8 f3 cc bd 86 a8 43 3e e8 b0 96 3c e6 97 10 be
       -0.10007459 0.19107255 0.018394902 -0.14120445
0000f0 d0 d5 55 3d 30 09 79 3d 04 0b 02 be 30 2a 47 bd
       0.05220586 0.060799778 -0.12699515 -0.048624218
000100 60 b3 4d 3e c4 ce 92 bd e8 92 73 bd 84 cd 26 be
       0.20087957 -0.07168344 -0.059466273 -0.16289335
000110 76 93 23 3e 3f a1 d6 bd bc ef cf 3d 07 20 45 be
       0.1597422 -0.10479974 0.101531476 -0.19250499
000120 13 ab 4d be 0a 66 2f 3e a0 fb 7e 3d 42 d3 3f be
       -0.20084791 0.17128769 0.062251687 -0.18732932
000130 c0 4e 19 3d a3 9f f7 bd 18 8f cf 3c 40 f6 71 3d
       0.037428617 -0.12090995 0.025336787 0.059072733
000140 20 2f 53 bd 34 96 28 3e 9e da 06 3e d1 9b 24 be
       -0.051558614 0.16463548 0.13169333 -0.16075064
000150 36 8b 36 3e d8 10 5b bd 92 7f a7 bd dc 37 2d 3e
       0.17826542 -0.05348286 -0.08178629 0.1691584
000160 1a 21 17 3e 14 23 a1 bd 68 52 eb 3d 68 e3 f4 3d
       0.14758721 -0.07868019 0.11490327 0.11957437
000170 08 cc 66 3d f8 39 a4 3d 80 26 c5 bc 96 48 4c 3e
       0.056346923 0.08018869 -0.02406621 0.19949564

lstm.bias_hh_l0 f4 [96]
000000 4c d3 4b 3e 00 e9 b1 ba f8 e9 4c 3e 3b 26 c1 bd
       0.19904822 -0.0013573468 0.20011127 -0.0943112
000010 80 fb 8a bb c4 54 10 3d 40 b1 4c bc c4 6b 78 bd
       -0.004241407 0.03523709 -0.012493432 -0.06064965
000020 6d a7 20 be 6e e9 1e 3e e1 55 29 be d5 6e bd bd
       -0.15688868 0.15518734 -0.16536666 -0.09249655
000030 34 b1 a4 3d f8 b7 98 3d 35 04 f7 bd b8 0a 9b 3c
       0.08041611 0.07456964 -0.12061349 0.01892601
000040 c0 52 09 bd 2c 6d d9 3d f8 32 af 3c 58 41 c2 3d
       -0.033526182 0.10616526 0.021386608 0.094851196
000050 80 57 0a 3e d8 e8 f9 3d 94 38 33 3d b0 64 3e be
       0.13509941 0.122026145 0.04375513 -0.18593097
000060 3c 65 2a bd 8c d4 0f 3e 5b 7d 0e be 77 b8 ad bd
       -0.04160045 0.14045924 -0.13915007 -0.084824495
000070 48 e3 0b 3e ec 74 4d 3e cc 5c 1b bd 06 63 3d 3e
       0.1366092 0.20064133 -0.037930295 0.18494806
000080 10 18 80 3d cc 7c f8 3d 94 e8 4e 3e 00 9e e5 3d
       0.062545896 0.12133178 0.20205909 0.11211777
000090 98 0b 83 3d a4 10 bd 3d f4 88 d3 3d 90 cc 40 3e
       0.06398696 0.092316896 0.10328856 0.18828034
0000a0 26 37 9c bd b9 84 b1 bd be ef 0b 3e a0 04 3c 3e
       -0.07627706 -0.08667893 0.13665673 0.1836114
0000b0 30 10 f3 3d 3c 46 87 bd 6f 06 d0 bd a0 ab f5 3c
       0.11868322 -0.06605193 -0.10157477 0.029989064
0000c0 cc f0 23 3e e8 19 2d bd 30 e2 a2 3c 4c 1a d2 3d
       0.16009825 -0.042261034 0.019883245 0.10258922
0000d0 7e 6e 3f 3e a8 17 21 3e 88 bb 9a bc 3d 69 d6 bd
       0.18694493 0.1573168 -0.01888825 -0.10469291
0000e0 ec b4 25 be 91 e9 3a be e8 c7 af 3d 48 1e ac bc
       -0.16182297 -0.18253161 0.08583051 -0.021010533
0000f0 de 55 f3 bd fc fb 64 bd b0 73 d4 3d 3a 7b 0f 3e
       -0.11881612 -0.055904374 0.10373628 0.14011851
000100 56 df e9 bd 00 01 76 3d 10 da 0a 3e 00 fc 97 bd
       -0.11419551 0.060059547 0.13559747 -0.07421112
000110 e0 65 e9 3d d8 57 28 3d a8 2a f4 3d d0 35 46 3c
       0.11396384 0.0410994 0.119221985 0.012097791
000120 a0 20 a7 bc a8 d7 e2 3d b0 f0 55 3d d0 c1 60 3d
       -0.020401299 0.110762894 0.05223149 0.054872334
000130 3c 06 39 3e e4 42 94 3d cc de 90 3d 64 d5 e9 3d
       0.18068784 0.07239321 0.07073745 0.11417654
000140 50 19 18 be 04 3a 04 bd f8 46 02 3e a0 f9 17 bd
       -0.14853406 -0.03228189 0.12722385 -0.037103295
000150 10 60 2d bd 02 bd 41 3e 9c 8c 02 bd 22 57 41 be
       -0.04232794 0.18919757 -0.031872377 -0.18880895
000160 00 08 77 bb ea 33 da bd d8 ab b0 3d cc 35 58 bd
       -0.0037693977 -0.10654433 0.086265266 -0.05278568
000170 54 e4 b3 3d 90 33 1d bd 12 09 1e 3e 2f bb 28 be
       0.087837845 -0.038379252 0.15433148 -0.16477655

linear1.weight f4 [128, 27]
000000 18 28 21 3e 1e 77 24 3e 75 00 24 be 88 db 59 3c
       0.15737951 0.16061065 -0.160158 0.013296969
000010 09 c3 e5 bc 50 86 10 be 76 fe a3 bd 3d d6 14 be
       -0.028047102 -0.14113736 -0.08007519 -0.1453485
000020 be 33 d7 bd b2 3d fb bd c2 41 3a 3d 8e 66 d6 3d
       -0.10507916 -0.12267627 0.045472868 0.104687795
000030 ae 32 56 3e 99 a9 58 3d cd ee b0 bd f1 6a b6 bc
       0.2091777 0.052896116 -0.08639298 -0.02226779
000040 2f 1a 0f be e0 8e e9 bc f7 ed 47 bd ed 43 91 3d
       -0.13974832 -0.02851051 -0.048810925 0.07093034
000050 87 78 34 3b ca 50 66 3e f2 be 8d 3d 57 91 af 3d
       0.002753766 0.22491756 0.069211856 0.08572643
000060 94 1d 8b 3d eb d7 ca bd d1 86 bd 3d 38 ce a5 3c
       0.06792751 -0.09904464 0.0925423 0.020239934
000070 19 90 06 bd f8 54 07 3e ca 26 5c 3e d4 1e e9 3d
       -0.032852266 0.13216007 0.21499172 0.11382833
000080 24 97 ab bd f4 eb 33 3d 19 58 e4 bc 48 17 d3 bd
       -0.08378437 0.043926194 -0.02787404 -0.10307175
000090 5e 1c c0 bd ee e6 dc bd a1 40 b9 bd 01 13 4f 3d
       -0.093804106 -0.10786234 -0.0904553 0.050555233
0000a0 4d 7e 11 3e cc 9d 79 3e 89 4a 17 3e b2 28 aa 3c
       0.14208336 0.24376601 0.14774527 0.020771358
0000b0 ff e7 35 bd 0d 49 1d 3d ac 5f ce bd 84 8e a0 3c
       -0.0444107 0.038399745 -0.10076842 0.019599207
0000c0 0a 26 7f bd d9 69 c2 bd 59 2a c1 3d 6d e6 26 bd
       -0.062292136 -0.09492845 0.09431905 -0.040747095
0000d0 d2 45 b3 3d 70 94 a0 3c fe 63 89 3d 30 df e3 3c
       0.087535515 0.01960203 0.06708525 0.027816385
0000e0 a3 b7 0b 3e c0 09 48 3d 58 f0 9f 3c 30 bc 56 3d
       0.1364427 0.048837423 0.019523785 0.052425563
0000f0 b8 4d ac bd 04 7f 61 3d 58 1e 66 3d d0 08 ae 3c
       -0.08413261 0.055052772 0.05618128 0.021244437
000100 18 da 86 3c 8a 8a 05 be 4e fa 34 be 16 78 93 3d
       0.016461417 -0.1304113 -0.17673609 0.07200639
000110 8b 08 11 be 08 c5 d2 bc 6c 4a 73 3d 80 77 34 3b
       -0.14163415 -0.025728717 0.059397146 0.0027537048
000120 a0 d4 b3 3b f9 1c 2b be 55 87 29 3e 68 d5 62 3d
       0.0054879934 -0.16710271 0.16555531 0.0553793
000130 eb d5 92 bd dc b8 54 3d b4 ce 31 bd e8 72 ee bd
       -0.07169708 0.05193411 -0.043410018 -0.116430104
000140 ac 49 f8 bd 30 04 c7 bd 3c bb e0 bd fb 8a 56 3d
       -0.12123427 -0.097175956 -0.10973212 0.052378636
000150 ef 52 08 3c ea da 02 3e 9b d6 49 bd 1b 01 1e 3e
       0.008320554 0.12778822 -0.04927693 0.15430109
000160 51 ad 66 39 c2 be ac 3d ca f4 91 3c cc 52 82 bd
       0.00021999075 0.08434822 0.01781692 -0.063634485
000170 c5 f7 7a 3e 8c b6 c0 bc c4 28 38 bd ab e7 21 3e
       0.24508579 -0.023524545 -0.044960752 0.1581103
000180 b0 e6 8d bd 05 6e cd 3d f6 0d 8f bb a9 a5 58 bd
       -0.06928766 0.1003075 -0.004365678 -0.05289236
000190 32 e0 87 bd b4 94 5d 3e 87 48 eb 3d 3c 1d 51 3d
       -0.06634559 0.21638757 0.11488443 0.05105327
0001a0 e4 89 8b 3c 3f ce bc 3b e6 5e c8 3c db 64 81 3e
       0.017033525 0.005761891 0.024459314 0.2527226
0001b0 67 25 a1 3b b8 c4 29 be 51 dd ff bd b8 e0 38 be
       0.004917789 -0.16578948 -0.12493385 -0.18054473
0001c0 f0 a1 43 be b2 0a da 3d cd 93 30 be 73 71 6a bc
       -0.19104743 0.10646571 -0.17243882 -0.014309275
0001d0 ed 92 fb 3d cc cf 01 3e 83 90 34 bd 00 b1 0e 3e
       0.12283883 0.12676924 -0.04408313 0.13934708
0001e0 6e 6e 14 be 41 07 cd 3d 0d d6 0e 3e 70 6c 15 be
       -0.1449525 0.10011149 0.13948841 -0.14592147
0001f0 71 25 56 bd 4d 57 ee bb 44 d4 69 be 26 d7 2c be
       -0.0522818 -0.0072735907 -0.22834879 -0.16878948
000200 45 7a 1f 3b c9 22 22 be 9f e1 94 3d 3d 03 14 3d
       0.0024334353 -0.15833582 0.07269596 0.0361359
000210 aa cd f5 3d 1d 40 93 bd 4e 3b f4 3c bf 62 a3 bd
       0.12002118 -0.07189963 0.029813435 -0.07977819
000220 73 84 5a 3e 6c 07 74 3e 24 49 8b 3d e9 e8 b2 bc
       0.21339588 0.23830956 0.0680106 -0.021839576
000230 fa f2 8e 3d 0f 0a 88 3c 84 1f 55 3d e8 3e cb 3d
       0.06979938 0.016606359 0.05203201 0.09924108
000240 a2 14 ce bd 7d a0 e7 3d eb 93 b9 bd d4 f7 12 3e
       -0.10062529 0.113099076 -0.09061416 0.14352351
000250 ba 01 2c 3e fb eb 9c 3d 23 10 a0 3d 23 95 2b 3e
       0.16797534 0.07662197 0.07815578 0.1675611
000260 01 57 9e bd aa 33 95 3d 6e 9b 00 3e 55 68 4b bd
       -0.077314384 0.07285245 0.12559292 -0.049660046
000270 65 8b 83 3d 82 e9 9b bd 03 f2 98 bd 9a 31 fe bd
       0.06423072 -0.076128975 -0.07468035 -0.124118045
000280 58 29 4b 3e b0 fa 09 3e c2 b4 59 be a3 08 33 bd
       0.1983999 0.13474536 -0.2126036 -0.04370941
000290 ee d7 34 3e 97 72 ff bd 81 d4 a6 bd 95 2f 0d 3e
       0.17660496 -0.12473028 -0.08146001 0.13787682
0002a0 5d 0e 0d be 03 74 ce 3d 56 9e 40 be e7 8e b1 3d
       -0.1377501 0.10080721 -0.188104 0.086698346
0002b0 1b 95 ff 3d 1b db 64 3d c3 9c 04 3e 2d cc 51 3e
       0.124796115 0.055873018 0.12950425 0.20488043
0002c0 57 b9 fb 3d 59 40 ff bd 67 73 0c 3e b8 bd 00 3e
       0.1229121 -0.12463445 0.13715898 0.12572372
0002d0 b6 92 d5 bd 43 3d 1b bd cd 2b 11 bd 9a e5 ab bd
       -0.104283735 -0.03790022 -0.035442162 -0.083934024
0002e0 99 53 86 bd d6 53 1d be e3 26 18 be 4d c1 24 3e
       -0.06558914 -0.15364012 -0.14858584 0.16089363
0002f0 f0 1f 86 bc 3a 7a d1 3c 34 23 69 bc d6 f0 86 bc
       -0.01637265 0.025570977 -0.0142295845 -0.016472261
000300 41 a1 1d 3e 29 11 af bd e7 f2 be 3d 87 5c fb ba
       0.15393545 -0.08548195 0.09323674 -0.0019177356
000310 0c 85 b7 3d da 2d a7 3d c3 0d cc bd de 87 31 3b
       0.089609236 0.08163042 -0.09963562 0.002708904
000320 df fb 2d 3e 11 44 ba 3d 2b 12 5f bd 8e ef 06 3e
       0.16990612 0.09095014 -0.054460686 0.1317732
000330 63 1d 27 3e 13 c3 3d 3e b5 19 14 3c da 23 c5 3d
       0.16319804 0.18531446 0.009039332 0.09625979
000340 93 fb 30 be 64 b9 10 be d0 73 a6 bd 03 ec 88 bc
       -0.17283468 -0.14133221 -0.08127558 -0.016714102
000350 c4 d5 84 bd b8 5b f2 3d 5c 4c 1f 3e 9b ff fd 3c
       -0.06486085 0.118339 0.15556473 0.031005671
000360 19 a7 ec 3d 1d 5d 9a bc a8 ae 88 bd d9 36 06 bd
       0.11555309 -0.018843228 -0.06673938 -0.03276715
000370 cc 0e 2e be 05 27 ad bd 2e 80 e0 bd 42 02 d8 3d
       -0.16997832 -0.08454708 -0.10961948 0.10547306
000380 8d f4 00 bd 81 08 4a 3c 26 5b 46 3d 88 c8 07 be
       -0.03148322 0.012331129 0.04842677 -0.1326009
000390 96 d1 fb bd 59 51 0d bd f6 80 24 3e 5f 3c 70 3d
       -0.12295835 -0.034501407 0.1606482 0.058651324
0003a0 03 37 be 3c 81 db f4 bd 43 29 31 bd 80 68 98 bc
       0.023219591 -0.119559295 -0.04325224 -0.018604517
0003b0 77 39 8e 3d 76 96 ea 3d 34 60 2b bc 91 ff 03 3d
       0.06944554 0.114544794 -0.010459948 0.03222615
0003c0 95 e0 a0 3d 3d 50 a1 bd bf 72 62 be bc 01 2b bd
       0.078553356 -0.07876632 -0.22114085 -0.0417497
0003d0 a9 59 1f 3e 62 b7 de 3d e4 cb 30 bd 77 c9 26 be
       0.15561546 0.10874821 -0.043163195 -0.1628779
0003e0 90 d3 18 bc c6 50 a4 3d 76 df 8a 3d eb 44 24 3e
       -0.009327784 0.08023219 0.06780903 0.16041915
0003f0 00 2c a4 3a 8f 78 3b be 80 be 38 3c 62 46 ec 3d
       0.001252532 -0.18307708 0.0112758875 0.11536862

linear1.bias f4 [128]
000000 f3 5e 27 bc 37 ad 34 3e 19 30 26 3e 66 f8 ca bd
       -0.010215509 0.17644201 0.16229285 -0.099106595
000010 b8 96 d3 3d b9 d5 b7 bc a4 0b 9f bd a6 e5 77 3d
       0.10331482 -0.022440778 -0.07765892 0.060521744
000020 0f 66 29 bd 00 b5 27 ba 26 ee 1d bd 40 e0 3c 3c
       -0.041357096 -0.00063975155 -0.038557194 0.011528075
000030 f7 fa a8 bc 74 3f 39 3e 80 be 25 3d 98 28 28 be
       -0.020627482 0.18090612 0.040464878 -0.16421735
000040 e9 c4 4a be d1 a5 6c 3e 64 a7 14 be 45 9b d8 bd
       -0.19801678 0.23110129 -0.1451698 -0.1057649
000050 7f 4a 0a 3e c8 90 03 3d ad ec 27 3e 45 fe 19 bd
       0.1350498 0.032120496 0.16398878 -0.037596006
000060 60 89 da 3d b0 da 02 bd 45 9d 05 3e a9 b3 57 bc
       0.106707335 -0.031946838 0.13048275 -0.013165393
000070 96 4c 91 3d 24 3e 92 3d 94 ce d5 3d ca 47 a2 bd
       0.07094686 0.07140759 0.10439792 -0.07923849
000080 d0 2b 48 3c 05 0e 2e be b4 43 7f bd a6 5b 18 be
       0.012217477 -0.16997536 -0.062320426 -0.14878711
000090 9f d1 04 3e 54 5d b9 3d 2b e8 26 be 7f d4 b4 3d
       0.12970589 0.09051004 -0.16299503 0.08829593
0000a0 f7 e1 25 3e b6 f8 aa bc 00 23 dc ba 04 1d 2a 3e
       0.1619948 -0.020870548 -0.0016795099 0.16612631
0000b0 08 f1 df bd b6 c7 f8 bd c8 78 10 3e cd 70 17 be
       -0.10934645 -0.12147467 0.14108574 -0.14789124
0000c0 ae ab 46 3c 41 b0 c7 3c be c3 0f 3c 67 51 19 3e
       0.012125893 0.024376037 0.008774696 0.14972459
0000d0 c2 f6 02 be 2a 78 4a bd 26 8e 27 be 8d 3c 02 3d
       -0.12789443 -0.049431004 -0.16362819 0.031796027
0000e0 36 36 0d be 2a e0 a3 bd 69 b0 a6 3d 63 25 89 3d
       -0.13790211 -0.0800174 0.08139116 0.06696584
0000f0 19 68 86 3d 96 67 fe 3d b0 02 37 be de 3a 12 3e
       0.06562824 0.12422101 -0.17872119 0.14280269
000100 77 b0 91 3d a8 b1 c2 3d f9 d9 0a be 9c f5 dc 3d
       0.07113736 0.095065415 -0.13559712 0.10789034
000110 44 87 94 3c 4e 1b 18 be 09 e0 87 3d da 89 33 3b
       0.018130906 -0.14854166 0.06634528 0.0027395398
000120 95 16 35 be 96 46 33 3d cb 03 17 3e ce 5f 4a 3d
       -0.17684396 0.043768488 0.1474754 0.049407773
000130 dc 3d ab bd c2 5d 22 be a0 c3 c1 3c d6 b0 bf 3c
       -0.08361408 -0.15856078 0.023652852 0.023399752
000140 b7 6a af bd 9c 0e 6b 3d 8a 95 6e bc e3 22 22 3e
       -0.08565276 0.05738698 -0.01456202 0.1583362
000150 f3 da cf bc c7 df 6b bc 29 2e 17 3d ef d8 4e be
       -0.025372958 -0.014396614 0.036909256 -0.20199941
000160 70 d6 a6 3b 9d 52 04 3d e9 24 45 3d 3c 89 06 be
       0.005091481 0.03230535 0.048130903 -0.13138288
000170 8c fa 1e 3e 7e f4 71 3d 4c 6e 0d be 9e 8a 85 bd
       0.15525264 0.059071057 -0.13811606 -0.0652058
000180 b6 ce fd bc c0 cd 1d be 3e ff 39 3d 45 3a b4 bd
       -0.030982357 -0.15410519 0.045409434 -0.088001765
000190 08 16 5c bd bc 90 1b be 0b 29 c3 bd e6 bb 11 be
       -0.053731948 -0.1519193 -0.09529313 -0.14231834
0001a0 68 9a a6 bc 60 c9 1d bc f7 99 34 be 4d cc 73 3d
       -0.020337299 -0.009630531 -0.17636858 0.05952101
0001b0 13 43 2a 3e 55 9f 1e be 44 f3 90 bc b1 cb ab bd
       0.1662715 -0.15490468 -0.017694123 -0.083884604
0001c0 7f f9 b3 3c 30 ac 19 be 2a 20 24 3e 76 5c 09 be
       0.021969555 -0.1500709 0.16027895 -0.13414177
0001d0 64 29 85 3d 2d 40 c2 bd d7 1c f3 3d 74 71 0d be
       0.06502035 -0.09484897 0.11870735 -0.1381281
0001e0 c9 2f e6 3c b6 ca f0 3d da 8b 94 3c ae 4a 8a 3d
       0.028098958 0.11757414 0.018133093 0.06752525
0001f0 ce 1d e8 3d fd 6c ea bd de ea a9 bc 7a a8 aa 3d
       0.1133381 -0.11446569 -0.020741876 0.083329156

linear2.weight f4 [128, 128]
000000 c0 cc 56 3b 98 df d3 3c f4 1f d6 bc 00 ab 24 3b
       0.003277585 0.025863454 -0.026138283 0.0025126338
000010 6b a7 91 3d 8c 9e be bc 99 26 93 3d 18 14 ae bd
       0.071120106 -0.02326896 0.07185096 -0.08499926
000020 70 f7 d3 bc ec 26 ea 3c 70 52 80 bc 45 50 a1 3d
       -0.025874823 0.028583013 -0.01566431 0.07876638
000030 38 c3 49 bc 3a dd 07 3d e7 45 b0 3d f0 ce 3b bc
       -0.01231461 0.033169962 0.08607083 -0.011462912
000040 48 88 02 bc c5 46 97 3d 2e af 22 3d 14 b9 9b bd
       -0.007967062 0.07386545 0.039717846 -0.0760366
000050 a4 f5 57 bd c0 7d a5 bc b5 9a 9a 3d e0 73 e2 3b
       -0.052724496 -0.020201564 0.07549039 0.006910786
000060 c0 94 6e bc 80 08 26 bc 51 e2 33 bd 60 f7 df 3b
       -0.014561832 -0.0101338625 -0.043917004 0.0068349093
000070 ca 59 71 3d 38 86 8e 3c a0 5e 58 3c db 70 a1 bd
       0.05892352 0.017397985 0.013206154 -0.078828536
000080 6d b0 1f bd c4 b7 eb bc cf bf 92 3d 5b 5a 8e 3d
       -0.038986612 -0.02877415 0.07165491 0.06950828
000090 c0 79 b3 bb ae 93 7e bd 5e 1b 0b 3d 57 f9 16 bd
       -0.00547716 -0.062152557 0.033961646 -0.036858883
0000a0 0e 30 72 3d 14 7b 05 3d e0 ee bc bc 58 9d 26 bc
       0.05912786 0.03258808 -0.023063123 -0.01016935
0000b0 f8 9f d5 3c 1b 58 8a 3d 18 f9 91 bd 7f b4 95 bd
       0.026077256 0.06755086 -0.07127589 -0.073098175
0000c0 00 46 17 3b f0 ea 4c bc 4e c4 9d bd 54 34 7a bd
       0.0023082495 -0.012507185 -0.07703458 -0.06108506
0000d0 12 3f 2f 3d 50 ec b4 bd f8 25 07 3d d3 aa 56 bd
       0.042784758 -0.088341355 0.032995194 -0.052409004
0000e0 5e 03 44 bd d8 1d 9c bd b8 4a 57 3c 00 05 9d bb
       -0.047854774 -0.0762288 0.013140373 -0.004791856
0000f0 ed fe 32 bd 12 45 74 3d ac 3b 91 3c d0 8e 1e 3c
       -0.043700147 0.059636183 0.01772865 0.009677604
000100 f8 59 d1 3c b7 22 48 bd 23 1e 51 bd 04 33 4b bd
       0.025555596 -0.04886123 -0.05105413 -0.0496092
000110 7c f8 10 3d c0 fd bb 3b 6c e1 0f 3d 2d c9 83 bd
       0.035393223 0.0057370365 0.03512709 -0.064348556
000120 e6 81 1a 3d 5e 16 4c 3d b3 62 a0 3d 3d c0 5e bd
       0.037721537 0.04982602 0.078313254 -0.05438255
000130 73 c4 86 3d 59 b0 06 bd a2 9e 3f 3d b6 fe e8 bc
       0.065804385 -0.032883022 0.046782143 -0.028441768
000140 c0 9d b3 ba de 66 14 3d cb 75 49 bd 88 fe 1f 3c
       -0.0013703629 0.036230914 -0.0491846 0.009765275
000150 01 0a 1b bd e6 d9 77 3d 60 8b 4b bb 6e c8 28 3d
       -0.037851337 0.06051054 -0.0031058416 0.04120677
000160 50 ed a7 bd 72 69 14 3d 92 7d 88 bd f7 93 2c bd
       -0.08199561 0.036233373 -0.06664576 -0.042133298
000170 a5 5f b1 bd 5e 1b 6e 3d 60 75 68 3b d0 f2 e9 3c
       -0.08660821 0.058131568 0.0035470352 0.028558165
000180 46 c9 50 3d af fd 2b bd be 2d 86 bd 7a 10 57 3d
       0.0509732 -0.04198998 -0.065516934 0.052505948
000190 b7 11 98 bd bf 71 9c 3d ec 77 ad bd ce e5 16 bd
       -0.07425254 0.07638883 -0.08470139 -0.036840253
0001a0 d0 79 a1 bb 7e e8 47 3d 08 eb c9 bc 43 4b af 3d
       -0.0049278513 0.048805706 -0.024648204 0.08559277
0001b0 88 23 8b bd 5a 2a 47 bd 32 49 90 bd 70 68 01 bc
       -0.067938864 -0.048624374 -0.07045211 -0.007898435
0001c0 71 e7 b0 bd af b9 17 bd 63 27 1a bd 62 3e 27 3d
       -0.08637894 -0.037042316 -0.03763522 0.040830977
0001d0 00 10 bc bb e0 bb 6b bd 13 7b 9c 3d 9a 85 89 bd
       -0.005739212 -0.05755222 0.07640662 -0.067149356
0001e0 0a 75 81 bd 32 f0 9d bd 40 e5 32 bd db 83 97 bd
       -0.063211516 -0.07711829 -0.04367566 -0.07398196
0001f0 44 38 8a 3c 2c 63 00 3d 60 20 74 3b 8e 92 2f 3d
       0.016872533 0.031344578 0.0037250742 0.042864375
000200 18 6d a0 3d 24 59 4a 3d a9 6d af 3d 00 b1 36 bd
       0.07833308 0.049401417 0.08565838 -0.044602394
000210 ec c9 4a bc 50 b3 44 3c f5 b6 e3 bd e8 47 35 bc
       -0.0123772435 0.012005642 -0.11118881 -0.011064507
000220 13 49 42 bd e0 a6 b2 3b 8c 70 8a 3d 94 dc bc 3c
       -0.04743297 0.005452022 0.06759748 0.023054399
000230 f5 58 67 bc 94 3e 0e 3d 9b 31 4e bd 0c 96 4f 3d
       -0.01412033 0.034727648 -0.050340276 0.050680205
000240 19 de 37 3c 6c 39 aa 3d ca 05 d2 bc 54 49 8d bd
       0.011222386 0.083117336 -0.025637526 -0.06898752
000250 e2 77 9f bd 10 9b d9 3c 54 62 19 3c 18 73 3f bd
       -0.07786538 0.026563197 0.009361822 -0.04674062
000260 3a 17 db 3a 4e 1e 9d bd 4c c7 db 3c a3 0d fe 3c
       0.0016715296 -0.07671796 0.02682843 0.031012362
000270 63 e8 c6 bc 35 af d6 3d 0f 55 e7 3d b1 dd 55 3d
       -0.024280732 0.10482637 0.112955205 0.052213375
000280 00 0c 7f 3c 06 98 f7 bd 10 33 b1 bd e3 8a 07 3c
       0.015566826 -0.12089543 -0.086523175 0.008272859
000290 d9 7d 9b bd 8a ac 4d bd 84 10 cc bd cf 86 92 bd
       -0.07592363 -0.050213374 -0.099640876 -0.07154619
0002a0 0c ac f7 bc b5 93 37 bd 24 63 e4 3c 62 c8 42 3d
       -0.030233406 -0.0448186 0.027879305 0.04755438
0002b0 1d f6 83 bd 0d 5b bd bd 17 34 09 bd 29 3a af 3b
       -0.06443427 -0.09245882 -0.033496942 0.0053475094
0002c0 a8 76 83 bd 20 ac b5 bd 0d bf 90 bc 99 12 a2 3d
       -0.06419116 -0.08870721 -0.017669225 0.079137035
0002d0 64 9f 01 3d 9f a3 05 3e de 62 83 3d ad 8c 98 3d
       0.031646147 0.13050698 0.06415342 0.07448707
0002e0 7c d5 50 3d 73 41 89 3c 32 4d b6 bc f0 91 a5 3d
       0.050984845 0.016754841 -0.022253606 0.08084476
0002f0 b2 d3 0d 3d 91 0b 39 bd 24 2d 6c bd 47 f8 e2 bc
       0.034625717 -0.045177046 -0.057660237 -0.027706278
000300 da aa 92 bd 36 d4 e1 3c 10 9c 8f be 4d 78 50 3d
       -0.071614936 0.02756701 -0.28048754 0.050895978
000310 9e f4 53 3d 5a 99 2f 3d a5 3f a1 bd 4c 60 b4 bd
       0.051746957 0.042870857 -0.07873467 -0.0880743
000320 fd d4 0a bc af 84 99 3d 61 5e 93 bd 1f ba 3e 3d
       -0.008473632 0.074960105 -0.07195736 0.046564218
000330 54 2f 33 bb 3b 66 11 ba 0d f3 a3 3d b9 69 7b 3d
       -0.0027341442 -0.00055465446 0.08005343 0.06138012
000340 fe da 2f bd 5d cf 69 38 1c 99 0d bd ff 3a 84 3c
       -0.042933457 5.574465e-05 -0.034569845 0.016141413
000350 56 73 bf bb e5 11 66 bd 39 c1 c7 bc 4c 94 df 3c
       -0.0058426065 -0.05616941 -0.024384128 0.027292393
000360 b7 18 6c 3a 23 d8 75 3a 53 19 f0 3c 5f 18 88 3d
       0.00090063683 0.0009378215 0.02930895 0.066452734
000370 83 20 9f 3c 04 10 44 bd 22 cd 15 3d 49 4e 90 3d
       0.019424682 -0.047866836 0.036572583 0.07046182
000380 04 16 64 bd fc 57 05 be 78 f1 25 be 56 89 04 bc
       -0.05568506 -0.13021845 -0.16205394 -0.008089384
000390 de c7 b8 bd aa 8d 6c 3d 0a 79 33 3d b7 3b a8 bd
       -0.09022497 0.05775229 0.043816604 -0.08214515
0003a0 cf cd 8a 3d db 3b 88 3d d6 1f 3c 3d bf a5 42 bd
       0.06777536 0.066520415 0.0459288 -0.04752135
0003b0 a6 a3 5d bd 7c aa 8b 3d 16 f0 98 3c 20 ae bc 3d
       -0.054111145 0.06819627 0.01866917 0.09212899
0003c0 d4 c2 c1 3c a2 ad 42 bc 34 d4 20 3d 08 2c ab 3d
       0.023652472 -0.011882218 0.039264873 0.08358008
0003d0 0f f6 da bc 9c 32 e5 3c 1a 50 a1 bd c0 ff 61 3c
       -0.026728658 0.027978234 -0.07876606 0.013793886
0003e0 49 5c 0e 3d 99 47 db 3d c4 b2 c2 bc 50 82 a7 3b
       0.03475598 0.107070155 -0.023766883 0.00511197
0003f0 97 da 61 3d c9 e7 4d 3c f2 db fc bd 45 c5 91 bd
       0.055140104 0.012567469 -0.12346639 -0.07117704

linear2.bias f4 [128]
000000 1a ea 14 3d ee db 47 bd 07 86 88 3d 89 04 70 bd
       0.03635607 -0.048793726 0.06666189 -0.058598075
000010 98 3d ff ba d1 36 75 bc 3b e0 20 3d 2d c6 16 3d
       -0.0019473312 -0.0149666825 0.039276343 0.03681009
000020 e1 11 a4 3b 32 78 f8 3c 17 4f 26 3d 9c 26 00 3d
       0.005007014 0.030330751 0.04060277 0.03128682
000030 ca cc be 3c dc 87 40 3d 34 fa 83 3d fa df 13 bd
       0.02329101 0.047004566 0.06444207 -0.036102273
000040 f2 1d fe bc 8d 0f e6 3c 90 5e 14 bd 67 94 03 bd
       -0.031020138 0.028083587 -0.036222994 -0.03212395
000050 10 9d d3 bb 97 90 15 3d 1c 99 89 bc fa c7 78 bd
       -0.0064579323 0.036514845 -0.016796641 -0.060737588
000060 28 27 e3 3c e0 b4 6b 3c 44 0d a1 bc 74 c4 04 3d
       0.027728632 0.014386386 -0.019659646 0.032413915
000070 7a 7e 54 bd 2b c4 ee 3c 56 03 3e 3d b6 2b 5f 3d
       -0.05187843 0.029146275 0.0463899 0.054485045
000080 a3 d0 cf 3c 40 2e fa 3a 26 26 bf bd e2 27 f6 3c
       0.02536804 0.001908727 -0.09333448 0.030048314
000090 80 d0 02 bd a0 41 a6 3d 2e ee 91 3d 83 9b 2e 3d
       -0.031937122 0.08117986 0.07125507 0.042628776
0000a0 68 f0 0a 3c a1 18 50 bd 40 e3 ad 3c 39 07 84 bd
       0.008480169 -0.050804738 0.021226525 -0.0644669
0000b0 9d 61 80 3d 19 04 1d bc ff 67 b4 3d fc bf 65 3d
       0.06268618 -0.0095834965 0.08808898 0.056091294
0000c0 c6 85 f8 3c 60 d3 bf 3c ac 67 01 3d b1 e6 a6 bc
       0.030337226 0.023416221 0.03159301 -0.020373674
0000d0 a3 d1 80 bd 17 c1 43 bc f1 24 74 3d f3 4f 2f bd
       -0.06289985 -0.011947892 0.059605543 -0.042800855
0000e0 8f 55 a0 bd 7c b7 fd 3c 6b e1 07 bd 85 87 a5 3d
       -0.07828819 0.030971281 -0.03317396 0.08082489
0000f0 d7 35 95 3d 07 ca 54 3d 8f e1 a2 3c be 66 ac 3d
       0.0728566 0.05195048 0.019882945 0.08418034
000100 e6 f4 a7 3d 1d 49 91 bd b3 94 fa 3c 60 e8 94 3d
       0.082010075 -0.070940234 0.030588483 0.072708845
000110 43 83 5e bd 77 04 0d bd 7d a9 52 bd 4b b0 51 3d
       -0.0543244 -0.034428086 -0.051431168 0.051193517
000120 89 53 7d bd de ef 9c 3d f2 24 27 3d 5a eb 03 3d
       -0.061847243 0.076629385 0.04080672 0.03220687
000130 3a 6a 1e bd 2a 28 bf 3d 1c 5f 52 bd a2 20 6a bd
       -0.038675524 0.093338326 -0.051360235 -0.057160027
000140 46 87 87 bc 03 ea 7b 3d f2 d8 94 bd 4a 30 16 3c
       -0.016543996 0.061502468 -0.072679415 0.009166786
000150 48 98 d4 3b 9f 3d 35 bd e6 30 00 bd 24 c0 1d 3d
       0.00648788 -0.04424822 -0.031296633 0.038513318
000160 9d 50 0c bd ac da a7 bd b3 58 67 bb 81 62 c2 3c
       -0.034256566 -0.08196005 -0.0035300672 0.023728611
000170 2c d2 d5 bc 3c 08 ba 3c 29 49 5c 3d 98 fb 2b 3c
       -0.026101194 0.022709005 0.05378071 0.010496996
000180 bf a8 40 3d ad 1e ad bd 60 03 6f 3d ba 5c 3f bd
       0.04703593 -0.084531166 0.058352828 -0.04671929
000190 98 21 14 bd 85 8c e4 bc b1 fd 22 3d fe 12 21 bd
       -0.03616485 -0.027899036 0.03979272 -0.039324753
0001a0 ea de d6 3c cb 7e 59 3d 3a 06 17 3d 2b 19 06 bd
       0.02622934 0.053099435 0.036871172 -0.032738846
0001b0 eb d9 2e 3d a0 17 d1 3b c1 ae 86 bd 52 68 48 3c
       0.04268829 0.00638099 -0.065763004 0.012231903
0001c0 26 51 12 3d 1c b5 a1 3c 8e cd 55 3d 89 21 66 3d
       0.03572192 0.01973968 0.052197985 0.056184325
0001d0 a9 a3 35 bd e5 54 9a bb f8 b4 be 3a 6d 85 70 bd
       -0.04434553 -0.0047098272 0.0014549782 -0.058720995
0001e0 e6 9d 2d 3d fe ca 0a 3d 2b de 6c bd ec 21 a7 bd
       0.04238691 0.033884995 -0.057829063 -0.08160767
0001f0 6f 3e 5e 3b f2 fd 42 3d c6 0f 1a 3c 88 4c 81 bc
       0.0033911725 0.047605462 0.009403175 -0.015783563

linear3.weight f4 [1, 128]
000000 6e 94 2a 3b 74 90 b5 3c 78 b5 cc 3c ac ad e9 bb
       0.0026028412 0.022163607 0.024988875 -0.007131299
000010 36 5d cc 3c 4d e6 9e 3b cc 51 87 bd 0c d9 ad 3b
       0.02494679 0.0048492313 -0.066073984 0.005305415
000020 c8 b4 9a bd f8 09 46 3b 31 12 3c bd 45 47 6f 3c
       -0.075540125 0.0030218344 -0.045915786 0.014604394
000030 eb ba fb 3c 12 21 6f 3d 88 c4 0b bc b4 e9 5f 3c
       0.030728778 0.058381148 -0.008530743 0.013666559
000040 90 55 7f 3c 16 dd 08 3d 3a 4e e1 ba 05 81 09 bb
       0.0155843645 0.03341397 -0.0017189451 -0.0020981443
000050 80 c8 08 39 94 46 d7 bb 44 df 8f bc cc 7e d9 bc
       0.00013044663 -0.006569693 -0.017562516 -0.02654972
000060 4a 3b 0b bb b0 65 94 3a 51 e2 8a 3c 64 b4 2e 3c
       -0.0021245056 0.0011321809 0.01695362 0.010663126
000070 55 5a 23 3a 4b 48 02 3d a7 38 50 ba ec 51 db 3a
       0.0006231417 0.031807225 -0.0007943012 0.0016732789
000080 fd 42 3a bd 80 9d 1a 38 b4 6f 7d 3b 19 f9 6e bc
       -0.04547404 3.6863144e-05 0.0038671317 -0.014585757
000090 30 46 36 ba 02 90 70 3c 76 fe 42 38 a0 86 27 3c
       -0.0006953208 0.014682772 4.649019e-05 0.010224968
0000a0 dc 29 19 3b 80 e5 5f 39 00 28 d9 35 2d ce bc 3b
       0.0023370897 0.00021352433 1.6179401e-06 0.0057618828
0000b0 1a e4 0c 3b bf 5f f3 3b 1f 44 33 3c e3 31 99 b9
       0.0021498264 0.0074271853 0.010941534 -0.00029219603
0000c0 45 5d ef 3c 0a 62 28 3b 10 d9 0e bc 60 e5 30 3c
       0.029219279 0.0025693201 -0.008718744 0.010796875
0000d0 a0 d6 01 3b 19 3e e7 3c a6 e2 04 3c a7 8b 2a 3d
       0.0019811764 0.028227853 0.008110678 0.04163709
0000e0 8f 8a ec 3c b8 15 08 3b 42 23 06 3d 84 bb 56 3a
       0.028874664 0.0020764899 0.03274847 0.0008191394
0000f0 f5 74 14 3c 56 26 04 bd 71 93 e1 3b be 9a 8c bd
       0.009061088 -0.032263122 0.0068840315 -0.06865452
000100 97 93 4a ba 98 4b 46 3c 05 de 47 3c 45 b6 68 3b
       -0.0007727681 0.012102984 0.01219893 0.0035509032
000110 fe b0 20 bc 44 67 ac bc 69 5a f0 ba b6 60 5b 3c
       -0.009807823 -0.021045335 -0.0018337491 0.013389757
000120 eb 0a a0 ba f4 eb 82 3c 60 1d 9c 38 a7 f0 6a 3c
       -0.0012210285 0.015981652 7.444131e-05 0.014339603
000130 bb b9 b5 3c bf 4d 39 3b f7 f4 60 3d 75 4f 1d 3d
       0.02218329 0.00282751 0.054921117 0.038405854
000140 86 08 f6 bb ab 08 37 3c d5 d0 8a 3b bc 2a 2a 3d
       -0.0075083403 0.0111715 0.0042363205 0.04154466
000150 10 02 99 ba 75 64 8b 3c 0a a5 b6 bc b9 e1 9d 3b
       -0.0011673588 0.017015675 -0.022295494 0.004818168
000160 f7 a7 e0 3a 7a 0a 35 bd 8e c8 33 3c ee 09 83 bb
       0.0017139901 -0.044199444 0.010973109 -0.0039989864
000170 ca 2f aa ba 7a 1c a2 ba 76 c4 2d 3b 15 17 b3 ba
       -0.0012984213 -0.0012368106 0.0026514805 -0.0013663495
000180 ac 93 19 bd ff 88 6d 3a 92 f0 17 3a a7 19 9b 3c
       -0.037494346 0.00090612465 0.00057960406 0.01893313
000190 ec d7 8b 3b 2b 88 81 3c c8 b9 9c 3d 21 81 01 3c
       0.0042676833 0.015812 0.076526225 0.007904322
0001a0 37 d6 58 bc 97 70 f0 3a c5 27 9e 3d d3 a2 b0 3c
       -0.013234667 0.0018344101 0.07722429 0.021562016
0001b0 ec eb 2f 3c ce 54 6e bc aa 5a 30 3c bd c4 67 3c
       0.0107374005 -0.014546586 0.0107638035 0.014146027
0001c0 1d 4a 82 3d cb b1 07 3d 55 90 bb ba 37 1c 2f 3c
       0.06361792 0.03312854 -0.0014309982 0.010687879
0001d0 62 30 ab 3c 4c 8c 6c 3c 52 35 14 3d fb 69 30 3c
       0.020897094 0.014437746 0.036183663 0.010767455
0001e0 77 9e 2e ba 73 75 35 bd d0 51 51 bb f6 56 b9 3d
       -0.00066611863 -0.04430146 -0.0031939633 0.090497896
0001f0 1c c4 16 3d fa dc 96 3b a4 43 54 3c 88 70 75 ba
       0.03680812 0.004603979 0.01295558 -0.0009362777

linear4.weight f4 [1, 128]
000000 bc 91 fc 3a 67 e7 80 3c 17 0a d7 3b 04 79 b9 bc
       0.0019269506 0.015735341 0.006562482 -0.022640713
000010 a5 86 3f bb b6 88 b0 3a 3c 0d 66 bd d6 70 10 3c
       -0.0029224542 0.0013468477 -0.056164965 0.008815965
000020 35 db 50 3e 53 32 82 3a 61 f3 a5 3b c4 a2 a1 3c
       0.20396121 0.0009933211 0.0050644134 0.019730933
000030 b4 f2 42 3d ce 26 a0 bb da 11 9f 3d 45 0f ca bc
       0.04759474 -0.0048874384 0.07767077 -0.024665484
000040 b0 d9 12 3c a8 79 c5 ba 12 fb b4 bc 38 eb 3b 3b
       0.008963034 -0.0015066164 -0.022092376 0.0028674137
000050 b8 03 30 3b 5c 6f 24 3d 4e b0 37 bd 05 8a 3b bd
       0.0026857685 0.040145263 -0.04484587 -0.045785923
000060 f0 b3 1d ba 60 dc 6b ba 6a 5b 6b 3c f2 f1 71 3c
       -0.00060158875 -0.0008997377 0.0143650565 0.014767157
000070 2d 50 70 bb 38 e6 87 3d dd ea 93 3a 5a b1 43 3b
       -0.0036668882 0.066357076 0.0011285205 0.0029860348
000080 f1 21 28 bd 30 ed 1e 3a fe 64 fb 3a 3d f7 0b bc
       -0.041047994 0.00060625654 0.0019179878 -0.008542833
000090 ea 50 39 3b e4 52 18 3d 74 41 08 ba bd 2d 46 3b
       0.0028276988 0.037188426 -0.00051977416 0.0030239664
0000a0 18 70 d2 b9 18 ce c1 3a 5c 09 16 bb c0 9c 40 bd
       -0.00040137838 0.0014786152 -0.0022893762 -0.04702449
0000b0 fb b7 a6 ba 4c 2a 24 3d b9 4a 46 bc af d9 9f 3d
       -0.0012719625 0.0400794 -0.012102776 0.07805192
0000c0 27 a7 da 3c b8 2f 7e 3a 82 04 2e 3d 12 35 6a 3c
       0.026691033 0.00096964417 0.042484768 0.0142948795
0000d0 e8 90 ba 39 6a e6 56 3d 99 41 ce b7 5a ea e5 bc
       0.00035584648 0.052465834 -2.458766e-05 -0.02806585
0000e0 1e cb 87 bb d8 34 3a bb de b0 a9 3c 58 87 79 3a
       -0.0041440865 -0.0028412845 0.02071422 0.0009518764
0000f0 3a af df 3a 7f 6c 47 bd 58 f4 ca ba 45 ad 31 3d
       0.0017065771 -0.048687454 -0.0015484197 0.043378133
000100 f4 9e 0a bc f1 0f 38 3d a1 21 d6 3c d0 7e dc 3a
       -0.008460749 0.044937078 0.026139082 0.0016822461
000110 82 d9 73 b9 64 91 db bc e0 c2 e7 3a 55 8a 63 3d
       -0.00023255314 -0.026802726 0.0017681979 0.055551846
000120 91 c3 05 bd 0d 1c 70 bb 00 50 e3 b6 bf 41 30 bc
       -0.03265721 -0.0036637813 -6.7744404e-06 -0.010757863
000130 b7 3a 50 3d 95 40 fe 39 87 76 28 be d4 09 5c 3d
       0.050837245 0.00048494773 -0.16451465 0.05372031
000140 72 db 81 bc 77 66 06 3b 16 b7 45 3b 3a c8 54 3c
       -0.01585171 0.002050785 0.0030168942 0.012987191
000150 ec 70 fd ba 23 4e 18 3d 10 02 09 3d 1f 6d 1d bc
       -0.0019336022 0.037183892 0.033449233 -0.009608536
000160 c7 8e 0e ba 2d 24 85 bd 52 90 2d 3b 92 8d 5d 3d
       -0.00054381456 -0.065010406 0.0026483727 0.05409009
000170 70 c1 64 ba 18 97 39 3b 4c e6 0a bb 5e 19 2c 3b
       -0.0008726334 0.0028318819 -0.0021194397 0.0026260237
000180 e3 05 ac 3d ff 1a 83 b9 99 99 0c 3b d5 fc d0 bb
       0.0839956 -0.0002500638 0.0021453856 -0.006377796
000190 fa fb 03 bc d5 c1 92 3c 63 f4 c1 3c 04 e1 a2 3d
       -0.008055681 0.017914692 0.023676103 0.079530746
0001a0 8d b3 5f bc 3f fd 84 3b db cc da bd 6d 93 57 3d
       -0.013653648 0.0040585096 -0.10683604 0.05263083
0001b0 b2 60 9d 3b 9b 68 a6 3d 9b d8 25 3b 2f 73 9b 3b
       0.0048027867 0.08125421 0.002530611 0.0047439556
0001c0 ec 91 ce bc a9 c3 ff 3b 06 fd 41 bb fc 9f 48 3b
       -0.025216065 0.007805307 -0.0029600277 0.0030612936
0001d0 ad 17 51 3d ea f2 68 3d e2 27 4b 3c 90 a6 fb bc
       0.05104797 0.056872286 0.0123996455 -0.030719072
0001e0 b6 92 0e 3b b5 51 55 3e 1e 05 38 bb 3d b1 b3 3c
       0.0021754927 0.2083195 -0.0028079222 0.0219351
0001f0 a1 7e fb 3c a2 66 83 bc 59 d8 8f 3b 98 5d e1 3a
       0.03070003 -0.01604015 0.0043898043 0.0017194031

linear5.weight f4 [1, 128]
000000 a8 15 27 3b 56 cb 0d bd 97 31 0e bc fd 52 b5 3c
       0.0025495086 -0.034617744 -0.008678815 0.022134298
000010 a9 b4 52 bc 6b 38 fa 3a 6d e8 93 3c 65 6c af 3c
       -0.012860456 0.00190903 0.018055165 0.021413991
000020 e7 ea 5c 3c 31 73 fc 39 7c 6c 91 bb f5 ec 1f bb
       0.013483739 0.0004815101 -0.004437981 -0.0024402712
000030 f4 16 d5 bc a0 4b 6d bd 05 7b 4e 3b 15 6c 90 3c
       -0.026011921 -0.05793345 0.003150643 0.017629663
000040 ed 9b 80 ba bc 7a 13 bc 9e da d1 3c d3 4e 17 39
       -0.0009812095 -0.00900143 0.02561694 0.00014429846
000050 f8 90 b3 3a 59 b7 a7 bc 39 f2 8f 3d b2 4d e2 bc
       0.001369982 -0.02047317 0.07028622 -0.027624939
000060 4a ad 28 3b 94 df 12 3a 57 59 0c bd 8d 18 16 bc
       0.0025738054 0.0005602774 -0.03426489 -0.009161127
000070 37 fb 12 b9 1f fd bf bd 05 54 b0 3c 58 68 4d ba
       -0.0001401723 -0.09374451 0.021524439 -0.0007835678
000080 72 54 63 3b fa 6d 94 ba 80 e7 4a b9 1d 4d 2d 3d
       0.0034687785 -0.001132428 -0.00019350462 0.04230987
000090 70 89 fe b9 62 0c 9e 3c 92 1d e7 3a 0f e8 af 3c
       -0.00048549054 0.019293014 0.0017632714 0.021472959
0000a0 f0 7e f7 b9 80 51 34 3b 9c 1d e5 3a 18 50 81 bc
       -0.00047206087 0.0027514398 0.0017480138 -0.015785262
0000b0 18 5e 75 ba 0d 7b 99 bc a6 33 93 3c 20 79 27 bc
       -0.00093600294 -0.018735433 0.017968964 -0.01022175
0000c0 b2 45 d8 bb 78 3a 3f 3b 15 ca 11 bc 52 9c 72 3c
       -0.006600105 0.0029179137 -0.008898278 0.0148077775
0000d0 00 b6 ab 37 ac af f1 ba 07 36 98 3b ca f1 9f bc
       2.0469539e-05 -0.0018439195 0.0046451124 -0.019524474
0000e0 d2 6e 7e bc 84 b4 07 bb 33 b0 a4 bc 06 ac 56 bb
       -0.015529351 -0.002070696 -0.02010355 -0.0032756343
0000f0 02 5a 22 3c 84 55 12 3d 42 72 49 3b 87 a9 9f bc
       0.009909155 0.035726085 0.003073827 -0.019490017
000100 88 35 e8 3a 4f c1 9b bc a7 cc cf bb 0e d2 40 3b
       0.0017716149 -0.019013075 -0.006341535 0.0029422077
000110 ef d4 76 3d 67 6e ad 3c c4 b1 49 ba 92 82 0c bc
       0.060261663 0.021170808 -0.00076940306 -0.008576052
000120 9b db 9b bb cb 18 c4 3b 64 0b 15 ba ba 5a 81 bc
       -0.0047564036 0.005984401 -0.0005685596 -0.015790332
000130 a9 e5 b4 bc d6 9a e8 3c 5d 21 64 bc 4b 05 2a bb
       -0.022082167 0.028394144 -0.01392397 -0.0025943096
000140 9c dd f8 bb 92 d5 b3 bb 89 81 e0 bb a9 2a 3d bd
       -0.0075947773 -0.005488106 -0.0068513793 -0.046183262
000150 d9 2f d8 b8 12 82 81 3c 57 cd be bc ed 3f 90 3c
       -0.00010308595 0.015809093 -0.023291273 0.017608607
000160 d5 8b b9 b8 c8 ed 39 bc 74 af b2 3c 55 e0 83 3c
       -8.847533e-05 -0.011348195 0.021812178 0.01609818
000170 d0 bd 0d ba 90 48 21 bb d3 48 86 3c 68 59 cc 3a
       -0.00054070074 -0.00246099 0.016392147 0.001559061
000180 54 b2 43 bd 41 3f 28 ba 68 b0 1c bb 10 47 56 3a
       -0.04777749 -0.0006418117 -0.0023908857 0.0008174041
000190 c8 44 6b 3c b6 36 ab bb e2 93 89 bc 27 61 48 bc
       0.01435966 -0.005225028 -0.016794149 -0.012230194
0001a0 90 12 d9 3c c3 fe 4d bb 60 83 4c 3c ce ea 65 bc
       0.02649811 -0.0031432367 0.012482494 -0.014033033
0001b0 a4 41 6e bc 23 a1 82 bc ca 9a 9d 3c 68 94 a7 3c
       -0.014542017 -0.015945977 0.019238848 0.020456508
0001c0 81 f2 45 3c a0 34 7a 3b 3c e6 01 3b 9b 7d 98 b8
       0.012081743 0.003817834 0.0019821068 -7.271321e-05
0001d0 60 bc e8 ba 2c 94 86 bc 5d a0 91 3c 35 3b 05 3d
       -0.0017756335 -0.016428076 0.017776662 0.032527167
0001e0 43 a9 06 bb 27 7e cc 3c 6b 4b 9d b9 17 88 a2 bc
       -0.0020547665 0.024962498 -0.00030001564 -0.019840283
0001f0 d7 4e 2d 3c 4c 37 62 bb 6c 1a 87 3a c2 28 41 3b
       0.010577879 -0.0034517823 0.0010307557 0.0029473756
