TDQN/MicroGrid/TDQN/model/critic_model.ckpt (torch, 571738 bytes, 26 tensors)

lstm.weight_ih_l0 f4 [96, 1]
0	0xbc8eb570	-0.0174205
1	0xbd8cd904	-0.0687733
2	0x3e236022	0.1595464
3	0xbe0d873c	-0.13821119
4	0x3dd7377c	0.1050863
5	0xbe23df26	-0.16003093
6	0x3e2b0e14	0.16704589
7	0x3dbabd20	0.09118104
8	0xbd6b657c	-0.05746983
9	0x3d5adc30	0.053432643
10	0x3ddf80a0	0.10913205
11	0x3d2ad7b0	0.041709602
12	0xbdd6bee2	-0.10485627
13	0x3e2c1546	0.1680499
14	0x3db77220	0.089573145
15	0x3e2e2d4c	0.17009467
16	0xbe334342	-0.17506126
17	0x3e0b9b8a	0.13633552
18	0xbe4503c9	-0.19239725
19	0x3e1967e6	0.1498104
20	0xbc8f8278	-0.017518267
21	0x3d76de50	0.060270607
22	0xbe2557b5	-0.16146739
23	0x3d0396b8	0.03212616
24	0xbcb82a78	-0.022481188
25	0xbe18999b	-0.14902346
26	0xbcbca190	-0.023026258
27	0xbd584414	-0.0527993
28	0xbd166f5c	-0.036727294
29	0xba897300	-0.0010486543
30	0x3e1cad80	0.1530056
31	0xbe0c45d0	-0.13698506
32	0x3c8e78d0	0.017391592
33	0xbe3a355e	-0.1818442
34	0xbc608340	-0.013703167
35	0x3d1dbb28	0.038508564
36	0xbde6842a	-0.11255677
37	0x3cf76080	0.030197382
38	0x3dd818b4	0.10551587
39	0xbda764eb	-0.081735454
40	0xbd335df4	-0.043790773
41	0x3e020726	0.1269804
42	0x3e43e4c8	0.19130242
43	0xbbe73640	-0.0070560277
44	0xbce00390	-0.027345449
45	0xbddaab64	-0.106772214
46	0xbdbe8560	-0.09302783
47	0x3e31066c	0.17287606
48	0xbc264240	-0.010147631
49	0x3d5d5a10	0.05404097
50	0xbe16d0a9	-0.14728035
51	0x3e04ae16	0.12957034
52	0xbe0a7822	-0.1352239
53	0xbd8a3142	-0.067476764
54	0x3d917f34	0.0710434
55	0x3d22447c	0.039616093
56	0x3ce7c150	0.02829042
57	0x3e16fce0	0.14744902
58	0x3d1f52b0	0.038897216
59	0x3dbff6a4	0.09373215
60	0xbcbbfee0	-0.022948682
61	0x3db13e04	0.08654407
62	0xbd9775e4	-0.07395533
63	0xbd81c0ca	-0.063356
64	0xbe4b31ac	-0.19843167
65	0xb9c27e00	-0.0003709644
66	0xbda2c2ad	-0.07947288
67	0xbe18dddf	-0.14928387
68	0xbdd17fc9	-0.10229451
69	0x3cd0f3a8	0.02550681
70	0xbdd99d0e	-0.10625659
71	0xbd82f004	-0.063934356
72	0xbe181bea	-0.14854398
73	0x3ddf1634	0.10892907
74	0xbe0742de	-0.13209102
75	0x3d73f160	0.059556365
76	0xbe441aac	-0.191508
77	0x3e4a5554	0.19759113
78	0xbe13402b	-0.14379947
79	0xbe4d4756	-0.20046744
80	0x3e09f770	0.13473296
81	0x3e455ca4	0.19273621
82	0xbcf16240	-0.029465795
83	0x3d2099e4	0.03920926
84	0xbd5fcbf0	-0.05463785
85	0x3cd30a28	0.025761679
86	0x3e3ef872	0.18649462
87	0xbcb43270	-0.021996707
88	0xbde9dae6	-0.11418705
89	0xbc1b8e90	-0.009494439
90	0x3e4f6376	0.20252785
91	0x3e367016	0.17816195
92	0x3d78dfa8	0.06076017
93	0xbce6b750	-0.028163582
94	0x3d9beab0	0.076131225
95	0x3d02655c	0.031834945

lstm.weight_hh_l0 f4 [96, 24]
0	0xbde0c1eb	-0.10974487
1	0xbce3c8a8	-0.027805641
2	0x3d05d980	0.032678127
3	0xbdf2f39c	-0.11862871
4	0xbdd0f8ec	-0.10203728
5	0xbe44a889	-0.19204916
6	0x3d74f518	0.059804052
7	0x3c960298	0.018311784
8	0xbe4d6c8d	-0.2006094
9	0x3e4403e0	0.19142103
10	0xbd8a0252	-0.06738724
11	0xbe1d162b	-0.15340488
12	0x3dc3ad4c	0.09554538
13	0x3e16b502	0.14717487
14	0xbd8d8712	-0.06910528
15	0x3d90f348	0.07077652
16	0x3dc51984	0.09624007
17	0x3dccc114	0.09997764
18	0x3bf13560	0.007361099
19	0xbdf14b2f	-0.11781918
20	0x3c513ee0	0.012771338
21	0xbe121378	-0.14265239
22	0x3dd4a868	0.103836834
23	0xbb94d280	-0.004541695
24	0x3d9cfc40	0.076653
25	0xbe1f2b35	-0.15543826
26	0xbe19bdf6	-0.1501387
27	0xbe45bf34	-0.1931122
28	0xbd3e33e8	-0.04643622
29	0xbdd41846	-0.10356192
30	0x3caddb98	0.021222875
31	0x3e2d1ed4	0.16906291
32	0xbd62f714	-0.055411413
33	0x3df54fe0	0.119781256
34	0xbd605464	-0.05476798
35	0x3d908adc	0.07057735
36	0x3cedf790	0.029048711
37	0x3df229c8	0.118243754
38	0x3dcf9568	0.10135919
39	0x3e496908	0.19668972
40	0xbe168716	-0.14699969
41	0x3d93c374	0.07215014
42	0x3dbdfc34	0.092766196
43	0x3d16ef94	0.036849573
44	0xbe011450	-0.12605405
45	0xbc573880	-0.013136029
46	0x3e2e9ba2	0.17051557
47	0xbd944c88	-0.0724116
48	0xbe25d94a	-0.1619617
49	0x3d815f90	0.06317055
50	0x3ce43110	0.027855426
51	0x3e4c9f90	0.19982743
52	0xbe1d2d22	-0.15349248
53	0xbe0a2c56	-0.13493475
54	0x3d8dc878	0.06923002
55	0xbd12b120	-0.03581345
56	0xbc9ae2d0	-0.01890698
57	0xbdfac7de	-0.12245153
58	0x3d9c15cc	0.07621345
59	0x3e27d46c	0.16389626
60	0xbe4be933	-0.19913177
61	0x3e127060	0.1430068
62	0x3dec24d4	0.11530462
63	0xbe1a2402	-0.15052798
64	0xbdea54d3	-0.1144196
65	0x3d3772e0	0.044787288
66	0xbe3c1532	-0.1836746
67	0x3e068044	0.13134867
68	0xbe46aeb8	-0.19402587
69	0x3dadfad0	0.08495104
70	0xbe1c1d64	-0.15245587
71	0x3c34fe90	0.011047021
72	0x3da6e11c	0.08148405
73	0x3e2e1b70	0.17002654
74	0x3da9c5c0	0.08289671
75	0x3cc6d310	0.024270564
76	0xbe382048	-0.17981064
77	0x3cfa5c98	0.03056173
78	0xbdb2e320	-0.08734727
79	0x3c90d9a8	0.017681912
80	0xbd52de98	-0.051481813
81	0xbe20887e	-0.15677068
82	0x3c25bec0	0.010116279
83	0x3c714550	0.014725998
84	0x3c3cc890	0.011522427
85	0x3e00b228	0.12567961
86	0x3e0f225a	0.13977948
87	0x3e107eea	0.14110914
88	0x3e129dba	0.1431798
89	0x3d2968fc	0.041359887
90	0xbd4ecf74	-0.05049081
91	0xbb5872c0	-0.003302738
92	0xbd470e50	-0.048597634
93	0xbc812308	-0.015763775
94	0xbe20540a	-0.15657058
95	0x3da69d54	0.08135477
96	0x3d0f641c	0.03500758
97	0xbc9a45e0	-0.018832147
98	0xbe21f3b7	-0.15815626
99	0x3deb16ec	0.114789814
100	0x3df48714	0.119398266
101	0x3e11dac6	0.14243612
102	0x3dcab8a4	0.09898499
103	0x3d531cf0	0.05154127
104	0xbde23908	-0.11046034
105	0xbcf161c0	-0.029465556
106	0xbe3d7786	-0.18502626
107	0xbcf88280	-0.030335665
108	0xbddce020	-0.10784936
109	0xbde65ce2	-0.11248185
110	0xbc959100	-0.018257618
111	0xbdcb7dd9	-0.09936113
112	0x3e23f298	0.16010511
113	0x3e1110fa	0.14166632
114	0x3e48358e	0.1955168
115	0x3e213fe8	0.15747035
116	0xbc538760	-0.012910694
117	0xbe0ec11e	-0.13940856
118	0xbc9898c8	-0.01862754
119	0xbba12640	-0.00491789
120	0x399eec00	0.00030311942
121	0x3dc6da28	0.09709579
122	0x3d95d898	0.073167026
123	0x3e0b139e	0.13581702
124	0x3e413ad8	0.18870103
125	0x3c895fa0	0.01676923
126	0x3dce25b4	0.10065785
127	0xbe229e6d	-0.15880747
128	0x3e1c0f0e	0.15240118
129	0xbd68543c	-0.056720957
130	0x3d2c01c4	0.04199387
131	0xbdc969e0	-0.09834647
132	0x3d8f2290	0.06989014
133	0x3de53844	0.111923724
134	0x3d3398b8	0.043846816
135	0xbd63d388	-0.055621654
136	0x3e42b118	0.19012868
137	0x3e3a1640	0.1817255
138	0xbd17f9a0	-0.037103295
139	0x3e2daa0e	0.16959402
140	0x3e2d1f0e	0.16906378
141	0xbdc23d58	-0.09484357
142	0xbe3e5c10	-0.18589807
143	0x3e0fa98c	0.14029521
144	0x3e02bc28	0.12767088
145	0x3dbc1eb4	0.09185544
146	0xbe29389a	-0.16525498
147	0x3ce2fc58	0.027708218
148	0x3e1643e8	0.14674342
149	0xbc03ee40	-0.008052409
150	0x3e4335b4	0.19063455
151	0xbde8be8a	-0.113644674
152	0x3dbe8dc0	0.093043804
153	0xbd04b0d0	-0.032395184
154	0xbdc09506	-0.09403424
155	0x3e04c898	0.12967145
156	0x3e3bc0fc	0.18335336
157	0x3e1c5cb0	0.15269732
158	0xbdb62cb1	-0.08895243
159	0xbe1e6154	-0.15466815
160	0x3ca7ab70	0.02046749
161	0x3e50a5b6	0.20375714
162	0xbdb4e92e	-0.08833538
163	0x3dbe7b4c	0.09300861
164	0x3ad6fe80	0.0016402751
165	0xbd3981f8	-0.045289963
166	0xbe0372a4	-0.128367
167	0x3e3fc31c	0.18726772
168	0xbe4114ee	-0.1885564
169	0xbd4aebdc	-0.04954134
170	0x3e4f4b00	0.20243454
171	0xbdf291c5	-0.118442096
172	0x3e21fac2	0.15818313
173	0x3d3e6220	0.046480298
174	0xbcc1ad68	-0.023642257
175	0x3e22e8fe	0.15909192
176	0x3e047e38	0.12938774
177	0x3e14b1de	0.14520976
178	0x3e308924	0.17239815
179	0x3c4c27c0	0.012460649
180	0x3df6f66c	0.1205872
181	0x3e0f24b6	0.13978848
182	0x3c8a9668	0.016917422
183	0x3da4fbec	0.08055863
184	0x3e19aec6	0.15008077
185	0x3c9a59c0	0.018841624
186	0x3dc54e2c	0.09634051
187	0xbe0153e8	-0.12629664
188	0x3e443088	0.19159138
189	0xbdb70d03	-0.08938029
190	0xbd6fc83c	-0.058540568
191	0xbe105b27	-0.14097272
192	0x3dc09570	0.09403503
193	0xbcb08848	-0.021549359
194	0x3e1b4f12	0.15166882
195	0xbbaf2520	-0.005345002
196	0xbdd51172	-0.10403718
197	0xbe3c0f36	-0.18365178
198	0x3e208a28	0.15677702
199	0xbe06783c	-0.13131803
200	0x3dd8e4b8	0.105905
201	0xbe3acbae	-0.1824176
202	0xbda03574	-0.078226954
203	0x3e3c7ffc	0.18408197
204	0x3cc1c490	0.023653299
205	0xbdf27221	-0.118381746
206	0xbdbea0db	-0.093080245
207	0xbd44b2fc	-0.048022255
208	0x3dadbb9c	0.08483049
209	0xbdac03e2	-0.08399178
210	0xbe3be4c9	-0.18348993
211	0x3d94d160	0.072664976
212	0xbe2a2295	-0.16614754
213	0x3c323160	0.01087603
214	0x3e3aa974	0.18228704
215	0xbe242cf2	-0.1603277
216	0xbe3de66e	-0.18544933
217	0x3dbc715c	0.09201309
218	0xbe08c536	-0.1335648
219	0xbd8653c0	-0.06558943
220	0xbe4e3da0	-0.20140696
221	0x3d6417c8	0.055686742
222	0x3e3f50f4	0.18683225
223	0x3cebbfb8	0.028777942
224	0x3d480ad0	0.048838437
225	0x3e39f46a	0.18159643
226	0x3e10f9b0	0.14157748
227	0x3dee7d2c	0.116449684
228	0x3e43e66a	0.19130865
229	0x3d2b5174	0.041825727
230	0xbe29f730	-0.16598201
231	0x3dcc2c04	0.09969333
232	0xbd9bf684	-0.076153785
233	0x3d9bc5ec	0.0760611
234	0x3d28575c	0.041098937
235	0x3c69c390	0.014267817
236	0x3e0cd76a	0.13754049
237	0xbe1ffa51	-0.15622832
238	0xbe120af0	-0.14261985
239	0x3d14f06c	0.036362097
240	0x3da6b32c	0.08139643
241	0xbe3f6b55	-0.18693288
242	0xbded7a56	-0.11595599
243	0x3d42bea8	0.047545105
244	0x3e1ef7dc	0.15524238
245	0x3e02b51e	0.12764403
246	0x3d7c4348	0.061587602
247	0x3dd043f0	0.10169208
248	0xbdeb0a05	-0.114765204
249	0xbe383e89	-0.17992605
250	0x3e07e40c	0.13270587
251	0x3da0f1ec	0.07858643
252	0x3dcae378	0.099066675
253	0xbe44327d	-0.19159885
254	0x3de290ec	0.11062798
255	0x3d8395c8	0.06425053

lstm.bias_ih_l0 f4 [96]
0	0x3e0b0f7e	0.13580129
1	0xbe4353d7	-0.19074951
2	0xbbba8dc0	-0.0056931674
3	0xbe365cba	-0.1780881
4	0xbe119d31	-0.1422012
5	0x3d2e7edc	0.04260145
6	0x3bc1b5e0	0.005911574
7	0x3e493a42	0.1965113
8	0x3e3c2ea0	0.18377161
9	0xbe45cd57	-0.19316612
10	0x3e2e1212	0.16999081
11	0xbc904ca8	-0.017614678
12	0x3d724f10	0.05915743
13	0xbddded23	-0.10836246
14	0x3cf89b78	0.03034757
15	0xbe0e977c	-0.13924974
16	0x3e2c08e6	0.1680027
17	0xbdcddad6	-0.10051505
18	0xbe106d2b	-0.14104144
19	0x3d3f3d98	0.0466896
20	0xbd3eaedc	-0.046553478
21	0x3e2c34c8	0.1681701
22	0xbd448620	-0.047979474
23	0x3db2b024	0.087250024
24	0xbdc55d00	-0.09636879
25	0x3e1d8d74	0.15385991
26	0x3e0c15e0	0.1368022
27	0xbda00a28	-0.07814437
28	0xbdea9d1c	-0.114557475
29	0x3e1fffa2	0.1562486
30	0xbd7b1f8c	-0.061309382
31	0x3e12d872	0.1434038
32	0xbdd3a4fb	-0.10334202
33	0xbd4af810	-0.049552977
34	0xbd30a2e8	-0.04312411
35	0xbe01cd70	-0.12676024
36	0xbdccf712	-0.100080624
37	0xbd0b7e44	-0.034055963
38	0xbdcb483e	-0.099258885
39	0x3e2609c2	0.1621466
40	0xbe0f79f4	-0.14011365
41	0x3ddd0dc4	0.10793641
42	0x3dc19c84	0.09453681
43	0x3d2ca1c4	0.04214646
44	0xbe335865	-0.17514189
45	0xbccca840	-0.024982572
46	0xbd3bfdf8	-0.0458965
47	0xbd2f9324	-0.042864934
48	0xbd9acb42	-0.075582996
49	0xbd5cbb40	-0.053889513
50	0x3e454310	0.19263864
51	0xbe3e7555	-0.18599446
52	0xbcb41990	-0.021984845
53	0xbd9ee4ca	-0.07758482
54	0x3e38d5ac	0.1805026
55	0xbd528474	-0.05139585
56	0x3d90883c	0.07057235
57	0x3e088876	0.13333306
58	0xbcd15360	-0.025552452
59	0x3e3bbee6	0.1833454
60	0x3d87d774	0.06632891
61	0xbe2cdc6f	-0.16880964
62	0x3dfc0ea8	0.12307483
63	0xbc695730	-0.0142419785
64	0xbd69d4d8	-0.05708775
65	0xbe423961	-0.18967201
66	0x3e0378da	0.1283907
67	0xbe0ec72e	-0.13943169
68	0x3dfba2ec	0.12286934
69	0xbd15c830	-0.036567867
70	0x3dba9694	0.09110752
71	0xbe30efa6	-0.17278919
72	0xbe2613f9	-0.16218556
73	0x3e076928	0.13223708
74	0xbdca1bc8	-0.0986858
75	0x3ded1ec4	0.11578134
76	0xbe3d2953	-0.18472795
77	0x3dec4400	0.115364075
78	0xbb8aa440	-0.004231006
79	0xbd9dac74	-0.076989084
80	0xbc031e80	-0.008002877
81	0x3e27d5c6	0.16390142
82	0x3e33a42e	0.17543098
83	0xbe21aad8	-0.15787828
84	0xbe01b8cb	-0.12668149
85	0xbb279f80	-0.0025577247
86	0xbe0a0265	-0.13477476
87	0xbe259225	-0.16169031
88	0xbd9adfb6	-0.07562201
89	0x3e33c21c	0.17554516
90	0xbe3ae7f8	-0.18252552
91	0x3d772df0	0.060346544
92	0xbe4da0ea	-0.20080915
93	0xbcbfae28	-0.023398474
94	0x3dae4440	0.085091114
95	0x3de1b824	0.1102145

lstm.bias_hh_l0 f4 [96]
0	0xbded9e60	-0.11602473
1	0x3dfe90e0	0.124299765
2	0xbcccbe80	-0.024993181
3	0xbe039c9a	-0.12852708
4	0x3e29ea26	0.16593227
5	0x3df9ec04	0.122032195
6	0xbd952dfc	-0.072841614
7	0xbccfb548	-0.025354996
8	0x3d792810	0.060829222
9	0x3c989c58	0.018629238
10	0x3c608c00	0.013705254
11	0xbe3c1cb7	-0.18370329
12	0xbe15eabf	-0.1464033
13	0x3e03e76c	0.12881249
14	0x3e48e058	0.1961683
15	0x3dd291c8	0.10281712
16	0xbe491984	-0.1963864
17	0xbe34bc13	-0.1764987
18	0xbe06991a	-0.13144341
19	0x3e14c902	0.14529803
20	0x3cf2b4f0	0.029627293
21	0x3dcd1950	0.100145936
22	0xbe4b7741	-0.1986971
23	0x3dd2ec24	0.102989465
24	0x3da3cf94	0.07998577
25	0xbab2a300	-0.00136289
26	0x3d86b51c	0.065775126
27	0x3ddb9db4	0.10723439
28	0x3e292506	0.1651803
29	0x3d0c58a0	0.034264207
30	0x3d602578	0.054723233
31	0xbdec0e1a	-0.11526127
32	0xbe2cf3ea	-0.16889921
33	0xbe3224a2	-0.17396787
34	0x3e20031c	0.15626186
35	0xbdd523ca	-0.10407217
36	0xbb130fc0	-0.0022439808
37	0xbda76de0	-0.08175254
38	0xbdcc1a6d	-0.09965978
39	0x3d86db14	0.065847546
40	0x3e05e94e	0.1307728
41	0x3a2ba900	0.0006548315
42	0xbdff1d34	-0.12456742
43	0xbdfd9e3e	-0.12383698
44	0x3e45d8e2	0.19321015
45	0x3e103466	0.14082488
46	0x3e2403a4	0.16017014
47	0x3e4b1326	0.19831523
48	0x3e306e7a	0.17229643
49	0x3e4972d6	0.19672713
50	0x3d6e4528	0.05817142
51	0x3e079f44	0.13244349
52	0xbe422544	-0.18959528
53	0x3da0c500	0.07850075
54	0xbe21c9a4	-0.15799576
55	0x3d16bd30	0.036801517
56	0xbe424fc4	-0.1897574
57	0xbdfbe17b	-0.12298866
58	0x3d7873d0	0.060657322
59	0x3d26d858	0.040733665
60	0x3e266768	0.16250384
61	0x3e4e0238	0.20118034
62	0x3df5fec8	0.12011486
63	0x3e318ba8	0.17338431
64	0x3df08888	0.11744791
65	0x3dfb42fc	0.12268636
66	0xbe1c11f2	-0.1524122
67	0xbe355c95	-0.17711098
68	0x3c6e15c0	0.014531553
69	0xbd8194a4	-0.06327179
70	0x3e395dc6	0.18102178
71	0x3d83c334	0.064337164
72	0x3cc67c20	0.02422911
73	0xbe0bf73a	-0.13668528
74	0xbd97318a	-0.07382496
75	0x3cfa66d8	0.030566618
76	0xbe268324	-0.16260964
77	0x3e108780	0.14114189
78	0xbd59ac70	-0.053142965
79	0x3e460c06	0.19340524
80	0x3c356b20	0.011072904
81	0xbde8b234	-0.113621145
82	0x3e3bb5b2	0.1833103
83	0xbd54b14c	-0.051926896
84	0xbd99547a	-0.07486816
85	0x3e2b8d0c	0.16753024
86	0xbe4226f5	-0.18960173
87	0xbda8162d	-0.08207355
88	0x3dd270e0	0.102754354
89	0x3ddc1eec	0.107480854
90	0xbca68b90	-0.02033022
91	0x3de65f58	0.11248654
92	0xbe43cf2f	-0.19122003
93	0x3cd3b878	0.025844797
94	0xbd8dcf64	-0.06924322
95	0xbdcc2154	-0.09967294

linear1.weight f4 [128, 30]
0	0x3c0279a3	0.007963571
1	0x3d184884	0.03717853
2	0xbe34ebbf	-0.17668055
3	0xbdb1da44	-0.08684209
4	0xbe812e89	-0.25230816
5	0x3d5bf4c8	0.05370024
6	0xbd17409a	-0.036926843
7	0xbc5f9aa8	-0.013647713
8	0xbe3810df	-0.17975186
9	0x3d643a47	0.05571964
10	0xbe07ece2	-0.13273957
11	0x3e1842ae	0.14869186
12	0xbc8b3ae6	-0.016995858
13	0xbdb88b1e	-0.090109095
14	0xbe0d7971	-0.13815857
15	0xbe1ef338	-0.15522468
16	0xbda10e8c	-0.07864103
17	0xbe08c889	-0.13357748
18	0xbd503213	-0.050829004
19	0xbd79bba8	-0.06096998
20	0xbe2b4f43	-0.16729455
21	0x3cd968cd	0.02653923
22	0x3de3f639	0.111309476
23	0x3e0987cd	0.1343071
24	0x3b98cf0e	0.0046633547
25	0x3d0d290f	0.034462985
26	0x3e1d393a	0.15353861
27	0x3de820de	0.11334394
28	0x3d7e92e6	0.062151812
29	0xbd19694b	-0.03745393
30	0xbde67459	-0.1125266
31	0x3de03ccc	0.10949096
32	0x3af33100	0.0018554032
33	0x3e1d3024	0.15350395
34	0x3e1e7e6e	0.15477917
35	0x3dabc1a4	0.083865434
36	0x3ddb36bc	0.10703799
37	0x3e37577c	0.17904466
38	0xbdc52f92	-0.09628214
39	0xbdcae3d5	-0.09906737
40	0xbdf0bf31	-0.11755217
41	0xbe30fa72	-0.17283037
42	0xbe03876d	-0.1284463
43	0xbdf1bf4c	-0.11804065
44	0x3e19b12a	0.15008989
45	0xbe1fab01	-0.15592577
46	0x3db3af64	0.087736875
47	0x3d1bccec	0.038037226
48	0x3d925f10	0.07147038
49	0x3e13c7d2	0.14431694
50	0x3e024466	0.12721404
51	0xb9f72400	-0.00047138333
52	0x3e2cebb0	0.16886783
53	0xbd5e37c4	-0.0542524
54	0xbdbb058c	-0.09131917
55	0xbe23458c	-0.15944499
56	0x3d8bbff0	0.068237185
57	0xbe08e944	-0.13370234
58	0xbcb6ccf8	-0.022314534
59	0x3bde84a0	0.0067907125
60	0xbda62c58	-0.08113927
61	0xbd121ea5	-0.035673756
62	0xbd51708a	-0.051132716
63	0xbd1c50a4	-0.038162842
64	0xbddd08ee	-0.10792719
65	0xbe711cde	-0.23546168
66	0xbdcef014	-0.10104385
67	0xbe31d0cf	-0.1736481
68	0x3d67529f	0.056475278
69	0xbd680818	-0.056648344
70	0x3db5c3d9	0.088752456
71	0xbdaf4a46	-0.085590884
72	0x3c8779a7	0.0165375
73	0xbc9dbaaa	-0.019254047
74	0xbd5e1b9e	-0.054225557
75	0x3d5bd1dd	0.053666938
76	0xbe2bfad5	-0.16794904
77	0xbde10c5d	-0.10988686
78	0x3d9890b8	0.07449478
79	0xbda2c55d	-0.079478
80	0xbdf69bae	-0.12041412
81	0x3c84e1e1	0.016220989
82	0x3cfab4cb	0.030603787
83	0x3e6197a2	0.220305
84	0xbcf6f1af	-0.03014454
85	0x3e085a08	0.13315594
86	0xbd2417fe	-0.040061943
87	0x3dfdc118	0.12390345
88	0xbde518d8	-0.11186379
89	0x3d9ad84c	0.075607866
90	0x3c2e5c5b	0.010642136
91	0xbbeaef3f	-0.0071696336
92	0x3d491482	0.049091823
93	0x3de0473c	0.10951087
94	0x3d93822e	0.07202564
95	0xbda8ba68	-0.08238679
96	0xbe507d38	-0.20360267
97	0x3d8c3ecc	0.06847915
98	0x3e8c68db	0.27423748
99	0x3bfbb447	0.007681403
100	0x3cb9ca42	0.022679452
101	0x3df4c603	0.1195183
102	0xbd8f06ec	-0.06983742
103	0x3e0a0920	0.13480043
104	0xbdef9a51	-0.116993554
105	0x3ca11af2	0.019666169
106	0x3de26226	0.110538766
107	0x3da432fb	0.08017536
108	0xbe511a86	-0.20420274
109	0xbe35abaa	-0.17741266
110	0x3dcaddf3	0.09905615
111	0x3e0fdf75	0.14050086
112	0xbd6fbe09	-0.05853084
113	0x3e508181	0.20361902
114	0xbc823dfc	-0.015898697
115	0xbdcd9279	-0.10037703
116	0xbe3a0cf5	-0.18169005
117	0xbcf6f789	-0.03014733
118	0xbe0adc50	-0.13560605
119	0xbe1672b6	-0.14692196
120	0x3da815d7	0.082072906
121	0x3dbc00d6	0.09179847
122	0xbe166273	-0.14685993
123	0xbdb7e436	-0.08979075
124	0x3e00551f	0.12532471
125	0x3da88727	0.08228903
126	0xbdd8f55d	-0.10593674
127	0xbcdc0f5c	-0.026862793
128	0xbd8ae55a	-0.067820266
129	0x3dfa0828	0.12208587
130	0xbe1fd0b0	-0.15606952
131	0xbd6a276c	-0.057166502
132	0xbe035ea6	-0.12829074
133	0x3e0d5409	0.13801588
134	0x3bd1f9da	0.0064079585
135	0x3db2d17e	0.08731364
136	0xbe23a544	-0.15981013
137	0xbd9379e1	-0.07200981
138	0x3ba72f10	0.005102046
139	0x3d4844ec	0.048893854
140	0x3d7acde1	0.061231498
141	0xbe2e03ee	-0.16993687
142	0xbdb872d2	-0.09006275
143	0xbe1f18ac	-0.15536755
144	0xbe3e1846	-0.18563947
145	0x3dbfb58d	0.093608
146	0xbe0c2dee	-0.13689396
147	0xbe3bdbb7	-0.18345533
148	0xbc08bb9f	-0.008345514
149	0xbd5c23b2	-0.05374498
150	0x3c9f064c	0.019412182
151	0x3e08bb1b	0.13352625
152	0x3db7b499	0.08969993
153	0xbe6f0fa5	-0.23345812
154	0x3cf94416	0.030427974
155	0xbde3dbe6	-0.11125927
156	0xbda44ec3	-0.08022835
157	0x3e07917b	0.1323909
158	0xbd16257e	-0.03665685
159	0x3e31b833	0.17355423
160	0xbd96161f	-0.07328438
161	0x3dd75170	0.1051358
162	0xbe353b60	-0.17698431
163	0xbe34b75e	-0.17648074
164	0x3c2e37fa	0.010633463
165	0xbde48916	-0.111589596
166	0xbcd29a52	-0.025708351
167	0xbdb82a75	-0.08992473
168	0x3e28ce6f	0.16484998
169	0xbd009c64	-0.031399146
170	0xbddb2e29	-0.10702164
171	0x3dd14eae	0.10220085
172	0xbe45ee9d	-0.19329305
173	0x3daaf4ad	0.083474495
174	0x3c594be0	0.013262719
175	0xbc03af7c	-0.008037444
176	0x3e4a2488	0.19740498
177	0x3ba7c73b	0.0051201857
178	0x3db10791	0.08644021
179	0xbd8b9817	-0.06816118
180	0xbdb5742a	-0.08860047
181	0x3e24e601	0.16103365
182	0xbd437b31	-0.047724906
183	0xbdf199d3	-0.11796918
184	0x3e0c2891	0.1368735
185	0xbdec9670	-0.11552131
186	0x3e3e3ec1	0.18578626
187	0xbe0d9505	-0.13826378
188	0xbd8c5053	-0.06851258
189	0xbe3371ea	-0.17523924
190	0x3d574831	0.05255908
191	0xbdfdaf04	-0.12386897
192	0x3c96b05b	0.01839464
193	0xbd8e11f1	-0.06937016
194	0xbe021f3b	-0.12707226
195	0x3d557305	0.052111644
196	0xbdcea6ed	-0.10090432
197	0x3c8db0f3	0.01729629
198	0xbda138d1	-0.07872165
199	0x3d65dc60	0.05611837
200	0xbdf124e8	-0.117746174
201	0xbc0ef4a1	-0.008725316
202	0x3de73ccb	0.11290892
203	0x3d96139f	0.07327961
204	0x3d11e800	0.035621643
205	0x3c10d32f	0.008839413
206	0x3e8d6701	0.27617648
207	0xbe1a54d7	-0.15071426
208	0x3e339ae4	0.17539555
209	0xbd902015	-0.07037369
210	0x3db3e83d	0.0878453
211	0x3e6842b2	0.22681692
212	0xbd26f819	-0.040763948
213	0x3e0d4b7e	0.13798329
214	0x3e15db14	0.14634353
215	0x3e2affbd	0.16699119
216	0x3d7a6325	0.061129708
217	0x3d161ee1	0.036650542
218	0xbdbe85f5	-0.09302894
219	0x3e116b82	0.14201167
220	0x3cc76856	0.024341743
221	0x3dd3f583	0.10349562
222	0x3ddbbaa8	0.10728961
223	0xbd2939ee	-0.04131501
224	0xbe2ac759	-0.16677608
225	0xbc5d7cdf	-0.013518541
226	0xbe14f733	-0.14547424
227	0x3e025a8e	0.12729856
228	0x3d8693f0	0.065711856
229	0x3c218a46	0.009859627
230	0x3d34ae9a	0.044111826
231	0xbddb0c8a	-0.10695751
232	0x3df53183	0.11972334
233	0x3d0ff3c5	0.035144586
234	0x3e2823cf	0.1641991
235	0xbd756ad9	-0.05991635
236	0xbe992073	-0.2990757
237	0x3cf70dff	0.030158041
238	0x3b97d397	0.004633378
239	0xbcca62e3	-0.024705356
240	0x3d9c09f9	0.0761909
241	0x3dd828f3	0.105546854
242	0x3e605ded	0.2191083
243	0x3d38d2da	0.04512296
244	0x3e6fd0f5	0.23419555
245	0x3e21ea6a	0.15812078
246	0x3d5133f6	0.051074944
247	0xbdbda870	-0.092606425
248	0x3e1b5aec	0.15171403
249	0xbd2b15aa	-0.041768707
250	0x3d5d8bd2	0.05408842
251	0xbd4bcedd	-0.049757827
252	0x3dbfaae6	0.09358768
253	0xbde37a8e	-0.1110736
254	0xbd18438c	-0.037173793
255	0xbcd920a9	-0.026504831

linear1.bias f4 [128]
0	0x3b322f8c	0.0027188985
1	0x3e05d3ea	0.1306912
2	0xbdbc7226	-0.092014596
3	0x3daae2cc	0.08344039
4	0xbe329b16	-0.17441973
5	0xbcc4acd3	-0.02400819
6	0x3e319fbf	0.17346095
7	0xbe2b129c	-0.16706318
8	0x3e2e0294	0.16993171
9	0x3c2ef9f0	0.010679707
10	0x3da185cc	0.07886848
11	0x3d4cf51a	0.050038435
12	0xbcf485ff	-0.02984905
13	0xbe19329b	-0.1496071
14	0x3d9d3948	0.07676941
15	0xbd43abfc	-0.04777144
16	0x3de8a458	0.11359471
17	0xbd126950	-0.035744965
18	0xbc797cbc	-0.015227493
19	0xbddc7d1f	-0.107660525
20	0x3d6312f8	0.055438012
21	0x3dc57762	0.09641911
22	0xbe3446ca	-0.17605129
23	0x3cb7a4e3	0.022417491
24	0xbd6fc848	-0.058540612
25	0xbd8c9606	-0.06864552
26	0xbd3290e8	-0.043595225
27	0x3db44548	0.08802277
28	0xbd274c07	-0.04084399
29	0xbccf57ab	-0.025310358
30	0x3dd6717c	0.10470864
31	0xbcf41eb9	-0.029799806
32	0xbc3ba0c8	-0.011451907
33	0x3e112aab	0.14176433
34	0x3d596f91	0.053084914
35	0xbd5ded0d	-0.054181147
36	0x3e067a81	0.13132669
37	0x3df872bd	0.121312596
38	0xbe37dc40	-0.17955112
39	0xbdba0f7e	-0.09084986
40	0x3ccebb1b	0.025235703
41	0xbde6e6ed	-0.11274514
42	0x3ce3a584	0.027788885
43	0xbddb7c39	-0.10717053
44	0xbe1d894f	-0.1538441
45	0x3e3f52e5	0.18683966
46	0xbdab3f2b	-0.08361658
47	0x3d62590c	0.055260703
48	0xbe1d89a8	-0.15384543
49	0x3d12ab26	0.03580775
50	0x3e2c4b54	0.1682561
51	0x3da8b6d1	0.082379945
52	0xbd2f1044	-0.04274012
53	0x3e25e10e	0.16199133
54	0x3cdbb3a5	0.02681906
55	0xbd4ab24b	-0.04948644
56	0x3e20e1a7	0.1571108
57	0xbdfbd1ff	-0.12295913
58	0x3dee517a	0.11636634
59	0x3d685866	0.05672493
60	0x3e09fc1d	0.1347508
61	0x3d5897f6	0.052879296
62	0xbda031c1	-0.0782199
63	0xbdd9e528	-0.10639411
64	0xbe0525e7	-0.1300274
65	0x3c247519	0.010037684
66	0xbe07e66c	-0.13271493
67	0xbe078093	-0.13232641
68	0x3e2dcc34	0.16972429
69	0x3d6ee43f	0.05832314
70	0xbd958ce4	-0.073022634
71	0xbe31562b	-0.17318027
72	0x3d900e3f	0.07033967
73	0x3c0bab04	0.00852466
74	0x3deb3526	0.11484747
75	0x3d8417e7	0.064498715
76	0x39e92ed8	0.00044476124
77	0xbd55b72b	-0.052176636
78	0xbe2edef8	-0.17077243
79	0x3e1f9dbb	0.15587513
80	0x3dbaa3f4	0.09113303
81	0x3dda17d4	0.10649076
82	0x3e06addc	0.1315226
83	0x3da226b3	0.079175375
84	0x3d8d1ec4	0.06890634
85	0xbe394bc0	-0.18095303
86	0xbd686a7c	-0.056742176
87	0x3dc9b584	0.098490745
88	0xbdd9a482	-0.106270805
89	0x3cd538b1	0.02602801
90	0x3c18dd2c	0.009330075
91	0xbe271afd	-0.16318889
92	0x3dddd40e	0.10831462
93	0x3e0b5c0e	0.13609335
94	0xbe336fb6	-0.17523083
95	0x3ddfb10c	0.10922441
96	0x3df5c05d	0.11999581
97	0x3d8005cb	0.06251105
98	0xbd5bd452	-0.05366928
99	0xbd403dbb	-0.04693387
100	0xbcfa1402	-0.030527119
101	0x3d891be4	0.06694773
102	0x3d8a9f5d	0.067686774
103	0xbb3cec9c	-0.0028827554
104	0xbd9f87f7	-0.07789605
105	0x3dca255d	0.09870408
106	0xbcc0812c	-0.023499094
107	0xbd95a30a	-0.07306488
108	0x3e03bdf6	0.12865433
109	0xbe39e61d	-0.18154188
110	0xbd2c1f4c	-0.042022035
111	0x3b95ab2d	0.004567525
112	0xbcff2b5f	-0.03114861
113	0xbd78ff55	-0.06079038
114	0x3d12e1cd	0.03585987
115	0xbd8cb48f	-0.06870376
116	0x3ddde50b	0.10834702
117	0x3b786be4	0.0037906105
118	0xbd7ee8bc	-0.06223367
119	0x3c0a3fa8	0.008438028
120	0xbd5b4138	-0.053528994
121	0xbe28f6c2	-0.1650038
122	0xbe1674e3	-0.14693026
123	0xbdf9d4d0	-0.12198794
124	0x3df9107a	0.12161346
125	0xbd394e59	-0.045240734
126	0xbdd242d5	-0.102666534
127	0xbe113be5	-0.14183004

linear2.weight f4 [128, 128]
0	0x3dad3e7f	0.08459186
1	0xbd7bbdf4	-0.06146045
2	0x3d187bcb	0.037227433
3	0xbc62070d	-0.013795626
4	0x3d1853a8	0.037189156
5	0xbe726080	-0.23669624
6	0xbd890933	-0.06691208
7	0xbd8b354f	-0.06797277
8	0x3cb87434	0.022516347
9	0x3dab3fc9	0.083617754
10	0xbd71b44e	-0.059009843
11	0x3cc0b8f1	0.023525687
12	0xbdad69b9	-0.084674306
13	0x3c52cd45	0.012866323
14	0x3d5c5630	0.053793132
15	0x3d4f4e76	0.050611936
16	0xbdd29aac	-0.102834076
17	0xbd6ae922	-0.05735124
18	0x3d91e266	0.0712326
19	0x3d239f12	0.039946623
20	0x3cbed90f	0.023296861
21	0xbb2d916b	-0.002648438
22	0x3d822af2	0.063558474
23	0x3c1d4f38	0.009601407
24	0x3cc06be3	0.023488944
25	0xbe17092b	-0.14749591
26	0xbd535b37	-0.05160066
27	0xbda3152a	-0.07963021
28	0xbd7c5641	-0.061605696
29	0xbeb11d98	-0.3459289
30	0xbdae6476	-0.08515255
31	0xbdf2aa06	-0.11848836
32	0x3da0fde3	0.07860925
33	0x3cdaba11	0.026700052
34	0xbd3fc450	-0.046818078
35	0x3db03c1e	0.086052164
36	0x3d87b7ed	0.06626878
37	0xbdfcf0e2	-0.12350632
38	0xbc33870c	-0.010957491
39	0xbcfcb2f4	-0.03084705
40	0xbdaf2391	-0.08551706
41	0xbd1d96aa	-0.038473763
42	0xbd8b08bd	-0.06788776
43	0xbc8b592d	-0.017010296
44	0x3d8ef4a1	0.06980253
45	0xbcef6698	-0.029223725
46	0xba3d7aa4	-0.0007228053
47	0xbd6ede8c	-0.058317706
48	0x3e879f19	0.2648857
49	0xbe44125c	-0.19147629
50	0x3c258b58	0.010104023
51	0xbd1702f8	-0.036868066
52	0xbe7027d5	-0.23452695
53	0xbe8d0056	-0.2753932
54	0xbde6cf6a	-0.1127003
55	0x3b9f8d73	0.004869157
56	0xbd41e0e8	-0.047333628
57	0x3a1df400	0.00060254335
58	0xbe5a381a	-0.21310464
59	0xbe15b2f3	-0.14619045
60	0x3cfc3eba	0.03079163
61	0x3e0c90f4	0.1372717
62	0xbc6a86f8	-0.014314406
63	0x3ca503cf	0.020143418
64	0xbda02d8c	-0.078211874
65	0x3c8d3208	0.01723577
66	0x3e53b372	0.20673922
67	0x3c341e3b	0.010993536
68	0xbcfb8e38	-0.030707464
69	0xbd8ba940	-0.06819391
70	0x3d9bba96	0.07603948
71	0x3e19ff3d	0.15038772
72	0x3d4e2ad7	0.050333824
73	0xbcf18c19	-0.02948575
74	0xbc707a04	-0.014677528
75	0x3d5bcfbe	0.053664915
76	0x3b907852	0.0044088745
77	0xbdebd6be	-0.11515568
78	0xbe9ed00b	-0.310181
79	0x3dfc1a83	0.12309744
80	0xbdf908a2	-0.1215985
81	0x3ca490d8	0.020088598
82	0x3d5a980e	0.053367667
83	0x3c98c187	0.018646969
84	0x3cb2199a	0.021740723
85	0xbd7af0dc	-0.061264858
86	0xbd247fb6	-0.040160857
87	0x3cdcd69b	0.0269578
88	0xbdceae16	-0.10091798
89	0xbd8d8c0e	-0.06911479
90	0x3e276677	0.16347681
91	0x3d8f0b19	0.069845386
92	0x3dc3a559	0.09553022
93	0xbd2d27fe	-0.042274468
94	0x3d480c4a	0.048839845
95	0x3d76a5ae	0.0602166
96	0xbda7045b	-0.081551276
97	0x3dacb6b7	0.084332876
98	0xbc18b636	-0.009320786
99	0x3d2d2062	0.04226721
100	0xbcdbaaae	-0.026814785
101	0xbe0580e9	-0.13037457
102	0xbe393b6b	-0.18089072
103	0x3d4a0c02	0.049327858
104	0x3ca00bb3	0.019536829
105	0xbd96cf9b	-0.07363816
106	0x3cdde051	0.027084501
107	0x3d9335a3	0.07187965
108	0xbd91c3a6	-0.07117395
109	0xbc346eb3	-0.011012721
110	0x3bccf96d	0.00625532
111	0xbcd9076d	-0.026492799
112	0x3e76a1fe	0.24085233
113	0xbd63d561	-0.055623416
114	0xbd69fe83	-0.057127487
115	0x3d5b7297	0.05357608
116	0x3db6753e	0.08909081
117	0xbc4a42dc	-0.012345042
118	0xbd72648e	-0.059177928
119	0xbc898062	-0.01678485
120	0x3c5631c8	0.013073392
121	0x3bea5510	0.0071512535
122	0x3d477c98	0.048702806
123	0xbd34318e	-0.04399257
124	0x3d5caf5d	0.053878177
125	0x3cd4ea99	0.025990771
126	0xbe89006f	-0.26758143
127	0xbbafb6be	-0.0053623607
128	0xbdbb33e2	-0.09140755
129	0xbd0f1b04	-0.034937873
130	0xbd8264ae	-0.063668594
131	0xbe8957bd	-0.26824751
132	0xbb10443b	-0.0022013325
133	0xbda4884f	-0.08033811
134	0xbe2563c7	-0.16151343
135	0x3d819fbd	0.06329296
136	0xbc91daf2	-0.017804597
137	0xbdaac919	-0.083391376
138	0xbbcf2c30	-0.006322406
139	0x3d8b79aa	0.06810315
140	0x3dab7172	0.08371247
141	0xbd8e7543	-0.0695596
142	0xbc94bffd	-0.018157953
143	0x3d332f24	0.04374613
144	0xbcee2a30	-0.029072851
145	0x3d9a4c03	0.07534029
146	0x3db09069	0.08621294
147	0x3d818c21	0.063255556
148	0xbea5840d	-0.3232731
149	0x3cc75467	0.024332238
150	0x3c3d7017	0.011562369
151	0x3e15a438	0.14613426
152	0x3aac209a	0.0013132275
153	0xbdad6ad9	-0.08467645
154	0xbd1186dc	-0.035529003
155	0x3db3fe27	0.0878871
156	0x3d59db5b	0.05318771
157	0xbd0ae259	-0.03390727
158	0x3d15f99a	0.03661499
159	0xbd2ec576	-0.042668782
160	0xbdb77fb9	-0.08959908
161	0x3c99d468	0.018778041
162	0xbe70045b	-0.23439161
163	0xbda51dbe	-0.080623135
164	0xbc839db2	-0.016066406
165	0x39580b71	0.00020603627
166	0x3dcb3b8a	0.099234655
167	0xbdb3fab8	-0.08788055
168	0xbe21db90	-0.15806413
169	0xbcdce30d	-0.026963735
170	0xbe1b8641	-0.15187933
171	0xbdd2479f	-0.10267567
172	0x3d0ce72c	0.03440015
173	0xbc1b5d87	-0.009482748
174	0x3ce7eedd	0.028312141
175	0xbe50122b	-0.2031943
176	0xbd6c0a0b	-0.057626765
177	0x3d1375da	0.036001064
178	0x3dacdc17	0.08440416
179	0x3ccadd90	0.024763852
180	0xbc5ff031	-0.013668106
181	0xbe3b11d1	-0.18268515
182	0xbdc64a9c	-0.09682199
183	0xbdfff6f3	-0.12498274
184	0xbbee795b	-0.0072776503
185	0x3cb1470c	0.021640323
186	0xbd4c0143	-0.04980589
187	0x3da012b4	0.07816067
188	0xbe131bb5	-0.14366038
189	0xbe2638ea	-0.16232648
190	0xbcdce325	-0.02696378
191	0x3db668c5	0.08906702
192	0xbc80a3f3	-0.015703177
193	0xbca648cf	-0.02029839
194	0xbd053ca0	-0.03252852
195	0xbc0930e7	-0.008373476
196	0xbb9bc561	-0.004753754
197	0xbe9dbc61	-0.30807784
198	0x3afe36e5	0.0019395022
199	0xbc6f7058	-0.014614187
200	0x3dd5dec5	0.104428805
201	0xbe1a3db6	-0.15062603
202	0xbe110792	-0.14163044
203	0x3d31b099	0.043381307
204	0xbd2456d8	-0.040121883
205	0xba8297d6	-0.0009963464
206	0x3c565f83	0.013084295
207	0x3cfd0467	0.030885888
208	0x3d282981	0.041055206
209	0xbda68dcc	-0.08132514
210	0xbe15a344	-0.14613062
211	0x3d16c68f	0.036810454
212	0xbc6b1c4d	-0.014350009
213	0x3d4cc3be	0.04999136
214	0x3da59dca	0.080867365
215	0xbb89d574	-0.004206354
216	0x3d8be42e	0.06830631
217	0x3c8e99af	0.017407266
218	0x3cd8fe0d	0.026488328
219	0xbd85ede4	-0.06539515
220	0x3d884114	0.06653038
221	0x3d724a36	0.059152804
222	0x3db1385f	0.0865333
223	0xbd89a12b	-0.067201935
224	0x3de90a91	0.113789685
225	0xbbe2d2ff	-0.0069221254
226	0xbdb93149	-0.090426035
227	0x3d02892c	0.0318691
228	0x3d35dc9f	0.044399854
229	0xbce37b42	-0.027768735
230	0xbc96ef31	-0.018424602
231	0xbe3b7336	-0.18305668
232	0xbd5f3c80	-0.054501057
233	0xbcb9de8f	-0.022689132
234	0xbde6b738	-0.11265415
235	0xbda89b23	-0.08232715
236	0x3d085e40	0.03329301
237	0x3d69d414	0.05708702
238	0xbcb346b6	-0.021884304
239	0x3d6f5a7c	0.058435902
240	0x3e20705f	0.15667866
241	0x3da425d2	0.08015026
242	0xbcde0c50	-0.02710548
243	0xbed7ed94	-0.42173445
244	0x3d4f62f6	0.050631486
245	0x3e542eb8	0.20720947
246	0x3c667060	0.014064878
247	0x3d264424	0.040592328
248	0x3db021db	0.086002074
249	0xbda3611e	-0.07977508
250	0xbd459b38	-0.04824373
251	0xbe2afe32	-0.1669853
252	0xbd9c409f	-0.07629513
253	0xbdfd9e10	-0.12383664
254	0x3db57291	0.088597424
255	0x3d8ab744	0.067732364

linear2.bias f4 [128]
0	0xbd727f6d	-0.059203554
1	0xbd784431	-0.060611907
2	0x3d3caf7e	0.0460658
3	0x3d89159f	0.06693577
4	0x3debd198	0.11514586
5	0x3c9669f0	0.018361062
6	0x3db75fdf	0.08953833
7	0xbc5063b3	-0.012719083
8	0x3d9e7612	0.07737364
9	0x3d67660a	0.056493796
10	0x3d16afb6	0.036788665
11	0xbce3edd0	-0.027823359
12	0x3de856fb	0.11344715
13	0xbd0237f7	-0.031791653
14	0x3b80b50c	0.0039278325
15	0x3cb69ba8	0.02229102
16	0x3ca2bae4	0.019864507
17	0xbd97e9aa	-0.07417615
18	0xbc044463	-0.008072945
19	0xbc954b55	-0.018224398
20	0x3da6e118	0.08148402
21	0xb969e084	-0.0002230425
22	0xbce54735	-0.027988056
23	0xbca0d42b	-0.01963242
24	0xbd370303	-0.044680607
25	0xbcbaf980	-0.022824049
26	0xbd83e43d	-0.06440017
27	0xbb4bb872	-0.003108528
28	0xbd02767a	-0.03185127
29	0x3d8a4542	0.06751491
30	0x3dbefd48	0.09325653
31	0x3d824a85	0.0636187
32	0xbae96921	-0.001780782
33	0xbcde19a9	-0.027111845
34	0x3ccd7b0d	0.02508309
35	0xbd9ed5b0	-0.077556014
36	0xbcff34be	-0.03115308
37	0xbd375687	-0.044760253
38	0x3d5623b9	0.05228016
39	0x3d0da2e4	0.034579173
40	0x3cdf4454	0.027254261
41	0x3e01e8de	0.12686488
42	0xbdb75074	-0.08950892
43	0x3cc87c42	0.024473313
44	0xb95a30d3	-0.00020808289
45	0x3b3e0d60	0.0028999671
46	0xbc20fd0d	-0.009825957
47	0x3d3a9d74	0.045560315
48	0xbd8d059b	-0.06885835
49	0x3ba8e2e1	0.005153999
50	0xbcc4cbc9	-0.024022954
51	0xbda05a7d	-0.07829759
52	0x3db01cb9	0.085992284
53	0xbd5f54a2	-0.05452407
54	0xbd9a52cb	-0.07535323
55	0xbcb6c266	-0.022309493
56	0xbd96122e	-0.07327686
57	0xbc8ce074	-0.017196871
58	0x3c7f0eea	0.015567521
59	0xbd720806	-0.059089683
60	0x3d15fe41	0.03661943
61	0x3d8b2e2c	0.06795916
62	0xbbc66bb6	-0.0060553206
63	0xbd93d4dd	-0.07218335
64	0x3d5fe422	0.054660924
65	0xbd28f6a9	-0.04125086
66	0xbd01c646	-0.03168323
67	0x3bc4bb80	0.006003797
68	0xbbbe5c81	-0.005809367
69	0x3c68f867	0.01421938
70	0x3c578c5e	0.013156025
71	0x3c2461f5	0.01003312
72	0xbcb8991e	-0.02253395
73	0xbd80287c	-0.06257722
74	0xbc95d79e	-0.01829129
75	0x3d8c059b	0.06837007
76	0xbcd2b578	-0.025721297
77	0x3d574982	0.052560337
78	0xbb8fee80	-0.004392445
79	0xbc940e6a	-0.01807328
80	0x3d0e5ea7	0.034758236
81	0xbcca3180	-0.024681807
82	0xbd4f21b0	-0.050569236
83	0x3d696ddc	0.056989536
84	0x3d4e37b7	0.050346103
85	0x3d0ed0b6	0.03486701
86	0xbdc08816	-0.09400956
87	0x3cc1da67	0.023663713
88	0xbd81c5ce	-0.063365564
89	0x3d5b5b02	0.05355359
90	0x3dc19498	0.0945217
91	0x3dd525a3	0.10407569
92	0x3d22e863	0.039772402
93	0xbd51f5dd	-0.051259864
94	0xbd4781c5	-0.048707742
95	0x3dff2a75	0.1245927
96	0xbd2ac6d2	-0.041693516
97	0x3de966f9	0.113965936
98	0xbd04375f	-0.03227937
99	0xbc56d0e8	-0.013111331
100	0xbd812eee	-0.06307779
101	0xbcbc3169	-0.02297278
102	0x3d948c63	0.07253339
103	0x3d021b17	0.031764116
104	0x3cd109bc	0.025517337
105	0x3da37b68	0.07982522
106	0xbd8b8296	-0.06812017
107	0x3d20174e	0.039084725
108	0xbcf0172a	-0.02930792
109	0x3d1fc34e	0.039004616
110	0x3cb51e4d	0.022109175
111	0x3dec8a3c	0.115498036
112	0xbd2003c9	-0.03906611
113	0x3daf1cac	0.085503906
114	0xbcd5582b	-0.026043018
115	0x3b7ae038	0.0038280617
116	0xbd3a5545	-0.045491476
117	0xbdb9c09c	-0.090699404
118	0x3cf42341	0.029801967
119	0xbd45acb6	-0.048260413
120	0x3bea357a	0.007147488
121	0x3bd70324	0.0065616537
122	0xbd7636fd	-0.060111035
123	0x3d457872	0.04821057
124	0x3d80a091	0.062806256
125	0x3d13329e	0.035936944
126	0x3d530930	0.051522434
127	0xbd366d21	-0.044537667

adv1.weight f4 [128, 128]
0	0xbd6bf5de	-0.057607524
1	0xbda399fc	-0.079883546
2	0x3d9de01d	0.07708762
3	0xbd52c26b	-0.051454943
4	0x3d83e24e	0.064396486
5	0x3c77f84d	0.015134883
6	0x3e3bbdb8	0.1833409
7	0x3dbb4419	0.09143848
8	0xbdb62c7f	-0.08895206
9	0xbd954600	-0.07288742
10	0x3dc0979a	0.09403916
11	0x3d8304f9	0.06397433
12	0xbd8c6bd0	-0.06856501
13	0x3cfe655a	0.031054188
14	0xbdc87d49	-0.09789521
15	0x3cfc2755	0.030780474
16	0xbd3c4dc1	-0.04597259
17	0xbda4a430	-0.08039129
18	0xbdcd7830	-0.100326896
19	0xb8f61ffb	-0.00011736151
20	0x3dbfdff4	0.093688875
21	0xbd4526ec	-0.048132822
22	0xbe34acec	-0.1764409
23	0xbd3c9c01	-0.046047214
24	0xbe11ac5f	-0.1422591
25	0xbe2bca1a	-0.16776314
26	0x3d6fd701	0.058554653
27	0xbd95bbd6	-0.073112175
28	0x3be10d65	0.006868052
29	0x3b020d43	0.001984433
30	0x3db778ca	0.089585856
31	0xbd8905fc	-0.066905946
32	0x3d9a44cd	0.07532654
33	0x3da40721	0.08009172
34	0x3b25714d	0.0025244534
35	0x3cc6d758	0.024272606
36	0x3c9a5652	0.018839989
37	0x3d457096	0.048203073
38	0x3cf9bd78	0.030485854
39	0x3d9f9d66	0.07793693
40	0x3e0ca453	0.1373456
41	0xbdb41e05	-0.08794788
42	0xbd1cc731	-0.0382759
43	0x3da78f59	0.08181638
44	0x3cc3415a	0.023834873
45	0x3c6d1d29	0.014472284
46	0xbc137aa5	-0.009001409
47	0x3cc5a9e3	0.02412886
48	0x3e4db341	0.20087911
49	0xbd16031b	-0.036624055
50	0x3d986753	0.074415825
51	0x3de27057	0.110565834
52	0xbbf0d60b	-0.0073497347
53	0xba056a80	-0.0005089417
54	0x3e4b1134	0.19830781
55	0xbd22e3f4	-0.039768174
56	0xbd147796	-0.03624686
57	0x3d92be87	0.071652465
58	0xbd16797b	-0.036736947
59	0xbda105d0	-0.07862437
60	0xbdb279bd	-0.08714626
61	0x3d912410	0.070869565
62	0xbd9ea364	-0.07746008
63	0x3d2f1e61	0.04275358
64	0x3cf0c0a8	0.02938874
65	0xbd721154	-0.059098557
66	0xbdd70d32	-0.10500564
67	0xbd652cc8	-0.05595091
68	0xbe628e0f	-0.22124504
69	0xbd84be19	-0.06481571
70	0xbd8f5a8d	-0.06999693
71	0xbc668f71	-0.014072285
72	0x3c028b30	0.007967755
73	0x3d276f9a	0.040877916
74	0x3ce2d952	0.027691517
75	0xbda8bd78	-0.08239263
76	0xbda9feac	-0.08300528
77	0xbe018c6a	-0.1265122
78	0x3b8896a6	0.0041683493
79	0x3ddbefc3	0.1073909
80	0xbbbddf40	-0.0057944357
81	0x3d9bd43c	0.0760884
82	0xbdb90a8c	-0.09035215
83	0x3da1f0fd	0.07907293
84	0xbe813c56	-0.25241345
85	0xbca57e06	-0.020201694
86	0xbcbfde08	-0.023421302
87	0xbc3f1188	-0.011661895
88	0x3db31cbd	0.08745716
89	0xbd3a196d	-0.045434404
90	0x3b9a8b71	0.0047163297
91	0x3d8d5236	0.06900446
92	0xbdae0780	-0.08497524
93	0x3dc086ab	0.09400686
94	0xbd4999e8	-0.049219042
95	0xbe2bc18d	-0.16773053
96	0xbc67af32	-0.014140891
97	0xbcc55940	-0.02409041
98	0xbafbf47f	-0.0019222646
99	0xbe405872	-0.18783739
100	0x3db0fce7	0.08641987
101	0x3d5d2615	0.053991396
102	0x3dc13363	0.09433629
103	0x3e3e7ca1	0.1860223
104	0x3ceb8390	0.028749257
105	0xbec26796	-0.37969655
106	0xbe14d966	-0.14536056
107	0x3dd44694	0.10365024
108	0x3d6aadf6	0.05729481
109	0xbcbb0354	-0.022828735
110	0xbd700aa6	-0.058603905
111	0xbdbbab03	-0.09163477
112	0x3d6f753c	0.058461413
113	0xbdacdbe3	-0.084403776
114	0x3e2ca4f3	0.16859798
115	0x3aab59a7	0.0013072983
116	0x3da15a59	0.078785606
117	0xbdf6627c	-0.12030503
118	0xbd7f5f4b	-0.062346738
119	0x3dbc4aea	0.09193976
120	0xbb7f3f84	-0.003894777
121	0x3d504e6c	0.05085604
122	0xbe23b6a4	-0.1598764
123	0xbdc95777	-0.09831136
124	0x3d637910	0.055535376
125	0xbd8db9d8	-0.069202125
126	0x3d99faf9	0.07518572
127	0x3d5811fa	0.05275152
128	0xbdc94bdc	-0.09828922
129	0x3d42a3c0	0.047519445
130	0x3b32cc40	0.0027282387
131	0xbd6093df	-0.05482852
132	0xbcf148e3	-0.0294537
133	0xbe53200f	-0.20617698
134	0xbc1cbb5d	-0.009566155
135	0x3d29cfe3	0.04145802
136	0xbdac3c1d	-0.08409903
137	0x3d1593be	0.03651785
138	0xbe929037	-0.28625652
139	0x3d83efb5	0.06442205
140	0xbd56f0a0	-0.05247557
141	0x3d741af2	0.05959601
142	0x3d660224	0.056154385
143	0xbdf0fd95	-0.11767117
144	0xbd648bfe	-0.05579757
145	0xbd5d7c92	-0.054073878
146	0xbd770572	-0.060307927
147	0xbda936ff	-0.08262443
148	0xbcaad224	-0.020852156
149	0x3e01e3cb	0.12684552
150	0x3e282744	0.16421229
151	0x3d89a42b	0.06720766
152	0x3cfb9899	0.030712413
153	0xbdc99035	-0.098419584
154	0x3d17f94c	0.037102982
155	0x3ddc1f68	0.10748178
156	0xbdceb6dc	-0.100934714
157	0x3dc2d49a	0.09513207
158	0xbdfe1839	-0.12406964
159	0xbcc7f8af	-0.024410574
160	0xbd1db959	-0.03850684
161	0xbc2dc79c	-0.010606673
162	0xbddfa4f5	-0.10920135
163	0x3d9382e9	0.072027035
164	0xbacd4168	-0.0015659751
165	0xbd9ac1ab	-0.075564705
166	0x3decdf4e	0.115660295
167	0x3c99564a	0.018717904
168	0xbd90fa92	-0.070790425
169	0x3dbe5cd5	0.0929505
170	0x3de1cb99	0.11025161
171	0xbca9e6ce	-0.020739939
172	0xbc39fc48	-0.011351652
173	0x3bd30000	0.006439209
174	0x3d96a69f	0.07355999
175	0x3d9e51e2	0.07730462
176	0x3c3895fb	0.011266227
177	0xbd8b67a0	-0.06806874
178	0x3cb6da6c	0.022320949
179	0x3d0e12d8	0.03468594
180	0x3c7ac87e	0.01530659
181	0xbc2e6edc	-0.010646548
182	0xb92469d3	-0.00015679681
183	0xbd89d317	-0.06729715
184	0x3d9f5df0	0.07781589
185	0x3d24d12b	0.04023854
186	0x3d1afa15	0.037836153
187	0x3d20133e	0.03908085
188	0x3e050638	0.12990654
189	0x3e28637c	0.164442
190	0xbd84cc6a	-0.064843014
191	0x3db40c11	0.08791364
192	0x3d8de285	0.06927971
193	0xbd5ed9f7	-0.054407086
194	0x3c2f905e	0.010715572
195	0x3d32708e	0.04356437
196	0x3dbd53e5	0.09244517
197	0xbec1a765	-0.37823024
198	0x3d48ab16	0.048991285
199	0xbbae784f	-0.0053244005
200	0xbd835bd9	-0.06414003
201	0xbd10058f	-0.03516155
202	0x3d5473ae	0.051868133
203	0xbdf7baae	-0.12096153
204	0x3c2f24d0	0.010689929
205	0x3dc1be71	0.09460152
206	0xbd054501	-0.03253651
207	0xbd1911bf	-0.03737044
208	0xbdb4301c	-0.08798239
209	0x3e175a7e	0.14780614
210	0xbeb6a453	-0.35672244
211	0xbdb382f0	-0.08765209
212	0xbcea6a77	-0.02861522
213	0xbdfdc21c	-0.12390539
214	0x3d91e20f	0.071231954
215	0x3d843064	0.06454542
216	0x3d0e551d	0.03474914
217	0x3c4ef98e	0.012632741
218	0x3dddda97	0.10832708
219	0x3d76d4be	0.06026148
220	0xbc11ac28	-0.008891143
221	0xbb77d147	-0.0037813948
222	0x3da2c940	0.07948542
223	0x3e0206a8	0.12697852
224	0x3d95f22a	0.0732158
225	0xbddd91a9	-0.10818798
226	0xbd589f16	-0.05288609
227	0xbd9e99a6	-0.0774415
228	0x3d3f8002	0.046752937
229	0x39e7aaed	0.00044187103
230	0xbdc18c88	-0.09450632
231	0x3dec0df7	0.11526101
232	0x3d7395b2	0.059468932
233	0xbd141424	-0.03615202
234	0xbead16e7	-0.33806536
235	0xbd20be43	-0.039243948
236	0x3e22ee43	0.15911202
237	0xbd949803	-0.072555564
238	0x3dffa80d	0.12483225
239	0xbd4f67e9	-0.050636206
240	0x3c6ed476	0.014577022
241	0xbe18587d	-0.14877506
242	0xbe23eab9	-0.16007508
243	0xbc2f7db0	-0.010711119
244	0x3db35f67	0.08758431
245	0xbd195d22	-0.037442334
246	0x3c9b16b9	0.018931733
247	0x3d58bc5e	0.052914016
248	0x3d963db9	0.073359914
249	0x3dc215e0	0.094768286
250	0x3cfbaab8	0.030721053
251	0xbd74da56	-0.059778534
252	0x3c7bcfc0	0.015369356
253	0x3c527497	0.01284518
254	0x3d8f834c	0.07007465
255	0xbe016c61	-0.12639

adv1.bias f4 [128]
0	0x3d3f99ec	0.04677765
1	0xbd18d783	-0.037314903
2	0xbda2ba20	-0.07945657
3	0x3ae76cc9	0.0017656322
4	0xbe19f1dc	-0.15033668
5	0x3cfa1025	0.030525276
6	0x3d3125b8	0.043248862
7	0xbc21655a	-0.009850824
8	0x3d736820	0.059425473
9	0xbcfed70d	-0.031108404
10	0x3b253042	0.0025205766
11	0xbe1f6625	-0.15566309
12	0xbd97e980	-0.074175835
13	0x3dc6cd71	0.097071536
14	0xbd4707d9	-0.04859147
15	0xbaec2d3c	-0.0018018852
16	0xbe0167d8	-0.1263727
17	0xbd24c493	-0.04022653
18	0xbd43c147	-0.047791746
19	0xbdbf6cb6	-0.09346907
20	0x3d55acc7	0.052166726
21	0xbd994747	-0.07484298
22	0x3d54dcf3	0.051968526
23	0x3d1f8559	0.03894553
24	0xbded3446	-0.11582236
25	0xbcf1d9a8	-0.029522732
26	0xbd63a03c	-0.055572733
27	0xbdbd525f	-0.09244227
28	0xbdb17661	-0.08665157
29	0xbd0513ed	-0.032489706
30	0xbe026fd2	-0.12737969
31	0xbdc08f92	-0.09402384
32	0xbdbce4f5	-0.092233576
33	0x3d3b8ec5	0.045790453
34	0xbda421ef	-0.08014285
35	0xbdddba82	-0.10826589
36	0xbd373379	-0.044726823
37	0x3d667c96	0.05627116
38	0xbceaa2c4	-0.028642066
39	0x3d45de55	0.048307735
40	0xbd38e3e8	-0.045139223
41	0x3d765044	0.06013514
42	0x3cbcf13d	0.02306425
43	0xbcc36453	-0.02385155
44	0xbd7262a6	-0.05917611
45	0xbe0c8e3b	-0.13726132
46	0x3d346545	0.04404189
47	0xbda45ea7	-0.08025866
48	0xbd810836	-0.06300394
49	0x3cb31776	0.021861773
50	0xbd7d6a7e	-0.061869137
51	0xbda895c6	-0.08231692
52	0x3bcb0708	0.0061959065
53	0x3b17ed25	0.002318212
54	0xbd6841c3	-0.05670334
55	0x3c8431f6	0.016137104
56	0x3cde5beb	0.02714344
57	0xbd96c400	-0.07361603
58	0x3d8bed76	0.068324015
59	0xbd98700d	-0.07443247
60	0x3d31f7bd	0.043449152
61	0xbd8b7393	-0.068091534
62	0xbcd7c946	-0.026341092
63	0xbd96aeac	-0.07357535
64	0xbda4d2ed	-0.080480434
65	0x3d80769b	0.06272622
66	0xbd770237	-0.060304847
67	0xbdca4647	-0.098766856
68	0xba6ee471	-0.000911302
69	0xbd8c6025	-0.068542756
70	0x3b2872f1	0.0025703276
71	0x3d16840b	0.03674702
72	0xbde94476	-0.11390011
73	0x3d6fc0cd	0.05853348
74	0xbdbdb75c	-0.09263489
75	0xbc958307	-0.018250955
76	0x3d9bc9fb	0.07606884
77	0x3c6ebc38	0.014571242
78	0xbe015356	-0.12629446
79	0xbd7d7231	-0.06187648
80	0x3d555fdd	0.052093375
81	0xbcf5919f	-0.029976664
82	0x3d7f2d52	0.06229908
83	0xbdfc93a1	-0.123328455
84	0xbd1e9139	-0.038712714
85	0x3ca482b9	0.020081865
86	0x3cd20eee	0.025641885
87	0xbe1a2996	-0.15054926
88	0xbd22efbd	-0.039779413
89	0xbdb76b7e	-0.089560494
90	0xbdef8faf	-0.11697327
91	0xbd8d21e9	-0.068912335
92	0x3c890ebe	0.016730662
93	0xbd49012a	-0.049073376
94	0x3c563527	0.013074196
95	0xbdc54f39	-0.09634251
96	0xbd5a5bc8	-0.053310186
97	0xbd6bdaa7	-0.05758157
98	0x3d4d84a1	0.050175313
99	0xbe00d8f3	-0.1258276
100	0xbd0ee525	-0.034886498
101	0x3d14c9b1	0.03632516
102	0x3cf506ac	0.029910408
103	0xbd9d7a8b	-0.07689389
104	0xbde8f86c	-0.11375508
105	0x3c724703	0.014787438
106	0xbc3f6d68	-0.011683799
107	0xbd1832c0	-0.037157774
108	0x3d7c0657	0.061529484
109	0x3d037ede	0.03210341
110	0xbdcb411b	-0.09924527
111	0xbdc8bede	-0.0980203
112	0xbe00b427	-0.12568723
113	0x3d1cb3ec	0.038257524
114	0xbd7f65c8	-0.062352926
115	0x3d39cc5e	0.045360915
116	0xbc3d66b0	-0.011560127
117	0xbd7c928d	-0.0616632
118	0xbc21812e	-0.009857459
119	0x3d0be09b	0.034149747
120	0xbd9f810c	-0.077882856
121	0x3c5e206d	0.013557536
122	0xbd21b393	-0.039477896
123	0x3d8dcf95	0.06924359
124	0xbc636e9a	-0.01388135
125	0xbd3b5d29	-0.04574314
126	0xbd39f71b	-0.045401674
127	0xbc3a2de6	-0.011363482
