TDQN/MicroGrid/TDQN（改进）/model/actor_model.ckpt (torch, 95812 bytes, 11 tensors)

lstm.weight_ih_l0 f4 [96, 1]
0	0xbe2511ee	-0.16120121
1	0xbe1eceee	-0.15508625
2	0xbe1ffc8c	-0.15623683
3	0x3e46f388	0.19428837
4	0xbd8c167e	-0.068402275
5	0xbc8b29f0	-0.01698777
6	0x3bc9e6a0	0.006161526
7	0x3d59d330	0.05317992
8	0xbdb5cbd6	-0.08876769
9	0x3cd35210	0.025795966
10	0xbde12ea7	-0.10995226
11	0x3da9d438	0.08292431
12	0x3dcdaf4c	0.10043201
13	0x3e02e7d8	0.12783754
14	0xbd8af9ba	-0.06785913
15	0x3dae222c	0.085026115
16	0xbddf910f	-0.109163396
17	0xbca4d360	-0.020120323
18	0x3df61f40	0.12017679
19	0x3e1d1284	0.15339094
20	0xbde959bd	-0.11394069
21	0xbdeb1eeb	-0.114805065
22	0x3d834344	0.06409314
23	0xbcf94e78	-0.030432925
24	0x3d7c7f98	0.06164512
25	0x3b1a5cc0	0.0023553818
26	0xbd1d86a4	-0.03845848
27	0x3e0d08ec	0.13772935
28	0x3e23fa74	0.16013509
29	0xbdc64fdc	-0.09683201
30	0x3e50110a	0.20319
31	0xbdf321f5	-0.11871711
32	0xbdcde4d0	-0.10053408
33	0x3e0c4832	0.13699415
34	0xbda17d82	-0.07885267
35	0x3db886c0	0.090100765
36	0x3cf4b478	0.02987121
37	0x3de1ad24	0.11019352
38	0xbe2742a4	-0.16334015
39	0xbd86753a	-0.06565328
40	0xbe1a6ba7	-0.15080129
41	0x3d52fb88	0.05150941
42	0x3ccc9a60	0.024975955
43	0xbe16c746	-0.14724454
44	0xbac4cc80	-0.0015014559
45	0xbd9b6f88	-0.07589632
46	0xbdd0f621	-0.10203195
47	0x3de15060	0.110016584
48	0xbd2999ac	-0.04140632
49	0xbe4b0135	-0.19824679
50	0x3dd29c40	0.102837086
51	0xbdb57563	-0.0886028
52	0x3db20fcc	0.08694419
53	0xbdd7cc4d	-0.10537014
54	0x3e4a64b0	0.19764972
55	0xbd4b0284	-0.049562946
56	0x3e0f08ea	0.13968244
57	0x3d905758	0.070479095
58	0x3e179954	0.14804584
59	0xbc826628	-0.015917853
60	0xbdd20c8a	-0.10256298
61	0xbd9d5890	-0.076829076
62	0x3dfd9a2c	0.123829216
63	0x3e428318	0.18995321
64	0xbcd12448	-0.025529996
65	0x3e1cb8d0	0.15304875
66	0xbd86356c	-0.06553158
67	0x3dc98608	0.098400176
68	0xbd05edcc	-0.032697484
69	0xbe442e34	-0.1915825
70	0x3e146f86	0.14495668
71	0xbe2d1aea	-0.16904798
72	0xbe2f70a4	-0.17132813
73	0xbe06e24e	-0.13172266
74	0xbbabc2a0	-0.005241707
75	0x3dcb76ac	0.09934744
76	0xbd78e034	-0.06076069
77	0xbe4dbd12	-0.20091656
78	0x3d2e4558	0.0425466
79	0x3e4885b8	0.1958226
80	0x3d4d6bf8	0.050151795
81	0x3d25d878	0.040489644
82	0x3e1a8d7e	0.15093037
83	0xbe1fd2ef	-0.15607809
84	0x3e2e1c2e	0.17002937
85	0x3c5d1030	0.013492629
86	0x3e462d06	0.19353113
87	0xbdb462f5	-0.08807937
88	0xbe0b81be	-0.13623711
89	0xbc93cd00	-0.018042088
90	0xbdb5bd16	-0.08873956
91	0xbdc98446	-0.09839682
92	0xbbb7eb40	-0.005612761
93	0xbd8abfae	-0.06774841
94	0x3e101216	0.14069399
95	0x3cc6c798	0.024265096

lstm.weight_hh_l0 f4 [96, 24]
0	0x3deadd18	0.114679515
1	0x3e078e42	0.13237861
2	0x3df6a8a4	0.120438844
3	0x3e0f0cdc	0.13969749
4	0xbd89d8f8	-0.06730837
5	0xbe29e448	-0.16590989
6	0xbd67bd94	-0.05657728
7	0x3e2913b8	0.16511428
8	0x3da9ec7c	0.08297059
9	0xbdd5f225	-0.10446576
10	0xbe2cd981	-0.16879846
11	0x3db676bc	0.089093655
12	0x3df95af4	0.12175551
13	0x3da9c93c	0.082903355
14	0xbdfc0813	-0.123062275
15	0xbe06a925	-0.13150461
16	0xbdea56cd	-0.11442337
17	0x3db77778	0.08958334
18	0xbe13d8c0	-0.14438152
19	0x3e3be79c	0.1835007
20	0x3e079d4a	0.13243595
21	0x3b8a4460	0.0042195767
22	0xbd8926a8	-0.06696826
23	0x3e3337de	0.1750178
24	0x3d038fec	0.032119676
25	0x3d44d130	0.04805106
26	0x3dd801c4	0.10547212
27	0x3df0cc94	0.1175777
28	0x3ded205c	0.11578438
29	0x3de67c54	0.112541825
30	0xbe22a9bb	-0.1588506
31	0x3e20c312	0.15699413
32	0x3dc36f04	0.09542659
33	0xbe3eb6eb	-0.18624465
34	0xbd91923e	-0.071079716
35	0x3cf478a8	0.02984269
36	0x3e0d562a	0.138024
37	0xbd3d4910	-0.046212256
38	0x3e47adca	0.19499889
39	0x3ddc5054	0.10757509
40	0x3dda1b1c	0.10649702
41	0x3d3985b0	0.04529351
42	0x3d228414	0.03967674
43	0xbe30bc94	-0.17259437
44	0x3e2bdcec	0.16783494
45	0x3e3a9e62	0.18224481
46	0x3d3b7604	0.045766845
47	0x3d519d18	0.051175207
48	0x3e43bcde	0.19115016
49	0x3d165938	0.03670618
50	0x3e057500	0.13032913
51	0xbdca1dbf	-0.09868955
52	0xbd96a00c	-0.07354745
53	0x3c7942f0	0.015213713
54	0xbe3602a9	-0.17774452
55	0xbe04abf0	-0.12956214
56	0x3dd20624	0.102550775
57	0x3dc0729c	0.0939686
58	0x3e075ec0	0.13219738
59	0x3df0bbfc	0.11754605
60	0x3d479c18	0.048732847
61	0x3e4df288	0.2011205
62	0x3e013c6e	0.12620708
63	0x3cc77670	0.024348468
64	0x3d9dbbb8	0.0770182
65	0x3cca5630	0.0246993
66	0x3e085de4	0.13317066
67	0xbd55482c	-0.05207078
68	0xbdf70181	-0.12060834
69	0xbe460f06	-0.19341668
70	0xbd0a5b04	-0.033778206
71	0x3e3cf9d2	0.18454674
72	0x3d9ce544	0.076609164
73	0x3bbd0440	0.005768329
74	0x3e2ce25e	0.16883227
75	0xbe10ed82	-0.14153102
76	0xbdf534f9	-0.11972994
77	0x3e11ea24	0.14249474
78	0xbd765ca0	-0.060146928
79	0xbd2884d8	-0.041142315
80	0x3e4cb022	0.19989064
81	0xbe066d62	-0.13127664
82	0x3d815408	0.06314856
83	0x3cc62298	0.024186417
84	0xbe3db31b	-0.18525355
85	0x3e209588	0.15682042
86	0xbe2b1cf4	-0.16710263
87	0xbdaf261e	-0.08552192
88	0x3c41aec0	0.011821449
89	0xbdb0accf	-0.086267106
90	0x3d08f9ac	0.03344123
91	0xbe4d2e6f	-0.20037244
92	0x3e2c452e	0.16823265
93	0xbe288886	-0.1645833
94	0xbdfe1af3	-0.12407484
95	0xbe4c36e2	-0.19942811
96	0xbd65dc9c	-0.056118593
97	0x3e3dc756	0.18533072
98	0x3dec0118	0.11523646
99	0xbe4865a5	-0.19570024
100	0xbe040974	-0.12894231
101	0x3e032eb0	0.12810779
102	0xbe18a5b0	-0.14906955
103	0xbe3bce71	-0.1834047
104	0x3dea348c	0.11435804
105	0xbdd546fd	-0.104139306
106	0xbdce13e6	-0.10062389
107	0xbe295e46	-0.16539869
108	0xbe337d23	-0.17528205
109	0xbde33589	-0.110941954
110	0xbde4c86d	-0.11171041
111	0x3d6755a0	0.056478143
112	0x3de9d938	0.11418384
113	0xbd6f4454	-0.058414772
114	0x3e0680f8	0.13135135
115	0xbdd9514c	-0.10611209
116	0xbc12c470	-0.008957967
117	0xbde1f575	-0.11033145
118	0x3ced6b70	0.028981894
119	0x3e062a38	0.13102043
120	0x3ce3aa20	0.027791083
121	0xbe3aedea	-0.1825482
122	0xbd3e4ab0	-0.046457946
123	0x3e0c0454	0.13673526
124	0x3e3eeee4	0.18645817
125	0xbcd6b9c8	-0.026211634
126	0x3bfb5360	0.007669851
127	0x3cc49698	0.02399759
128	0x3c026fa0	0.007961184
129	0x3e2a31b8	0.16620529
130	0xbdfadbe2	-0.122489706
131	0xbde2bb78	-0.11070913
132	0xbdf2ac72	-0.118492976
133	0x3d852040	0.06500292
134	0xbda9ba4d	-0.08287487
135	0x3dec2bac	0.11531767
136	0xbda23007	-0.07919317
137	0xbdb68c77	-0.0891351
138	0xbe45703a	-0.19281092
139	0x3e139f02	0.14416125
140	0x3e3a6500	0.18202591
141	0xbd4f27fc	-0.05057524
142	0xbe33dfb3	-0.17565803
143	0x3cbfd050	0.02341476
144	0x3e082f5c	0.13299316
145	0x3bae7320	0.0053237826
146	0x3db8487c	0.089982
147	0x3c8e2638	0.017352208
148	0xbcb94c38	-0.022619352
149	0x3e35b998	0.1774658
150	0x3c878218	0.016541526
151	0x3adeb400	0.00169909
152	0xbda77a85	-0.081776656
153	0xbdc3fe1d	-0.09569953
154	0x3e1c82a2	0.15284207
155	0xbd9e4f8a	-0.077300146
156	0xbdfaf56c	-0.12253842
157	0x3d6d5060	0.05793798
158	0xbd5fe4d8	-0.0546616
159	0xbd3fa418	-0.04678735
160	0xbded233d	-0.11578987
161	0xbca939a0	-0.02065736
162	0x3e1c39ea	0.15256467
163	0xbe131228	-0.14362395
164	0xbd77e324	-0.060519353
165	0xbd088790	-0.033332407
166	0x3e313718	0.17306173
167	0x3e0cdfbc	0.13757223
168	0x3daec450	0.085335374
169	0x3e1a6718	0.1507839
170	0xbcf86e70	-0.030326098
171	0x3d9fe2d4	0.07806936
172	0x3e07ed4c	0.13274115
173	0xbd2071a0	-0.03917086
174	0xbd592720	-0.053015828
175	0xbd8fe5da	-0.070262626
176	0x3dc639c0	0.09678984
177	0x3e0a2ac0	0.1349287
178	0xbe4dd606	-0.20101175
179	0xbdf4c677	-0.11951917
180	0x3e151498	0.14558637
181	0x3e1849b2	0.14871863
182	0x3d986880	0.07441807
183	0xbdc0e87f	-0.09419345
184	0xbe145d5e	-0.14488742
185	0x3d685830	0.056724727
186	0x3d685778	0.05672404
187	0xbd522dc0	-0.05131316
188	0x3e2460c4	0.16052538
189	0x3d87ac98	0.066247165
190	0x3e2cd250	0.16877103
191	0x3e09695c	0.13419098
192	0xbd761760	-0.060080886
193	0x3e25d7be	0.1619558
194	0x3d5f2a28	0.054483563
195	0x3e37d248	0.1795131
196	0xbe0c46d9	-0.13698901
197	0x3e2fec94	0.17180091
198	0xbe36b68a	-0.1784307
199	0x3bffcfc0	0.007806748
200	0x3dc17f00	0.094480515
201	0xbdf26951	-0.11836494
202	0xbe339d38	-0.17540443
203	0xbe139ad3	-0.1441453
204	0x3d0022f0	0.03128332
205	0xbdb2cc13	-0.0873033
206	0xbe22703b	-0.15863125
207	0x3e29b71c	0.16573757
208	0xbe4ab353	-0.1979497
209	0x3d892134	0.06695786
210	0x3d3bf838	0.045891017
211	0xbe4cfaf9	-0.20017613
212	0x3d17dec4	0.03707768
213	0x3d4998b0	0.04921788
214	0xbe396adc	-0.1810717
215	0x3e342126	0.1759077
216	0x3db27f3c	0.08715674
217	0xbe0acd70	-0.1355493
218	0x3e23b3f0	0.1598661
219	0x3e3fc224	0.18726403
220	0xbd37c748	-0.044867784
221	0x3c202ff0	0.009777054
222	0xbd9abb78	-0.07555288
223	0x3e4a55fc	0.19759363
224	0xbc000230	-0.007813022
225	0xbe2a9360	-0.16657782
226	0x3e4cc8d2	0.19998482
227	0x3ce78e38	0.028266057
228	0xbdd1a714	-0.10236946
229	0x3e37aa9e	0.17936179
230	0xbd5fdbdc	-0.054653034
231	0xbc97f7f8	-0.018550858
232	0x3e29c62a	0.165795
233	0x3b066e00	0.0020512342
234	0x3dfb60f8	0.12274355
235	0x3d570568	0.05249539
236	0x3d3a9574	0.045552686
237	0xbdf7296f	-0.1206845
238	0xbd7de5e0	-0.061986804
239	0x3e00442c	0.12526006
240	0x3dd222e8	0.10260564
241	0x3e3f7556	0.18697104
242	0x3df6fff4	0.12060538
243	0x3e185464	0.14875942
244	0x3daffec4	0.085935146
245	0xbe2130dc	-0.15741295
246	0x3cf9e400	0.030504227
247	0xbe2fb2ca	-0.17158046
248	0xbe018bb8	-0.12650955
249	0x3d4417d8	0.0478743
250	0xbe44cd75	-0.19219
251	0xbd6db9f0	-0.058038652
252	0x3e29a5f8	0.16567218
253	0xbd2adad4	-0.041712597
254	0x3e2f1c38	0.17100608
255	0x3d6bbec8	0.05755499

lstm.bias_ih_l0 f4 [96]
0	0xbac5b900	-0.0015085042
1	0xbc4c2af0	-0.012461409
2	0xbe049b60	-0.12949896
3	0xbc4967f0	-0.012292847
4	0x3d5f27c0	0.054481268
5	0x3d866330	0.06561887
6	0x3dc24ff8	0.09487909
7	0x3dd7b7e0	0.10533118
8	0x3e010fba	0.12603655
9	0x3dc89254	0.09793535
10	0x3d770f78	0.060317487
11	0x3de90758	0.11378354
12	0x3e441656	0.19149145
13	0x3dd54760	0.10414004
14	0xbd295db4	-0.041349128
15	0x3dd0bbfc	0.10192105
16	0x3cca5858	0.024700329
17	0xbe34d28b	-0.17658441
18	0x3d8c3d28	0.06847602
19	0x3dd55538	0.10416645
20	0xbd81269a	-0.06306191
21	0x3bf8e660	0.007595822
22	0x3c8ab650	0.016932636
23	0x3e17fd9c	0.14842838
24	0x3e099e22	0.13439229
25	0xbc6700d0	-0.014099315
26	0xbbe01fa0	-0.0068397075
27	0x3e1786a2	0.14797452
28	0xbd852202	-0.06500627
29	0x3dde8878	0.10865873
30	0xbe3134f2	-0.17305353
31	0x3cd9c7d0	0.026584536
32	0xbd8ac408	-0.06775671
33	0xbe4bfdfe	-0.19921109
34	0xbd2e28f8	-0.04251954
35	0xbcb93ef0	-0.022613019
36	0x3e4bc77a	0.19900313
37	0xbdb7abbb	-0.08968302
38	0xbdf6e998	-0.12056273
39	0x3e0ee144	0.1395312
40	0x3dba28d4	0.090898186
41	0x3daa407c	0.08313081
42	0xbdf92a7d	-0.12166307
43	0xbdee44a2	-0.116341844
44	0x3d80b64c	0.0628477
45	0x3e2c783e	0.16842744
46	0xbd868d70	-0.06569946
47	0xbc9d4168	-0.019196227
48	0xbc10d7c0	-0.008840501
49	0x3db29be4	0.0872114
50	0x3dbb89a8	0.09157115
51	0x3d4e57e8	0.050376803
52	0xbe4d1799	-0.20028533
53	0xbe44ff69	-0.19238056
54	0xbe081572	-0.1328943
55	0xbcd06848	-0.02544035
56	0xbdccf3e8	-0.10007459
57	0x3e43a886	0.19107255
58	0x3c96b0e8	0.018394902
59	0xbe1097e6	-0.14120445
60	0x3d55d5d0	0.05220586
61	0x3d790930	0.060799778
62	0xbe020b04	-0.12699515
63	0xbd472a30	-0.048624218
64	0x3e4db360	0.20087957
65	0xbd92cec4	-0.07168344
66	0xbd7392e8	-0.059466273
67	0xbe26cd84	-0.16289335
68	0x3e239376	0.1597422
69	0xbdd6a13f	-0.10479974
70	0x3dcfefbc	0.101531476
71	0xbe452007	-0.19250499
72	0xbe4dab13	-0.20084791
73	0x3e2f660a	0.17128769
74	0x3d7efba0	0.062251687
75	0xbe3fd342	-0.18732932
76	0x3d194ec0	0.037428617
77	0xbdf79fa3	-0.12090995
78	0x3ccf8f18	0.025336787
79	0x3d71f640	0.059072733
80	0xbd532f20	-0.051558614
81	0x3e289634	0.16463548
82	0x3e06da9e	0.13169333
83	0xbe249bd1	-0.16075064
84	0x3e368b36	0.17826542
85	0xbd5b10d8	-0.05348286
86	0xbda77f92	-0.08178629
87	0x3e2d37dc	0.1691584
88	0x3e17211a	0.14758721
89	0xbda12314	-0.07868019
90	0x3deb5268	0.11490327
91	0x3df4e368	0.11957437
92	0x3d66cc08	0.056346923
93	0x3da439f8	0.08018869
94	0xbcc52680	-0.02406621
95	0x3e4c4896	0.19949564

lstm.bias_hh_l0 f4 [96]
0	0x3e4bd34c	0.19904822
1	0xbab1e900	-0.0013573468
2	0x3e4ce9f8	0.20011127
3	0xbdc1263b	-0.0943112
4	0xbb8afb80	-0.004241407
5	0x3d1054c4	0.03523709
6	0xbc4cb140	-0.012493432
7	0xbd786bc4	-0.06064965
8	0xbe20a76d	-0.15688868
9	0x3e1ee96e	0.15518734
10	0xbe2955e1	-0.16536666
11	0xbdbd6ed5	-0.09249655
12	0x3da4b134	0.08041611
13	0x3d98b7f8	0.07456964
14	0xbdf70435	-0.12061349
15	0x3c9b0ab8	0.01892601
16	0xbd0952c0	-0.033526182
17	0x3dd96d2c	0.10616526
18	0x3caf32f8	0.021386608
19	0x3dc24158	0.094851196
20	0x3e0a5780	0.13509941
21	0x3df9e8d8	0.122026145
22	0x3d333894	0.04375513
23	0xbe3e64b0	-0.18593097
24	0xbd2a653c	-0.04160045
25	0x3e0fd48c	0.14045924
26	0xbe0e7d5b	-0.13915007
27	0xbdadb877	-0.084824495
28	0x3e0be348	0.1366092
29	0x3e4d74ec	0.20064133
30	0xbd1b5ccc	-0.037930295
31	0x3e3d6306	0.18494806
32	0x3d801810	0.062545896
33	0x3df87ccc	0.12133178
34	0x3e4ee894	0.20205909
35	0x3de59e00	0.11211777
36	0x3d830b98	0.06398696
37	0x3dbd10a4	0.092316896
38	0x3dd388f4	0.10328856
39	0x3e40cc90	0.18828034
40	0xbd9c3726	-0.07627706
41	0xbdb184b9	-0.08667893
42	0x3e0befbe	0.13665673
43	0x3e3c04a0	0.1836114
44	0x3df31030	0.11868322
45	0xbd87463c	-0.06605193
46	0xbdd0066f	-0.10157477
47	0x3cf5aba0	0.029989064
48	0x3e23f0cc	0.16009825
49	0xbd2d19e8	-0.042261034
50	0x3ca2e230	0.019883245
51	0x3dd21a4c	0.10258922
52	0x3e3f6e7e	0.18694493
53	0x3e2117a8	0.1573168
54	0xbc9abb88	-0.01888825
55	0xbdd6693d	-0.10469291
56	0xbe25b4ec	-0.16182297
57	0xbe3ae991	-0.18253161
58	0x3dafc7e8	0.08583051
59	0xbcac1e48	-0.021010533
60	0xbdf355de	-0.11881612
61	0xbd64fbfc	-0.055904374
62	0x3dd473b0	0.10373628
63	0x3e0f7b3a	0.14011851
64	0xbde9df56	-0.11419551
65	0x3d760100	0.060059547
66	0x3e0ada10	0.13559747
67	0xbd97fc00	-0.07421112
68	0x3de965e0	0.11396384
69	0x3d2857d8	0.0410994
70	0x3df42aa8	0.119221985
71	0x3c4635d0	0.012097791
72	0xbca720a0	-0.020401299
73	0x3de2d7a8	0.110762894
74	0x3d55f0b0	0.05223149
75	0x3d60c1d0	0.054872334
76	0x3e39063c	0.18068784
77	0x3d9442e4	0.07239321
78	0x3d90decc	0.07073745
79	0x3de9d564	0.11417654
80	0xbe181950	-0.14853406
81	0xbd043a04	-0.03228189
82	0x3e0246f8	0.12722385
83	0xbd17f9a0	-0.037103295
84	0xbd2d6010	-0.04232794
85	0x3e41bd02	0.18919757
86	0xbd028c9c	-0.031872377
87	0xbe415722	-0.18880895
88	0xbb770800	-0.0037693977
89	0xbdda33ea	-0.10654433
90	0x3db0abd8	0.086265266
91	0xbd5835cc	-0.05278568
92	0x3db3e454	0.087837845
93	0xbd1d3390	-0.038379252
94	0x3e1e0912	0.15433148
95	0xbe28bb2f	-0.16477655

linear1.weight f4 [128, 27]
0	0x3e1c7421	0.15278675
1	0x3e3ca9e2	0.1842418
2	0xbe2c5a3f	-0.16831301
3	0x3d22e61d	0.039770234
4	0x3b5d2b4a	0.0033747726
5	0xbdd11938	-0.10209888
6	0xbd0cddf5	-0.034391362
7	0xbe077ee4	-0.13231999
8	0xbdec9cc2	-0.11553337
9	0xbe19954e	-0.14998361
10	0x3d00c8ce	0.031441502
11	0x3e1f7e5b	0.15575545
12	0x3e9847d6	0.29742306
13	0x3e07af27	0.13250409
14	0xbd9133f7	-0.0708999
15	0xbd71c03c	-0.05902122
16	0xbe2a4101	-0.1662636
17	0xbcd124b8	-0.025530204
18	0x3c4977bd	0.012296614
19	0x3dd76cd6	0.10518806
20	0x3d57a57c	0.052648053
21	0x3e8eb5e2	0.2787314
22	0x3dd8e332	0.10590209
23	0x3e133cc3	0.14378648
24	0x3d9d20b6	0.07672255
25	0xbdeefac9	-0.11668927
26	0x3d4c5c32	0.04989261
27	0xbd67f394	-0.05662878
28	0xbdda19c5	-0.106494464
29	0x3d94212a	0.07232888
30	0x3e627696	0.2211555
31	0x3e4ce329	0.2000853
32	0x3c2cf7ac	0.010557096
33	0x3e0cd86f	0.13754438
34	0x3d8e58d3	0.069505356
35	0xbce45d02	-0.02787638
36	0xbd591593	-0.05299909
37	0xbde5f597	-0.11228483
38	0xbd874df1	-0.06606663
39	0x3dabc40f	0.083870046
40	0x3e433b5e	0.19065616
41	0x3e7e3f34	0.24828798
42	0x3db91305	0.09036831
43	0xbd8163a0	-0.0631783
44	0xbdfc97bf	-0.12333631
45	0xbcc7dc8b	-0.024397155
46	0xbe146b7c	-0.14494127
47	0xbd86addc	-0.0657613
48	0xbe058976	-0.13040718
49	0xbe1c9c25	-0.1529394
50	0x3d9097cd	0.07060204
51	0xbd7331d3	-0.059373688
52	0x3dc5e2aa	0.09662373
53	0x3ca43fb9	0.020049917
54	0x3d8963fe	0.06708525
55	0x3ce3df30	0.027816385
56	0x3e0bb7a3	0.1364427
57	0x3d4809c0	0.048837423
58	0x3c9ff058	0.019523785
59	0x3d56bc30	0.052425563
60	0xbdac4db8	-0.08413261
61	0x3d617f04	0.055052772
62	0x3d661e58	0.05618128
63	0x3cae08d0	0.021244437
64	0x3c86da18	0.016461417
65	0xbe058a8a	-0.1304113
66	0xbe34fa4e	-0.17673609
67	0x3d937816	0.07200639
68	0xbe11088b	-0.14163415
69	0xbcd2c508	-0.025728717
70	0x3d734a6c	0.059397146
71	0x3b347780	0.0027537048
72	0x3bb3d4a0	0.0054879934
73	0xbe2b1cf9	-0.16710271
74	0x3e298755	0.16555531
75	0x3d62d568	0.0553793
76	0xbd92d5eb	-0.07169708
77	0x3d54b8dc	0.05193411
78	0xbd31ceb4	-0.043410018
79	0xbdee72e8	-0.116430104
80	0xbdf849ac	-0.12123427
81	0xbd966d7d	-0.07345102
82	0xbd5cb949	-0.05388764
83	0x3df31632	0.11869468
84	0x3d75b2bc	0.059984908
85	0x3e1c5017	0.15264927
86	0x3b4e9fa0	0.003152825
87	0x3e3aa3fe	0.1822662
88	0x3c8be9a4	0.017079182
89	0x3db27d6c	0.087153286
90	0xbc73d6dc	-0.014882769
91	0xbde2f40f	-0.11081707
92	0x3e5b4d4e	0.21416208
93	0xbdc980f4	-0.09839049
94	0xbe1f7f98	-0.15576017
95	0x3d72e35b	0.059298854
96	0xbde53e25	-0.11193494
97	0x3dc72c24	0.09725216
98	0xbccfd506	-0.025370132
99	0xbdcb0d71	-0.09914673
100	0xbdc79b82	-0.09746458
101	0x3e4523b1	0.19251896
102	0x3d865d13	0.06560721
103	0x3cd8e7b5	0.026477674
104	0xbd57f088	-0.052719623
105	0xbc4a6702	-0.012353661
106	0x3c789a4d	0.015173507
107	0x3e2de7fa	0.16983023
108	0x3d96fc98	0.07372397
109	0xbded10a2	-0.11575438
110	0xbddd2b71	-0.107993014
111	0xbe37f3e8	-0.17964137
112	0xbe56239f	-0.20912026
113	0x3d97fbe3	0.074210905
114	0xbe39431c	-0.18092006
115	0xbd19e74f	-0.03757411
116	0x3e08249e	0.13295218
117	0x3e124c2b	0.14286868
118	0xbd93eb81	-0.07222653
119	0x3debf699	0.11521644
120	0xbe586ea8	-0.21135962
121	0x3cf118fb	0.029430857
122	0x3dc3df5c	0.09564087
123	0xbe369d53	-0.17833452
124	0xbd48110e	-0.04884439
125	0x3ca3c403	0.019990927
126	0xbe29d60c	-0.16585559
127	0xbe00ff3d	-0.12597366
128	0x3d8f0897	0.0698406
129	0xbdb664f9	-0.08905978
130	0x3e10ff69	0.14159931
131	0x3e08f456	0.13374457
132	0x3e123c91	0.14280917
133	0xbd18a72b	-0.0372688
134	0x3d4cd5c5	0.050008554
135	0xbe625794	-0.22103721
136	0x3dd2a4de	0.10285352
137	0x3e08dfe8	0.13366663
138	0xbcc5d6c7	-0.024150265
139	0xbd6ce585	-0.057836074
140	0x3d56302f	0.052292045
141	0xbabdb64a	-0.0014473882
142	0x3d8c29ca	0.06843908
143	0x3df4918b	0.119418226
144	0xbd7c39b0	-0.061578453
145	0x3e182458	0.14857614
146	0xbd0752bd	-0.03303789
147	0x3e00ee83	0.12590985
148	0x3da5b6fa	0.08091541
149	0xbd1215ab	-0.035665195
150	0xbcfc20b8	-0.03077732
151	0x3dad51fc	0.08462903
152	0xbe27a614	-0.16371948
153	0x3bba46bd	0.005684702
154	0x3d94719e	0.07248233
155	0xbda38415	-0.07984177
156	0x3d24526b	0.040117662
157	0xbe0f2787	-0.13979922
158	0xbe84b5c8	-0.25919938
159	0xbe36d281	-0.17853738
160	0x3e3769b4	0.17911416
161	0x3dfdf128	0.123995125
162	0xbe858ef4	-0.26085627
163	0xbe05083c	-0.12991422
164	0x3dfd5632	0.12369956
165	0xbe1c7108	-0.15277493
166	0xbd12521e	-0.035722844
167	0x3e2bcdfd	0.16777797
168	0xbd9994f8	-0.07499117
169	0x3e78d0b4	0.24298364
170	0xbd240738	-0.040045947
171	0x3e6becac	0.23039502
172	0x3e5a394f	0.21310924
173	0x3c3f7b72	0.0116871465
174	0x3daa0e7c	0.08303544
175	0x3dfa92d8	0.122350395
176	0x3d400fc1	0.046890024
177	0xbe55d96d	-0.20883723
178	0x3d86ac07	0.0657578
179	0x3dd1b018	0.10238665
180	0xbe2add72	-0.16686037
181	0x3c33552d	0.0109456
182	0x3ccd9ac8	0.02509822
183	0xbbb56bf0	-0.005536549
184	0xbd53a6ca	-0.051672734
185	0xbe25c4fd	-0.16188426
186	0xbe0cea57	-0.13761269
187	0x3e374ef4	0.17901212
188	0x3da8fde6	0.08251552
189	0x3b529d9f	0.0032137407
190	0xbd394469	-0.045231257
191	0xbd3dd9b1	-0.046350185
192	0x3e12c17e	0.14331624
193	0xbda5d189	-0.08096606
194	0x3de22eda	0.110440925
195	0xbcd0b4ef	-0.0254769
196	0x3d9ac32c	0.07556757
197	0x3d47ae73	0.048750352
198	0xbe0e9415	-0.13923676
199	0xbcf29718	-0.029613063
200	0x3e01d36a	0.12678304
201	0x3d58c654	0.052923515
202	0xbdd02cfe	-0.101648316
203	0x3db11b45	0.086477794
204	0x3e0c48b5	0.1369961
205	0x3e2dde14	0.16979247
206	0x3b30f382	0.002700061
207	0x3dbac7a5	0.091201104
208	0xbe41b55d	-0.18916841
209	0xbe262e42	-0.16228583
210	0xbdea5e8d	-0.114438154
211	0xbd289247	-0.041155126
212	0xbdc6a4ed	-0.09699426
213	0x3dcfb8e0	0.10142684
214	0x3e047261	0.12934257
215	0xbd2e83d2	-0.042606182
216	0x3df7b3e6	0.1209486
217	0x3d44dcb3	0.048062038
218	0x3d9fd4d3	0.07804265
219	0x3df64961	0.12025715
220	0xbd6f9c1d	-0.05849849
221	0xbaa33883	-0.0012452755
222	0xbd9115ab	-0.07084211
223	0x3de9a404	0.114082366
224	0xbd818e52	-0.063259736
225	0xbd69d4ce	-0.057087712
226	0x3a2741d5	0.0006380354
227	0xbe5206d0	-0.20510411
228	0xbe1e71ce	-0.154731
229	0xbc6912e6	-0.014225697
230	0x3e4e6213	0.201546
231	0x3e0b32db	0.13593619
232	0x3d4f30b0	0.05058354
233	0xbdd98f61	-0.106230505
234	0xbd4bc3be	-0.04974722
235	0xbcfe3adb	-0.031033924
236	0x3d36c715	0.044623453
237	0x3d9604e5	0.07325152
238	0xbd81f1a7	-0.0634492
239	0xbda54657	-0.08070057
240	0x3da75321	0.081701525
241	0xbd42c3a4	-0.04754986
242	0xbe997a39	-0.2997606
243	0xbd2b01bc	-0.0417497
244	0x3e1f59a9	0.15561546
245	0x3ddeb762	0.10874821
246	0xbd30cbe4	-0.043163195
247	0xbe26c977	-0.1628779
248	0xbc18d390	-0.009327784
249	0x3da450c6	0.08023219
250	0x3d8adf76	0.06780903
251	0x3e2444eb	0.16041915
252	0x3aa42c00	0.001252532
253	0xbe3b788f	-0.18307708
254	0x3c38be80	0.0112758875
255	0x3dec4662	0.11536862

linear1.bias f4 [128]
0	0x3c8e3787	0.017360462
1	0x3e36b302	0.17841724
2	0x3e263019	0.16229285
3	0xbde80cb8	-0.11330551
4	0x3ddabb2a	0.1068023
5	0xbd940a6f	-0.072285526
6	0xbd9d5962	-0.07683064
7	0x3d1719dd	0.0368899
8	0xbce3451b	-0.027742913
9	0xba27b500	-0.00063975155
10	0xbd5b5977	-0.053552117
11	0x3c3ce040	0.011528075
12	0xbd34d7c9	-0.0441511
13	0x3e39b3b2	0.18134955
14	0x3cc46b23	0.023976868
15	0xbe251c17	-0.16123997
16	0xbe4336b6	-0.1906384
17	0x3e576e70	0.21038222
18	0xbe23582c	-0.15951604
19	0xbdd89b45	-0.1057649
20	0x3e194720	0.14968538
21	0x3d0390c8	0.032120496
22	0x3e49e20c	0.19715136
23	0xbd0f164c	-0.034933373
24	0x3dea47bd	0.11439464
25	0xbd02dab0	-0.031946838
26	0x3e059d45	0.13048275
27	0x3b0152e0	0.0019733235
28	0x3d9777c8	0.07395893
29	0x3d6b3147	0.05742004
30	0x3dcea2b8	0.1008963
31	0xbd3cd9d3	-0.04610617
32	0x3c482bd0	0.012217477
33	0xbe151162	-0.14557412
34	0xbd3d2295	-0.046175558
35	0xbe37136c	-0.17878503
36	0x3dac8c09	0.08425147
37	0x3d9bc69c	0.07606241
38	0xbe18278a	-0.14858833
39	0x3db30434	0.08741036
40	0x3e1b2f68	0.15154803
41	0xbd0d1d6a	-0.03445188
42	0xbadc2300	-0.0016795099
43	0x3e0d1b5c	0.13779968
44	0xbddff108	-0.10934645
45	0xbe18f8dd	-0.14938684
46	0x3e03c1a4	0.12866837
47	0xbe174054	-0.14770633
48	0x3cfe1c9c	0.031019501
49	0x3cba77d4	0.022762217
50	0x3ce99090	0.028511316
51	0x3e0bc953	0.13651018
52	0xbe02f6c2	-0.12789443
53	0xbd8c397d	-0.068469025
54	0xbe34200e	-0.17590353
55	0x3cb12f6a	0.021629054
56	0xbdffdd2c	-0.12493357
57	0xbda7308a	-0.08163555
58	0x3d80b28c	0.06284055
59	0x3da9e60a	0.082958296
60	0x3d56544a	0.052326478
61	0x3e0f2f02	0.13982776
62	0xbe3702b0	-0.17872119
63	0x3e07a123	0.13245063
64	0x3d5f770c	0.05455689
65	0x3da1abef	0.07894122
66	0xbda60feb	-0.08108505
67	0x3df6ba26	0.12047224
68	0x3cef48d6	0.029209536
69	0xbe181b4e	-0.14854166
70	0x3d335d77	0.043790307
71	0x3d31034a	0.043216027
72	0xbe460e53	-0.19341402
73	0x3d33a633	0.04385967
74	0x3e1703cb	0.1474754
75	0x3d1a69db	0.037698608
76	0xbdcbf7c6	-0.099593684
77	0xbe17aa1f	-0.1481099
78	0x3cc1c3a0	0.023652852
79	0x3cc64e7a	0.024207342
80	0xbdaf6ab7	-0.08565276
81	0x3d9dd8f3	0.077073954
82	0xbb6f917f	-0.0036555228
83	0x3e26bb3c	0.16282362
84	0xbca7becc	-0.020476721
85	0xbd27ba0b	-0.04094891
86	0x3d491013	0.049087595
87	0xbe490b9e	-0.19633338
88	0x3da6bc44	0.081413776
89	0x3d757351	0.059924427
90	0x3d4deee9	0.05027667
91	0xbe06893c	-0.13138288
92	0x3e33ffd5	0.17578061
93	0x3d3c42d1	0.04596216
94	0xbe0d6e4c	-0.13811606
95	0xbd858a9e	-0.0652058
96	0xbd4fba4d	-0.05071478
97	0xbe1347f5	-0.14382918
98	0x3d6e28b1	0.058144275
99	0xbdf7c6d9	-0.12098474
100	0xbd6d234b	-0.057894986
101	0xbe279df6	-0.16368851
102	0xbdc3290b	-0.09529313
103	0xbe11bbe6	-0.14231834
104	0xbca69a68	-0.020337299
105	0xbc1dc960	-0.009630531
106	0xbe3499f7	-0.17636858
107	0x3d15f66a	0.036611952
108	0x3e2a4313	0.1662715
109	0xbe2a8b5e	-0.16654727
110	0xbd860a1b	-0.06544896
111	0xbdd4b2bb	-0.10385653
112	0x3cf68561	0.030092897
113	0xbe1c8b40	-0.15287495
114	0x3e24cd67	0.1609398
115	0xbe0b44c5	-0.13600452
116	0x3d6e267d	0.058142174
117	0xbdc2402d	-0.09484897
118	0x3de6c8da	0.11268778
119	0xbdeb969a	-0.11503334
120	0x3d2cc1d1	0.042177025
121	0x3dfb0e5a	0.12258597
122	0x3c8f9aa6	0.017529797
123	0x3d8a4aae	0.06752525
124	0x3ddc569d	0.10758708
125	0xbddadb68	-0.1068638
126	0xbcbe56de	-0.02323478
127	0x3db04b21	0.0860808

linear2.weight f4 [128, 128]
0	0x3b56ccc0	0.003277585
1	0x3cd3df98	0.025863454
2	0xbcd61ff4	-0.026138283
3	0x3b24ab00	0.0025126338
4	0x3d91a76b	0.071120106
5	0xbcbe9e8c	-0.02326896
6	0x3d932699	0.07185096
7	0xbdae1418	-0.08499926
8	0xbcd3f770	-0.025874823
9	0x3cea26ec	0.028583013
10	0xbc805270	-0.01566431
11	0x3da15045	0.07876638
12	0xbc49c338	-0.01231461
13	0x3d07dd3a	0.033169962
14	0x3db045e7	0.08607083
15	0xbc3bcef0	-0.011462912
16	0xbc028848	-0.007967062
17	0x3d9746c5	0.07386545
18	0x3d22af2e	0.039717846
19	0xbd9bb914	-0.0760366
20	0xbd57f5a4	-0.052724496
21	0xbca57dc0	-0.020201564
22	0x3d9a9ab5	0.07549039
23	0x3be273e0	0.006910786
24	0xbc6e94c0	-0.014561832
25	0xbc260880	-0.0101338625
26	0xbd33e251	-0.043917004
27	0x3bdff760	0.0068349093
28	0x3d7159ca	0.05892352
29	0x3c8e8638	0.017397985
30	0x3c585ea0	0.013206154
31	0xbda170db	-0.078828536
32	0xbd1fb06d	-0.038986612
33	0xbcebb7c4	-0.02877415
34	0x3d92bfcf	0.07165491
35	0x3d8e5a5b	0.06950828
36	0xbbb379c0	-0.00547716
37	0xbd7e93ae	-0.062152557
38	0x3d0b1b5e	0.033961646
39	0xbd16f957	-0.036858883
40	0x3d72300e	0.05912786
41	0x3d057b14	0.03258808
42	0xbcbceee0	-0.023063123
43	0xbc269d58	-0.01016935
44	0x3cd59ff8	0.026077256
45	0x3d8a581b	0.06755086
46	0xbd91f918	-0.07127589
47	0xbd95b47f	-0.073098175
48	0x3b174600	0.0023082495
49	0xbc4ceaf0	-0.012507185
50	0xbd9dc44e	-0.07703458
51	0xbd7a3454	-0.06108506
52	0x3d2f3f12	0.042784758
53	0xbdb4ec50	-0.088341355
54	0x3d0725f8	0.032995194
55	0xbd56aad3	-0.052409004
56	0xbd44035e	-0.047854774
57	0xbd9c1dd8	-0.0762288
58	0x3c574ab8	0.013140373
59	0xbb9d0500	-0.004791856
60	0xbd32feed	-0.043700147
61	0x3d744512	0.059636183
62	0x3c913bac	0.01772865
63	0x3c1e8ed0	0.009677604
64	0x3cd159f8	0.025555596
65	0xbd4822b7	-0.04886123
66	0xbd511e23	-0.05105413
67	0xbd4b3304	-0.0496092
68	0x3d10f87c	0.035393223
69	0x3bbbfdc0	0.0057370365
70	0x3d0fe16c	0.03512709
71	0xbd83c92d	-0.064348556
72	0x3d1a81e6	0.037721537
73	0x3d4c165e	0.04982602
74	0x3da062b3	0.078313254
75	0xbd5ec03d	-0.05438255
76	0x3d86c473	0.065804385
77	0xbd06b059	-0.032883022
78	0x3d3f9ea2	0.046782143
79	0xbce8feb6	-0.028441768
80	0xbab39dc0	-0.0013703629
81	0x3d1466de	0.036230914
82	0xbd4975cb	-0.0491846
83	0x3c1ffe88	0.009765275
84	0xbd1b0a01	-0.037851337
85	0x3d77d9e6	0.06051054
86	0xbb4b8b60	-0.0031058416
87	0x3d28c86e	0.04120677
88	0xbda7ed50	-0.08199561
89	0x3d146972	0.036233373
90	0xbd887d92	-0.06664576
91	0xbd2c93f7	-0.042133298
92	0xbdb15fa5	-0.08660821
93	0x3d6e1b5e	0.058131568
94	0x3b687560	0.0035470352
95	0x3ce9f2d0	0.028558165
96	0x3d50c946	0.0509732
97	0xbd2bfdaf	-0.04198998
98	0xbd862dbe	-0.065516934
99	0x3d57107a	0.052505948
100	0xbd9811b7	-0.07425254
101	0x3d9c71bf	0.07638883
102	0xbdad77ec	-0.08470139
103	0xbd16e5ce	-0.036840253
104	0xbba179d0	-0.0049278513
105	0x3d47e87e	0.048805706
106	0xbcc9eb08	-0.024648204
107	0x3daf4b43	0.08559277
108	0xbd8b2388	-0.067938864
109	0xbd472a5a	-0.048624374
110	0xbd904932	-0.07045211
111	0xbc016870	-0.007898435
112	0xbdb0e771	-0.08637894
113	0xbd17b9af	-0.037042316
114	0xbd1a2763	-0.03763522
115	0x3d273e62	0.040830977
116	0xbbbc1000	-0.005739212
117	0xbd6bbbe0	-0.05755222
118	0x3d9c7b13	0.07640662
119	0xbd89859a	-0.067149356
120	0xbd81750a	-0.063211516
121	0xbd9df032	-0.07711829
122	0xbd32e540	-0.04367566
123	0xbd9783db	-0.07398196
124	0x3c8a3844	0.016872533
125	0x3d00632c	0.031344578
126	0x3b742060	0.0037250742
127	0x3d2f928e	0.042864375
128	0x3def96ee	0.116987094
129	0x3dad5a8d	0.08464537
130	0x3daf6da9	0.08565838
131	0xbd73e31c	-0.05954276
132	0xbd4dd129	-0.0502483
133	0x3cf562ee	0.0299544
134	0xbd74924f	-0.059709843
135	0xbb3253e4	-0.0027210647
136	0x3cf2629e	0.02958804
137	0x3bb2a6e0	0.005452022
138	0x3dbd6b7a	0.09249015
139	0x3cbcdc94	0.023054399
140	0xbd249891	-0.04018456
141	0x3d90750d	0.07053576
142	0xbd82cd79	-0.06386847
143	0x3d5c54a1	0.053791646
144	0x3d1af002	0.037826546
145	0x3db41e7a	0.087948754
146	0xbdc13f88	-0.09435946
147	0xbd8d4954	-0.06898752
148	0xbd5dc343	-0.054141294
149	0x3cd99b10	0.026563197
150	0xbd19e233	-0.037569236
151	0xbd627052	-0.0552829
152	0x3c5bf4c3	0.013425055
153	0xbd9d1e4e	-0.07671796
154	0x3cdbc74c	0.02682843
155	0x3d04f954	0.03246434
156	0xbcf0fc1e	-0.029417094
157	0x3dc2ada6	0.09505777
158	0x3d66071f	0.056159135
159	0x3d11b81d	0.035575975
160	0x3c7f0c00	0.015566826
161	0xbd7d59c1	-0.061853174
162	0x3cf2e5dc	0.029650621
163	0x3cb9de0b	0.022688886
164	0xbd87ad1d	-0.066248156
165	0x3b102665	0.0021995541
166	0xbd9cc130	-0.07654035
167	0xbd993cf9	-0.07482333
168	0xbb099f3a	-0.0020999447
169	0xbd3ae44e	-0.045627885
170	0x3ce46324	0.027879305
171	0x3db6209f	0.08892941
172	0xbd83f61d	-0.06443427
173	0xbd929d8d	-0.07158957
174	0xbd00102f	-0.031265434
175	0xbc89779f	-0.016780673
176	0xbd7f7fd2	-0.06237776
177	0xbd907a85	-0.07054619
178	0xbc37de99	-0.011222505
179	0x3db38991	0.08766473
180	0x3d019f64	0.031646147
181	0x3ce4d52a	0.027933676
182	0x3d243082	0.040085323
183	0x3d9e4018	0.07727069
184	0x3d4fd3b0	0.05073899
185	0x3c8d45ed	0.017245257
186	0xbcbbdd53	-0.022932684
187	0x3da79f59	0.0818469
188	0x3d508914	0.050911978
189	0xbcea26a7	-0.028582884
190	0xbd6c2d24	-0.057660237
191	0x3ce047c1	0.027377965
192	0xbca77e21	-0.020445885
193	0x3d1d5b79	0.038417313
194	0xbd8573f0	-0.06516254
195	0x3d992665	0.07478026
196	0xbce8f4cd	-0.028437043
197	0x3d2f995a	0.042870857
198	0xbdb1d685	-0.086834945
199	0xbcef1ab6	-0.029187541
200	0x3aafc096	0.0013408836
201	0x3dcb357a	0.09922309
202	0xbd935e61	-0.07195736
203	0x3d383ba3	0.04497875
204	0x3c20300b	0.009777079
205	0x3c8e7638	0.017390355
206	0x3da3f30d	0.08005343
207	0x3d4e04b6	0.05029746
208	0xbd2fdafe	-0.042933457
209	0x3dd3ae87	0.10336023
210	0xbc1a7c16	-0.009428998
211	0x3db953a9	0.0904916
212	0xbdd6c7ff	-0.10487365
213	0xbd09bdca	-0.033628263
214	0xbd870c8f	-0.06594192
215	0x3d0b21b4	0.03396769
216	0xbc821150	-0.015877396
217	0x3dee7ffe	0.11645506
218	0x3d274691	0.04083878
219	0x3d88185f	0.066452734
220	0x3ca24879	0.019809948
221	0xbd644fb7	-0.055740084
222	0x3d15cd22	0.036572583
223	0x3d904e49	0.07046182
224	0xbc6b3d95	-0.014357944
225	0xbd045b86	-0.032313846
226	0xbe187bf4	-0.14891034
227	0xbe2f67fb	-0.17129509
228	0xbdf08200	-0.117435455
229	0x3d6c9375	0.057757813
230	0x3d33790a	0.043816604
231	0xbda83bb7	-0.08214515
232	0x3d8acdcf	0.06777536
233	0x3d883bdb	0.066520415
234	0x3d3c1fd6	0.0459288
235	0xbc6d6266	-0.014488792
236	0xbd5da3a6	-0.054111145
237	0x3daab173	0.08334627
238	0x3c44d539	0.012013727
239	0xbccd9b6a	-0.025098521
240	0x3d33b3bb	0.043872576
241	0xbba86ebd	-0.005140154
242	0x3d5e4aaf	0.054270443
243	0x3d60d825	0.05489363
244	0x3c0ed6b1	0.008718179
245	0x3ce5329c	0.027978234
246	0xbd831519	-0.064005084
247	0x3d879b02	0.06621362
248	0x3d4487c5	0.047981042
249	0x3e9fe5dd	0.3123006
250	0xbd91a752	-0.07111992
251	0x3ba78250	0.00511197
252	0x3d2d95a7	0.042379048
253	0x3d86bed2	0.06579365
254	0x3ae33a50	0.0017336104
255	0xbd914aa9	-0.070943184

linear2.bias f4 [128]
0	0x3d14ea1a	0.03635607
1	0xbd0cc41b	-0.03436671
2	0x3dbd605e	0.09246896
3	0xbda576cf	-0.080793016
4	0x3c3f1c62	0.011664482
5	0x3c2799d9	0.010229551
6	0x3d8d702c	0.06906161
7	0x3d257109	0.040391
8	0x3c4c2140	0.012459099
9	0x3d10d5d4	0.035360172
10	0x3c26e220	0.010185748
11	0x3d06e545	0.032933492
12	0x3cd200a2	0.025635067
13	0x3ce9d821	0.028545441
14	0x3d635f25	0.05551066
15	0xbd0e96f6	-0.034811936
16	0xbcabc571	-0.02096817
17	0x3d57a1d2	0.05264456
18	0xbd253334	-0.040332034
19	0xbcc5dff6	-0.024154644
20	0x3cb73ccf	0.022367863
21	0x3d2fb5b8	0.04289791
22	0xbc5f896d	-0.013643605
23	0xbd9ee85b	-0.07759162
24	0x3ce32728	0.027728632
25	0x3c6bb4e0	0.014386386
26	0xbc81fae9	-0.015866714
27	0x3c548c6a	0.01297293
28	0xbd821eef	-0.06353556
29	0x3cab9823	0.020946568
30	0x3d1bfd6c	0.03808348
31	0x3d5f2bb6	0.054485045
32	0x3d0c2a2e	0.034219913
33	0xb8307d23	-4.2078213e-05
34	0xbdb713ab	-0.08939298
35	0x3d092652	0.03348381
36	0xbd02d080	-0.031937122
37	0x3d7e84b9	0.062138293
38	0x3d91723c	0.071018666
39	0x3d0ef6e0	0.034903407
40	0x3c0af068	0.008480169
41	0xbd5018a1	-0.050804738
42	0x3c9e9876	0.019359808
43	0xbd7e81fb	-0.062135678
44	0x3d80619d	0.06268618
45	0xbc4b4c09	-0.012408265
46	0x3d788008	0.060668975
47	0x3d307d9f	0.04308855
48	0x3c965419	0.018350648
49	0x3cbfd360	0.023416221
50	0x3d4f9fbb	0.05068944
51	0xbcb186fc	-0.02167081
52	0xbd4c4e73	-0.049879503
53	0xbd340de0	-0.043958545
54	0x3db03653	0.086041115
55	0xbd3368b6	-0.043801032
56	0xbd6d8b7b	-0.057994347
57	0x3cfdb77c	0.030971281
58	0xbcae4788	-0.021274343
59	0x3da624b9	0.08112473
60	0x3dbeb4e2	0.093118444
61	0x3d113bd3	0.035457443
62	0x3cd1ff69	0.025634484
63	0x3de1f4fd	0.11033056
64	0x3da9fb2e	0.08299862
65	0xbda11100	-0.078645706
66	0x3d54964f	0.051901158
67	0x3d54683a	0.05185721
68	0xbd3fcb26	-0.046824597
69	0xbd047394	-0.032336786
70	0xbd52a97d	-0.051431168
71	0x3d7d65cc	0.06186466
72	0xbd57b9dc	-0.052667484
73	0x3dc8f91b	0.09813138
74	0x3d2724f2	0.04080672
75	0x3d7455a8	0.059652
76	0xbd202cbc	-0.039105162
77	0x3d9e1813	0.077194355
78	0x3a87a9e1	0.001035031
79	0xbd33a058	-0.043854088
80	0x3cc6b4f5	0.024256209
81	0x3d89cd50	0.067286134
82	0xbd96bd71	-0.07360352
83	0x3bbec260	0.005821511
84	0x3c125408	0.008931167
85	0xbdba1589	-0.09086139
86	0xbc2afaa5	-0.010435735
87	0x3c5bef55	0.01342376
88	0xbd0525be	-0.032506697
89	0xbd7da946	-0.06192901
90	0xbce31146	-0.027718198
91	0x3ceb4dc4	0.028723605
92	0xbcd5d22c	-0.026101194
93	0x3cba083c	0.022709005
94	0x3d539489	0.051655326
95	0x3c2bfb98	0.010496996
96	0x3d129955	0.03579076
97	0xbdb215be	-0.08695553
98	0x3d8039f4	0.06261054
99	0xbd0f4457	-0.034977283
100	0xbd110f5a	-0.03541503
101	0xbbe498b2	-0.0069762105
102	0x3d282500	0.04105091
103	0xbcd9833b	-0.026551833
104	0x3c3b51d8	0.011433087
105	0x3d30a677	0.043127503
106	0x3d4d86a1	0.05017722
107	0xba9d27d5	-0.001199002
108	0x3d621c61	0.055202845
109	0x3ca3df7e	0.02000403
110	0xbd88dc87	-0.06682687
111	0xbc12a983	-0.008951548
112	0x3ce326eb	0.027728518
113	0x3ccb1015	0.024787942
114	0x3d55cd8e	0.052197985
115	0x3d9118af	0.07084786
116	0xbd66cc44	-0.056347147
117	0xbc3ece47	-0.01164586
118	0xbc7eaee9	-0.0155446315
119	0xbd359a94	-0.04433687
120	0x3d321e66	0.04348602
121	0x3c968f38	0.018378839
122	0xbd5ded4b	-0.05418138
123	0xbd84ead8	-0.064901054
124	0xbae4c92f	-0.0017454977
125	0x3d8486c4	0.06471017
126	0x3c8babd3	0.017049706
127	0xbc814c88	-0.015783563

linear3.weight f4 [1, 128]
0	0x3b2a946e	0.0026028412
1	0x3d38260a	0.044958152
2	0x3cad08a9	0.021122294
3	0xbca4e954	-0.02013079
4	0x3cdad9c3	0.026715165
5	0xbe29a07c	-0.16565126
6	0x39f0e0ae	0.00045943767
7	0xbbc15af1	-0.0059007336
8	0x3c852029	0.016250687
9	0x3c6385ca	0.013886878
10	0xbc134dd1	-0.008990721
11	0x3d408ee6	0.04701128
12	0x3d58bfb9	0.052917216
13	0xbd06b616	-0.032888494
14	0xbd4d1078	-0.050064534
15	0x3d8f9c29	0.07012207
16	0x3ca31e72	0.019911978
17	0x3d800184	0.06250289
18	0x3de5010c	0.1118184
19	0x3c4365fd	0.011926171
20	0x3c111a6e	0.008856399
21	0x3dd84c69	0.10561449
22	0xbd2ae08d	-0.041718055
23	0x3e30f7bc	0.17282003
24	0xbb0b3b4a	-0.0021245056
25	0x3a9465b0	0.0011321809
26	0x3d9ed7fc	0.077560395
27	0x3bbd60b3	0.0057793497
28	0xbce57ac2	-0.028012637
29	0x3a026154	0.00049736095
30	0xbbe28084	-0.006912293
31	0x3adb51ec	0.0016732789
32	0xbc4c9d63	-0.012488696
33	0x38b84bd2	8.787926e-05
34	0x3bef70ba	0.007307139
35	0xbd28089a	-0.041023828
36	0xba364630	-0.0006953208
37	0x3d5baed5	0.05363353
38	0xb994f86e	-0.00028413854
39	0x3b87fa1d	0.004149689
40	0x3b1929dc	0.0023370897
41	0x395fe580	0.00021352433
42	0xbb10d7fe	-0.0022101398
43	0x3b4ab992	0.0030933362
44	0x3b0ce41a	0.0021498264
45	0xbc505125	-0.012714659
46	0x3a9e574b	0.0012080459
47	0xbceed0ff	-0.029152391
48	0x3ba0b9ea	0.004904975
49	0x3b28620a	0.0025693201
50	0x3d310edb	0.043227058
51	0x3d5a7cf4	0.05334182
52	0x3d03af5a	0.03214965
53	0x3a2e4d48	0.0006649089
54	0xbbfc56b4	-0.0077007655
55	0x3c5d0ae5	0.013491367
56	0x3cd6490c	0.026157878
57	0x3b0815b8	0.0020764899
58	0x3d5be794	0.053687647
59	0xbae07db7	-0.001712731
60	0xbc8cdebc	-0.017196052
61	0xbd25d2e0	-0.04048431
62	0x3d41d306	0.04732039
63	0xbc3a09ab	-0.011354844
64	0xba5c3268	-0.0008399845
65	0x3d213426	0.039356373
66	0x3d66a9bf	0.056314226
67	0xbcf615a5	-0.030039618
68	0xbc589d74	-0.0132211335
69	0xbcad2dc6	-0.02113999
70	0xbaf05a69	-0.0018337491
71	0x3c88f0e2	0.016716424
72	0xbd862ba3	-0.06551292
73	0x3da3f008	0.08004767
74	0x389c1d60	7.444131e-05
75	0x3dab301e	0.08358787
76	0x3c8a89a7	0.01691134
77	0x3b93ea8b	0.0045140437
78	0xbc70b1fb	-0.014690871
79	0xbcbcb90a	-0.023037452
80	0x3c479459	0.012181365
81	0x3d7ddc37	0.06197759
82	0x3bf54736	0.0074852956
83	0x3cf064ce	0.029344942
84	0x3a1beb68	0.0005947859
85	0x3cf8c979	0.030369507
86	0x3c416e80	0.01180613
87	0x3c4aa081	0.012367369
88	0x3c9a940e	0.018869426
89	0xbcf2296f	-0.029560773
90	0x3e02fafe	0.12791058
91	0xbcb8825c	-0.022523098
92	0xbaaa2fca	-0.0012984213
93	0xbaa21c7a	-0.0012368106
94	0x3b98baaf	0.0046609263
95	0xbab31715	-0.0013663495
96	0x3b02c382	0.0019952958
97	0xbb8fd2f2	-0.0043891603
98	0xbdcff5e9	-0.101543255
99	0xbd7f02f1	-0.062258665
100	0xbdea574a	-0.1144243
101	0x3d07feef	0.033202108
102	0x3c6f6de8	0.014613606
103	0xbcdef1ab	-0.027214846
104	0x3ac51ef5	0.0015039133
105	0x3c3e63d8	0.011620484
106	0x3d5a356e	0.05327361
107	0xbc066e9e	-0.008205084
108	0x3d696971	0.056985322
109	0xbdcb469b	-0.09925576
110	0xbbf37388	-0.007429544
111	0x3d815d7b	0.06316658
112	0x3d2683c8	0.04065302
113	0x3ddd915c	0.10818741
114	0xbabb9055	-0.0014309982
115	0x3cd88139	0.026428806
116	0xbdd59271	-0.10428322
117	0x3c416237	0.011803201
118	0xbd33e106	-0.04391577
119	0x3dcd33ec	0.10019669
120	0x3ac9e260	0.0015402548
121	0x3c4ed1eb	0.0126232905
122	0xbba824e8	-0.0051313527
123	0x3d3a9adf	0.045557853
124	0x3dae9f79	0.08526511
125	0x3d5f1147	0.054459836
126	0x3de05468	0.10953599
127	0xba757088	-0.0009362777

linear4.weight f4 [1, 128]
0	0x3afc91bc	0.0019269506
1	0x3d4e8833	0.05042286
2	0xbcec23ec	-0.028825723
3	0x3ca862cc	0.020554923
4	0x3ddba072	0.10723962
5	0xbd15a37d	-0.036532868
6	0xbc5a635c	-0.013329353
7	0xbc3a72be	-0.011379896
8	0xbd8551a8	-0.06509715
9	0xbc5f763d	-0.01363903
10	0x3d788bc3	0.060680162
11	0x3c109afc	0.008826014
12	0xbc88f7ea	-0.016719777
13	0x3b9ea437	0.0048413533
14	0x3d997d95	0.07494656
15	0x3da64819	0.0811922
16	0xbc6b1765	-0.014348839
17	0xbd269945	-0.040673513
18	0xbcc0598d	-0.023480201
19	0xbbec94c1	-0.0072198813
20	0x3d31764c	0.043325707
21	0xbcb6b44d	-0.022302771
22	0xbd02c601	-0.031927112
23	0xbd8e81cd	-0.06958351
24	0xba1db3f0	-0.00060158875
25	0xba6bdc60	-0.0008997377
26	0x3de8cc3a	0.11367078
27	0x3d4017b6	0.046897613
28	0xbcf06a43	-0.029347545
29	0x3ae11bcc	0.0017174422
30	0xb9b622c6	-0.00034739653
31	0x3b43b15a	0.0029860348
32	0xbc6d3b41	-0.014479459
33	0x3b92c529	0.0044790697
34	0xbb4749b7	-0.0030408928
35	0xbcd8d7d5	-0.026470104
36	0x3b3950ea	0.0028276988
37	0x3db6991d	0.08915923
38	0xb9f185db	-0.00046066832
39	0x3b8bac11	0.0042624553
40	0xb9d27018	-0.00040137838
41	0x3ac1ce18	0.0014786152
42	0x3a259013	0.0006315719
43	0xbaa4a897	-0.0012562451
44	0xbaa6b7fb	-0.0012719625
45	0x3df56341	0.11981822
46	0xbad01f51	-0.0015878474
47	0xbdc78d51	-0.09743751
48	0x3be4abb2	0.0069784755
49	0x3a7e2fb8	0.00096964417
50	0x3ca99eb6	0.020705562
51	0x3d8b6277	0.0680589
52	0x3cc647a5	0.024204085
53	0x3d89946c	0.06717762
54	0xbcc8052e	-0.024416532
55	0xbbcf24a3	-0.006321506
56	0xbc131d03	-0.008979085
57	0xbb3a34d8	-0.0028412845
58	0x3d001219	0.03126726
59	0x3b20b816	0.0024523786
60	0xbd56f18e	-0.05247646
61	0x3e2db5e3	0.16963916
62	0xbcf2f978	-0.029659972
63	0xbc94df1f	-0.018172799
64	0xba863429	-0.0010238934
65	0x3d030af9	0.031992886
66	0xbc496490	-0.012292042
67	0x3d49e592	0.0492912
68	0xbdf1898a	-0.117938116
69	0xbc9a4724	-0.01883275
70	0x3ae7c2e0	0.0017681979
71	0xbcc85e30	-0.024458975
72	0xbddca9e7	-0.10774594
73	0xbd5b288e	-0.053505473
74	0xb6e35000	-6.7744404e-06
75	0xbbf1f71e	-0.007384195
76	0xbd5ac198	-0.05340728
77	0xbb7f7818	-0.0038981494
78	0xbcafbf1a	-0.021453429
79	0x3d334a48	0.043772012
80	0xbc93ae96	-0.018027585
81	0xbd278c58	-0.040905327
82	0xbb9f580f	-0.0048627923
83	0x3c243cfe	0.010024307
84	0x3a285ed8	0.0006422824
85	0x3dcb53cc	0.09928092
86	0xbd3e56d4	-0.046469525
87	0xb950e2fb	-0.00019920983
88	0x3bc13089	0.0058956784
89	0xbccadded	-0.024764026
90	0x3d9d8c1e	0.07692741
91	0xbcac8b72	-0.021062586
92	0xba64c170	-0.0008726334
93	0x3b399718	0.0028318819
94	0xbbeda460	-0.007252261
95	0x3b2c195e	0.0026260237
96	0xbbe39a4d	-0.0069458843
97	0xbc58e1b9	-0.01323741
98	0x3babb0f9	0.0052396026
99	0xbc5f5600	-0.013631344
100	0x3c828429	0.01593216
101	0xbceee0da	-0.029159952
102	0xbb85e438	-0.0040860437
103	0xbd037a8d	-0.032099295
104	0xbc29a5f4	-0.010354508
105	0x3cd8b74b	0.026454588
106	0xbcf5a1f2	-0.029984448
107	0xbd10fd30	-0.03539771
108	0x3ce191a4	0.027535267
109	0xbe96bbfb	-0.29440293
110	0xbc0453a5	-0.008076583
111	0x3d230e6f	0.039808687
112	0xba5982ce	-0.00082973845
113	0xbd2f840e	-0.042850547
114	0xbb41fd06	-0.0029600277
115	0x3c8d46f8	0.017245755
116	0xbd64d29c	-0.055864915
117	0x39908795	0.00027566837
118	0xbda8c7c3	-0.082412265
119	0xbd48741c	-0.048938856
120	0x3b19e01c	0.0023479527
121	0xbd555895	-0.05208643
122	0xbc4e3efa	-0.012588257
123	0xbd00c04d	-0.031433392
124	0x3cd36edd	0.0258097
125	0xbcc5254a	-0.024065632
126	0xbba0b7c7	-0.0049047205
127	0x3ae15d98	0.0017194031

linear5.weight f4 [1, 128]
0	0x3b2715a8	0.0025495086
1	0xbb242546	-0.002504663
2	0x3d7a2459	0.06106982
3	0x3b633c3b	0.0034673351
4	0x3c950698	0.01819162
5	0xbdcab1cf	-0.098971955
6	0x3cf13e44	0.029448636
7	0x3c330a14	0.010927696
8	0xbbccf834	-0.006255174
9	0xbb2cc192	-0.0026360494
10	0xbc448dfb	-0.011996741
11	0xbc6c01eb	-0.014404754
12	0xbd74240c	-0.05960469
13	0xbcda9247	-0.026681079
14	0xbbd28384	-0.0064243693
15	0xbbda3a95	-0.0066598156
16	0xbc21f7d4	-0.009885747
17	0x3c6186e9	0.013765075
18	0x3d9539cd	0.07286415
19	0x3c3f49d4	0.011675317
20	0xbd3c2261	-0.045931224
21	0xbc7264aa	-0.014794508
22	0x3c8eb473	0.01742003
23	0xbd8ad0e0	-0.06778121
24	0x3b28ad4a	0.0025738054
25	0x3a12df94	0.0005602774
26	0xbb805576	-0.0039164377
27	0xbc2572df	-0.010098188
28	0xbc88c28f	-0.016694335
29	0xb938e242	-0.00017631895
30	0x3becee03	0.0072305216
31	0xba4d6858	-0.0007835678
32	0x3c97c965	0.01852865
33	0x3a96d59c	0.0011507752
34	0xbb0c0f5d	-0.0021371462
35	0x3cb69eb7	0.022292478
36	0xb9fe8970	-0.00048549054
37	0xbc985a4f	-0.01859775
38	0xbb82810e	-0.0039826697
39	0xba3e41a1	-0.0007257704
40	0xb9f77ef0	-0.00047206087
41	0x3b345180	0.0027514398
42	0x3a641e13	0.0008701991
43	0xb9a328d1	-0.00031120193
44	0xba755e18	-0.00093600294
45	0xbdc6e88b	-0.09712323
46	0xbac8c4e0	-0.0015317462
47	0x3c5cf338	0.013485722
48	0x3ad58964	0.0016291556
49	0x3b3f3a78	0.0029179137
50	0xbd4e6212	-0.050386496
51	0x3dd746d6	0.10511558
52	0x3d6f1571	0.058370057
53	0xbad2b37a	-0.0016075217
54	0x3cae3742	0.021266583
55	0xbc0ad40c	-0.0084734075
56	0xbd28cead	-0.041212726
57	0xbb07b484	-0.002070696
58	0xbc235994	-0.009970088
59	0xb9477600	-0.00019022077
60	0x3cd80ead	0.026374185
61	0xbcb383e9	-0.021913486
62	0x3996aaaa	0.00028737384
63	0x3cb83e4d	0.022490645
64	0xbb8c3ff2	-0.004280084
65	0xbc016328	-0.007897176
66	0xbb4caa1b	-0.003122932
67	0xbc1dd819	-0.009634041
68	0x3d745021	0.05964673
69	0x3c7231f7	0.01478242
70	0xba49b1c4	-0.00076940306
71	0xbd1a3186	-0.037644885
72	0xbe292e24	-0.16521508
73	0xbc8bb127	-0.017052246
74	0xba150b64	-0.0005685596
75	0xbb4b6ee3	-0.0031041435
76	0xbd583e60	-0.05279386
77	0xbb3e6dc4	-0.0029057125
78	0x3c3de0bb	0.011589224
79	0x3cc87f6e	0.024474826
80	0x3d12c618	0.03583345
81	0x3a95aa96	0.0011418636
82	0xbb81893b	-0.0039531267
83	0xbbd1a15d	-0.00639741
84	0xbb2ffa88	-0.002685221
85	0xbc320262	-0.010864826
86	0x3d6dda80	0.058069706
87	0xbaf077c9	-0.0018346246
88	0x3d37d997	0.044885244
89	0x3c34f0ee	0.01104377
90	0x3cf91780	0.030406713
91	0xbbbbf02c	-0.005735418
92	0xba0dbdd0	-0.00054070074
93	0xbb214890	-0.00246099
94	0xbaedc122	-0.0018139223
95	0x3acc5968	0.001559061
96	0x3b1c0b76	0.0023810542
97	0x394c0529	0.00019456878
98	0xbd77da5a	-0.06051097
99	0xbdc93109	-0.09823806
100	0x3da2c98c	0.07948598
101	0xbc9880c3	-0.018616086
102	0xbbd89a9a	-0.006610227
103	0xbd5c15e5	-0.053731818
104	0x3a3884cd	0.0007038832
105	0xbc88e80d	-0.016712213
106	0x3c0f53c2	0.008747997
107	0x3c93b5ca	0.01803102
108	0x39a6131c	0.00031676225
109	0x3d5bc2c9	0.05365256
110	0x3b8132bb	0.003942815
111	0xbb506eb6	-0.003180427
112	0x3d184fc8	0.03718546
113	0x3c5e9914	0.013586301
114	0x3b01e63c	0.0019821068
115	0x3c0f03f7	0.008728973
116	0xbd5a2890	-0.05326134
117	0xbc1b8247	-0.00949151
118	0xbc834c10	-0.01602748
119	0x3b848e52	0.004045286
120	0xbafd5bb9	-0.0019329704
121	0xbca4e385	-0.020128021
122	0xbc623d3b	-0.013808544
123	0xbd00ac4c	-0.031414315
124	0xbc72f11e	-0.014827995
125	0x3a47d55e	0.0007623042
126	0xbd8cc1a4	-0.068728715
127	0x3b4128c2	0.0029473756
