TDQN/MicroGrid/TDQN（改进）/model/critic_model.ckpt (torch, 571738 bytes, 26 tensors)

lstm.weight_ih_l0 f4 [96, 1]
-0.0174205 -0.0687733 0.1595464 -0.13821119 0.1050863 -0.16003093 0.16704589 0.09118104
-0.05746983 0.053432643 0.10913205 0.041709602 -0.10485627 0.1680499 0.089573145 0.17009467
-0.17506126 0.13633552 -0.19239725 0.1498104 -0.017518267 0.060270607 -0.16146739 0.03212616
-0.022481188 -0.14902346 -0.023026258 -0.0527993 -0.036727294 -0.0010486543 0.1530056 -0.13698506
0.017391592 -0.1818442 -0.013703167 0.038508564 -0.11255677 0.030197382 0.10551587 -0.081735454
-0.043790773 0.1269804 0.19130242 -0.0070560277 -0.027345449 -0.106772214 -0.09302783 0.17287606
-0.010147631 0.05404097 -0.14728035 0.12957034 -0.1352239 -0.067476764 0.0710434 0.039616093
0.02829042 0.14744902 0.038897216 0.09373215 -0.022948682 0.08654407 -0.07395533 -0.063356
-0.19843167 -0.0003709644 -0.07947288 -0.14928387 -0.10229451 0.02550681 -0.10625659 -0.063934356
-0.14854398 0.10892907 -0.13209102 0.059556365 -0.191508 0.19759113 -0.14379947 -0.20046744
0.13473296 0.19273621 -0.029465795 0.03920926 -0.05463785 0.025761679 0.18649462 -0.021996707
-0.11418705 -0.009494439 0.20252785 0.17816195 0.06076017 -0.028163582 0.076131225 0.031834945
00000000: 70b5 8ebc 04d9 8cbd 2260 233e 3c87 0dbe
00000010: 7c37 d73d 26df 23be 140e 2b3e 20bd ba3d
00000020: 7c65 6bbd 30dc 5a3d a080 df3d b0d7 2a3d
00000030: e2be d6bd 4615 2c3e 2072 b73d 4c2d 2e3e
00000040: 4243 33be 8a9b 0b3e c903 45be e667 193e
00000050: 7882 8fbc 50de 763d b557 25be b896 033d
00000060: 782a b8bc 9b99 18be 90a1 bcbc 1444 58bd
00000070: 5c6f 16bd 0073 89ba 80ad 1c3e d045 0cbe
00000080: d078 8e3c 5e35 3abe 4083 60bc 28bb 1d3d
00000090: 2a84 e6bd 8060 f73c b418 d83d eb64 a7bd
000000a0: f45d 33bd 2607 023e c8e4 433e 4036 e7bb
000000b0: 9003 e0bc 64ab dabd 6085 bebd 6c06 313e
000000c0: 4042 26bc 105a 5d3d a9d0 16be 16ae 043e
000000d0: 2278 0abe 4231 8abd 347f 913d 7c44 223d
000000e0: 50c1 e73c e0fc 163e b052 1f3d a4f6 bf3d
000000f0: e0fe bbbc 043e b13d e475 97bd cac0 81bd
00000100: ac31 4bbe 007e c2b9 adc2 a2bd dfdd 18be
00000110: c97f d1bd a8f3 d03c 0e9d d9bd 04f0 82bd
00000120: ea1b 18be 3416 df3d de42 07be 60f1 733d
00000130: ac1a 44be 5455 4a3e 2b40 13be 5647 4dbe
00000140: 70f7 093e a45c 453e 4062 f1bc e499 203d
00000150: f0cb 5fbd 280a d33c 72f8 3e3e 7032 b4bc
00000160: e6da e9bd 908e 1bbc 7663 4f3e 1670 363e
00000170: a8df 783d 50b7 e6bc b0ea 9b3d 5c65 023d

lstm.weight_hh_l0 f4 [96, 24]
-0.10974487 -0.027805641 0.032678127 -0.11862871 -0.10203728 -0.19204916 0.059804052 0.018311784
-0.2006094 0.19142103 -0.06738724 -0.15340488 0.09554538 0.14717487 -0.06910528 0.07077652
0.09624007 0.09997764 0.007361099 -0.11781918 0.012771338 -0.14265239 0.103836834 -0.004541695
0.076653 -0.15543826 -0.1501387 -0.1931122 -0.04643622 -0.10356192 0.021222875 0.16906291
-0.055411413 0.119781256 -0.05476798 0.07057735 0.029048711 0.118243754 0.10135919 0.19668972
-0.14699969 0.07215014 0.092766196 0.036849573 -0.12605405 -0.013136029 0.17051557 -0.0724116
-0.1619617 0.06317055 0.027855426 0.19982743 -0.15349248 -0.13493475 0.06923002 -0.03581345
-0.01890698 -0.12245153 0.07621345 0.16389626 -0.19913177 0.1430068 0.11530462 -0.15052798
-0.1144196 0.044787288 -0.1836746 0.13134867 -0.19402587 0.08495104 -0.15245587 0.011047021
0.08148405 0.17002654 0.08289671 0.024270564 -0.17981064 0.03056173 -0.08734727 0.017681912
-0.051481813 -0.15677068 0.010116279 0.014725998 0.011522427 0.12567961 0.13977948 0.14110914
0.1431798 0.041359887 -0.05049081 -0.003302738 -0.048597634 -0.015763775 -0.15657058 0.08135477
0.03500758 -0.018832147 -0.15815626 0.114789814 0.119398266 0.14243612 0.09898499 0.05154127
-0.11046034 -0.029465556 -0.18502626 -0.030335665 -0.10784936 -0.11248185 -0.018257618 -0.09936113
0.16010511 0.14166632 0.1955168 0.15747035 -0.012910694 -0.13940856 -0.01862754 -0.00491789
0.00030311942 0.09709579 0.073167026 0.13581702 0.18870103 0.01676923 0.10065785 -0.15880747
0.15240118 -0.056720957 0.04199387 -0.09834647 0.06989014 0.111923724 0.043846816 -0.055621654
0.19012868 0.1817255 -0.037103295 0.16959402 0.16906378 -0.09484357 -0.18589807 0.14029521
0.12767088 0.09185544 -0.16525498 0.027708218 0.14674342 -0.008052409 0.19063455 -0.113644674
0.093043804 -0.032395184 -0.09403424 0.12967145 0.18335336 0.15269732 -0.08895243 -0.15466815
0.02046749 0.20375714 -0.08833538 0.09300861 0.0016402751 -0.045289963 -0.128367 0.18726772
-0.1885564 -0.04954134 0.20243454 -0.118442096 0.15818313 0.046480298 -0.023642257 0.15909192
0.12938774 0.14520976 0.17239815 0.012460649 0.1205872 0.13978848 0.016917422 0.08055863
0.15008077 0.018841624 0.09634051 -0.12629664 0.19159138 -0.08938029 -0.058540568 -0.14097272
0.09403503 -0.021549359 0.15166882 -0.005345002 -0.10403718 -0.18365178 0.15677702 -0.13131803
0.105905 -0.1824176 -0.078226954 0.18408197 0.023653299 -0.118381746 -0.093080245 -0.048022255
0.08483049 -0.08399178 -0.18348993 0.072664976 -0.16614754 0.01087603 0.18228704 -0.1603277
-0.18544933 0.09201309 -0.1335648 -0.06558943 -0.20140696 0.055686742 0.18683225 0.028777942
0.048838437 0.18159643 0.14157748 0.116449684 0.19130865 0.041825727 -0.16598201 0.09969333
-0.076153785 0.0760611 0.041098937 0.014267817 0.13754049 -0.15622832 -0.14261985 0.036362097
0.08139643 -0.18693288 -0.11595599 0.047545105 0.15524238 0.12764403 0.061587602 0.10169208
-0.114765204 -0.17992605 0.13270587 0.07858643 0.099066675 -0.19159885 0.11062798 0.06425053
00000000: ebc1 e0bd a8c8 e3bc 80d9 053d 9cf3 f2bd
00000010: ecf8 d0bd 89a8 44be 18f5 743d 9802 963c
00000020: 8d6c 4dbe e003 443e 5202 8abd 2b16 1dbe
00000030: 4cad c33d 02b5 163e 1287 8dbd 48f3 903d
00000040: 8419 c53d 14c1 cc3d 6035 f13b 2f4b f1bd
00000050: e03e 513c 7813 12be 68a8 d43d 80d2 94bb
00000060: 40fc 9c3d 352b 1fbe f6bd 19be 34bf 45be
00000070: e833 3ebd 4618 d4bd 98db ad3c d41e 2d3e
00000080: 14f7 62bd e04f f53d 6454 60bd dc8a 903d
00000090: 90f7 ed3c c829 f23d 6895 cf3d 0869 493e
000000a0: 1687 16be 74c3 933d 34fc bd3d 94ef 163d
000000b0: 5014 01be 8038 57bc a29b 2e3e 884c 94bd
000000c0: 4ad9 25be 905f 813d 1031 e43c 909f 4c3e
000000d0: 222d 1dbe 562c 0abe 78c8 8d3d 20b1 12bd
000000e0: d0e2 9abc dec7 fabd cc15 9c3d 6cd4 273e
000000f0: 33e9 4bbe 6070 123e d424 ec3d 0224 1abe
00000100: d354 eabd e072 373d 3215 3cbe 4480 063e
00000110: b8ae 46be d0fa ad3d 641d 1cbe 90fe 343c
00000120: 1ce1 a63d 701b 2e3e c0c5 a93d 10d3 c63c
00000130: 4820 38be 985c fa3c 20e3 b2bd a8d9 903c
00000140: 98de 52bd 7e88 20be c0be 253c 5045 713c
00000150: 90c8 3c3c 28b2 003e 5a22 0f3e ea7e 103e
00000160: ba9d 123e fc68 293d 74cf 4ebd c072 58bb
00000170: 500e 47bd 0823 81bc 0a54 20be 549d a63d
00000180: 1c64 0f3d e045 9abc b7f3 21be ec16 eb3d
00000190: 1487 f43d c6da 113e a4b8 ca3d f01c 533d
000001a0: 0839 e2bd c061 f1bc 8677 3dbe 8082 f8bc
000001b0: 20e0 dcbd e25c e6bd 0091 95bc d97d cbbd
000001c0: 98f2 233e fa10 113e 8e35 483e e83f 213e
000001d0: 6087 53bc 1ec1 0ebe c898 98bc 4026 a1bb
000001e0: 00ec 9e39 28da c63d 98d8 953d 9e13 0b3e
000001f0: d83a 413e a05f 893c b425 ce3d 6d9e 22be
00000200: 0e0f 1c3e 3c54 68bd c401 2c3d e069 c9bd
00000210: 9022 8f3d 4438 e53d b898 333d 88d3 63bd
00000220: 18b1 423e 4016 3a3e a0f9 17bd 0eaa 2d3e
00000230: 0e1f 2d3e 583d c2bd 105c 3ebe 8ca9 0f3e
00000240: 28bc 023e b41e bc3d 9a38 29be 58fc e23c
00000250: e843 163e 40ee 03bc b435 433e 8abe e8bd
00000260: c08d be3d d0b0 04bd 0695 c0bd 98c8 043e
00000270: fcc0 3b3e b05c 1c3e b12c b6bd 5461 1ebe
00000280: 70ab a73c b6a5 503e 2ee9 b4bd 4c7b be3d
00000290: 80fe d63a f881 39bd a472 03be 1cc3 3f3e
000002a0: ee14 41be dceb 4abd 004b 4f3e c591 f2bd
000002b0: c2fa 213e 2062 3e3d 68ad c1bc fee8 223e
000002c0: 387e 043e deb1 143e 2489 303e c027 4c3c
000002d0: 6cf6 f63d b624 0f3e 6896 8a3c ecfb a43d
000002e0: c6ae 193e c059 9a3c 2c4e c53d e853 01be
000002f0: 8830 443e 030d b7bd 3cc8 6fbd 275b 10be
00000300: 7095 c03d 4888 b0bc 124f 1b3e 2025 afbb
00000310: 7211 d5bd 360f 3cbe 288a 203e 3c78 06be
00000320: b8e4 d83d aecb 3abe 7435 a0bd fc7f 3c3e
00000330: 90c4 c13c 2172 f2bd dba0 bebd fcb2 44bd
00000340: 9cbb ad3d e203 acbd c9e4 3bbe 60d1 943d
00000350: 9522 2abe 6031 323c 74a9 3a3e f22c 24be
00000360: 6ee6 3dbe 5c71 bc3d 36c5 08be c053 86bd
00000370: a03d 4ebe c817 643d f450 3f3e b8bf eb3c
00000380: d00a 483d 6af4 393e b0f9 103e 2c7d ee3d
00000390: 6ae6 433e 7451 2b3d 30f7 29be 042c cc3d
000003a0: 84f6 9bbd ecc5 9b3d 5c57 283d 90c3 693c
000003b0: 6ad7 0c3e 51fa 1fbe f00a 12be 6cf0 143d
000003c0: 2cb3 a63d 556b 3fbe 567a edbd a8be 423d
000003d0: dcf7 1e3e 1eb5 023e 4843 7c3d f043 d03d
000003e0: 050a ebbd 893e 38be 0ce4 073e ecf1 a03d
000003f0: 78e3 ca3d 7d32 44be ec90 e23d c895 833d

lstm.bias_ih_l0 f4 [96]
0.13580129 -0.19074951 -0.0056931674 -0.1780881 -0.1422012 0.04260145 0.005911574 0.1965113
0.18377161 -0.19316612 0.16999081 -0.017614678 0.05915743 -0.10836246 0.03034757 -0.13924974
0.1680027 -0.10051505 -0.14104144 0.0466896 -0.046553478 0.1681701 -0.047979474 0.087250024
-0.09636879 0.15385991 0.1368022 -0.07814437 -0.114557475 0.1562486 -0.061309382 0.1434038
-0.10334202 -0.049552977 -0.04312411 -0.12676024 -0.100080624 -0.034055963 -0.099258885 0.1621466
-0.14011365 0.10793641 0.09453681 0.04214646 -0.17514189 -0.024982572 -0.0458965 -0.042864934
-0.075582996 -0.053889513 0.19263864 -0.18599446 -0.021984845 -0.07758482 0.1805026 -0.05139585
0.07057235 0.13333306 -0.025552452 0.1833454 0.06632891 -0.16880964 0.12307483 -0.0142419785
-0.05708775 -0.18967201 0.1283907 -0.13943169 0.12286934 -0.036567867 0.09110752 -0.17278919
-0.16218556 0.13223708 -0.0986858 0.11578134 -0.18472795 0.115364075 -0.004231006 -0.076989084
-0.008002877 0.16390142 0.17543098 -0.15787828 -0.12668149 -0.0025577247 -0.13477476 -0.16169031
-0.07562201 0.17554516 -0.18252552 0.060346544 -0.20080915 -0.023398474 0.085091114 0.1102145
00000000: 7e0f 0b3e d753 43be c08d babb ba5c 36be
00000010: 319d 11be dc7e 2e3d e0b5 c13b 423a 493e
00000020: a02e 3c3e 57cd 45be 1212 2e3e a84c 90bc
00000030: 104f 723d 23ed ddbd 789b f83c 7c97 0ebe
00000040: e608 2c3e d6da cdbd 2b6d 10be 983d 3f3d
00000050: dcae 3ebd c834 2c3e 2086 44bd 24b0 b23d
00000060: 005d c5bd 748d 1d3e e015 0c3e 280a a0bd
00000070: 1c9d eabd a2ff 1f3e 8c1f 7bbd 72d8 123e
00000080: fba4 d3bd 10f8 4abd e8a2 30bd 70cd 01be
00000090: 12f7 ccbd 447e 0bbd 3e48 cbbd c209 263e
000000a0: f479 0fbe c40d dd3d 849c c13d c4a1 2c3d
000000b0: 6558 33be 40a8 ccbc f8fd 3bbd 2493 2fbd
000000c0: 42cb 9abd 40bb 5cbd 1043 453e 5575 3ebe
000000d0: 9019 b4bc cae4 9ebd acd5 383e 7484 52bd
000000e0: 3c88 903d 7688 083e 6053 d1bc e6be 3b3e
000000f0: 74d7 873d 6fdc 2cbe a80e fc3d 3057 69bc
00000100: d8d4 69bd 6139 42be da78 033e 2ec7 0ebe
00000110: eca2 fb3d 30c8 15bd 9496 ba3d a6ef 30be
00000120: f913 26be 2869 073e c81b cabd c41e ed3d
00000130: 5329 3dbe 0044 ec3d 40a4 8abb 74ac 9dbd
00000140: 801e 03bc c6d5 273e 2ea4 333e d8aa 21be
00000150: cbb8 01be 809f 27bb 6502 0abe 2592 25be
00000160: b6df 9abd 1cc2 333e f8e7 3abe f02d 773d
00000170: eaa0 4dbe 28ae bfbc 4044 ae3d 24b8 e13d

lstm.bias_hh_l0 f4 [96]
-0.11602473 0.124299765 -0.024993181 -0.12852708 0.16593227 0.122032195 -0.072841614 -0.025354996
0.060829222 0.018629238 0.013705254 -0.18370329 -0.1464033 0.12881249 0.1961683 0.10281712
-0.1963864 -0.1764987 -0.13144341 0.14529803 0.029627293 0.100145936 -0.1986971 0.102989465
0.07998577 -0.00136289 0.065775126 0.10723439 0.1651803 0.034264207 0.054723233 -0.11526127
-0.16889921 -0.17396787 0.15626186 -0.10407217 -0.0022439808 -0.08175254 -0.09965978 0.065847546
0.1307728 0.0006548315 -0.12456742 -0.12383698 0.19321015 0.14082488 0.16017014 0.19831523
0.17229643 0.19672713 0.05817142 0.13244349 -0.18959528 0.07850075 -0.15799576 0.036801517
-0.1897574 -0.12298866 0.060657322 0.040733665 0.16250384 0.20118034 0.12011486 0.17338431
0.11744791 0.12268636 -0.1524122 -0.17711098 0.014531553 -0.06327179 0.18102178 0.064337164
0.02422911 -0.13668528 -0.07382496 0.030566618 -0.16260964 0.14114189 -0.053142965 0.19340524
0.011072904 -0.113621145 0.1833103 -0.051926896 -0.07486816 0.16753024 -0.18960173 -0.08207355
0.102754354 0.107480854 -0.02033022 0.11248654 -0.19122003 0.025844797 -0.06924322 -0.09967294
00000000: 609e edbd e090 fe3d 80be ccbc 9a9c 03be
00000010: 26ea 293e 04ec f93d fc2d 95bd 48b5 cfbc
00000020: 1028 793d 589c 983c 008c 603c b71c 3cbe
00000030: bfea 15be 6ce7 033e 58e0 483e c891 d23d
00000040: 8419 49be 13bc 34be 1a99 06be 02c9 143e
00000050: f0b4 f23c 5019 cd3d 4177 4bbe 24ec d23d
00000060: 94cf a33d 00a3 b2ba 1cb5 863d b49d db3d
00000070: 0625 293e a058 0c3d 7825 603d 1a0e ecbd
00000080: eaf3 2cbe a224 32be 1c03 203e ca23 d5bd
00000090: c00f 13bb e06d a7bd 6d1a ccbd 14db 863d
000000a0: 4ee9 053e 00a9 2b3a 341d ffbd 3e9e fdbd
000000b0: e2d8 453e 6634 103e a403 243e 2613 4b3e
000000c0: 7a6e 303e d672 493e 2845 6e3d 449f 073e
000000d0: 4425 42be 00c5 a03d a4c9 21be 30bd 163d
000000e0: c44f 42be 7be1 fbbd d073 783d 58d8 263d
000000f0: 6867 263e 3802 4e3e c8fe f53d a88b 313e
00000100: 8888 f03d fc42 fb3d f211 1cbe 955c 35be
00000110: c015 6e3c a494 81bd c65d 393e 34c3 833d
00000120: 207c c63c 3af7 0bbe 8a31 97bd d866 fa3c
00000130: 2483 26be 8087 103e 70ac 59bd 060c 463e
00000140: 206b 353c 34b2 e8bd b2b5 3b3e 4cb1 54bd
00000150: 7a54 99bd 0c8d 2b3e f526 42be 2d16 a8bd
00000160: e070 d23d ec1e dc3d 908b a6bc 585f e63d
00000170: 2fcf 43be 78b8 d33c 64cf 8dbd 5421 ccbd

linear1.weight f4 [128, 30]
-0.085511565 0.040110353 -0.13438056 -0.06321235 -0.23759207 -0.051589333 -0.058995135 0.007594857
-0.15411171 0.07222372 -0.05531797 0.15824804 -0.03835731 -0.1583473 -0.19775425 -0.15070665
-0.061909653 -0.12578927 0.0012593588 -0.022296837 -0.16144101 0.05980041 0.07848775 0.085075125
0.016844485 0.113456786 0.3553334 0.14020939 0.027670465 0.046962123 -0.1125266 0.10949096
0.0018554032 0.15350395 0.15477917 0.083865434 0.10703799 0.17904466 -0.09628214 -0.09906737
-0.11755217 -0.17283037 -0.1284463 -0.11804065 0.15008989 -0.15592577 0.087736875 0.038037226
0.07147038 0.14431694 0.12721404 -0.00047138333 0.16886783 -0.0542524 -0.09131917 -0.15944499
0.068237185 -0.13370234 -0.022314534 0.0067907125 0.020325541 -0.045175787 -0.17846532 -0.12911722
-0.27344912 -0.3272763 -0.14666313 -0.19736926 0.16369414 -0.01794422 0.008329883 -0.10100895
-0.060545422 -0.051504362 -0.12991796 0.10230807 -0.28064403 -0.20341626 0.0116905775 -0.03748484
-0.07717079 0.07997956 0.08795083 0.38792017 -0.05802459 0.116232835 -0.13405713 0.1314537
-0.16118248 -0.01028337 -0.029493103 -0.12678213 -0.055884715 0.0143884085 -0.008142998 -0.100181244
-0.20286758 0.04379522 0.12088018 -0.06743215 -0.11971317 0.13342732 -0.07982216 0.09679931
-0.12890214 0.0043850346 0.09028548 0.085230514 -0.17680892 -0.18078871 0.089962386 0.09827166
-0.10457193 0.1534314 -0.049384426 -0.12269826 -0.06645757 -0.036421597 -0.14946587 -0.109043345
0.14510138 0.21806984 -0.028438894 0.12627119 0.29075038 0.1358342 -0.22805281 -0.27413383
-0.20387906 -0.029249564 -0.2540793 -0.09526439 -0.12635227 0.20036086 0.027979145 0.11017014
-0.17884313 -0.049181994 -0.08813781 -0.05658724 0.04986148 -0.1275499 -0.05964347 -0.08673173
-0.17725141 0.13467646 -0.15335977 -0.17759457 0.07449664 0.025824906 0.052840084 0.19235966
0.21022657 -0.20490348 0.03978999 -0.17143051 -0.102379926 0.2118793 0.18533428 0.29957497
-0.065449715 0.039945684 -0.22491014 -0.18357532 -0.09278062 -0.11838405 -0.017158179 -0.017570453
0.3328056 0.044826094 -0.06055755 0.17514537 -0.20911762 -0.05965659 -0.017283252 -0.019454122
-0.033907145 0.022289637 0.08918397 -0.011702774 -0.12907079 0.115536 -0.03525369 -0.06345289
0.16897577 -0.09170324 0.17354755 -0.1476055 -0.05779938 -0.15671568 0.093442164 -0.14392813
-0.0067344685 -0.06831145 -0.15153092 0.04407395 -0.09438064 0.027046066 -0.07489016 0.060076796
-0.13118996 -0.022659024 0.14205621 -0.007071279 0.04814246 0.022574486 0.32452866 -0.14956439
0.09706396 0.010453638 0.083030336 0.23521739 -0.05396373 0.124270864 0.14429086 0.16256799
0.059624404 0.039772198 -0.0860055 0.14683546 0.03285652 0.110413 0.12956737 -0.040109456
-0.15668912 -0.01897632 -0.1396761 0.11924387 0.0733148 0.011437474 0.036693722 -0.11234239
0.106545866 0.045342162 0.15579583 -0.06373412 -0.3449164 0.021384368 -0.007849032 -0.013407385
0.009319659 0.026060281 0.16947262 0.021719126 0.2540003 0.19918795 0.05130297 -0.10738269
0.12382429 -0.06370616 0.025154823 -0.098147556 0.06304386 -0.14703956 -0.040844005 -0.027116718
00000000: b020 afbd c14a 243d 0f9b 09be 7a75 81bd
00000010: 564b 73be 564f 53bd e2a4 71bd 47de f83b
00000020: 76cf 1dbe 08ea 933d 1995 62bd c60b 223e
00000030: 8e1c 1dbd cb25 22be 1780 4abe d852 1abe
00000040: fa94 7dbd e7ce 00be 1211 a53a dba7 b6bc
00000050: cb50 25be 46f1 743d 2fbe a03d de3b ae3d
00000060: 72fd 893c 085c e83d 42ee b53e 0d93 0f3e
00000070: 2cad e23c 5b5b 403d 5974 e6bd cc3c e03d
00000080: 0031 f33a 2430 1d3e 6e7e 1e3e a4c1 ab3d
00000090: bc36 db3d 7c57 373e 922f c5bd d5e3 cabd
000000a0: 31bf f0bd 72fa 30be 6d87 03be 4cbf f1bd
000000b0: 2ab1 193e 01ab 1fbe 64af b33d eccc 1b3d
000000c0: 105f 923d d2c7 133e 6644 023e 0024 f7b9
000000d0: b0eb 2c3e c437 5ebd 8c05 bbbd 8c45 23be
000000e0: f0bf 8b3d 44e9 08be f8cc b6bc a084 de3b
000000f0: c081 a63c 3f0a 39bd 9dbf 36be 4e37 04be
00000100: 8601 8cbe c290 a7be dc2e 16be 2b1b 4abe
00000110: 709f 273e c2ff 92bc 107a 083c c8dd cebd
00000120: 7afe 77bd 3df6 52bd 3709 05be e586 d13d
00000130: 93b0 8fbe 5a4c 50be d689 3f3c b489 19bd
00000140: b80b 9ebd 53cc a33d 911f b43d 799d c63e
00000150: 31ab 6dbd 7b0b ee3d 4646 09be cc9b 063e
00000160: 050d 25be 947b 28bc 859b f1bc 2dd3 01be
00000170: 5fe7 64bd 5cbd 6b3c 366a 05bc d32b cdbd
00000180: 85bc 4fbe 9e62 333d 0790 f73d de19 8abd
00000190: 2e2c f5bd 2ca1 083e cd79 a3bd b73e c63d
000001a0: ecfe 03be 56b0 8f3b 98e7 b83d 568d ae3d
000001b0: 660d 35be ad20 39be 333e b83d a742 c93d
000001c0: cf29 d6bd 1f1d 1d3e 5347 4abd 3a49 fbbd
000001d0: e81a 88bd d02e 15bd 950d 19be 1e52 dfbd
000001e0: 7595 143e b34d 5f3e aff8 e8bc 3c4d 013e
000001f0: 3cdd 943e 1f18 0b3e ad86 69be 455b 8cbe
00000200: acc5 50be c89c efbc af16 82be fa19 c3bd
00000210: 7d62 01be 662b 4d3e 8534 e53c e2a0 e13d
00000220: a722 37be 0f73 49bd 9981 b4bd 06c8 67bd
00000230: 8d3b 4c3d 719c 02be b64c 74bd 68a0 b1bd
00000240: 6581 35be a0e8 093e 580a 1dbe 5adb 35be
00000250: b291 983d c18e d33c d86e 583d eef9 443e
00000260: a245 573e 38d2 51be d4fa 223d 7b8b 2fbe
00000270: 91ac d1bd e3f6 583e 45c8 3d3e e461 993e
00000280: 800a 86bd 169e 233d d84e 66be 2bfb 3bbe
00000290: c403 bebd 5673 f2bd 4f8f 8cbc e9ef 8fbc
000002a0: 7f65 aa3e 919b 373d 320b 78bd 4f59 333e
000002b0: ee22 56be 785a 74bd 9b95 8dbc 405e 9fbc
000002c0: 38e2 0abd c298 b63c 16a6 b63d febc 3fbc
000002d0: 222b 04be 239e ec3d 2c66 10bd 97f3 81bd
000002e0: fc07 2d3e e9ce bbbd 73b6 313e e525 17be
000002f0: 0bbf 6cbd 137a 20be 9b5e bf3d e561 13be
00000300: d1ac dcbb e0e6 8bbd ec2a 1bbe e386 343d
00000310: a34a c1bd b68f dd3c 0360 99bd 1613 763d
00000320: a956 06be 6b9f b9bc 2f77 113e 30b6 e7bb
00000330: 0731 453d 21ee b83c 9f28 a63e 6827 19be
00000340: 78c9 c63d bc45 2b3c cf0b aa3d d4dc 703e
00000350: 1209 5dbd b981 fe3d fcc0 133e 3978 263e
00000360: b838 743d 2ce8 223d a723 b0bd 095c 163e
00000370: 8f94 063d 3620 e23d 4fad 043e d049 24bd
00000380: 1d73 20be 3a74 9bbc 4007 0fbe 2136 f43d
00000390: 1226 963d 3e64 3b3c 284c 163d c413 e6bd
000003a0: b834 da3d b4b8 393d f188 1f3e 0987 82bd
000003b0: e298 b0be 452e af3c 3a99 00bc a6aa 5bbc
000003c0: 7cb1 183c 5f7c d53c 3b8a 2d3e 4fec b13c
000003d0: 540c 823e edf7 4b3e 1023 523d 75eb dbbd
000003e0: 9797 fd3d 6078 82bd 7d11 ce3c 9601 c9bd
000003f0: 241d 813d 8a91 16be 0b4c 27bd e123 debc

linear1.bias f4 [128]
0.029839387 0.1306912 -0.10347472 0.048173223 -0.11645809 -0.0066849943 0.20035698 -0.19486399
0.16350946 0.010679707 0.07886848 0.028735138 -0.048408523 -0.19261026 0.076592766 -0.051005136
0.09146855 -0.035744965 -0.038726278 -0.08604162 0.08708442 0.09387237 -0.20245646 0.0115292175
-0.023695158 -0.11146452 -0.043595225 0.08802277 -0.05935858 -0.0764171 0.10470864 -0.06862819
-0.009316816 0.12918176 0.13713379 -0.105516255 0.08794419 0.117664 -0.20729049 -0.0370122
-0.0607196 -0.10052222 -0.016092697 -0.16448666 -0.1538441 0.15148495 -0.052784517 -0.0041071703
-0.12271924 0.01008919 0.1682561 0.12284019 -0.07112615 0.18017006 0.009715334 -0.06612711
0.1802071 -0.12295913 0.10051768 0.100770794 0.09172382 0.09543617 -0.07354545 -0.15114582
-0.14106856 0.064303614 -0.0966722 -0.10506891 0.1298315 -0.03345426 -0.105548844 -0.19948915
0.04653014 0.01971619 0.11927411 0.08060371 -0.019962884 -0.0806535 -0.20893885 0.18347678
0.08160662 0.10649076 0.099551484 0.12364439 0.042864993 -0.18095303 -0.07963497 0.08718422
-0.13204986 0.07751167 -0.028199788 -0.12622073 0.11578795 0.13609335 -0.17523083 0.08940636
0.10611549 0.03960314 -0.060843654 -0.060046874 -0.054089732 -0.0021508858 0.106812425 -0.017991155
-0.127005 0.1019737 -0.009915946 -0.06380535 0.12865433 -0.16401397 -0.012783338 -0.02488865
-0.0018308684 -0.03925085 0.010347975 -0.10794844 0.087147936 0.02692906 -0.06223367 0.02327418
-0.053528994 -0.17958292 -0.13024424 -0.08000002 0.1500715 -0.026179025 -0.13744786 -0.09626275
00000000: bb71 f43c ead3 053e 8eea d3bd 4951 453d
00000010: 9481 eebd cc0d dbbb 612a 4d3e 6d8a 47be
00000020: 066f 273e f0f9 2e3c cc85 a13d f465 eb3c
00000030: 0448 46bd a03b 45be abdc 9c3d c3ea 50bd
00000040: dd53 bb3d 5069 12bd 729f 1ebd 9736 b0bd
00000050: 5159 b23d 2840 c03d bf50 4fbe 0be5 3c3c
00000060: 591c c2bc 8347 e4bd e890 32bd 4845 b43d
00000070: fb21 73bd 9280 9cbd 7c71 d63d f08c 8cbd
00000080: 8fa5 18bc 3948 043e cd6c 0c3e e818 d8bd
00000090: 151c b43d d3f9 f03d f543 54be 1b9a 17bd
000000a0: 1eb5 78bd 98de cdbd d5d4 83bc 316f 28be
000000b0: 4f89 1dbe df1e 1b3e 9434 58bd 7195 86bb
000000c0: 3a54 fbbd 214d 253c 544b 2c3e a393 fb3d
000000d0: 96aa 91bd 807e 383e 102d 1f3c a66d 87bd
000000e0: 3688 383e ffd1 fbbd 37dc cd3d eb60 ce3d
000000f0: b3d9 bb3d 0a74 c33d ff9e 96bd f8c5 1abe
00000100: 4774 10be 9db1 833d 13fc c5bd 5e2e d7bd
00000110: 8cf2 043e 5607 09bd fe29 d8bd e246 4cbe
00000120: 6396 3e3d d983 a13c fc45 f43d 8f13 a53d
00000130: 3489 a3bc aa2d a5bd 11f4 55be 56e1 3b3e
00000140: 5f21 a73d d417 da3d a6e1 cb3d 4539 fd3d
00000150: 3493 2f3d c04b 39be a917 a3bd a48d b23d
00000160: 1438 07be 70be 9e3d 3e03 e7bc 0240 01be
00000170: 3c22 ed3d 0e5c 0b3e b66f 33be af1a b73d
00000180: 1453 d93d e736 223d 3237 79bd b6f3 75bd
00000190: 328d 5dbd e0f5 0cbb 79c0 da3d 3062 93bc
000001a0: 990d 02be 96d7 d03d 7e76 22bc 61ac 82bd
000001b0: f6bd 033e 47f3 27be 3571 51bc 48e3 cbbc
000001c0: c0f9 efba 80c5 20bd 8e8a 293c 1214 ddbd
000001d0: 9e7a b23d 559a dc3c bce8 7ebd 7ea9 be3c
000001e0: 3841 5bbd 96e4 37be bf5e 05be 0dd7 a3bd
000001f0: 58ac 193e 6575 d6bc 22bf 0cbe 6825 c5bd

linear2.weight f4 [128, 128]
0.038580682 -0.06146045 0.00022952617 -0.061169237 -0.094847314 -0.34742343 0.11540776 -0.070714734
0.076183654 0.083617754 -0.059009843 -0.30755937 -0.13385949 0.08317922 0.07673201 -0.10024951
-0.11267013 -0.05735124 -0.025705418 -0.012106657 0.03168999 -0.5334356 0.14705199 0.009601407
-0.21200505 -0.08480114 -0.05160066 -0.07963021 0.066484734 0.25971517 -0.08515255 -0.05506034
0.122613244 0.009370035 0.04406591 -0.01566548 0.21501532 0.39705732 0.0147152115 0.22079065
0.11145196 -0.033447973 0.11711545 0.00031376348 0.06980253 -0.084255144 -0.067649536 -0.092245124
0.21732962 -0.2127767 0.010104023 -0.2011631 -0.07796028 0.018838797 0.02079184 0.026009003
-0.10151562 0.00060254335 0.04736037 0.043863483 -0.059689067 0.04005164 -0.1168851 0.034250084
-0.08094539 -0.44253308 0.20990151 -0.055443007 0.009110243 -0.14225921 0.07534286 0.01519659
0.051198903 0.042907164 -0.2853227 0.06401205 0.15231706 -0.08582073 -0.14204612 0.020052843
-0.3692023 0.020088598 -0.0984516 -0.06011999 0.007856867 -0.061264858 0.11618074 0.05915837
-0.13208358 -0.112794995 0.003507267 0.17937832 -0.041301597 -0.042274468 0.048839845 0.08859345
-0.104951814 0.04838671 0.057895232 0.2878998 -0.271811 -0.07663775 -0.33437312 0.025153205
-0.032759096 -0.62479997 0.20795561 -0.039309517 -0.07117395 0.0141108055 0.11512562 -0.0074476935
-0.018093944 -0.06178598 -0.31490803 -0.0075736647 0.08844323 0.045672476 -0.059177928 -0.4856841
0.013073392 0.0071512535 0.16291289 0.18030287 -0.046161056 -0.09258351 -0.04262566 -0.031045962
-0.07968848 -0.034937873 -0.120454766 -0.0070330105 0.114231944 0.13562328 -0.0007870975 0.051879104
0.010833523 -0.083391376 -0.006322406 0.033667587 0.08683783 -0.1391557 -0.009372307 0.0122784795
-0.018130355 0.07534029 0.08690106 0.005624707 0.040812876 0.037808258 -0.012736556 0.051793657
-0.012534874 -0.07501855 -0.035529003 0.0878871 0.01666869 -0.07357345 0.03661499 -0.009593962
-0.14493848 0.018778041 -0.07148737 -0.07382837 0.028826304 0.07470159 0.07877884 -0.14771678
-0.042452246 -0.0021986766 -0.094919614 -0.00399724 0.03440015 -0.08206605 0.13648032 -0.026468182
-0.04947687 -0.041574992 0.08440416 0.1709742 -0.07165082 -0.08835823 -0.049632646 -0.25004375
0.039145634 0.021640323 -0.011054719 0.06037883 -0.0471108 -0.04951485 -0.0013237179 0.051799547
-0.0055361376 -0.13939762 -0.09031757 -0.15125918 -0.20582709 -0.10563105 0.0023730474 0.003053415
0.064342685 -0.22570428 0.09729116 0.10065671 -0.0737432 -0.023030465 -0.0018746286 0.102005094
0.08972116 -0.08132514 -0.030009726 0.028776025 -0.090878196 0.04999136 0.11683084 -0.09590793
0.104550265 0.07746824 -0.17376041 0.07612613 0.24464247 0.059152804 0.0865333 -0.07219621
0.08963797 -0.10189594 -0.11727511 0.071786076 0.04353663 0.041508008 0.026058804 -0.12914354
0.0069015473 -0.12241385 -0.14434418 -0.061075956 0.03329301 0.0600072 -0.1132847 0.047037594
-0.19218254 0.020659875 -0.09930344 0.04487689 0.05750123 -0.20328093 0.014064878 0.09748444
0.086002074 -0.072285414 -0.019218711 -0.22710341 -0.0034452362 -0.23104356 0.05438802 0.07759514
00000000: c706 1e3d f4bd 7bbd f6ac 7039 988c 7abd
00000010: 4f3f c2bd 7ce1 b1be e75a ec3d e3d2 90bd
00000020: 2d06 9c3d c93f ab3d 4eb4 71bd 6c78 9dbe
00000030: 7612 09be de59 aa3d ac25 9d3d 9d4f cdbd
00000040: 99bf e6bd 22e9 6abd 2b94 d2bc 005b 46bc
00000050: 5dcd 013d 3c8f 08bf cc94 163e 384f 1d3c
00000060: da17 59be 38ac adbd 375b 53bd 2a15 a3bd
00000070: 2629 883d 63f9 843e 7664 aebd f386 61bd
00000080: a71c fb3d c684 193c 757e 343d e554 80bc
00000090: fa2c 5c3e 194b cb3e 1218 713c f216 623e
000000a0: ed40 e43d be00 09bd 3ada ef3d 9f80 a439
000000b0: a1f4 8e3d f68d acbd d78b 8abd 03eb bcbd
000000c0: a88b 5e3e 23e2 59be 588b 253c b3fd 4dbe
000000d0: a4a9 9fbd d253 9a3c a653 aa3c d510 d53c
000000e0: 6ce7 cfbd 00f4 1d3a f3fc 413d 32aa 333d
000000f0: 867c 74bd 300d 243d 7561 efbd d149 0c3d
00000100: b2c6 a5bd b293 e2be 6cf0 563e 3518 63bd
00000110: 2143 153c 66ac 11be 5b4d 9a3d 1efb 783c
00000120: f1b5 513d 6cbf 2f3d d115 92be c018 833d
00000130: 01f9 1b3e c7c2 afbd 8a74 11be dc45 a43c
00000140: 1508 bdbe d890 a43c fea0 c9bd 6140 76bd
00000150: 17ba 003c dcf0 7abd 2bf0 ed3d 0c50 723d
00000160: eb40 07be 1001 e7bd 2dda 653b f3ae 373e
00000170: dd2b 29bd fe27 2dbd 4a0c 483d 7c70 b53d
00000180: faf0 d6bd 2531 463d 8d23 6d3d 9a67 933e
00000190: d02a 8bbe 41f4 9cbd f432 abbe 180e ce3c
000001a0: 672e 06bd e4f2 1fbf 51f2 543e 0403 21bd
000001b0: a6c3 91bd 0231 673c fbc6 eb3d c80b f4bb
000001c0: c039 94bc 4c13 7dbd a03b a1be 812c f8bb
000001d0: b921 b53d 1013 3b3d 8e64 72bd 96ab f8be
000001e0: c831 563c 1055 ea3b a3d2 263e 51a1 383e
000001f0: 6013 3dbd 6c9c bdbd 3e98 2ebd 1a54 febc
00000200: b733 a3bd 041b 0fbd fdb0 f6bd 2b75 e6bb
00000210: 70f2 e93d d4e0 0a3e 3855 4eba 2f7f 543d
00000220: 177f 313c 19c9 aabd 302c cfbb 06e7 093d
00000230: 08d8 b13d d57e 0ebe 4e8e 19bc ad2b 493c
00000240: 1c86 94bc 034c 9a3d 2ff9 b13d 764f b83b
00000250: 672b 273d d5dc 1a3d fdac 50bc 9625 543d
00000260: 125f 4dbc 53a3 99bd dc86 11bd 27fe b33d
00000270: c78c 883c adad 96bd 9af9 153d fe2f 1dbc
00000280: c16a 14be 68d4 993c f867 92bd 5433 97bd
00000290: 2425 ec3c 26fd 983d cd56 a13d 1143 17be
000002a0: 68e2 2dbd ac17 10bb 3765 c2bd 48fb 82bb
000002b0: 2ce7 0c3d 3f12 a8bd 7fc1 0b3e cdd3 d8bc
000002c0: 42a8 4abd 8a4a 2abd 17dc ac3d dc13 2f3e
000002d0: aabd 92bd 29f5 b4bd 9a4b 4bbd bc05 80be
000002e0: 2c57 203d 0c47 b13c da1e 35bc cb4f 773d
000002f0: 41f7 40bd 15d0 4abd 9a80 adba c32b 543d
00000300: 7d68 b5bb 40be 0ebe 6bf8 b8bd b0e3 1abe
00000310: 56c4 52be 1855 d8bd 2185 1b3b ce1b 483b
00000320: 19c6 833d 061f 67be 9640 c73d 1b25 ce3d
00000330: ad06 97bd 63aa bcbc 19b6 f5ba 0ce8 d03d
00000340: babf b73d cc8d a6bd f5d6 f5bc b3bb eb3c
00000350: 591e babd bec3 4c3d 0245 ef3d 606b c4bd
00000360: 731e d63d aba7 9e3d 40ee 31be 04e8 9b3d
00000370: 8e83 7a3e 364a 723d 5f38 b13d 9bdb 93bd
00000380: 1d94 b73d d2ae d0bd ef2d f0bd 9404 933d
00000390: 7753 323d 4d04 2a3d 4679 d53c 343e 04be
000003a0: 6026 e23b 1db4 fabd f6ce 13be c82a 7abd
000003b0: 405e 083d 1cca 753d cf01 e8bd 7eaa 403d
000003c0: 80cb 44be e63e a93c 9a5f cbbd d4d0 373d
000003d0: 6986 6b3d e028 50be 6070 663c eca5 c73d
000003e0: db21 b03d 600a 94bd 8f70 9dbc cc8d 68be
000003f0: 79c9 61bb af96 6cbe f9c5 5e3d 33ea 9e3d

linear2.bias f4 [128]
-0.05809238 -0.013706596 0.092727154 0.05545307 0.10704815 -0.030286524 0.068605825 -0.038364314
0.053071167 0.056493796 0.0741419 -0.0510934 0.101449095 -0.036220547 0.05956856 0.02220471
0.019864507 -0.08485883 -0.037075337 -0.072856456 0.077952646 0.00076396967 -0.040369768 -0.019307436
-0.059962317 -0.06592164 -0.058924284 -0.009661606 -0.092000626 0.11930431 0.07312135 0.037805546
-0.0031167583 -0.05484689 0.014093861 -0.07641221 -0.011156019 -0.043827884 0.035444178 -0.027136676
-0.02154936 0.033035897 -0.105268255 -0.022145024 -0.026762992 -0.014278655 -0.029989533 0.06396486
-0.042226665 0.05834845 -0.054085396 -0.031316392 0.04373511 -0.06786207 -0.04978988 -0.03545414
-0.08471561 -0.052308038 -0.06419202 -0.020038914 0.010523987 0.030561477 0.001643986 -0.075412616
0.05041831 -0.05141763 -0.047317337 0.006003797 -0.030121675 0.026138524 0.005969606 0.0029450667
0.012634773 -0.08404524 -0.012896402 0.06088596 -0.025721297 0.035005596 -0.0175829 -0.08569116
0.0073442627 -0.064708486 -0.06862854 0.0476845 0.008753394 -0.034940653 -0.061206326 -0.0037725156
-0.06019054 0.043524254 0.09631686 0.074265726 0.046313092 -0.049061846 -0.05107684 0.054085683
-0.07068323 0.11131519 -0.04650543 -0.082922496 -0.08354292 0.058405504 0.03950746 -0.009058019
0.025517337 0.08140949 -0.08468273 0.0071672057 -0.041138254 0.1097842 0.007556768 0.056135252
-0.025709214 0.082338974 -0.017391095 -0.0023585733 -0.06382174 -0.00067094393 0.017671414 -0.07197768
-0.016609611 -0.0060333684 -0.10566568 0.015661057 0.055585176 0.047532074 0.04194676 -0.083944775
00000000: 47f2 6dbd a191 60bc bce7 bd3d c222 633d
00000010: 0f3c db3d 721b f8bc 3681 8c3d e623 1dbd
00000020: 2761 593d 0a66 673d b5d7 973d 5047 51bd
00000030: 8bc4 cf3d ff5b 14bd 2afe 733d a7e6 b53c
00000040: e4ba a23c 77ca adbd 4fdc 17bd c435 95bd
00000050: a3a5 9f3d 2345 483a c55a 25bd a12a 9ebc
00000060: 0c9b 75bd ed01 87bd 975a 71bd b64b 1ebc
00000070: d36a bcbd d155 f43d a5c0 953d fdd9 1a3d
00000080: 8742 4cbb 22a7 60bd f0e9 663c 017e 9cbd
00000090: bcc7 36bc de84 33bd ea2d 113d bc4d debc
000000a0: 4988 b0bc a650 073d e296 d7bd 7b69 b5bc
000000b0: 103e dbbc 05f1 69bc 9cac f5bc 0200 833d
000000c0: def5 2cbd c9fe 6e3d a688 5dbd 9e45 00bd
000000d0: 9623 333d 45fb 8abd 79f0 4bbd 5c38 11bd
000000e0: 617f adbd f440 56bd 1b77 83bd a628 a4bc
000000f0: cd6c 2c3c 105c fa3c 047b d73a ee71 9abd
00000100: 6e83 4e3d 4b9b 52bd d3cf 41bd 80bb c43b
00000110: bbc1 f6bc 7520 d63c af9c c33b 0502 413b
00000120: 1402 4f3c e91f acbd 6e4b 53bc 8e63 793d
00000130: 78b5 d2bc 0762 0f3d 040a 90bc d97e afbd
00000140: 24a8 f03b e285 84bd 1f8d 8cbd d350 433d
00000150: 656a 0f3c ee1d 0fbd 7cb3 7abd 4f3c 77bb
00000160: 5b8a 76bd 7d46 323d c641 c53d a118 983d
00000170: ccb2 3d3d 13f5 48bd f335 51bd f388 5d3d
00000180: 5fc2 90bd 38f9 e33d 7a7c 3ebd 45d3 a9bd
00000190: 8d18 abbd 9c3a 6f3d 93d2 213d 1668 14bc
000001a0: bc09 d13c 05ba a63d 246e adbd e1da ea3b
000001b0: 9680 28bd 8ad6 e03d c49e f73b 14ee 653d
000001c0: 219c d2bc 56a1 a83d c577 8ebc 4b92 1abb
000001d0: f9b4 82bd 49e2 2fba a4c3 903c 0969 93bd
000001e0: e110 88bc 90b3 c5bb 3f67 d8bd 9e4b 803c
000001f0: 48ad 633d feb0 423d 5ed0 2b3d 3deb abbd

adv1.weight f4 [128, 128]
-0.02304805 -0.09507496 0.051265184 -0.054082457 0.046225723 -0.08589195 0.049132794 0.086262785
-0.09248968 -0.07288742 -0.6612844 0.06397433 -0.07579806 0.031779908 0.0023091785 -0.18972875
-0.04597259 -0.104030125 -0.056956366 0.0016931577 -0.019477617 -0.09554079 -0.090391405 -0.03649562
0.04512036 0.06958135 0.10615949 -0.107729584 0.04614212 -0.23943996 0.0039862734 -0.083622165
0.06870879 -0.08016113 -0.65394586 -0.08691456 0.110171966 0.07499515 -0.17166176 0.18941915
0.064969055 -0.4256016 -0.038643446 -0.19451272 -0.029028922 0.017989954 -0.038675647 0.032380037
0.01099017 0.21828936 -0.15750133 -0.026113441 -0.20668806 -0.0005089417 0.024798902 -0.05075386
-0.032167982 0.07102249 -0.03411509 0.06452765 -0.16323712 0.014094757 -0.07151925 -0.09571736
0.02938874 0.082343504 -0.0551529 -0.05595091 -0.34978896 -0.3579757 0.029433178 -0.50795925
-0.18035534 0.040877916 -0.2238387 0.02854647 -0.08300528 -0.0887979 -0.0008331984 -0.38367936
-0.0044266884 0.037778724 -0.33700526 0.08052179 -0.3772645 0.08995652 0.08338496 -0.011661895
0.088160664 -0.069506764 -0.18140629 0.10747509 -0.05827853 0.08234263 -0.03074346 0.007887825
-0.021708304 -0.026242811 0.010346789 -0.19634838 0.08641987 0.20783105 -0.030333778 0.12999502
0.028749257 -0.17081057 -0.08262886 0.11562114 0.042917676 -0.1694851 0.00504608 -0.087223575
0.01455486 -0.2089678 0.1512538 0.0003047015 0.11045889 -0.14699066 -0.05270064 0.047671936
-0.016345104 -0.03415261 -0.018435603 0.050612696 0.010824367 0.13161537 0.041061826 -0.056942742
-0.12748428 0.037364814 -0.2069318 -0.050073475 -0.083632514 -0.00734829 -0.03419104 0.075725704
-0.15914686 0.03651785 0.055189237 0.06442205 -0.11632382 0.056836102 0.062733 0.04458831
-0.05579757 -0.054073878 -0.028192047 -0.032780737 0.2885681 -0.0113272015 -0.6428946 0.068683974
-0.12269649 -0.065053366 0.05467056 0.07620421 0.14406754 0.13615133 -0.02819529 0.034075625
-0.052951973 0.011196061 -0.116811775 0.012145833 -0.016175877 -0.075564705 -0.008422329 -0.39521083
-0.1237369 0.095275484 0.030159967 -0.07863041 -0.10837296 0.009093024 -0.04489175 0.07993837
0.06963315 -0.41036656 0.51701707 -0.0051983255 0.01704569 -0.010571414 -0.28205076 -0.075295664
0.073298566 0.03994338 0.013975239 -0.06843708 0.04834608 0.08285614 -0.06488306 0.08644174
0.06927971 -0.10022773 0.048953652 0.04356437 -0.16360006 -0.2858592 -0.16290519 0.0044636666
-0.7021475 -0.017013846 -0.050377253 -0.18900605 0.010689929 -0.07053227 -0.044494428 -0.02901369
-0.65562075 0.0682474 0.03306605 -0.0791444 -0.09545605 0.06957742 0.060590222 0.066563934
0.041021165 0.044854112 0.08362339 -0.005324003 -0.061311215 0.023815596 0.16984804 0.012699343
0.074310444 -0.093331985 -0.048175458 -0.09387362 0.046752937 -0.062415298 -0.3925683 -0.072036654
0.059468932 0.010487516 -0.08085528 -0.07384733 -0.17074133 0.03775293 0.06166156 -0.037202716
0.0146431485 -0.04167923 -0.23540379 -0.010711119 0.08758431 -0.09867566 0.032361627 -0.052293237
0.06032676 0.058275647 0.024220813 0.007356831 0.015369356 -0.14587235 0.063268095 0.038216256
00000000: 44cf bcbc a9b6 c2bd 71fb 513d 9185 5dbd
00000010: 2f57 3d3d 1ee8 afbd 783f 493d 8baa b03d
00000020: 3b6b bdbd 0046 95bd ef49 29bf f904 833d
00000030: 033c 9bbd a62b 023d 9655 173b 4148 42be
00000040: c14d 3cbd bf0d d5bd 144b 69bd f2ec dd3a
00000050: 868f 9fbc e4aa c3bd 211f b9bd 6e7c 15bd
00000060: 20d0 383d ab80 8e3d 266a d93d 54a1 dcbd
00000070: 85ff 3c3d c02f 75be 499f 823b 1942 abbd
00000080: 32b7 8c3d 852b a4bd ff68 27bf 4300 b2bd
00000090: d7a1 e13d 0f97 993d 1ac8 2fbe 18f7 413e
000000a0: 7f0e 853d 74e8 d9be 9748 1ebd 582e 47be
000000b0: 10ce edbc ab5f 933c 5b6a 1ebd eea0 043d
000000c0: 1d10 343c 3f87 5f3e 0748 21be dbeb d5bc
000000d0: 09a6 53be 806a 05ba 1127 cb3c 48e3 4fbd
000000e0: 93c2 03bd 3d74 913d 44bc 0bbd 1327 843d
000000f0: a227 27be b2ed 663c af78 92bd 7707 c4bd
00000100: a8c0 f03c b6a3 a83d 02e8 61bd c82c 65bd
00000110: 8a17 b3be 9748 b7be d91d f13c 9e09 02bf
00000120: 12af 38be 9a6f 273d f935 65be 49da e93c
00000130: acfe a9bd acdb b5bd 006b 5aba 9f71 c4be
00000140: c10d 91bb ddbd 1a3d f48b acbe 9ce8 a43d
00000150: d028 c1be 203b b83d bcc5 aa3d 8811 3fbc
00000160: 948d b43d 9059 8ebd 92c2 39be e61b dc3d
00000170: 78b5 6ebd 41a3 a83d b5d9 fbbc f03b 013c
00000180: 9dd5 b1bc 2afb d6bc 9485 293c 8d0f 49be
00000190: e7fc b03d aad1 543e 8b7e f8bc 6a1d 053e
000001a0: 9083 eb3c f7e8 2ebe 5239 a9bd c7ca ec3d
000001b0: 72ca 2f3d 818d 2dbe 9659 a53b 46a2 b2bd
000001c0: 8277 6e3c a8fb 55be 47e2 1a3e 58c0 9f39
000001d0: 4538 e23d b884 16be a0dc 57bd a643 433d
000001e0: 2be6 85bc 9be3 0bbd 4306 97bc 424f 4f3d
000001f0: b058 313c 2ec6 063e 7230 283d cb3c 69bd
00000200: 3d8b 02be d90b 193d eee5 53be d819 4dbd
00000210: 8647 abbd edc9 f0bb e70b 0cbd 1416 9b3d
00000220: 65f7 22be be93 153d 1c0e 623d b5ef 833d
00000230: 2f3b eebd f9cc 683d 297a 803d 3ba2 363d
00000240: fe8b 64bd 927c 5dbd 02f3 e6bc 1845 06bd
00000250: 33bf 933e ba95 39bc be94 24bf 2faa 8c3d
00000260: 4c48 fbbd b33a 85bd 3dee 5f3d f410 9c3d
00000270: 7186 133e 416b 0b3e cff9 e6bc e292 0b3d
00000280: 2be4 58bd af6f 373c 033b efbd 51ff 463c
00000290: 4683 84bc abc1 9abd cffd 09bc 1359 cabe
000002a0: c669 fdbd cb1f c33d 0912 f73c fb08 a1bd
000002b0: a4f2 ddbd e8fa 143c 69e0 37bd bab6 a33d
000002c0: d39b 8e3d 911b d2be 3b5b 043f b756 aabb
000002d0: 67a3 8b3c b933 2dbc f568 90be 9d34 9abd
000002e0: 8f1d 963d ab9b 233d 67f8 643c bd28 8cbd
000002f0: 8a06 463d 7bb0 a93d 69e1 84bd 5e08 b13d
00000300: 85e2 8d3d 3244 cdbd a083 483d 8e70 323d
00000310: c686 27be 235c 92be 9ed0 26be f343 923b
00000320: f0bf 33bf 9f60 8bbc 6158 4ebd cd8a 41be
00000330: d024 2f3c 3973 90bd ca3f 36bd 1eae edbc
00000340: c3d6 27bf 4bc5 8b3d 4470 073d 7616 a2bd
00000350: 767e c3bd 9b7e 8e3d 742d 783d ac52 883d
00000360: cf05 283d f2b8 373d bd42 ab3d f974 aebb
00000370: 7821 7bbd ed18 c33c a5ec 2d3e e810 503c
00000380: 1330 983d d724 bfbd a153 45bd d040 c0bd
00000390: 0280 3f3d 2fa7 7fbd b6fe c8be f487 93bd
000003a0: b295 733d d5d3 2b3c 7497 a5bd 453d 97bd
000003b0: d1d6 2ebe d1a2 1a3d d590 7c3d e061 18bd
000003c0: d1e9 6f3c d7b7 2abd b10d 71be b07d 2fbc
000003d0: 675f b33d 7716 cabd a08d 043d 6f31 56bd
000003e0: 3119 773d 72b2 6e3d ba6a c63c 9211 f13b
000003f0: c0cf 7b3c 905f 15be b492 813d a688 1c3d

adv1.bias f4 [128]
-0.0101653915 -0.020307057 -0.08850198 0.008825489 -0.1900893 0.028814167 0.004082666 -0.052172087
0.027028456 -0.017337149 -0.027531777 -0.11049948 -0.0548258 0.06179492 -0.041859824 0.0065819076
-0.032698635 -0.009186893 -0.056236096 -0.15242141 -0.05725289 0.014955693 0.056831647 0.08936227
-0.1476536 -0.08378586 -0.10573625 -0.12238873 -0.06562662 0.0049682567 -0.10644232 -0.06494459
-0.028157761 0.04915962 -0.066855304 -0.101558335 -0.022115381 0.026756758 -0.04771386 0.053340744
-0.0691957 0.047449928 0.022919048 -0.031895053 -0.043878555 -0.14671813 -0.029770885 -0.106225066
-0.051784366 -0.04854736 -0.08617315 -0.16564387 -0.0149881095 -0.02956864 -0.07733946 -0.028538955
0.07763274 -0.07099509 0.026918577 -0.04218016 0.028403828 -0.05576585 -0.025327971 -0.09226497
-0.04421821 0.08284737 -0.040393468 -0.10859976 -0.043680288 -0.1312968 0.09189554 0.0144506255
-0.1734004 0.060165495 -0.066128746 -0.082603656 0.05675645 0.0026505603 -0.10898506 -0.10764696
0.07554937 -0.0155242365 0.0064586396 -0.13994604 -0.07819621 -0.0019807045 0.0060893004 -0.055343993
-0.054968487 -0.0851403 -0.08388087 -0.11352117 0.020940147 -0.12714082 -0.015826507 -0.058596794
-0.030999387 -0.06962573 0.041669767 -0.1284078 -0.051547915 0.008981364 -0.0061321757 -0.06836408
-0.04835336 -0.09715641 -0.020835944 -0.079992965 0.050870102 -0.014882227 -0.1043665 -0.073289014
-0.11203861 0.04929544 -0.06734941 0.046215706 -0.016716048 -0.042753138 -0.079987355 0.007367407
-0.071243 -0.013469393 -0.06985253 0.028609393 0.097922124 -0.060727 -0.0009149616 -0.03993672
00000000: be8c 26bc fc5a a6bc 8740 b5bd c998 103c
00000010: c5a6 42be b00b ec3c e2c7 853b 66b2 55bd
00000020: c86a dd3c a306 8ebc 528a e1bc 8d4d e2bd
00000030: 0591 60bd ac1c 7d3d 3575 2bbd 0bad d73b
00000040: 01ef 05bd 9f84 16bc d257 66bd 5c14 1cbe
00000050: 0282 6abd b908 753c 4dc8 683d 9103 b73d
00000060: 8132 17be ec97 abbd 3f8c d8bd f1a6 fabd
00000070: 4067 86bd c2cc a23b 6efe d9bd ab01 85bd
00000080: 1bab e6bc 995b 493d 6feb 88bd d1fd cfbd
00000090: 512b b5bc fd30 db3c 9c6f 43bd d37b 5a3d
000000a0: 7ab6 8dbd db5a 423d bac0 bb3c 63a4 02bd
000000b0: 00ba 33bd 473d 16be 12e2 f3bc 878c d9bd
000000c0: d81b 54bd 99d9 46bd 8c7b b0bd 8c9e 29be
000000d0: b090 75bc ef39 f2bc 2764 9ebd 87ca e9bc
000000e0: eafd 9e3d e065 91bd 5984 dc3c 1ac5 2cbd
000000f0: 25af e83c bb6a 64bd 9b7c cfbc 6bf5 bcbd
00000100: 271e 35bd e2ab a93d 9f73 25bd 8d69 debd
00000110: 1aea 32bd ab72 06be bb33 bc3d 51c2 6c3c
00000120: e08f 31be 1870 763d 826e 87bd 1b2c a9bd
00000130: 7479 683d 06b5 2d3b 8f33 dfbd 0276 dcbd
00000140: a1b9 9a3d 5e59 7ebc ffa2 d33b 044e 0fbe
00000150: 5625 a0bd b5ce 01bb c188 c73b 62b0 62bd
00000160: a326 61bd 0a5e aebd bcc9 abbd ca7d e8bd
00000170: ac8a ab3c 3431 02be 97a6 81bc 3103 70bd
00000180: 6df2 fdbc ef97 8ebd ebad 2a3d 567d 03be
00000190: e823 53bd 9226 133c 6bf0 c8bb 7702 8cbd
000001a0: 2c0e 46bd f1f9 c6bd 24b0 aabc 5ad3 a3bd
000001b0: 2b5d 503d 96d4 73bc 1bbe d5bd 8d18 96bd
000001c0: 8074 e5bd 04ea 493d 7dee 89bd ae4c 3d3d
000001d0: 18f0 88bc ea1d 2fbd 69d0 a3bd 4a6a f13b
000001e0: dae7 91bd bbae 5cbc d80e 8fbd 3f5e ea3c
000001f0: 658b c83d e0bc 78bd 09da 6fba b094 23bd

adv2.weight f4 [121, 128]
-0.011177892 -0.07413116 0.024395185 0.058457933 -0.27302417 0.0011692275 -0.010880256 0.0437319
-0.0050162487 0.028354013 -0.10303441 -0.000109531305 0.0011014441 0.01969881 -0.005461815 -0.002768056
0.12008187 0.016103882 0.0014563344 -0.009566672 -0.04590278 -0.0045242934 0.00015769132 0.024872791
-0.10742561 0.015880035 -0.0048288787 -0.014144578 0.07690238 0.09838152 0.08368278 0.009243388
0.020194627 -0.00080960593 -0.010098452 -0.014410991 -0.008397961 -0.0073446594 -0.030334225 -0.12290651
0.024574261 0.029155638 0.014995477 0.07781189 -0.002172714 0.05567266 -0.002431006 -0.0099041015
0.14431717 -0.062240127 -0.022037746 0.045068648 -3.707476e-07 0.04205473 -0.007874161 0.0144621525
0.029664895 0.010319676 -0.013540246 -0.1224919 0.0015346069 0.0015872673 -0.026238086 -0.004359696
0.06423931 0.04077509 0.098570704 -0.028298005 0.005438378 -0.06647936 0.24896188 0.08423085
0.16020048 0.21475343 0.04206952 -0.019090177 -0.0068701413 0.081514865 -0.044989463 0.0088461125
0.051282387 -0.015638035 0.011069618 0.04113938 0.076616906 -0.005258737 -0.0036077313 0.0125479875
0.013283733 2.0305264e-05 -0.014368144 -0.0017211469 0.012276562 -0.020374164 -0.0017644801 0.13244997
-0.018420445 -0.007079002 -0.010097638 0.016057001 0.0005291617 -0.003969241 0.051305544 0.06345254
-0.005557865 -0.022501089 0.007366111 0.21665029 0.07208206 0.019259589 -0.026138648 -0.003280007
0.005339877 0.115232125 -0.0045226463 0.033300117 -0.0070621427 -0.05013122 -0.0027500254 -0.008575174
-0.017322239 0.05666574 -0.0069573135 0.015532404 0.06399776 -0.0055539245 0.09767135 -0.02522798
0.062209163 0.019522952 0.06967813 0.09651978 0.090552986 0.0041760653 -0.010414662 0.006974549
0.048029087 0.023767523 0.0981382 -0.008667577 -0.0025156643 0.033146296 0.04080597 -0.014465501
-0.11150121 0.011282557 0.00025063797 0.020990036 0.034036793 0.0152623765 0.005178072 0.021551061
-0.030596264 0.013331156 -0.0072313887 0.024356216 -0.0105486745 -0.012790101 0.019162634 0.10715912
0.055350192 -0.008035678 -0.009822665 -0.014359187 -0.012825489 0.0036783454 -0.026458677 -0.2007288
0.022540297 0.03595604 0.013843045 -0.06856334 -0.005876269 0.008616432 -0.006834481 -0.010945408
-0.015774326 -0.17669058 -0.02816043 0.09257989 -0.0039874404 0.06064783 -0.0086957365 0.010056367
0.06415693 0.017024526 0.03773201 0.12691706 0.0013095711 -0.007369773 0.027226146 -0.0071787243
-0.050717287 0.137393 -0.06415261 0.049133927 0.09942115 0.05031267 -0.027673377 0.072001025
0.015113568 0.2106259 0.024292784 -0.0029635718 -0.00058253645 0.04665295 -0.044547945 0.0097731
-0.049479526 -0.041340325 0.043262728 0.04933199 -0.037820857 -0.008992376 -0.008694024 -0.0069269096
-0.0059388913 0.01470941 0.007945811 -0.010357547 -0.009095663 -0.100097775 -0.008315363 0.049887896
0.0025158778 -0.009609233 -0.008774432 -0.007434294 -0.007351908 0.0068393787 0.051188935 0.019314684
-0.0029703802 0.15288657 0.03769334 0.042221032 0.037415385 -0.0029100259 -0.016446032 -0.003493727
-0.004474892 0.13988677 0.0052806754 0.0365664 -0.0068918783 0.09738655 -0.0025653518 -0.016074007
-0.005055272 0.054168932 -0.020813435 -0.005054347 0.0769294 -0.007820509 0.097929254 -0.021379407
00000000: 7a23 37bc 14d2 97bd 69d8 c73c 9671 6f3d
00000010: d3c9 8bbe c440 993a 1a43 32bc 3920 333d
00000020: 585f a4bb ad46 e83c b403 d3bd 2cb4 e5b8
00000030: 555e 903a 665f a13c 06f9 b2bb 4668 35bb
00000040: 7ced f53d 4aec 833c 79e2 be3a 88bd 1cbc
00000050: 8e04 3cbd 8640 94bb f159 2539 06c2 cb3c
00000060: f501 dcbd d916 823c 923b 9ebb a9be 67bc
00000070: ff7e 9d3d 407c c93d e161 ab3d 9471 173c
00000080: 346f a53c bc3b 54ba fa73 25bc 141c 6cbc
00000090: 9a97 09bc 78ab f0bb 7b7f f8bc 69b6 fbbd
000000a0: f64f c93c ced7 ee3c 97af 753c d75b 9f3d
000000b0: 1864 0ebb 0409 643d 8351 1fbb d044 22bc
000000c0: e1c7 133e 81ef 7ebd 8188 b4bc e799 383d
000000d0: 2a0b c7b4 9541 2c3d a002 01bc aaf2 6c3c
000000e0: cb03 f33c dc13 293c e8d7 5dbc 09dd fabd
000000f0: dd24 c93a da0b d03a 41f1 d6bc c8db 8ebb
00000100: e68f 833d c803 273d 70df c93d 38d1 e7bc
00000110: 6c34 b23b 5526 88bd ddef 7e3e 3981 ac3d
00000120: 980b 243e 53e8 5b3e 1751 2c3d 0163 9cbc
00000130: ec1e e1bb 44f1 a63d df46 38bd 49ef 103c
00000140: 7b0d 523d 561b 80bc 585d 353c c481 283d
00000150: 53e9 9c3d 7c51 acbb b06f 6cbb 1396 4d3c
00000160: 04a4 593c 3955 aa37 5d68 6bbc 1b98 e1ba
00000170: a223 493c b8e7 a6bc 2146 e7ba f7a0 073e
00000180: 79e6 96bc f9f6 e7bb 9070 25bc f989 833c
00000190: 71b7 0a3a 6810 82bb c325 523d 68f3 813d
000001a0: c01e b6bb 3454 b8bc 6b5f f13b 93d9 5d3e
000001b0: c29f 933d 49c6 9d3c b820 d6bc 63f5 56bb
000001c0: 23fa ae3b d2fe eb3d b532 94bb b465 083d
000001d0: 8c69 e7bb 6556 4dbd c539 34bb e37e 0cbc
000001e0: 5ee7 8dbc 561a 683d 2dfa e3bb a07b 7e3c
000001f0: 4211 833d b2fd b5bb eb07 c83d e9aa cebc
00000200: 09cf 7e3d 99ee 9f3c 68b3 8e3d 2aac c53d
00000210: d873 b93d 60d7 883b 42a2 2abc c28a e43b
00000220: 26ba 443d 1cb4 c23c aefc c83d 7402 0ebc
00000230: d8dd 24bb 69c4 073d 2924 273d b500 6dbc
00000240: bf5a e4bd 79da 383c 0f68 8339 4cf3 ab3c
00000250: 2a6a 0b3d 0c0f 7a3c d1ac a93b da8b b03c
00000260: 04a5 fabc ec6a 5a3c 49f5 ecbb b086 c73c
00000270: 59d4 2cbc 928d 51bc f5fa 9c3c 3e76 db3d
00000280: e2b6 623d 14a8 03bc 3eef 20bc cc42 6bbc
00000290: 0022 52bc 6510 713b debf d8bc da8b 4dbe
000002a0: 6ea6 b83c a446 133d f0cd 623c f06a 8cbd
000002b0: b88d c0bb ef2b 0d3c c8f3 dfbb 5e54 33bc
000002c0: 2939 81bc 60ee 34be b4b0 e6bc 869a bd3d
000002d0: 13a9 82bb dc69 783d 9078 0ebc 76c3 243c
000002e0: b564 833d 0577 8b3c e18c 1a3d 8cf6 013e
000002f0: eaa5 ab3a 237e f1bb 5e09 df3c 813b ebbb
00000300: eebc 4fbd c0b0 0c3e 7262 83bd a840 493d
00000310: 519d cb3d a914 4e3d 47b3 e2bc 4675 933d
00000320: e69e 773c 51ae 573e a901 c73c 7c38 42bb
00000330: 5cb5 18ba 2a17 3f3d e877 36bd 5a1f 203c
00000340: 0bab 4abd 7954 29bd 4234 313d 5710 4a3d
00000350: 0bea 1abd c254 13bc 6171 0ebc 21fb e2bb
00000360: 089b c2bb bdff 703c 262f 023c b3b2 29bc
00000370: fa05 15bc 1000 cdbd 293d 08bc 4057 4c3d
00000380: 6de1 243b 0b70 1dbc a3c2 0fbc 619b f3bb
00000390: 46e8 f0bb de1c e03b 7dab 513d d439 9e3c
000003a0: b6aa 42bb 4c8e 1c3e 5564 1a3d f6ef 2c3d
000003b0: e040 193d 22b6 3ebb d4b9 86bc 03f7 64bb
000003c0: 1da2 92bb 7a3e 0f3e 8409 ad3b a6c6 153d
000003d0: 44d5 e1bb 9972 c73d 761f 28bb a3ad 83bc
000003e0: b2a6 a5bb 3ee0 5d3d f080 aabc f09e a5bb
000003f0: 298d 9d3d 9821 00bc 228f c83d de23 afbc
