TDQN/Moving/TDQN+buffer/model/actor_model.ckpt (torch, 85963 bytes, 10 tensors)

lstm.weight_ih_l0 f4 [96, 1]
000000 f4 13 31 3e 00 d9 15 bb b8 c7 36 3d e0 ef 2f bc
       0.17292768 -0.0022864938 0.04462406 -0.010738343
000010 8c e7 e6 bd 24 ab a4 3d e8 fc 5c 3d 13 76 bf bd
       -0.11274633 0.08040455 0.053952128 -0.09348693
000020 4e 5e 15 be 40 fe 99 3d 29 fd d3 bd 4e 84 21 be
       -0.14586756 0.075191975 -0.10351021 -0.15773126
000030 84 9a 4b 3e 28 5b ad 3c 23 d7 18 be a9 68 3f be
       0.19883162 0.02116163 -0.14925818 -0.18692268
000040 80 19 ea bd 50 db 68 bc 10 2a 6e 3c f4 84 e5 3d
       -0.11430645 -0.014212444 0.014536396 0.112069994
000050 79 1f c5 bd d8 c8 c6 3d e8 31 08 bd 38 76 31 3e
       -0.096251436 0.09706277 -0.03325072 0.17330253
000060 20 a5 e1 3d 80 b8 3d 3d ec 5d d0 3d 01 6e d4 bd
       0.11017823 0.04631853 0.10174164 -0.10372544
000070 ee 70 43 3e f0 44 2d be 3e d9 24 3e 70 35 11 bd
       0.19086048 -0.16920829 0.16098496 -0.035451353
000080 7e 7e 04 3e 00 41 bc ba c0 cb fc bd f2 3f d0 bd
       0.12938878 -0.0014362633 -0.1234355 -0.101684466
000090 42 e2 22 3e 60 67 2b bd 80 86 9c 3d f8 11 f9 bd
       0.15906623 -0.041846633 0.07642841 -0.121616304
0000a0 80 1e 4d be 40 8c 4d bc 42 6c b8 bd 44 35 cf 3d
       -0.20031166 -0.012545645 -0.090050235 0.101175815
0000b0 8e 25 4d 3e 9a 82 9f bd 3c da 11 3e 70 93 18 3e
       0.20033857 -0.07788582 0.14243406 0.14899993
0000c0 a0 ac e7 bc 58 39 96 3c dc ab 22 3e a0 6d 13 bc
       -0.028280556 0.01833789 0.15885872 -0.008998305
0000d0 58 e8 a8 3d 74 30 30 be ca f2 12 3e c4 d9 4a bd
       0.08247441 -0.17205983 0.14350429 -0.049524084
0000e0 8a 3e 9c bd 4c 2e ac 3d 40 f1 73 bb e8 c9 96 bd
       -0.07629116 0.08407268 -0.0037222654 -0.07362729
0000f0 78 94 94 3d 87 56 1e be 00 4c c8 3c f5 24 47 be
       0.07254881 -0.15462695 0.024450302 -0.19447692
000100 28 db 3f 3d 04 a9 13 bd 60 0c ae 3b 9c e8 31 3e
       0.046839863 -0.036049858 0.005311534 0.1737389
000110 c2 6c 32 be 48 c0 48 bd de 6b 0a 3e 45 7e be bd
       -0.174243 -0.0490115 0.1351771 -0.09301428
000120 8c 53 9d 3d 98 7b f5 3c b2 94 0f 3e 78 1d 39 3d
       0.07681951 0.02996616 0.14021567 0.04519412
000130 90 34 82 3d c8 1e c9 bc d2 ba 38 3e 5c 59 90 bd
       0.06357682 -0.02455081 0.18040016 -0.07048294
000140 54 62 c7 3d 6b 43 ab bd 0e 40 34 3e 36 e2 40 3e
       0.097355515 -0.08362468 0.1760256 0.18836293
000150 0d df cf bd 20 2d c2 3d 35 1a 2a be da 5b 43 be
       -0.101499654 0.09481263 -0.1661156 -0.19078007
000160 a6 56 2a be 5c cd 39 be 43 43 d1 bd ca 43 f9 bd
       -0.16634616 -0.18144745 -0.10217907 -0.12171133
000170 b0 98 5e 3d fc d4 b3 3d 70 63 f8 3d 7e 6d 23 be
       0.054344833 0.08780858 0.12128341 -0.15959737

lstm.weight_hh_l0 f4 [96, 24]
000000 d8 c0 2b 3e 52 f3 2d 3e 78 a0 15 3e 98 43 1b 3e
       0.16772783 0.1698735 0.14611995 0.15162504
000010 cf be 2e be 48 f3 1c bd 44 74 cc 3d e0 b6 8c bd
       -0.17064975 -0.03831795 0.099831134 -0.06870818
000020 64 b8 de bd b8 bd 84 bc 01 e8 c7 bd 20 65 b9 bc
       -0.108750135 -0.016203746 -0.09761048 -0.022631228
000030 75 79 1c be 36 63 1d be 3e fe 30 be 32 21 00 3e
       -0.15280707 -0.15369877 -0.17284486 0.12512663
000040 88 91 c8 bc 28 a6 76 bd 2e af a8 bd 84 19 75 bd
       -0.024483457 -0.060217053 -0.08236538 -0.059838787
000050 e0 dc 99 3d 4e 3f 92 bd 80 06 64 bc 23 50 a3 bd
       0.07512832 -0.07140981 -0.013917565 -0.07974269
000060 40 70 3c 3c 48 d8 e0 3d a8 35 8a 3c 4c 39 06 be
       0.011501372 0.109787524 0.016871288 -0.13107795
000070 72 10 45 3e 40 4b 12 be 30 37 14 3c 80 f9 b8 3c
       0.19244555 -0.14286518 0.009046361 0.022579908
000080 7e 39 4d be e0 11 8a bb b0 76 33 be 54 f7 00 be
       -0.20041463 -0.0042135566 -0.17525744 -0.12594348
000090 f4 3b 37 3e 8a c9 e2 bd 50 06 63 bd 6c 90 2c 3d
       0.17893964 -0.11073597 -0.055425942 0.04212992
0000a0 16 7b 08 3e 48 9b 42 bd b4 19 84 3d d0 7f 1f 3e
       0.13328204 -0.04751137 0.06450215 0.155761
0000b0 c4 1a 1c 3e 30 c3 14 bd a8 4b 1c bd 28 14 e7 bc
       0.15244585 -0.036318958 -0.03815809 -0.028207853
0000c0 80 95 8a 3d 2c b3 0f 3e 09 ec 4e be 93 a3 c6 bd
       0.06766796 0.14033192 -0.20207228 -0.09699168
0000d0 62 45 a2 bd 7c 91 25 3e d4 8b 1c be 65 06 fa bd
       -0.0792339 0.16168779 -0.15287715 -0.12208251
0000e0 f4 1c 0e bd e6 a1 3b 3e dc 8f 41 be 84 e7 31 be
       -0.03469558 0.18323478 -0.18902534 -0.17373472
0000f0 7d dd c8 bd 98 41 26 3e 38 ae 82 3d 60 40 51 3d
       -0.098078705 0.1623596 0.06380886 0.051086783
000100 80 92 4f bd fa 44 dc bd 0c b7 01 3e 68 0e 7a 3d
       -0.050676823 -0.10755344 0.12667483 0.061048895
000110 0e 50 a9 bd 64 e6 98 bd aa 6d 3c 3e c6 2e 50 be
       -0.08267222 -0.074658185 0.18401209 -0.20330343
000120 58 e9 29 3e 78 89 53 3d 80 e8 ce ba 16 7c 07 3e
       0.1659292 0.051644772 -0.0015785843 0.13230929
000130 a5 60 20 be 1c da 19 bd d8 47 3e 3d 82 c0 8a bd
       -0.15661867 -0.03756152 0.046455234 -0.06774999
000140 11 12 08 be 86 38 47 be 12 4c 03 3e d0 03 30 be
       -0.13288142 -0.19455156 0.12821987 -0.17188954
000150 84 95 02 3d ca 9e 46 3e 58 11 55 bd b2 92 fd bd
       0.03188087 0.1939651 -0.052018493 -0.123814955
000160 a0 16 6b bc e0 fc 17 3e 10 bf dc 3d 14 6c 95 bd
       -0.014348656 0.14842558 0.1077863 -0.07296005
000170 40 dc 26 bc 7c 0f 2d 3d cd d8 dc bd 22 b4 81 bd
       -0.010184348 0.042251095 -0.10783539 -0.06333186
000180 e5 9b c2 bd 00 34 18 bb cc d5 0f 3e 38 a6 5b 3d
       -0.09502391 -0.0023224354 0.14046401 0.053625315
000190 94 e5 2f 3d ce e1 1d 3e c0 79 a8 3c 40 98 81 bb
       0.042943552 0.15418169 0.020565867 -0.003954917
0001a0 1a bf 1f 3e ac b6 a2 3d 50 43 af 3d c0 07 58 3d
       0.15600243 0.07944998 0.08557761 0.052741766
0001b0 82 96 48 3e 2f cd 04 be 90 1c b5 bc 6e cf 4e 3e
       0.19588664 -0.12968896 -0.022108346 0.20196316
0001c0 66 f2 07 3e 2e 4e e9 bd a0 77 94 3d b8 6b 5e bd
       0.13276061 -0.11391865 0.07249379 -0.054301947
0001d0 df df 2a be 58 75 c2 3d 10 d1 34 bd a0 f7 7c 3d
       -0.16686963 0.09495038 -0.04414469 0.06175959
0001e0 68 03 86 3d 86 a8 2e 3e 7d 10 1e be 00 6f 79 3d
       0.065436184 0.17056474 -0.15435977 0.060896873
0001f0 a0 52 35 bd 7e 9d 1f be 2f 79 1c be 80 7a e0 3b
       -0.04426825 -0.15587422 -0.15280603 0.0068505406
000200 2e 8f ee bd a4 58 2f bd c8 94 7b 3d f6 df 3c be
       -0.11648403 -0.042809144 0.061421186 -0.1844481
000210 da 52 29 3e 7b ed 06 be ac fa 6d bd 84 b2 04 be
       0.16535512 -0.13176529 -0.058100387 -0.12958723
000220 3e 21 11 be 32 e5 23 be 78 90 6e 3d b2 c6 b4 bd
       -0.14172837 -0.160054 0.058243245 -0.088269606
000230 50 f6 18 3d 12 d8 3e be e8 53 4f 3e aa 5a 9c bd
       0.037344277 -0.18637112 0.20246851 -0.0763448
000240 3a a3 0b 3e f0 e7 69 3c 01 33 49 be d3 d8 a7 bd
       0.13636485 0.01427649 -0.19648363 -0.08195653
000250 4f 9f b1 bd 70 55 62 3d 78 b5 89 bc 44 11 6e bd
       -0.08672964 0.05525726 -0.016810164 -0.058121935
000260 6c b1 1e be 60 fc 68 bc b0 39 53 3d bc ba 3c bd
       -0.15497369 -0.014220327 0.051568687 -0.04607652
000270 28 93 0d bd 08 78 42 3d 5c 21 15 bd 80 42 f8 3d
       -0.034564167 0.047477752 -0.036408767 0.12122059
000280 d0 cf 46 3d cd ba e3 bd 11 cd c0 bd d6 51 0f be
       0.04853803 -0.11119614 -0.09414113 -0.13996062
000290 fc 2d 13 3e 78 74 b1 3d f8 13 be 3d 47 ec 48 be
       0.1437301 0.08664793 0.092811525 -0.19621383
0002a0 20 0d 9b bc b6 84 31 3e 6e ce 31 3e c4 9b e7 bd
       -0.018927157 0.17335781 0.17363903 -0.11309007
0002b0 40 d8 1f bb ca d7 47 be 7a 82 46 3e 5b 10 10 be
       -0.002439037 -0.1951591 0.1938571 -0.14068739
0002c0 a0 29 e9 3b 10 6a f4 3d 41 a0 2e be 30 c9 96 3d
       0.007115558 0.11934292 -0.1705332 0.07362592
0002d0 dc 6b b3 3d 44 71 df 3d 78 20 4a 3e cc 83 1c be
       0.08760807 0.109102756 0.19738948 -0.15284652
0002e0 fa 15 ea bd 72 d2 46 be ae 72 15 3e a8 4c 3d 3e
       -0.11429973 -0.19416216 0.14594528 0.18486273
0002f0 b0 8f 96 3c 40 b7 38 3d f1 d1 47 be ba 77 8b bd
       0.018379062 0.045096636 -0.1951368 -0.068099454
000300 8c c8 44 bd d4 69 46 bd ae dc 02 3e 7c 99 8f 3d
       -0.04804282 -0.04844077 0.12779495 0.07011697
000310 c0 f4 51 bb c6 0d 22 3e 3f 3c d0 bd 8b ba ed bd
       -0.0032036752 0.15825567 -0.10167741 -0.11607846
000320 52 4d 1e 3e 59 a9 db bd a2 95 3b 3e 45 b3 3c be
       0.15459183 -0.1072566 0.18318799 -0.18427761
000330 70 56 73 bd 62 76 31 be 56 70 26 3e 74 0c cd 3d
       -0.059408605 -0.17330316 0.1625379 0.10012141
000340 68 e1 cf 3d 00 de 17 3e a0 1f 3f 3c a0 58 32 3d
       0.10150415 0.1483078 0.011665255 0.04354155
000350 85 c5 ec bd cc ec 18 be 52 24 81 bd 88 ed 08 3e
       -0.11561111 -0.14934081 -0.06305756 0.13371861
000360 ee 95 24 3e f4 59 33 be 3a 2d 46 be 08 3a f8 3c
       0.16072819 -0.17514783 -0.1935319 0.030301109
000370 32 32 2e be eb 2c f3 bd 30 cd d5 bd ba 16 1a be
       -0.17011335 -0.11873802 -0.10439527 -0.15047732
000380 80 54 27 3c cc 72 22 3e 54 5c 43 3e f0 97 0a 3c
       0.010213017 0.15864104 0.19078189 0.008459076
000390 dd 7d b4 bd 30 3c 3e be f4 02 88 3d b9 64 50 be
       -0.08813069 -0.18577647 0.06641188 -0.20350923
0003a0 70 91 27 3e 4c 82 b3 3d 5c a3 1a be 48 0c 09 be
       0.16364074 0.087650865 -0.15101379 -0.13383591
0003b0 80 23 9a 3d a8 2f 3d 3d 48 ad 34 3e 98 8a 6f 3d
       0.07526302 0.046188027 0.17644227 0.058481783
0003c0 e0 a7 3f bd f0 10 29 bc 60 ff df 3b 08 88 93 3d
       -0.046790957 -0.01031898 0.006835863 0.0720368
0003d0 88 f1 59 3d 78 01 be bc b0 28 14 bd 90 0c fc 3c
       0.053208858 -0.02319406 -0.036171615 0.030767709
0003e0 de 77 a2 bd 44 8a 0e be 2e 0c 31 be fc 94 a9 bd
       -0.07933019 -0.13919932 -0.17289802 -0.0828037
0003f0 c8 fb e7 3d 35 86 c6 bd ae a1 36 be 22 09 12 3e
       0.1132732 -0.09693567 -0.17835113 0.14261296

lstm.bias_ih_l0 f4 [96]
000000 c0 13 e3 bc 00 e9 0a be d8 a0 d1 3d 74 6f 38 bd
       -0.027719378 -0.13565445 0.10235757 -0.045028165
000010 c8 25 d2 3d f8 c8 60 3d 14 0f d5 3d cd 87 dd bd
       0.102611125 0.05487916 0.104032665 -0.108169176
000020 40 0f d0 bc 4c bb 19 be 9d 65 03 be 01 1b 2a be
       -0.025397897 -0.15012854 -0.12831731 -0.16611864
000030 b0 5a 19 bc 58 a7 76 3d 00 d3 d1 3c fc 9c 02 bd
       -0.0093600005 0.060218185 0.025613308 -0.031887993
000040 a0 22 39 3e c8 f1 8c 3d 8e 88 33 3e 94 5d fc 3d
       0.18079615 0.068820536 0.1753256 0.12322536
000050 14 f8 22 3e 00 79 25 bd 5a 28 09 3e 00 7b 8f 3a
       0.15914947 -0.040398598 0.13394299 0.0010946691
000060 ac 94 2f bd d4 76 09 bd e8 65 c8 3c 00 86 2d 3a
       -0.042866394 -0.03356059 0.024462655 0.0006619394
000070 10 3a b1 3d d0 be f7 3c 72 ae e6 bd e2 78 20 3e
       0.08653653 0.030242354 -0.112637416 0.15671113
000080 81 55 24 be ca 93 06 be 00 8a f2 3d d6 1e df bd
       -0.16048242 -0.13142315 0.11842728 -0.10894553
000090 b6 eb c0 bd 20 ee 5e bc 20 a0 e1 3d e0 66 7d 3c
       -0.09419958 -0.013606578 0.110168695 0.015466422
0000a0 74 cc 09 be ca bc 31 3e 82 29 28 be d8 39 0c 3e
       -0.13456899 0.17357174 -0.16422084 0.1369394
0000b0 c8 51 cc 3c 58 19 5e 3d 9c 42 e6 3d d0 ab 3b 3c
       0.02494134 0.05422339 0.112431735 0.0114545375
0000c0 a9 88 09 be a0 41 d4 3b fb 0f 0d be ec 3e af 3d
       -0.13431038 0.0064775497 -0.13775627 0.08556923
0000d0 28 c2 dc 3d bc fe bc 3d da 88 14 3e e0 53 44 bc
       0.1077922 0.09228274 0.1450533 -0.011982888
0000e0 b8 42 fa 3d 70 75 51 3d f0 2b 1d 3c 8c b6 ea 3d
       0.12219757 0.051137388 0.009592995 0.11460599
0000f0 f8 37 c5 bc d8 c7 c8 bc f0 e3 d7 3d cc fa ae 3d
       -0.02407454 -0.024509355 0.105415225 0.085439295
000100 dd 61 2c be 7c 8b 0e be 62 86 39 be 99 98 cc bd
       -0.16834207 -0.13920397 -0.18117669 -0.09990043
000110 b0 58 22 be 54 95 21 be 02 8b 00 3e 40 7d 38 3d
       -0.15854144 -0.1577962 0.12553027 0.045041323
000120 fc 6c c1 3d b4 60 e9 3d b8 cb 1d 3e 52 c8 29 be
       0.09444615 0.11395398 0.15409744 -0.16580322
000130 ba 14 47 3e 18 7a 86 bc c0 e4 fd bc c0 9b c9 3d
       0.194415 -0.01641564 -0.030992866 0.0984416
000140 ba 91 b4 bd c0 79 ee 3d 50 d4 a5 bd 30 56 98 bc
       -0.08816858 0.11644316 -0.08097136 -0.018595785
000150 94 05 3b 3d ec 14 0f 3e d5 2a 27 be 08 c9 ac 3c
       0.045659617 0.13972825 -0.16324933 0.021091953
000160 b0 f4 c8 bc c8 18 79 3d c8 c0 60 bd 40 e5 23 3e
       -0.024530739 0.06081465 -0.05487135 0.1600542
000170 00 95 17 bd 40 94 4c bc d4 dc e0 3d bd a5 2a be
       -0.03700733 -0.012486517 0.109796196 -0.16664787

lstm.bias_hh_l0 f4 [96]
000000 ce 5c 2f 3e 5c 2b 19 3d 18 f8 12 3e 00 23 3f ba
       0.17125246 0.037394866 0.14352453 -0.0007291287
000010 9e c9 83 bd e8 0b 5a 3d bc 1b c3 3d 0c a9 17 be
       -0.0643494 0.05323401 0.09526774 -0.1481058
000020 d0 36 85 3c d8 dc 81 bc 30 ff f2 3d 30 d3 55 bc
       0.016261488 -0.015852377 0.118650794 -0.013050839
000030 80 03 c0 3a a8 bd be 3c ce d8 47 be d0 21 30 3e
       0.001464948 0.023283795 -0.19516298 0.17200398
000040 7a 3f 34 3e 52 bf 30 be 4b 23 09 be cc 20 01 be
       0.1760234 -0.17260483 -0.1339237 -0.12610167
000050 b4 75 23 3d b8 9e e5 3d a8 e3 43 3e 48 75 1e 3e
       0.039907172 0.11211914 0.19129813 0.15474427
000060 f8 e6 fa bd e0 48 55 3c 2c be 6c bd 98 90 40 3e
       -0.12251085 0.013017863 -0.05779855 0.18805158
000070 88 59 9b 3d 40 67 84 bd 61 94 42 be 74 29 33 bd
       0.07585436 -0.06465006 -0.19001915 -0.043740705
000080 00 28 b1 bd 28 85 17 be d2 7c 3d 3e 60 9d 6e bc
       -0.086502075 -0.14796889 0.18504646 -0.014563888
000090 68 7e 94 3d a6 f7 1f 3e 6c 28 f4 3d e6 4f 32 3e
       0.072506726 0.15621814 0.11921772 0.17413291
0000a0 44 77 35 3d b8 7c bb bd b8 fc 92 bd c0 08 6f bd
       0.044303194 -0.091546476 -0.071771085 -0.058357954
0000b0 3f 1f 1d be 00 45 6d 3d b4 d3 0e be d0 22 cb bc
       -0.1534395 0.05792713 -0.13947946 -0.024796873
0000c0 00 64 90 39 e6 21 db bd 00 d9 16 bb c0 a9 f8 bc
       0.00027540326 -0.10699825 -0.0023017526 -0.03035438
0000d0 70 d0 76 3d d9 06 bc bd ad 05 39 be 4e 1b 2f 3e
       0.060257375 -0.091809936 -0.18068571 0.1710026
0000e0 ca 97 0b 3e 90 f4 3d 3d dc b8 2e be f6 80 44 be
       0.13632122 0.04637581 -0.17062706 -0.1918982
0000f0 c0 09 2b bb 31 89 4f be 40 d3 c4 3d 18 a9 3c 3d
       -0.002609834 -0.20267178 0.09610605 0.046059698
000100 3a 68 42 3e 58 ff a5 3c 74 9e a5 3d b3 40 49 be
       0.18985072 0.020263359 0.08086863 -0.19653587
000110 e8 7e 55 bd 00 40 94 38 50 ba 4a 3e 28 e2 61 bd
       -0.05212298 7.069111e-05 0.19797635 -0.05514732
000120 90 9b 4c bd 30 9d 16 bd e4 83 f2 3d 1c 3b 01 be
       -0.049953043 -0.036771 0.118415624 -0.12620205
000130 5c 71 03 bd 30 cf c5 3d 61 50 c2 bd 28 fd ed 3d
       -0.03209053 0.096586585 -0.09487987 0.11620551
000140 c4 3a 2d 3e b0 4b cd 3d 9c 28 e9 3d 50 98 3c bd
       0.16916949 0.10024202 0.11384699 -0.046043694
000150 6a a3 10 3e cd 09 0a be a4 08 23 be fc ee d0 bd
       0.14124838 -0.13480301 -0.15921265 -0.10201833
000160 92 88 2d 3e 70 db b0 3c 90 67 97 3c f0 54 a7 3c
       0.16946629 0.021589011 0.018482 0.020426244
000170 0c 78 d7 3d 90 2b 46 3e 6a 2b 47 3e d7 e1 08 be
       0.10520944 0.19352555 0.19450155 -0.13367401

linear1.weight f4 [128, 10]
000000 bd e0 ba 3d c7 7c bf bc 35 cd af 3c 4b a8 21 3e
       0.09124897 -0.023374928 0.021460155 0.15786855
000010 88 e9 25 3e aa 13 be be fc 13 21 3f 3a f8 14 3e
       0.16202366 -0.37124377 0.6292112 0.14547816
000020 c7 45 ac bc 59 9a cf bd c9 b6 a6 3e 5a aa d8 bd
       -0.021029366 -0.10136861 0.3256133 -0.10579367
000030 4b f0 29 bd b0 37 d9 be f5 00 49 be dc 40 e9 be
       -0.041488927 -0.424253 -0.19629271 -0.45557296
000040 24 8e 61 3e 86 ab 77 3e e4 60 5f 3e 93 ff 84 3e
       0.22026879 0.24186525 0.21814305 0.25976238
000050 b4 20 9b be b5 dd c0 bc 85 db d4 bb 52 fc 2c be
       -0.30298388 -0.023543218 -0.0064958953 -0.16893128
000060 db 96 e7 3e 06 6a f0 3d 51 6a aa be fc 76 62 be
       0.4523228 0.11738972 -0.33284238 -0.22115701
000070 d9 1f 0c 3e f2 05 3a 3e 6d ff fb bc 2b e8 70 bd
       0.13684024 0.1816633 -0.030761445 -0.058815163
000080 52 85 96 3d 50 cd b2 be 43 8b bc 3e 0e 3b 85 be
       0.073496476 -0.34922266 0.36824998 -0.26021618
000090 40 ed d9 3d a6 bc 7d 3e dd 91 5b 3e 89 a8 ba bc
       0.10640955 0.24778995 0.21442361 -0.022785442
0000a0 2a da 2d be 1c f7 ca 3e 14 97 b3 bc f5 9e 24 be
       -0.16977754 0.39641654 -0.021922626 -0.16076262
0000b0 51 df 8e 3e 4e 88 e3 3e b3 91 95 be e9 82 a9 be
       0.27904752 0.4443993 -0.29212722 -0.3310769
0000c0 ad 15 57 be 67 e5 e9 3e ea b6 ba 3e 9f 3d a7 bd
       -0.21004362 0.45682833 0.36467677 -0.0816605
0000d0 28 f2 9c 3c 0e d4 c9 3d 0f 8d 00 bf 9f 79 8e be
       0.019158438 0.09854899 -0.5021524 -0.27827165
0000e0 94 9f f3 3d 6a 84 25 3e c2 c8 85 3e 82 43 c8 3d
       0.118956715 0.16163793 0.2612973 0.09778501
0000f0 0d 41 4b 3a 1a 25 97 be dc fc 95 3e 9d 13 90 3e
       0.0007753529 -0.29520494 0.2929448 0.28139964
000100 cd 68 10 bd 6e 4a 96 be f5 a7 18 3e 1c 57 91 be
       -0.035256196 -0.2935366 0.1490782 -0.28386772
000110 33 c4 6e 3c b2 8f 93 be 04 63 fc be c3 89 df bd
       0.014573145 -0.28820568 -0.49294293 -0.10914948
000120 cd 9f 13 3e 54 18 88 3d 1c de 1c 3e 9a 08 d3 bc
       0.14416428 0.06645265 0.15319103 -0.025760937
000130 48 c4 93 3c d0 06 bf 3e 26 ad bb 3d 7f c5 a5 be
       0.01803793 0.37309885 0.09163885 -0.3237724
000140 11 5c 78 be fd 77 5e be e4 af 76 3c df 04 61 3e
       -0.2425387 -0.2172546 0.015056584 0.21974514
000150 38 50 29 be b1 59 ce 3e b3 3a 28 be 61 c6 b9 3e
       -0.16534507 0.40302804 -0.16428642 0.36284164
000160 25 09 bf 3e b1 d8 5d 3e 93 5c 87 be 1a 72 e1 be
       0.37311664 0.21664692 -0.26437816 -0.44032365
000170 8e f0 27 bc 56 92 0a bf 19 73 1b bd cc dd 46 bd
       -0.010250224 -0.5412954 -0.037951563 -0.048551366
000180 df 9d d0 3e db f1 34 be aa 35 c3 bc 29 88 a9 3e
       0.40745446 -0.17670386 -0.0238293 0.33111694
000190 7f 8e 8b be f6 57 00 bf a7 4d 13 be 9a 75 88 bd
       -0.27257153 -0.5013422 -0.14385091 -0.06663056
0001a0 dd 36 80 bd c8 ae 9a bd 5a 69 35 be d1 53 37 be
       -0.06260464 -0.07552868 -0.1771597 -0.17903067
0001b0 71 57 16 bd 62 aa ae 3e e0 56 e5 be e6 a8 fe 3d
       -0.036704484 0.34114367 -0.44792843 0.124345586
0001c0 b1 8e 69 bc 48 31 72 3e f7 fa c6 be 5c 48 a3 3e
       -0.014255212 0.23651612 -0.38863346 0.31891143
0001d0 08 87 c4 bd fa e2 41 bd 09 a7 43 bd b2 be 6a 3e
       -0.09596068 -0.047335602 -0.04776672 0.22924307
0001e0 c2 89 dd 3e cf 33 76 3e be 66 08 3d 64 e8 cd 3e
       0.43269163 0.24043201 0.033301108 0.40216362
0001f0 f0 7c e3 bd d5 ca ad 3e c4 c0 38 3d ef 01 15 be
       -0.11107814 0.3394381 0.04510571 -0.14551519
000200 98 45 88 3e 54 0f f1 3d ae a7 2f bf 98 85 27 3e
       0.26615596 0.11770502 -0.68615234 0.16359556
000210 9c 59 09 bd f6 fe 8d bd 21 31 8a 3e 3c 58 13 3f
       -0.033532724 -0.069333956 0.26990607 0.5755651
000220 b2 7b 70 bd 9b 99 4a 3e 5a 83 9f be b0 77 0f bd
       -0.058711715 0.19785158 -0.311549 -0.035026252
000230 95 c5 73 bd 10 65 43 bd c2 87 81 3e f9 ac 8a bb
       -0.0595146 -0.047703803 0.25298887 -0.0042320457
000240 ec cb 97 be 3a a5 83 be 4c 2c 44 be 4a 97 81 be
       -0.29647768 -0.25711995 -0.19157523 -0.25310737
000250 7f d6 95 be d0 42 67 3d 1a ae 0f 3e 42 62 1a 3e
       -0.2926521 0.0564602 0.14031258 0.15076545
000260 cf 02 53 3d 8d c9 9b be cc 09 93 be 1f f5 54 3e
       0.05151635 -0.3042721 -0.28718412 0.20796631
000270 37 c9 34 3e 7b b7 7c 3d 5c 2d 10 bf 8a cb 75 be
       0.17654882 0.061698418 -0.5631921 -0.24003425
000280 01 1c d5 3e 55 36 05 3e 24 f1 4f be 9d 0a bf bd
       0.41622928 0.13009007 -0.20306832 -0.09328196
000290 67 05 83 3e fb 2b b1 3e 2f f0 dc 3e c1 d3 84 3e
       0.2559006 0.34603867 0.43151996 0.25942805
0002a0 70 ef 1a bd 47 29 49 3e 5a c2 8a be 72 cd d1 3c
       -0.037826 0.19644652 -0.27101403 0.02561066
0002b0 40 e5 56 3e 42 72 a0 3e 2b 16 86 3e e0 cc 7c be
       0.2098589 0.31337172 0.26188788 -0.24687529
0002c0 76 38 5d 3c 56 c8 2c bc 4d 77 49 be f8 c3 2b be
       0.013502231 -0.010545811 -0.19674416 -0.16773975
0002d0 c5 4a e4 bd 34 d3 95 3e 3c a0 14 3e 69 59 27 be
       -0.11147074 0.29262698 0.1451425 -0.16342701
0002e0 bb 1c 61 3e da 7b 6d 3e 10 18 12 3f 5c fa 42 bc
       0.21983616 0.23191777 0.57067966 -0.011900511
0002f0 2f ef 71 be f5 53 33 3d 72 61 49 3e 8e 16 96 3c
       -0.23626398 0.04378124 0.19666079 0.018321302
000300 a6 82 05 be 1e c2 60 bd 07 1b c4 3e 2a f9 9e be
       -0.1303812 -0.054872625 0.3830187 -0.31049472
000310 8b a4 b2 3e 2a 78 b6 3e 78 3b 4d bd 64 19 95 3c
       0.3489116 0.35638553 -0.050105542 0.018200584
000320 45 b9 04 bf f6 bc f4 3a 4e ea 3f 3e 21 26 bf be
       -0.518452 0.0018672037 0.18741724 -0.37333778
000330 c6 1e fb 3e 81 c7 18 3e fb 48 04 be 02 05 37 3e
       0.49046916 0.14919855 -0.12918465 0.17873004
000340 9a a2 59 be 9c 9a 3f bd 4f 65 9f 3e ec 39 48 be
       -0.21253434 -0.046778306 0.3113198 -0.19553345
000350 8a 33 8b bc b6 1e ec be e7 16 92 be 82 46 9e be
       -0.01699235 -0.4611718 -0.28533098 -0.30913168
000360 66 56 2b be b6 58 db bb bd aa 1e 3e 86 ae f7 3d
       -0.16732177 -0.006693925 0.15494819 0.120938346
000370 c3 9b 86 3e ec 0d b6 bd 3f 97 8b 3e 43 8e 31 bd
       0.26290712 -0.08889374 0.2726383 -0.043348562
000380 c2 1a 50 3e 65 55 9f be 9a fe f8 be 10 18 51 bd
       0.20322707 -0.31119838 -0.48631746 -0.05104834
000390 ca 91 b6 be 20 15 60 3e 27 aa f0 3d e5 7a 9a bd
       -0.35658103 0.21883059 0.11751204 -0.075429715
0003a0 9c 72 f8 3d 27 b6 1b be cf d8 cc 3e 0b de 4c be
       0.12131235 -0.15206204 0.40009162 -0.20006578
0003b0 b7 45 bb ba dc 1b 44 be 9e 10 b9 bd d8 2a 75 3e
       -0.0014287744 -0.19151253 -0.090363726 0.23942125
0003c0 eb 35 ad bb 3c 1e f9 3e ac 84 32 3e 07 86 1f be
       -0.0052859685 0.4865588 0.17433423 -0.15578471
0003d0 61 12 4e be 99 c2 fc be ca 27 7e be 39 c8 70 be
       -0.20124198 -0.49367216 -0.24819866 -0.23513879
0003e0 3b eb a4 be 35 ed 03 3e d5 22 ac be 35 06 6a 3e
       -0.32210717 0.12883456 -0.33620325 0.2285393
0003f0 0d 96 17 bd 2a 65 b6 3e 69 77 ba be d4 69 7c 3e
       -0.037008334 0.35624057 -0.36419228 0.24649745

linear1.bias f4 [128]
000000 19 7c 6d be 99 28 a9 3e 99 3f 2c be ee fb 90 3e
       -0.23191871 0.33038786 -0.16821136 0.28317207
000010 14 b8 37 bd 25 87 7b 3e de 12 5f bc 14 18 4c 3e
       -0.044853285 0.24563272 -0.013615338 0.1993106
000020 78 2d 78 3e ca 0f d1 bd b9 e0 0c bd 88 13 55 bd
       0.24236095 -0.1020809 -0.034394 -0.05202058
000030 6b c8 9a 3e be c3 08 3e cd 32 97 bd ba 06 b0 3e
       0.30231032 0.1335592 -0.07382736 0.34380132
000040 de d0 99 3e 33 fa 6d 3e ec 5f b2 bc 1c 9d b5 3c
       0.30042166 0.23239975 -0.021774255 0.022169642
000050 3b 60 5c 3e 18 2f 99 bd 68 fa 4b be cb 94 07 3e
       0.21521084 -0.074796855 -0.19919741 0.13240354
000060 ba a6 da 3c b5 b5 90 3e 52 f2 81 bd c2 9e cf bc
       0.02669083 0.2826363 -0.06345047 -0.025344256
000070 ec f3 d5 3e af 28 e6 3d b1 e1 8b 3e 62 48 83 3e
       0.4178766 0.112382285 0.27320626 0.2564116
000080 01 af c2 3d 7b fd 2e bd 9e 53 8f 3d 03 ca f4 3d
       0.095060356 -0.042722207 0.069983706 0.11952593
000090 44 1f 88 3e bc 2d f7 bd ed 83 9c 3d 1a 0e 81 3e
       0.26586354 -0.1206927 0.0764235 0.2520607
0000a0 fc e8 66 bd 71 8d c2 3e fe 6d 93 be d4 e6 5f 3d
       -0.056374535 0.37998536 -0.28794855 0.054663494
0000b0 50 81 1d be 1f 98 d9 bc 19 0d 41 38 6b 7d b6 3d
       -0.1538136 -0.026561795 4.6026984e-05 0.0891064
0000c0 60 d0 e6 bd a3 9b 82 3e e1 7f 3e 3e 48 aa 46 3e
       -0.11270213 0.25509366 0.1860347 0.19400895
0000d0 77 22 34 be b1 f5 b9 3e 25 e0 0a be eb df f8 bc
       -0.17591272 0.3632026 -0.13562067 -0.03038021
0000e0 8f 9d f9 bd fa 76 d0 be 8e b4 b4 3d 76 85 ab bd
       -0.12188255 -0.40715772 0.088235006 -0.08375065
0000f0 2e d4 1d be 03 50 03 3e fb ff e2 bd ce b8 ae be
       -0.15412971 0.12823491 -0.11083981 -0.3412537
000100 6a c5 89 3e de 17 31 3e 22 8a 6a be ae fa 6e be
       0.26908427 0.17294261 -0.22904256 -0.23337814
000110 cd 41 9e 3d a7 0a 76 3e f9 e9 aa 3e 38 8e e6 bc
       0.07727394 0.24027501 0.33381632 -0.028143987
000120 47 97 60 3e 96 14 67 3e c4 f2 7d 3c eb 4f 42 bc
       0.21932708 0.22566447 0.015499774 -0.011859874
000130 fb 88 50 be 7c b9 9a 3e ba 73 c4 be bd 02 34 be
       -0.20364754 0.30219638 -0.38369542 -0.1757917
000140 17 2f 63 3c 92 72 b8 bd 41 2f 39 bd 13 10 85 3d
       0.013866208 -0.090062276 -0.04521108 0.064972065
000150 72 a4 6f be f0 0f 94 3e b0 fd 11 3e 9b 96 34 be
       -0.23402575 0.2891841 0.1425693 -0.17635576
000160 d7 27 34 3e f0 50 2e 3e c6 e3 82 3d f3 42 5a be
       0.17593323 0.17023063 0.063911006 -0.21314602
000170 b5 ed f0 bd 85 aa 80 3e a9 83 38 be dc 76 c9 3c
       -0.11764089 0.25130096 -0.18018974 0.02459281
000180 9e f0 1a be 4e f1 81 3d b9 cc a7 3d 62 ad 14 be
       -0.1513085 0.06344853 0.081933446 -0.14519265
000190 09 61 d9 3d c9 7a b9 3e 0f 3d 4c 3e aa 0a 70 3b
       0.10614211 0.3622649 0.19945167 0.003662745
0001a0 77 80 8f be f7 11 87 be 4f 6f b3 39 19 cd 6b be
       -0.28027698 -0.26380894 0.00034224472 -0.23027457
0001b0 95 83 14 3e ca a5 8a 3e 91 be 30 3e ff da 7c 3d
       0.1450332 0.27079612 0.17260195 0.06173229
0001c0 24 47 05 3e 84 c8 1b 3d c4 13 df bd 73 88 02 be
       0.13015419 0.038033023 -0.10892442 -0.12747364
0001d0 a0 fd a5 3e 84 40 1e be 95 d9 ae bd 1d b9 5f bd
       0.32420063 -0.15454298 -0.08537594 -0.054619897
0001e0 6f 56 80 3e 29 1c a1 3e e2 c2 20 3e fe e5 69 3d
       0.25065944 0.31466797 0.15699342 0.057104103
0001f0 fc b6 a0 3d 27 52 c9 3d 30 58 6a 3d c6 f5 a0 bd
       0.078474015 0.098301224 0.05721301 -0.078593776

linear2.weight f4 [128, 128]
000000 5c 18 82 3e c7 76 d4 bd 80 b4 a9 3e c7 01 19 3d
       0.2540921 -0.103742175 0.33145523 0.03735521
000010 c5 cb 4f 3e 3d c3 55 3e a6 c8 cc bc 2d 0c d7 bc
       0.20292576 0.20875259 -0.02499802 -0.026250923
000020 a8 ba 0b be 51 23 fd 3d bf 56 53 be 32 9d 6a be
       -0.13645422 0.12360252 -0.2063856 -0.22911528
000030 45 8c 09 be 49 d0 0e 3e 3d fa 2f bd 54 a6 c8 bd
       -0.13432415 0.13946642 -0.042963255 -0.097973496
000040 d2 14 42 be 8f 0f 26 bd 0f ac cd 3d ec 80 08 3d
       -0.18953255 -0.04054218 0.10042583 0.033326074
000050 25 98 b1 bb 4f 7d 13 3e 8c ab 88 3d 03 4a 48 3c
       -0.0054197484 0.1440327 0.06673345 0.012224677
000060 6c 94 04 bd ed 6d 89 3c 38 85 7c bb 50 b3 33 3d
       -0.03236811 0.01677605 -0.0038531553 0.043872178
000070 a0 ba 1a 3d 13 aa a3 3d 80 3a a2 bc fe f6 18 3e
       0.037775636 0.079914235 -0.019803286 0.1493797
000080 3b 8d 9a bc 5a e9 6f 3d 3b e9 39 3e e1 c0 f3 bd
       -0.018866172 0.05857215 0.18155377 -0.11902023
000090 86 35 52 be 0a b6 ac 3c 29 25 45 bd 6f 28 e8 bd
       -0.2052823 0.021082897 -0.04813114 -0.11335837
0000a0 90 46 89 bd e1 a1 2f 3d 57 c3 d1 3d e3 62 3f bd
       -0.06702912 0.04287899 0.10242336 -0.046725165
0000b0 e4 d1 c2 3d dc a9 16 3b da f5 66 3e 54 48 ce bd
       0.0951269 0.0022989428 0.22554722 -0.10072389
0000c0 b0 f3 7a bd 25 ca 15 3e ea 90 91 3d bd 51 6a 3e
       -0.061267555 0.14627893 0.07107718 0.22882743
0000d0 e9 e6 c0 bd 81 8c 5e be b6 65 88 3e c2 93 65 3c
       -0.094190426 -0.21733285 0.266401 0.014012279
0000e0 75 4e 73 be 97 ed 10 3c 96 51 66 3e 82 19 bc 3d
       -0.23760398 0.008845708 0.2249206 0.09184553
0000f0 45 32 4b bc 84 bc a9 bd b1 73 95 3d 58 b6 94 3a
       -0.012402122 -0.082879096 0.07297457 0.0011345847
000100 a2 54 7f 3e b6 0b 97 3d 66 a7 60 3d 2f 84 df 3d
       0.24934629 0.073752806 0.054847144 0.10913884
000110 f7 c9 9e 3c 06 ef c3 be 7c c5 26 3d 37 93 2a be
       0.019383414 -0.38268298 0.04071568 -0.1665772
000120 47 c4 09 3e 4c 00 d5 bc ef 74 c2 be 32 38 89 3d
       0.1345378 -0.026001118 -0.37979838 0.067001715
000130 d7 c6 4d 3d 5e b3 3f 3d bf 6d e1 bb ff c1 86 3d
       0.050238457 0.046801917 -0.006879538 0.065799706
000140 ae 73 a0 bd d4 d8 0e 3d e0 ee 35 3e 70 ac 01 3d
       -0.07834564 0.034874752 0.17766905 0.03165859
000150 3d c4 a8 3d 8d 4b 96 bd 36 79 ac bd d6 a0 a6 3d
       0.082405545 -0.07338629 -0.08421557 0.08136146
000160 14 9d 68 3e cf 70 73 3e 55 02 76 3c 7d 8a 78 3d
       0.2271617 0.23773502 0.015015204 0.060678948
000170 6c cc 43 bc d6 43 f4 3c ca 84 58 bd 42 05 10 3d
       -0.011950593 0.029817503 -0.052861013 0.035161264
000180 6a c2 0d 3e 0b a0 8a bc 0c d6 6b bd 6b 78 dc 3d
       0.13843694 -0.016922018 -0.057577178 0.107651554
000190 07 84 9a 3e c4 d0 9e be ff f2 a7 3c 1e 99 a2 bd
       0.30178854 -0.3101865 0.020501612 -0.07939361
0001a0 ae 49 d6 bd 26 34 3b 3d 7f a3 ea 3d fc b2 88 bc
       -0.10463272 0.04570403 0.11456966 -0.016686909
0001b0 e9 b7 e3 3c c5 0b b1 3b 37 94 0f 3d 05 0f da bd
       0.027797656 0.0054030144 0.035053458 -0.10647396
0001c0 a2 0c 35 bd 74 ae 01 3e 35 b5 14 3e 70 c2 6c bc
       -0.0442015 0.12664205 0.1452225 -0.014450654
0001d0 90 00 91 be 9c 4a c9 3c 5c 6e 29 3c ce de 2c bd
       -0.28320742 0.02457171 0.010341253 -0.04220467
0001e0 24 ae 36 3d a9 8e a6 bd c3 ef 7e 3e e8 25 c1 be
       0.044599667 -0.08132679 0.2489615 -0.37724233
0001f0 c2 4a 14 3e 17 00 d4 bd e6 f6 ee 3c 7a ac 17 bd
       0.14481643 -0.1035158 0.029170465 -0.03702972
000200 63 cb a1 3d 73 14 4c 3d 6a 80 38 3e e2 7f 70 bd
       0.07900121 0.04982419 0.18017736 -0.05871571
000210 3f 6e cb 3e 63 1f d0 3d fb c9 f3 3c d2 a1 ce bc
       0.3973255 0.101622365 0.029759398 -0.025223646
000220 18 e4 ca 3d 53 ed 2f 3e 07 40 56 3e 84 89 83 be
       0.09906787 0.17180376 0.20922862 -0.25690854
000230 e1 e7 19 3e e2 03 ac 3e 23 20 c9 3d 9a e9 a0 3c
       0.15029861 0.33596712 0.09820583 0.01964264
000240 c2 8a 3f 3d 11 6b 16 bb 59 11 37 bd 7f 7f 3e be
       0.04676319 -0.0022952 -0.04469428 -0.18603323
000250 9d a8 6b bd 95 be 2a 3d aa 29 a0 3b fa 10 34 3c
       -0.05753385 0.04168566 0.0048877792 0.010990376
000260 a7 b8 c4 3d fd 66 a4 bd a8 c3 3c bd 53 c0 ed bc
       0.09605532 -0.08027456 -0.04608503 -0.029022371
000270 88 0e 84 3e d4 fa 12 3d 01 6b a0 3e 8c f2 86 be
       0.25792336 0.03588374 0.31331638 -0.26356924
000280 a0 62 21 bc 99 07 ab 3d c1 d6 3d be 26 87 61 3e
       -0.009850174 0.083510585 -0.18538953 0.22024211
000290 31 bb 80 3e 1f 79 4f be 80 ba 54 bd 06 35 01 3d
       0.25142816 -0.20261048 -0.051935673 0.031544708
0002a0 d9 71 7c 3c e7 9f 76 bd fa ed 03 bb 27 93 0d bd
       0.015408003 -0.06021109 -0.0020130859 -0.034564164
0002b0 b8 cf a6 3d b0 c8 89 3d e7 38 63 3e e2 ec 2c 3e
       0.08145088 0.06727731 0.22189675 0.16887239
0002c0 58 c5 bc 3d 5c 12 28 be f0 f6 1b bd 59 1a 45 be
       0.09217328 -0.16413254 -0.038077295 -0.19248332
0002d0 dc f4 a4 3e 1f e9 1e 3e 4e 18 80 3e 53 2a 95 3c
       0.32218063 0.15518616 0.25018543 0.018208658
0002e0 9d 96 53 bd 69 23 22 3d b4 ed 3c bd 72 f4 97 bc
       -0.051657308 0.03958455 -0.04612513 -0.018549178
0002f0 46 38 3d 3d 7a 7f 61 bd 64 ac c8 bc a4 66 29 3d
       0.046196245 -0.05505321 -0.024496265 0.04135765
000300 6e 1e db bd 9e 75 dc 3d 13 e9 72 3d 71 5c ab 3d
       -0.106991634 0.10764621 0.05930431 0.08367241
000310 59 f6 0b be 14 0d b4 bd 07 68 91 3e 74 bf 24 3d
       -0.13668193 -0.08791557 0.2839968 0.040221646
000320 00 10 3a 3e 7f 76 9f bc 96 c2 1b 3d 57 ac 2b 3c
       0.18170166 -0.019465683 0.03802737 0.010478101
000330 b7 4b 0d 3d cc 4c ac bd 9d 91 c3 3e 62 97 8d bd
       0.034496035 -0.08413085 0.38197032 -0.069136396
000340 24 aa 0a 3e bf 8b 16 bd f4 94 af be eb 1a e8 3c
       0.13541466 -0.036754366 -0.3429333 0.028333148
000350 ee 52 5b bd 79 c5 ea 3d 93 9c 35 be 53 19 bc 3c
       -0.053545885 0.11463446 -0.1773551 0.022961294
000360 5d 58 b6 3e ba 61 e6 3d 37 a4 3e bd 86 2d c7 3d
       0.3561429 0.112491086 -0.046543326 0.0972548
000370 19 dc 3e be 6d ce 81 3d 83 c0 8a be f1 db 94 bc
       -0.18638648 0.06338201 -0.271 -0.018171282
000380 cd 7d a1 3e c2 f6 b8 3c 7e 70 9b bc 38 09 b0 be
       0.3154129 0.0225786 -0.018974539 -0.34382033
000390 97 8e e9 3d 4a da a2 be 73 c4 95 be 9d a1 f5 be
       0.1140415 -0.31807166 -0.2925144 -0.47974864
0003a0 8a aa 88 bd 6a 57 4e 3e ef 99 6d be 07 be 64 3d
       -0.06673153 0.20150533 -0.23203252 0.055845287
0003b0 f4 f0 3e 3d bc 73 35 3d ed 19 eb 3d 55 4f 2c be
       0.04661651 0.044299826 0.11479554 -0.16827138
0003c0 6c d2 3a 3d 3a 16 77 be e2 f9 20 3e 37 c2 60 3d
       0.04561083 -0.24129573 0.15720323 0.054872718
0003d0 4e 19 2b be 38 81 4b 3d 5a c4 ef 3b 84 c2 f3 bb
       -0.16708872 0.04968378 0.007317108 -0.0074389596
0003e0 83 a6 35 3e af 68 63 3e 93 35 66 3e 79 ff 9d bd
       0.177393 0.22207902 0.22481374 -0.07714743
0003f0 02 5a 1b be 3f 9e 4c 3d 7b 2a ea bc bf 1b 85 bd
       -0.15171054 0.049955603 -0.02858471 -0.06499433

linear2.bias f4 [128]
000000 8e 70 2c 3d bc 56 e7 3d f7 58 5a 3d 5d ab 32 bd
       0.042099528 0.1129584 0.0533075 -0.043620456
000010 13 9f c4 3c b1 25 b7 3c ee 93 25 bd ac db d2 bb
       0.024001634 0.02235684 -0.04042428 -0.0064348783
000020 2e 21 96 3d 8e f5 37 3d 42 a3 e5 bc 2b f4 47 bd
       0.07330547 0.044911914 -0.028031949 -0.04881684
000030 95 6a f8 3d 7f c1 02 bd c6 80 f4 3d 66 d8 7d bc
       0.12129704 -0.031922814 0.11938624 -0.015493488
000040 f6 b3 87 bc 54 45 9c b9 0a c4 10 3d 08 7f 14 3e
       -0.016565304 -0.00029806292 0.035343207 0.14501584
000050 6b ea 92 3d 13 ca 73 3d 5d 56 94 bc e5 50 e0 3c
       0.07173618 0.059518885 -0.018107587 0.027382324
000060 32 5d dd bd c8 2f 69 3d 23 14 03 3d b8 2e f7 3c
       -0.10808791 0.056930333 0.032001626 0.030173644
000070 e3 46 35 bd 2e 18 b4 bd a8 2d 59 bd 1e de 34 bc
       -0.044257056 -0.087936744 -0.053022057 -0.011039285
000080 6c bf 88 bd 00 cb 87 3d c8 3b 58 bd 2b 31 75 bd
       -0.06677136 0.06630516 -0.052791387 -0.059861343
000090 bf cb aa 3d 6f 68 7d 3d 24 42 78 3d c4 7d 00 3d
       0.08339643 0.061867174 0.06060995 0.03136994
0000a0 a4 09 42 3d d2 6f c1 3d 74 ca 12 3d a4 e5 85 3d
       0.047372475 0.09445156 0.035837606 0.06537941
0000b0 18 2c f6 bc 42 c8 a2 bd 40 4c bf bb 94 a6 95 3d
       -0.030050322 -0.079483524 -0.005837947 0.07307163
0000c0 fd c3 b7 3d 7e 9e 00 bc dd 6a 9e 3d f6 07 5e bc
       0.08972929 -0.0078502875 0.07735226 -0.013551703
0000d0 4a 8a a8 bc fe 0c 96 bb 7d 68 38 bd 3a 53 90 bd
       -0.020573754 -0.0045791855 -0.045021523 -0.07047124
0000e0 fe dc 2d bc 17 03 dc 3d 81 7c 8d 3d cd d4 33 3d
       -0.010611771 0.10742777 0.06908513 0.043904115
0000f0 ac 72 c7 3d 8a ea e0 bd 87 ee 0e 3b 4d f5 38 3c
       0.09738669 -0.10982235 0.0021809654 0.011288953
000100 01 1f 01 3d 82 57 fa 3c cf 81 1e bd 61 64 ac 3c
       0.03152371 0.030559305 -0.038698014 0.021043958
000110 4f da 65 3d 78 02 b2 3d 29 4d 96 bb d1 7c fc bd
       0.0561164 0.08691877 -0.004586835 -0.12328494
000120 4a b9 e7 bc 69 13 52 bc 1f 23 31 3d 8b 67 71 3d
       -0.028286595 -0.012822011 0.043246385 0.058936637
000130 d4 ab ef 3c 4a fd d3 bd 3d 43 d7 bc af 2a db bb
       0.029256739 -0.103510454 -0.026277179 -0.006688438
000140 40 0d 8c 3d 54 08 7d 3b 78 01 cb bc 82 23 5e 3c
       0.06838465 0.00386097 -0.024780974 0.01355827
000150 60 18 6b bd f6 04 0c 3c bf 6d 83 3c d9 92 d2 3d
       -0.057396293 0.008546105 0.016043542 0.10281915
000160 e0 5a 71 3b 53 be 4e 3d f4 8d c0 3c 61 f0 8f bd
       0.0036827847 0.050474476 0.023505189 -0.070282705
000170 04 9e bb 3d 70 2f a7 3d 9a f1 dc 3c 37 06 8f bd
       0.091609985 0.08163345 0.026970673 -0.06983607
000180 7e a7 b1 bb e1 8e cb 3c ce b1 a4 bd ef 55 c7 3d
       -0.005421578 0.024848403 -0.08041726 0.097331874
000190 2f 10 6a bd e4 6e 6f 3d 91 43 53 bd 4c 2a c5 3d
       -0.05714434 0.058455363 -0.05157811 0.09627208
0001a0 5a a4 97 bd c1 51 a0 3d 3d 50 02 3e 31 5e 8a b8
       -0.074043944 0.07828093 0.12725921 -6.597897e-05
0001b0 98 31 b5 bd 13 8b 06 bd f3 09 63 3d 82 49 0e be
       -0.0884735 -0.032847475 0.05542941 -0.13895229
0001c0 fb 1a 4d 3c c3 d4 3a 3d 7f 08 6a bd ac bd a2 3c
       0.01251864 0.04561306 -0.05713701 0.019865833
0001d0 3e 76 48 3d 8a 6e 49 bc d4 93 b9 3c d6 7a cd bc
       0.04894089 -0.012294421 0.022653498 -0.025082987
0001e0 fe 1d fe bb eb c8 45 3d 68 ad 5b 3d dc 80 05 bd
       -0.00775504 0.048287313 0.05363217 -0.032593593
0001f0 8d a6 2e 3d 68 91 8b bd a2 41 58 bd b8 e3 e3 bb
       0.042639304 -0.068148434 -0.052796967 -0.0069546364

linear3.weight f4 [1, 128]
000000 1c 2d fc bb 99 a5 bc bc 47 25 1f bd c3 dc 88 bb
       -0.007695807 -0.023028182 -0.03885391 -0.0041767075
000010 2f de 8e bc 13 d2 3d 3d e5 27 1e 3c 1c 6d 05 3f
       -0.01743993 0.04634292 0.009653066 0.5211961
000020 94 e9 be 3c 0e 38 67 3d 6d e6 78 3d 22 46 3f 3d
       0.023304738 0.056449942 0.060766626 0.046697743
000030 4f 36 bd bc 49 96 7e bc d6 97 6e bd f9 d9 a3 bc
       -0.023097185 -0.01553876 -0.05825027 -0.020001398
000040 42 09 05 bd 06 d7 61 be 83 a0 18 3d 93 1e 3c be
       -0.032479532 -0.22054681 0.03726245 -0.18371038
000050 78 29 d5 3b 1a a2 67 bb 35 26 05 3e 23 aa 41 be
       0.0065051876 -0.0035344423 0.13002856 -0.18912558
000060 84 aa 87 3e 9b f0 8b bc b5 34 a2 bd 32 33 8d 3e
       0.2649728 -0.017082503 -0.07920209 0.2757812
000070 48 58 8d 3d e2 96 18 be 9a 50 23 bd 50 80 1f bd
       0.06901604 -0.14901307 -0.03987179 -0.038940728
000080 c4 1d 2d be 15 3d 0d bd 5a 4a 36 bd e5 0d 3f bd
       -0.16905886 -0.03448208 -0.0445045 -0.04664411
000090 22 f4 30 bd 83 65 38 bd 27 65 6c bd 3a df be bc
       -0.043201573 -0.045018684 -0.057713654 -0.023299802
0000a0 43 f8 91 3d 4d 91 66 bd a3 b3 96 3d 5f 1c 8c bc
       0.0712743 -0.056290913 0.07358482 -0.017103372
0000b0 76 7c f2 bc c1 a8 54 bd 39 e7 4c 3d d0 a5 0f bd
       -0.029600363 -0.05191875 0.0500252 -0.03507024
0000c0 7c ec 08 bd cd f8 96 3d 9d 92 aa bc ec 89 d7 3d
       -0.033428654 0.07371674 -0.020821864 0.105243534
0000d0 e2 b2 32 3d 8f ba d6 bd b7 fe 06 bd aa 17 23 be
       0.043627627 -0.10484802 -0.03295776 -0.15926996
0000e0 88 0e 88 3d f4 22 5b bd 72 f3 ac 3d 55 81 e1 3d
       0.066433966 -0.05350013 0.08444871 0.11010996
0000f0 7c 12 fe bb fb 5d ff 3c b0 b0 c3 bc df 09 58 3d
       -0.0077536684 0.031172743 -0.023887962 0.05274379
000100 4a 6b 70 bc 83 69 08 bd 34 be 42 bd d5 24 0b 3b
       -0.014674017 -0.03330375 -0.047544673 0.002123167
000110 19 c7 a3 3b cf 80 a6 bd 02 04 0b 3c c0 c1 fe 3d
       0.0049980995 -0.08130037 0.008484842 0.12439299
000120 7f e0 cd bc 59 50 f5 3d 53 b2 e6 3e 34 fe d5 bc
       -0.025131462 0.11978216 0.45057926 -0.02612219
000130 0e 2e 86 be 27 2d 74 3d e1 47 65 3a 46 1e 52 bd
       -0.26207012 0.059613373 0.00087463675 -0.051298402
000140 5d d1 2d 3d 06 b2 0f 3e a3 4d 06 bc 9a 07 1e 3c
       0.042435993 0.14032754 -0.008197221 0.009645367
000150 35 28 c5 3d 1e a4 07 3f ee 63 44 3d 40 27 79 bd
       0.096268095 0.529848 0.047946863 -0.060828447
000160 2e 00 08 3b a6 ca e8 bd d5 df ae 3d 02 c4 d1 bc
       0.002075206 -0.11366777 0.08538786 -0.02560616
000170 65 a4 86 3d 58 93 a4 bd 90 10 0f bd 24 29 5d 3d
       0.065743245 -0.08035916 -0.034927905 0.053994313
000180 6c 81 b9 bc 14 fb 16 bd 47 06 d7 3b cb 4e 93 3c
       -0.022644721 -0.03686054 0.0065620276 0.017981907
000190 2e 74 ac 3d 95 93 97 bb 87 c4 9f 3b c3 5b 91 bc
       0.08420597 -0.0046257474 0.004875723 -0.01774395
0001a0 49 e4 dd 3d 21 f3 d7 3c 47 92 2c bc dc fc de 3d
       0.108345576 0.02636105 -0.010532922 0.10888073
0001b0 27 71 c2 bd 1f fd bd 3c 43 32 23 bd b5 e5 2d be
       -0.09494238 0.023191987 -0.039842855 -0.16982158
0001c0 1b 81 ea bd f5 e1 ce bc 94 0d e2 3b 69 38 8c be
       -0.11450406 -0.02525423 0.0068985913 -0.27386788
0001d0 26 95 50 bd fa 0c 3a bd b4 6b 2e bd ca 1f b4 bc
       -0.05092349 -0.04542253 -0.042583182 -0.021987814
0001e0 e3 f8 32 bc 76 a3 1e 3c 4a 36 00 bc 7c bf e6 bc
       -0.010923597 0.009682527 -0.0078254435 -0.028167479
0001f0 b6 6d 3f bd c9 14 9a 3d 36 4c c9 3d 11 2b 01 3f
       -0.046735488 0.07523496 0.09828989 0.5045634

linear4.weight f4 [1, 128]
000000 53 9e 93 bd 66 f5 de bd 23 79 f5 3d 42 5f 01 be
       -0.07207932 -0.1088665 0.119859956 -0.12633994
000010 73 66 88 3d 9f c9 c3 bd 06 13 ba 3d 6e bf 26 bd
       0.06660166 -0.095599405 0.0908566 -0.040709905
000020 bb 54 a1 3d 5a 8f 88 3d 70 74 21 3d b1 06 ce 3d
       0.07877489 0.06667967 0.039417684 0.1005987
000030 2d a3 69 3d 0b 9d c4 bc fe a4 8a bc 69 8f 0c be
       0.057040382 -0.024000665 -0.016924378 -0.13726582
000040 3d ee ad 3d ca ff f9 bd f5 fc d5 3d a3 f2 fa 3d
       0.08492706 -0.12206991 0.10448638 0.122533105
000050 4d 79 ae 3d 88 fb 25 be 07 0d 6a 3c 7f 0c d1 bd
       0.0851923 -0.16209233 0.0142853325 -0.102074616
000060 e6 77 84 bc 06 7c 59 3e f1 d8 a6 bd d0 b5 06 be
       -0.016170453 0.21238717 -0.08146847 -0.13155293
000070 78 01 70 3e 3e dd 29 be 64 c2 e4 3c 55 67 d1 3d
       0.2343806 -0.16588303 0.027924724 0.10224787
000080 9b 84 91 3e d5 d9 cc 3d d2 e4 77 3d 4a 07 96 3d
       0.28421482 0.10002486 0.060520954 0.07325609
000090 1d 04 e8 3d 39 91 cd 3d d8 61 31 bd fe 0f d2 3d
       0.113289095 0.10037465 -0.0433062 0.102569565
0000a0 0e ac 8d 3c e5 86 40 3d 1e ed 92 3c 65 b2 31 3d
       0.017293956 0.047003645 0.017935332 0.04338302
0000b0 6e 62 ab 3d 7e 7e ca bd 05 1b ff 3d ec d2 6e bd
       0.08368383 -0.09887408 0.124563254 -0.05830662
0000c0 46 f8 e7 3d 5e 6f be 3d 0d 87 a4 bd 13 6a 0d bd
       0.11326651 0.09298585 -0.080335714 -0.03452499
0000d0 9e 4a 00 bc cc 96 33 be a4 c7 49 bd fd 9c d3 bd
       -0.00783029 -0.17537993 -0.049262658 -0.103326775
0000e0 10 27 0f 3e 91 f3 70 bd 70 0b 27 be fb df 05 bf
       0.13979745 -0.058826033 -0.16312957 -0.5229489
0000f0 53 e4 b7 bd 15 97 51 3d 07 73 44 3d 9d f2 f2 bc
       -0.08979096 0.051169474 0.04796126 -0.029656703
000100 ae b7 4b 3d fd 18 fd 3d 0c 8e 53 bd bd 77 5a 3d
       0.049735717 0.12358282 -0.05164914 0.053336848
000110 93 64 d4 3d 63 cd 00 3e 4f 92 62 3d 66 f2 63 be
       0.103707455 0.12578349 0.055315312 -0.22260436
000120 c8 00 c9 bd ff 69 cf 3c 4c 7a df bd 80 b0 6e bd
       -0.09814602 0.025319098 -0.10911998 -0.058273792
000130 b7 e7 1a bb 69 21 73 3d 8c 0d ac be 2e 5e 81 bd
       -0.0023636648 0.059358034 -0.33604085 -0.063167915
000140 aa d5 c0 38 13 35 27 3e d9 75 db 3d f3 f8 ec bc
       9.1950715e-05 0.1632884 0.10715837 -0.028927302
000150 90 58 15 bd 93 7a 17 bd 04 29 ec 3d 41 90 16 be
       -0.036461413 -0.03698213 0.115312606 -0.14703466
000160 e0 6e 0a 39 ef 76 ce bd 6c ad 51 bc fd 15 d3 3d
       0.0001320201 -0.100812785 -0.012797695 0.10306928
000170 cd e8 64 bc c3 71 d2 ba d7 a3 73 3d 66 6e ce 3c
       -0.01397152 -0.0016055632 0.05948242 0.025199126
000180 14 7c 0b be 64 e6 1c be c1 94 f2 3d d8 1e e2 3d
       -0.13621551 -0.15322262 0.11844779 0.11041039
000190 34 57 f5 bd e9 2d 71 3d 30 d4 6e 3d 37 f7 e9 3d
       -0.11979523 0.058881674 0.058307827 0.114241056
0001a0 6f a5 01 be 09 1e a9 3d d8 1f be bd de 52 30 be
       -0.12660764 0.08257682 -0.092834175 -0.17219111
0001b0 3f 34 80 be 12 e3 82 3d d0 8c 08 3e a1 d4 07 be
       -0.2503986 0.063909665 0.13334966 -0.13264705
0001c0 00 13 c5 bc 1e e9 4f be 9b 8c 99 3d 21 ce 9d 3e
       -0.024056911 -0.20303771 0.074975215 0.30821326
0001d0 46 91 3b bd 70 f2 b5 3c e8 25 d1 3d 7d 90 c7 bd
       -0.04579284 0.02221033 0.10212308 -0.09744356
0001e0 49 c0 ae 3d 57 55 ca 3d 3f ca 2e bf 1b 7c c5 3d
       0.08532769 0.098795585 -0.68277353 0.09642812
0001f0 36 d4 30 bd 9a 5d 22 3d 5d 6c 22 be 37 b9 92 3d
       -0.04317113 0.039640047 -0.1586165 0.07164233
