算法对比/PPO/model/actor_model.ckpt (torch, 148999 bytes, 10 tensors)

liner.0.weight f4 [128, 27]
00000000: b820 903d c402 c43d 4462 05be 03cd 183e
00000010: 60f9 dfbd 014b 8ebd 8d39 2d3d 924e 01bd
00000020: d9a9 8d3d c95a d5bd fd85 a1bc 350c 37be
00000030: 0306 2ebe 49d1 273e 9b67 c2bd ea0d 803d
00000040: 574e 383e da95 dc3c 9fe0 263d c634 0abe
00000050: c61b 423d 96b2 7dbd ff59 c2bd 4326 413d
00000060: 47bb 19bd 11db eb3d 4824 c5bd fd62 a8bd
00000070: 68ad e3bd c01a efbd f9d4 19be 945e f43b
00000080: 5c3b 193e 4a38 d4bd bfc8 8b3d 29f6 eabd
00000090: e8b1 e8bd 4e3c 6e3e cd70 0cbe 93f0 7dbd
000000a0: de89 5bbe 9c03 34be 331a 0a3e 1c84 25bb
000000b0: dcf1 c7bd 656f 053e e919 cc3d e14a d7bd
000000c0: 838e aa3c fa15 cc3d 7ae4 e53d 12eb 173e
000000d0: ea8e 97bd 8d09 9b3d 1ad6 cb3d e30e 23be
000000e0: f87f a53c d8b8 473d 53f6 133e 82ab a13d
000000f0: 62d8 e33d 60cd 34bc f5b5 0c3e d08e 643d
00000100: cc80 a4bd 0c88 43bd bf00 3e3e ae1e aa3d
00000110: 4011 5a3c b386 243e 10e9 bb3c 0021 3cbd
00000120: 25c5 1a3e cb61 2d3e 4a49 ef3d f601 2dbe
00000130: 003e d4bc de74 a83d c0d0 c73c 37cd 163e
00000140: 80e0 31be db5d f7bd 7fc6 debd 80df 55bc
00000150: 3475 bb3d 8f7b afbd fd3c 473e c383 07be
00000160: f456 3a3e f02c 3cbe 1da5 143e c446 efbd
00000170: 3958 90bd 2040 6c3d caa3 eb3d cacd 4b3d
00000180: 5643 c03b 25b1 a9bd 6e0a 65bd 0db2 2bbd
00000190: 333e 1e3e ef12 03be 051d 85bd c260 47bd
000001a0: 765c 023b cc5b 893d d72d 7cbd a0bc 32be
000001b0: c503 d83c 4297 993d 9da5 373e 119a b53d
000001c0: 4e10 d13d 4d4f 21be f7ab 82be 2df1 67be
000001d0: 2d2c 1fbc df37 0ebe 2165 69bd 33c4 c73d
000001e0: c3b5 03bd 31df 0c3c 3083 723d ee87 a43c
000001f0: 530b 9a3d 37c4 1abd 5553 12be 6b98 3fbe
00000200: f0a0 24be 2dad 8cbd fa52 54bd adc3 58be
00000210: 6339 ac3d 0457 61be 116f bc3c 63b9 e1bd
00000220: 53eb 11bd 1115 353e 8b7e 763d d61a d6bd
00000230: 5ee7 d53b eac3 4dbd 0b5d 233d 000b 04be
00000240: b9ee 133b 6d10 5c3e 45cf 7ebd 01a6 033e
00000250: cd6f 5b3e 37b0 fdbd 0b7f 043c 4d80 123e
00000260: ce7e 4b3d abbb ae3d a490 2b3e 53c1 e3bd
00000270: 30b8 ccbd 1b60 e13d fc31 24be 64f4 dbbd
00000280: ad06 1a3e 0bea 893d 396a 593d b57e 6e3d
00000290: aa74 e6bd e0ea 203e 7bff 043e e72f 37bd
000002a0: 4497 93bd 20fb 3e3d 571a b9bd 752d 91bd
000002b0: 2d7b 5f3d 4834 d9bd f1e6 be3d f1fd c93d
000002c0: 387a d3bd cfc3 debd b043 dabd 58ca e43d
000002d0: 0def a2bd 53b0 6ebe b758 f93d 2c9d f5bd
000002e0: bef2 febd 40a5 73be 7db6 b63d 2b6c 0bbd
000002f0: 1c8d 66bd a2aa c23d 406b 83bc eeea a4bd
00000300: 8c06 333d a756 09be 009b 57bd 12e7 bb3d
00000310: f250 873d b541 0f3e 1522 0b3e 7e6b 9a3d
00000320: be3f d63d 987d b0bd 3479 2a3d 7a20 863d
00000330: b1f2 41be 4034 06be 746a 7a3d c01d 203d
00000340: df3e 25be 967b 86bd 9cc3 5abd 9210 843d
00000350: 627f f7bd 5168 273e ab6d 2e3e a802 3dbe
00000360: 140a 2ebe a157 093d da55 77bd c294 14be
00000370: 9e17 c23c 4930 a4bd 1efe 1d3c fad8 2fbe
00000380: 3922 ac3c 7b3e 4c3e b43c e13d 54b0 c23c
00000390: 772a 293e 5e97 3f3e 6aa7 353e 0b23 03be
000003a0: 0dd2 6d3e 3a8a 633e 922f 793d 62b8 523e
000003b0: a36d 22bd cceb 4fbd 6da5 4a3e 968a 563c
000003c0: d531 bcbc 2a94 ccbd c392 043d cacc 0cbd
000003d0: 9790 6cbd 0358 12bd be68 8d3d b7a7 4b3e
000003e0: 2e69 2a3e bed9 293e 5e43 503e e147 153e
000003f0: 97df 843e 2ed3 55bd 905a 1d3e fd5c 4a3e
0.070374906 0.0957084 -0.13025767 0.14921956 -0.109362364 -0.069478996 0.042291213 -0.03156907
0.069171615 -0.104177065 -0.01971721 -0.1787575 -0.16994481 0.1638843 -0.094924174 0.06252654
0.17998634 0.026926924 0.04074156 -0.13496694 0.047389768 -0.06193789 -0.09489822 0.04715563
-0.037532117 0.11516393 -0.09626061 -0.082220055 -0.11117059 -0.11675024 -0.15022649 0.0074575637
0.1496405 -0.10362299 0.06825399 -0.114727326 -0.11362058 0.23265192 -0.13714905 -0.061997008
-0.21439311 -0.17579502 0.13486557 -0.0025255745 -0.09762928 0.13030775 0.099658795 -0.10512329
0.020819908 0.09965129 0.11225219 0.14835766 -0.074003056 0.07570181 0.09952946 -0.15923648
0.020202622 0.048760265 0.14449434 0.07894041 0.11125256 -0.011035293 0.13741286 0.05580026
-0.080323786 -0.047737166 0.18554972 0.08306633 0.013309777 0.16067009 0.022938281 -0.04592991
0.15114267 0.16931836 0.11683901 -0.1689528 -0.02590847 0.08225416 0.024391532 0.14726721
-0.17370796 -0.120784484 -0.10877704 -0.013053775 0.09153214 -0.08568489 0.19456859 -0.13233857
0.18197232 -0.18376517 0.1451611 -0.11683419 -0.07048077 0.057678342 0.1150585 0.049756803
0.005867402 -0.08285741 -0.05591815 -0.04191785 0.15453415 -0.12800191 -0.06499676 -0.04867626
0.0019891537 0.06706962 -0.061567154 -0.17454767 0.026368985 0.07499553 0.1793427 0.088672765
0.10208188 -0.15752907 -0.25521824 -0.22650595 -0.009715122 -0.138885 -0.05698121 0.09754219
-0.032155763 0.008598135 0.05920714 0.020084348 0.07521691 -0.03778478 -0.14289601 -0.18710487
-0.16077018 -0.06868968 -0.051836945 -0.21168394 0.08409383 -0.2200585 0.02300218 -0.11021688
-0.035624813 0.17683817 0.060179275 -0.10454337 0.0065278253 -0.050235666 0.039883655 -0.12894821
0.002257271 0.21490641 -0.062209386 0.12856294 0.21429367 -0.12387126 0.00808693 0.14306755
0.049681477 0.085318886 0.16754395 -0.11120858 -0.099960685 0.11004659 -0.16034693 -0.10739973
0.15041609 0.06734093 0.053079817 0.058226306 -0.11252721 0.15714598 0.12988083 -0.044723418
-0.07206586 0.04662621 -0.09038227 -0.07088748 0.05456083 -0.10605675 0.09321392 0.098628886
-0.10326046 -0.10877191 -0.106574416 0.111714065 -0.079557516 -0.2330945 0.12175124 -0.11992869
-0.12448643 -0.23793507 0.089215256 -0.034038704 -0.056286916 0.09505202 -0.016042352 -0.08052622
0.043707415 -0.13411961 -0.052638054 0.091749325 0.06607236 0.13989909 0.1358722 0.07540034
0.104613766 -0.08617705 0.041619495 0.06549163 -0.18940236 -0.1310587 0.061136678 0.03909087
-0.16137265 -0.06566541 -0.053409204 0.06448473 -0.12084843 0.16348387 0.17034023 -0.18458045
-0.16996032 0.033530835 -0.06038461 -0.14509872 0.023692902 -0.08017022 0.009643106 -0.17172614
0.021012412 0.1994571 0.10997906 0.02376572 0.16520105 0.18710086 0.17739645 -0.12806337
0.2322466 0.22220698 0.060836382 0.20578149 -0.03965534 -0.050761983 0.19789667 0.013094565
-0.02297298 -0.099891976 0.032366525 -0.03437499 -0.05775508 -0.035728466 0.069047436 0.19888197
0.16641685 0.16586968 0.20338199 0.14578201 0.25951836 -0.05220335 0.15366578 0.19762035

liner.0.bias f4 [128]
00000000: 79db 0dbe 5014 2d3e eca8 3a3d 6c43 c7bd
00000010: ec3c 1ebe 266b 8abd 12b8 3ebe e084 793c
00000020: a03b 123e 506d a13c ae44 1a3d 9c43 443e
00000030: 1ca7 a43d 1ffa b3bc d2e7 3cbe 1190 fabd
00000040: 5bc0 11be 6d07 0ebe 7292 763e 47e2 20bc
00000050: 0e19 983d 8139 af3d 0cbc 183e 4546 403e
00000060: 1bde 24be 842d 0c3e c4a3 3b3e ebb4 0bbe
00000070: 7290 54bc 4ad0 df3d 95b8 a63d 39bb acbc
00000080: 35c1 ac3d 61a2 e23d 4d14 d63d 5970 38be
00000090: 0aec 853d ae8f 533d d48a 3fbd 3e35 99bc
000000a0: 204b 8abb f650 083e 9a51 34be 29a2 663c
000000b0: e668 e53b 94ac e7bc 8e29 b2bd 57c4 89bd
000000c0: 001b a13d 9174 21be 7617 cb3b 600a 053e
000000d0: 23ae 393d 2095 c93b 68c0 a8bd 61a0 5bbe
000000e0: 2fe1 1f3e 8bc3 2dbe f0f9 0bbd 9f3e 7b3d
000000f0: 56af 08be 8908 a93b 233f 7bbd df64 073e
00000100: 81ce 923d 5286 dbbc 31c9 13be 465e df3d
00000110: 8c3e 44bd d572 2c3e af6f 3cbe 3a04 17bc
00000120: ec15 e63b 3d35 883c 47b3 1fbe a052 21bc
00000130: 4c30 23be 24f6 cebd c541 72bc ad62 c0bd
00000140: bc7b 8cbd 9478 c8bd 8288 863d 8070 f4bd
00000150: 524e 7e3d fb3d ebbc 2aa2 42be 880b 35bd
00000160: 3be1 d5bc 3d92 e0bd 20d1 3ebc 9a78 1abe
00000170: 7ba8 09be 17dc a5bd c6a9 c4bd c152 8dbd
00000180: 6194 97bc 62b9 dcbd 16bc c83d 90d2 cfbc
00000190: 7379 22be 0f34 25be a08d 3bbe 1d04 c93d
000001a0: 887b 343d a279 bd3d c68f 003e 3c76 ef3c
000001b0: 81be d5bd 91fd 06be 1997 0d3e e5cf 1ebe
000001c0: d076 e33d f044 103e 84a9 16be 0e58 8a3d
000001d0: f897 1c3d f234 20be 26dd 76bd df7a 213e
000001e0: e4d2 ea3d e4e8 313e e1fa 823d 0293 833d
000001f0: 8a56 d9bd c615 02be 4cbb 35be 8cff 0bbe
-0.13853253 0.1690228 0.045571253 -0.097296566 -0.15452927 -0.06758718 -0.18624905 0.015229434
0.14280558 0.019705445 0.037663154 0.19166416 0.08039686 -0.021969853 -0.18447807 -0.1223451
-0.14233534 -0.1387002 0.24079302 -0.009819574 0.07426654 0.0855589 0.14915484 0.18776806
-0.16100352 0.13689238 0.1832419 -0.13643233 -0.012973892 0.109284 0.08140675 -0.021085368
0.08435289 0.110661276 0.10453091 -0.18011607 0.065391615 0.051650696 -0.046763256 -0.018702146
-0.0042203814 0.13312134 -0.17609254 0.014076748 0.0070010303 -0.028280534 -0.08699332 -0.06726902
0.07866478 -0.15767123 0.006197865 0.12992239 0.045332085 0.0061518103 -0.082398236 -0.21447898
0.15613244 -0.16969125 -0.034173906 0.061339017 -0.13348135 0.005158488 -0.06133951 0.13222073
0.07168294 -0.026797447 -0.14432217 0.10906653 -0.04791121 0.1684068 -0.18401979 -0.009217316
0.0070216563 0.016626948 -0.15595733 -0.0098463595 -0.15936393 -0.10105541 -0.0147861885 -0.09393821
-0.06859538 -0.097886235 0.065690055 -0.1193552 0.06208641 -0.028716078 -0.19007173 -0.04420045
-0.026108375 -0.10965393 -0.011646539 -0.15085068 -0.13443176 -0.080986194 -0.09602694 -0.0690055
-0.01850337 -0.107775465 0.098014995 -0.025368959 -0.15866642 -0.1613314 -0.18315744 0.09815238
0.04406312 0.09251715 0.12554845 0.029231183 -0.10436726 -0.13182665 0.1382717 -0.15508993
0.11106646 0.14088798 -0.14713103 0.06755076 0.038230866 -0.15645197 -0.060269497 0.15769528
0.114660054 0.17373997 0.063955076 0.06424524 -0.10612209 -0.12703618 -0.1774723 -0.13671702

liner.2.weight f4 [128, 128]
00000000: ed80 783d 7a03 e33d af09 82bc a294 30bd
00000010: 6f9a c93d 58ac 6ebe 7f56 323d 839b d83d
00000020: c631 233d eef3 29bc 4149 acbc 1a61 88bd
00000030: 86fe d1bc 29e0 b0bc 3537 dabd b9d9 a4bd
00000040: c6e8 3cbe cf12 8e3d d37c c93c 0c93 203c
00000050: d025 b33d ffee 28bd eb27 cd3c 666f 413b
00000060: fb11 223e 69b8 6dbc 2bc1 0d3d 0b8f d03d
00000070: d964 1abb 506a b63c fc78 15be bcd3 9c3b
00000080: fba6 c0bc 8433 8e3d 25cd 1c3d 9339 c9bd
00000090: a50e 3cbd 50eb 9cbc 32e2 943d 2d05 193e
000000a0: 5744 253d 355b e7bd f950 f53d eb25 043d
000000b0: d942 08bd dbc2 183d 3eda aa3c 2d6e 40bc
000000c0: f458 b4bd d4cb 863c 0c6c b9bd 5984 12bc
000000d0: ba94 42bd 6ef8 2c3d 3fa9 933c 2a78 75be
000000e0: 80dc 1dbe c1ae e4bd f408 42bd 5564 233d
000000f0: dc0e b93d 2bbe e63b 7161 9a3d 5c3e bf3d
00000100: 6895 be3d 4b39 883d a65d eb3c be5f 583d
00000110: 8b92 233d 6097 15bd c2c0 08bc 0034 b8bd
00000120: 9975 5bbe 6d46 1e3e 7e7d c8bd cec7 6bbd
00000130: 583c 73bd 7ddc 57be 1caa a93d dedc 00be
00000140: 87a5 03bc 52c7 30bd 5b57 8bbd 2c87 923d
00000150: 34d5 633d ceb1 02bd 61ac 96bd cd69 dfbc
00000160: 37ea bebd 1436 fabd 1678 46bd 31cd 13bc
00000170: b729 933c bd44 443d d52e ec3d 3a66 7cbd
00000180: cc88 57bd 589a 1a3e d418 533c 7b7e cb3d
00000190: c1eb 34be a2dc 33bd 65d9 643d 6b22 5c3d
000001a0: 4c3d 79bd c42c 90bd 44c0 0239 616d a13d
000001b0: 8012 923d d4df 933d 8f63 38bd cdaa 833d
000001c0: 24c4 41bd 03e3 f93c 71c3 b1bd 553f aebc
000001d0: 94ba 7c3d 7b46 2cbe 73c0 723d 03b3 fbbc
000001e0: 25f9 0cbd a545 c43c 0f28 2cbe e6a5 98bc
000001f0: 57c1 1dbe 689c f2bb 9c98 963d 39fc 463d
00000200: c9bb b23d 5333 bf3c 9829 1e3d 6c17 54bc
00000210: 7fee d33c 7e43 823d a86e 90bd 2b87 cb3d
00000220: e543 5cbd 034b c6bd ed76 343d 9e08 eabd
00000230: ef72 2d3e 7088 bdbd dc53 a6bd c07a 9dbd
00000240: d89d 29bd 2569 983c 7b5a 97bb a597 f83d
00000250: e550 053e e810 bcbd a4f1 903d b92e 0abe
00000260: 922d 943d 7e0a 8abd bc7e 8b3d 90a2 b73d
00000270: d202 acbd 28bc e03d ac06 8bbd 12c7 ed3d
00000280: d8a2 a0bd e3b9 47bd 0a3d 03bd dd20 8c3b
00000290: 3e60 633c 825b 9dbd 83cc 863c 1a2c 203d
000002a0: 854a 0b3d 86ad 473d 538c 0abd 569f 02bd
000002b0: 111e 303b 65fd c63c 58df af3d d42c 023e
000002c0: 405d 46bc a893 203d 3bba 2a3c 75c1 f43d
000002d0: d86e 3c3d e3e5 5c3c dc90 90bd cd97 273d
000002e0: 7260 80bd dd16 97bd c31c b63c ade0 11be
000002f0: b1c4 e0bd e25b 023c 075c 833d 2fb8 443d
00000300: b719 013e f153 a0bc 7ba8 8abc 08cc 5abd
00000310: 3ea0 4e3d 52ef 8b3d 4cf7 0b3e b30c a9bb
00000320: e32d e9bc 9164 1e3d 50b0 adbb 66b5 3fbd
00000330: 46c3 25bd 43b2 133c e883 adbc 1646 4c3b
00000340: 6ec2 e93d 4407 f63b 9958 c2bd 1389 01be
00000350: 6ab9 023d e935 83bc 687c debd a503 0d3c
00000360: 7a1f 513b 2dee 95bd 2641 dfbd 2f43 05be
00000370: e163 263c 1603 5abd d3b4 b03d e03e afbd
00000380: 5adc 133d 540d ec3c 02c6 adbc 3076 4b3d
00000390: 32c5 9e3c ac39 97bd 57e8 c9bc 7a61 b43d
000003a0: 8b97 b43d 0fde 12bd e4d0 33bc 08c0 b8bc
000003b0: 7787 31bd 34dd c63c a707 35bd 3a80 9dbd
000003c0: 6748 093e cc80 28bc 4a1a 82bd c77d 673c
000003d0: 020c c63d c5d4 053b 7be3 2ebd 33f7 bfbd
000003e0: 8052 753d a485 e23d d2fb c93c b414 6bbd
000003f0: f8c2 d13d 68a0 d1bd 2d5f 823d e325 5fbc
0.06066983 0.110846475 -0.015873758 -0.043110497 0.09843909 -0.23307931 0.04353952 0.105765365
0.03984239 -0.010373099 -0.021031024 -0.06659146 -0.025634062 -0.021591263 -0.10655061 -0.0804934
-0.18448171 0.06937181 0.024595654 0.009800684 0.087474465 -0.04124355 0.025043448 0.0029515862
0.15827172 -0.014509299 0.034608047 0.10183533 -0.0023558645 0.02226749 -0.14596933 0.004785983
-0.023517122 0.069434196 0.03828158 -0.098254345 -0.045912404 -0.019155174 0.07269706 0.1494338
0.040348377 -0.11296693 0.11978335 0.032262724 -0.033266876 0.037295204 0.02085602 -0.011745018
-0.08806029 0.016454615 -0.090538114 -0.008942687 -0.047505118 0.04222911 0.018025039 -0.2397162
-0.15416145 -0.11166144 -0.04737182 0.039890606 0.09036037 0.0070417128 0.07538117 0.09338066
0.09305841 0.06651553 0.028731178 0.052825682 0.039934676 -0.036521316 -0.008346738 -0.08994293
-0.21431579 0.15456553 -0.09789561 -0.057563595 -0.05938372 -0.21080203 0.08284399 -0.12584254
-0.00803507 -0.043158837 -0.06803771 0.07154688 0.05562325 -0.03190785 -0.073570974 -0.02727213
-0.09322017 -0.12217346 -0.048454367 -0.009021089 0.017964227 0.047917116 0.1153237 -0.06162093
-0.052620694 0.1509794 0.012884337 0.099362336 -0.17668058 -0.043911584 0.055871386 0.05374376
-0.060849473 -0.07039788 0.0001246939 0.078821905 0.07132435 0.07220426 -0.04501682 0.06429062
-0.047306195 0.030503755 -0.086798556 -0.021270433 0.061701372 -0.16823761 0.059265565 -0.030725008
-0.03441729 0.02395899 -0.16812156 -0.018633794 -0.15405785 -0.007403899 0.07353327 0.048580382
0.087272234 0.023339903 0.038613886 -0.012945037 0.02587056 0.06360529 -0.07052356 0.099378906
-0.053775687 -0.09682276 0.04405873 -0.11427425 0.16938375 -0.09254539 -0.08121464 -0.07689428
-0.041410297 0.018604824 -0.0046189404 0.12138299 0.1301914 -0.09182912 0.07077339 -0.13494386
0.07235254 -0.067402825 0.06811282 0.08966553 -0.083989754 0.10973388 -0.06788382 0.11610235
-0.0784356 -0.04876126 -0.032040633 0.0042763785 0.013877926 -0.07683469 0.01645494 0.03910456
0.034006614 0.04874947 -0.03382523 -0.031890236 0.002687339 0.02429075 0.08587521 0.12712413
-0.0121071935 0.039203316 0.010420377 0.119509615 0.046004146 0.013482544 -0.0705888 0.040916253
-0.062683955 -0.07377408 0.022230512 -0.14245863 -0.10975016 0.007956477 0.06414037 0.048027214
0.12607466 -0.019571276 -0.01692604 -0.053417236 0.050445788 0.06832756 0.13668555 -0.0051589846
-0.028464263 0.038670126 -0.005300559 -0.046803854 -0.04046943 0.009014669 -0.021181062 0.0031169704
0.11414038 0.0075081903 -0.09489555 -0.12649946 0.031915106 -0.016016917 -0.10863572 0.008606826
0.003190963 -0.07320819 -0.10901098 -0.1301391 0.010155649 -0.0532256 0.086282395 -0.08556914
0.036098816 0.02881495 -0.021212582 0.04967326 0.01938114 -0.07384047 -0.024646921 0.08807655
0.08817967 -0.035856303 -0.010975096 -0.022552505 -0.04334208 0.0242754 -0.04419675 -0.07690473
0.13406526 -0.010284614 -0.063526705 0.014129109 0.09670259 0.002042101 -0.04269741 -0.093733214
0.05989313 0.11060646 0.02465621 -0.05739279 0.102422655 -0.10235673 0.063658096 -0.013619873

liner.2.bias f4 [128]
00000000: 9a69 39bc 1075 753d 8366 923b c125 f9bb
00000010: fedb 873d 333e c3ba 12af b63b c148 7e3d
00000020: 6d05 8c3c d630 70bc b5ea d33d 67c4 ba3c
00000030: 9604 26bc 45e6 933d 1e1f adbd fef7 133c
00000040: 41a9 8f3d c5da cdbd 8da2 87b9 ff5c 0fbd
00000050: 2e1b 873c 671f 9ebb b61b 003c 6b68 753d
00000060: 2f40 3bbb dbf1 89bd 6f29 26bc 129d ce3d
00000070: 5d2b 96bd dc8b 223d f55f dc3d ce73 17bd
00000080: 739f 833d ebc9 743d 895d 54bc 4452 963d
00000090: d008 e23d f28e 75bc 31c3 16bd c764 1dbd
000000a0: 15e0 42bd fb1c 703d c654 a83d fb86 5abd
000000b0: f8f1 363d 1992 0e3d 7d1f 553d 79c2 d53c
000000c0: 9ae3 9fbd fa39 743d ed97 84bc 16c8 af3d
000000d0: a131 1a3d 349e efbc ad12 e5bd de64 11bd
000000e0: 6311 383e 0021 96bd 1d4a b73b b628 e8bd
000000f0: 6793 123d 46b2 2b3c 79b0 ebbb bed4 1d3d
00000100: 1d00 3dbd e0a5 b5bd 32d7 16bd f3dd ba3d
00000110: 2c41 54bc e901 c13b 0116 f4bd 2b18 693d
00000120: f12e c03d af88 99bd e0bd d83c 4375 a0bc
00000130: 8ebf f83c 3b98 363d f709 2d3d 8bb8 13bd
00000140: b024 2abd 81a1 843d cddc 6b3b 9ba9 963d
00000150: 962d a7bc 749b 8b3c d324 3ebb ba9a 17bd
00000160: 9141 e53b 56f5 93bc 626e bbbb 1066 93bc
00000170: 09d9 763d 09fc f13b 4fcb 1fbd 9249 1a3e
00000180: 0561 a93c bd27 943d de08 783d 0d1a a53b
00000190: 231a ba3b eff0 503c 8d5a 41bc ca3a ef3c
000001a0: 6c4f 433d 1a4a 9bbd ebdf b5bd 088e eb3c
000001b0: 7bed 343b b127 7dbd d451 7ebd b2fb 913d
000001c0: c4fb 723c 01a5 a3bd 25bf b73d a709 edbb
000001d0: aeb8 c5bc c8e0 70bd fb16 b8bd a299 3bbb
000001e0: 6192 073d fa0e 9bbc 1012 973d 6928 ee3b
000001f0: ea42 8f3c ba6b 9fbd eee9 edbb 46c3 f53c
-0.011316681 0.059926093 0.0044677868 -0.0076033776 0.06633757 -0.0014895856 0.005575069 0.062081102
0.017092431 -0.014660081 0.10347501 0.02279873 -0.010132929 0.07221655 -0.08453201 0.009031294
0.070147045 -0.100514926 -0.00025870316 -0.035000797 0.016492452 -0.004825521 0.007819107 0.059914034
-0.0028572192 -0.067355834 -0.0101417145 0.100885525 -0.0733249 0.03968416 0.1076049 -0.036975674
0.06426897 0.059762876 -0.012961754 0.0733991 0.11036837 -0.014987694 -0.036807243 -0.038426187
-0.047576983 0.058621388 0.08219294 -0.053351384 0.044664353 0.0348073 0.052031983 0.026093708
-0.078070834 0.059625603 -0.016185725 0.08583085 0.037644986 -0.029250242 -0.11185203 -0.035496585
0.17975383 -0.07330513 0.005593552 -0.1133589 0.035785105 0.010479515 -0.007192668 0.038532965
-0.046142686 -0.08869529 -0.03682632 0.09124365 -0.012954991 0.0058901203 -0.119182594 0.056907814
0.09383953 -0.074967735 0.026457727 -0.019587165 0.030364778 0.044578772 0.04224583 -0.036064666
-0.041538894 0.06476117 0.0035989762 0.073565684 -0.02040748 0.0170419 -0.0029013648 -0.037012793
0.0069963415 -0.018061321 -0.0057199458 -0.017993003 0.060265575 0.0073847813 -0.03901225 0.15067127
0.020676145 0.07234142 0.06055533 0.005038506 0.0056793853 0.012752756 -0.011801374 0.029202837
0.047683164 -0.07582493 -0.088805996 0.02875425 0.002760737 -0.06180543 -0.062089756 0.07128085
0.014830533 -0.07990456 0.08972005 -0.0072338167 -0.024135914 -0.058808118 -0.08988758 -0.0028625508
0.033098582 -0.01892804 0.07376492 0.007268001 0.017487962 -0.07784219 -0.0072605526 0.03000034

d_prob.0.weight f4 [121, 128]
00000000: a7d9 48bd 8e08 5fbe bdc7 81bd a965 5fbe
00000010: fc71 ddbc 7ffa 173e 4c32 423d 8bb5 e6bd
00000020: 4137 9ebd 546e 2c3d 47a1 82bd 937d 4b3e
00000030: d6d9 f53d 7fa5 f6bd 0b6d e73d 7e18 e9bd
00000040: 89e2 b1bc f6d7 bd3c 37f9 15bd 76b2 083e
00000050: 2efe 3a3d 8c9a 3f3b 9037 bfbc 5075 6dbe
00000060: cf40 81bd 36a7 cd3d 3492 7e3c a828 663d
00000070: 0cb2 5d3e 0097 2bbe 55d6 84be b47f 173e
00000080: 66dc 12bd f272 82bd 8ac5 0e3b 5e69 f8bd
00000090: bacd 7cbe 15ed 48bd c52d ee3c 6c95 69be
000000a0: 3ac8 8f3d b968 3bbe 5014 443e c482 073e
000000b0: 4836 b13d 712e 4fbe 2aeb 793b 67ed 5a3e
000000c0: 01c8 fabd 36c2 cfbd 3aec 26be 12db 9a3d
000000d0: c14a d5bc 59b5 66bd f7d2 67bc ffdf 46be
000000e0: e1d9 32be d8a9 3dbe d202 153e a776 5d3e
000000f0: e917 d03d b7c5 81be be07 283d 014a 2b3d
00000100: 311f cdbc afb5 983d 4ad8 7f3e 1522 d3bd
00000110: c958 733c bd15 ad3c 29e9 463e a81b 28be
00000120: 8aa0 4fbe 0631 96bd f712 74bb 0154 a83d
00000130: 5559 2b3e f881 88be e0bf 85be f7d1 133e
00000140: aba6 b43e 61e8 88bd 372e 443e ef39 133d
00000150: 0e3d 343e 4e40 0fbe 0b08 8ebd d3ba 143e
00000160: 034d eabd bba2 2a3c 033b 1bbe 3a1a 903d
00000170: 0ddc 90bd c37a e2bd 9cad a1be b132 8dbe
00000180: 1647 ad3d 3bd4 e13d 1d2c aebc 6cb6 f7ba
00000190: d217 bf3d 38a8 633e 6af9 073c 00e1 703d
000001a0: 3a07 25be eaa4 7e3e 6b0e 0abd 8c2e 2b3e
000001b0: 17e2 b2bd c304 623e 22ea b5bd db07 d2bd
000001c0: 6503 01be 6c80 373e ecbf 2dbe 273a b63c
000001d0: 263c b1bd a0d2 253e 0a08 3e3e 96b6 773e
000001e0: 3f6e 8c3d 71be 84bd b693 95be c09e 63bd
000001f0: a158 103c ddd9 8e3d 3eb3 2dbe 3b1a 06be
00000200: 331c 833b 2480 5cbe 83b0 c4bc e461 35be
00000210: c98b 5bbd 7897 e63d 82d1 89bd f5bb a2bd
00000220: c241 5bbd f822 8cbd c515 91be f3ac 473e
00000230: eb99 943e 078a 05be aa0b 873d b653 35be
00000240: b20c d93c d00a ac3d 16b2 35be 1018 e13d
00000250: 30f7 3c3d a012 ac3d ed5c 323b ef84 63be
00000260: 2b18 3cbd f1c2 6f3d 5755 143d 7886 2fbd
00000270: 5bfb 1a3e a92c 8fbd 7009 a1be 3834 563e
00000280: 575f 4bbd fff0 74be 1588 8bbd f841 5fbe
00000290: b184 89be 7d89 6f3c 2c97 0e3e f8da fcbd
000002a0: b4e6 a33d 88c9 4abe bd6f 7d3e fa4c 413d
000002b0: ac03 323c 7e98 5bbe a37a fe3c 5ac9 953d
000002c0: 1178 d9bc fd27 a7bd b40b 60be 90ca e73c
000002d0: bc45 77bd 447d dd3c d42c b1bd 2fad 26be
000002e0: 42a6 8abe ace7 02be 7273 49bc f3d6 003e
000002f0: 6278 413e 4068 55be 7f36 cbbd de68 b83d
00000300: d73e 743d 82b2 043e a1c6 063e d519 423c
00000310: 1218 d13d 2e73 0cbd ff21 4c3e cce3 7dbd
00000320: f614 48be 3de6 7fbd 60c4 20bc 4bec b7bc
00000330: a60c 383e 74a5 4ebe 72e9 e6bd 7b3d e73d
00000340: bc31 233e d603 89bd d8db 8e3e 4655 6fbd
00000350: a16d 283e 637d d3bc c4df c7bd 7047 5b3e
00000360: 9cd3 38be e647 163e 3aa2 15be ba8e da3b
00000370: 2f50 2dbe 39ff 26be ae01 e6bd d779 70be
00000380: 8d2f 66bc 39f8 ef3d 4f39 163d a1b8 543d
00000390: 5eb3 2c3e 1159 043e c365 d13d b704 1e3e
000003a0: 022e dcbd d8e6 523e f28f da3c d8c4 f43d
000003b0: ff4a 2fbe 002d 143e ded2 563d 02f4 76bd
000003c0: 85ae 99bd a9b3 613e 9240 29be b1bf 85bd
000003d0: fbe2 22be ed94 d33d d447 0d3d 4e3b 2d3e
000003e0: 64ac 203e 05d8 a7bd cae6 74be 0d3a 1dbe
000003f0: 4730 863d 37e3 9b3e a62e 3ebe 5967 50bd
-0.049035694 -0.21780607 -0.06336925 -0.21816124 -0.027031891 0.1484165 0.047411248 -0.11265095
-0.077253826 0.042097405 -0.063784175 0.19872122 0.120044395 -0.120432846 0.11300095 -0.11381625
-0.021714466 0.023174267 -0.036614623 0.13349327 0.04565256 0.0029236404 -0.023341924 -0.23189282
-0.063111894 0.100416586 0.015537787 0.056191117 0.2164995 -0.1675682 -0.25944772 0.14794809
-0.03585472 -0.0636958 0.0021785223 -0.12129472 -0.24687853 -0.049054224 0.029074559 -0.22810906
0.07020612 -0.18301667 0.19148374 0.13233477 0.086529315 -0.2023256 0.0038134553 0.21379624
-0.12245179 -0.10144465 -0.16301051 0.075613156 -0.026036622 -0.05632529 -0.014149419 -0.19421385
-0.17465927 -0.18521821 0.14551857 0.21627294 0.101608105 -0.25346157 0.04102301 0.041818622
-0.025039287 0.074565284 0.24984851 -0.10309235 0.014852711 0.02112853 0.19424881 -0.164168
-0.20276085 -0.07333569 -0.003724275 0.082191475 0.16733296 -0.26661658 -0.26122952 0.14435564
0.35283408 -0.06684948 0.19158255 0.03594392 0.17601416 -0.13989374 -0.06935128 0.14524393
-0.1144047 0.0104147745 -0.1515923 0.07036252 -0.07073221 -0.11058571 -0.31577766 -0.27577737
0.08460824 0.11026808 -0.02126127 -0.001889897 0.09330715 0.22232139 0.008299211 0.058808327
-0.16116038 0.24867597 -0.033705156 0.16716975 -0.087345295 0.22072129 -0.08882548 -0.102554046
-0.12598951 0.17920083 -0.16967744 0.022244526 -0.086540505 0.16193628 0.18557754 0.24190745
0.06856965 -0.06481636 -0.29214257 -0.055571318 0.008810193 0.06975148 -0.16962907 -0.13095944
0.0040011643 -0.21533257 -0.024009949 -0.17713124 -0.053600106 0.11259359 -0.067294136 -0.07946006
-0.05352951 -0.06842607 -0.2833692 0.19499569 0.2902368 -0.13040935 0.065940216 -0.17707714
0.026495311 0.084005 -0.17743716 0.10990918 0.046134174 0.0840199 0.0027216033 -0.22218679
-0.045921486 0.05853552 0.0362142 -0.04285285 0.15134947 -0.0699094 -0.31452513 0.20918357
-0.04965147 -0.23920058 -0.06813065 -0.21802509 -0.26859048 0.014620182 0.13924855 -0.123464525
0.080029875 -0.1980344 0.24749656 0.04719255 0.010865133 -0.2144489 0.031064337 0.073137954
-0.02654651 -0.08161924 -0.21879464 0.028294832 -0.06036924 0.02703727 -0.086511284 -0.16277002
-0.2707997 -0.12783688 -0.012295591 0.12581997 0.18893579 -0.2084055 -0.09922504 0.09004377
0.05963024 0.1295872 0.13161708 0.011846979 0.10209669 -0.03428953 0.19934843 -0.061984822
-0.19539246 -0.06247543 -0.009812444 -0.02245154 0.17973575 -0.20180303 -0.11274995 0.11291023
0.15936941 -0.06690185 0.27902102 -0.058430932 0.1644807 -0.025816625 -0.09759477 0.2141397
-0.18049473 0.14675865 -0.14612666 0.0066698464 -0.16925119 -0.16308297 -0.11230789 -0.23483978
-0.014049423 0.117172666 0.036675747 0.05193389 0.16865298 0.12924601 0.10224488 0.15431486
-0.10750963 0.20595872 0.026679967 0.119516075 -0.17118452 0.14470291 0.052447192 -0.060291298
-0.0750399 0.22041191 -0.16528538 -0.06530703 -0.15906899 0.1033114 0.03449233 0.16917154
0.15690762 -0.08195499 -0.23916164 -0.15354176 0.06552177 0.3044679 -0.18572482 -0.05087981

d_prob.0.bias f4 [121]
00000000: 1c71 8cbd 96fa 86be 4b45 66be 760f c4bd
00000010: 1efc 2abe 42d0 85be 84b9 5cbe db48 adbd
00000020: 3a4d 85be dea5 fbbd 1a4e 7bbe bb36 ddbd
00000030: 5ff7 77be 1aa1 a0bd 2e54 24be d513 2cbe
00000040: 0119 3abe 1e24 343c 2c9e 44bd 242a 0bbe
00000050: 7490 e5bd acf9 87bd d31f 45be a21e 64be
00000060: 2486 7cbe 1675 d2bd 5370 d0bd 5e44 9f3c
00000070: c3b2 24bd 352b cb3d fc9c 4abe 6b8c 3abe
00000080: cdd5 b93c 591f 57be 3364 9b3d 2845 81bd
00000090: 59a2 46bd 2fbe efbc 359c 2d3d 941a 193d
000000a0: f3fd 093e 11ce 17be 9cd5 7e3b d1e7 33be
000000b0: 39c0 73be c767 0bbe d77b c43d 6eb4 52be
000000c0: 6834 8a3d 534e 0b3c d166 84bc 2be7 20bd
000000d0: b92e b9bd 5b0e dabd 103f 2f3d b6f5 5bbe
000000e0: 77a9 91be 1960 b33d 0007 de3d 4c6a 1e3b
000000f0: d562 003d efdc 0cbe 2c71 3fbc ffc1 12be
00000100: 365a 82be fade 78be ae78 5dbe 7fd2 3abd
00000110: db4a 4fbe ae34 06be 1ba6 0b3d 84d1 a53d
00000120: c38e 2dbc 65b0 94be 1b6c af3d 753a d23d
00000130: 9d00 04bd 2925 75be a883 1fbe 25e7 63be
00000140: 6fdb 1ebe e0d2 52bd 7e07 2bbe a23d a53d
00000150: ef6d 273e a61b b63c d5ee 95bd 641c 5d3d
00000160: 282b 6bbe 0d76 d9bd 2f86 d1bd 65af 7f3d
00000170: a59a 023e 7933 d83a 01b5 a53d 99e0 c7ba
00000180: dc7e b33d 340c 583d 6916 0a3e 917a 2cbe
00000190: f217 d6bd 752b 7fbe c63f 6cbe 4e56 bb3d
000001a0: 0290 313d 9aaa 273c 36ba 86bd 47f2 e7bd
000001b0: 51ed 75be 8541 3dbd 2406 7ebe 8db9 0fbe
000001c0: 4b2f 26be 2fef 84be 2882 0c3e 0c63 583d
000001d0: 93bc f53d bb8b fe3d 49b2 3abe 58f0 d8bc
000001e0: 3564 a4bc
-0.068575114 -0.26363057 -0.2248737 -0.095732614 -0.16697738 -0.2613545 -0.21555144 -0.08461162
-0.26035482 -0.12287496 -0.24541512 -0.10801455 -0.24215458 -0.07843228 -0.16047737 -0.1680444
-0.181736 0.010994939 -0.048002407 -0.13590294 -0.11209193 -0.06639418 -0.19250421 -0.2227731
-0.24660546 -0.102762386 -0.10177674 0.01944178 -0.040209543 0.099203505 -0.19786447 -0.18217628
0.022684956 -0.21008052 0.07587471 -0.06312019 -0.04849467 -0.029265491 0.0423853 0.037378863
0.1347578 -0.14824702 0.0038884645 -0.175689 -0.23803796 -0.13613807 0.09593933 -0.20576641
0.06748277 0.008502561 -0.016162308 -0.03928296 -0.09042115 -0.10647269 0.04278475 -0.2148045
-0.28449604 0.087585635 0.10841179 0.0024172245 0.031344254 -0.13756154 -0.011684697 -0.14331816
-0.2545945 -0.24303809 -0.21628067 -0.0456109 -0.20243399 -0.13106033 0.034093957 0.080966026
-0.010593119 -0.29040828 0.08565541 0.10265056 -0.032227147 -0.23939957 -0.15577567 -0.22256143
-0.15513395 -0.051470637 -0.16702077 0.08068396 0.1635053 0.02222998 -0.07320944 0.053982154
-0.22965682 -0.106182195 -0.102306716 0.06242313 0.12754305 0.0016494832 0.080911644 -0.001524943
0.08764431 0.052746013 0.13485111 -0.1684363 -0.10453786 -0.24918921 -0.23071203 0.09147321
0.043350227 0.010233546 -0.06578486 -0.113255076 -0.2401631 -0.046205062 -0.2480703 -0.14035626
-0.16228978 -0.25963733 0.13721526 0.052828833 0.11998858 0.12428995 -0.18232073 -0.026481792
-0.020067314

mu_head.0.weight f4 [3, 128]
00000000: d34f e6bc 5ede 3b3d 4c84 1fbd 169d 0a3e
00000010: f6ad f0bd ba37 d5be 3c11 903c f429 9e3d
00000020: a6fd 803d 33ed 50bd e879 7b3e edc4 5cbe
00000030: db77 43be 5fdb 4c3d 8c03 9e3b 617a 533e
00000040: e624 aabe 1f9a ecbd 41b0 013e b271 0ebe
00000050: d7d5 103d ec84 babb 9c9c bdbd f150 ee3d
00000060: e7c6 643e 07a9 d1bc 4d82 273e cd3a 0d3e
00000070: 616f 88be ff6f 5b3e fdce 79bd cdf0 86bd
00000080: bc6e 403d 1dd4 883e 4278 afbd 9fab 60bd
00000090: b6bf 8f3e 69a0 9abd 5996 4fbd bafe b93d
000000a0: 809d bebd f40b 243e 557c cdbd 3b9e 103e
000000b0: 0104 66bd e017 b93e 579b 253e cc59 abbe
000000c0: f56c 3abb 8ccb 62bd a383 a03d 6bda 2c3e
000000d0: 5acf 453e d849 9fbe 9436 b93b fc82 a83e
000000e0: 66ba 283e c6f8 a4bc 17a1 15be 75e5 83be
000000f0: ec27 27be 1379 733e a0d6 463c 6dbe fbbd
00000100: 4d02 24be 95a9 cb3d d3c4 34be e750 2ebe
00000110: 6ee7 153d 062c f03d 0aac 82be 79fd 0cbe
00000120: 48d3 b33d 1c4c 373e 7d2a 03be dbac a43c
00000130: c197 b8be c800 453e 5de0 513e 7615 8dbd
00000140: 4acb 65bd ffec cf3d fc88 4abe 0d75 49be
00000150: 777a 84be 0d16 01be 4747 563e 218f 77be
00000160: b7e4 443d 23a2 113d 1fcc 76bd 60ac 39be
00000170: 9be2 913e ba47 bcbc b48f 86bd 5430 a23d
00000180: 16bf 03be 45de 14be 9a8d 403d 0eeb 2cbd
00000190: 69cd 56be ebff 86be 9172 d3bd c6cf 6bbe
000001a0: 8faa 313e 588b 13be cc9d 963e 6bb3 89be
000001b0: 06e4 dc3d 3339 19be 4280 983e e919 ca3d
000001c0: 78d5 103e 116c aabd a5f1 4b3e 27b6 27bd
000001d0: 9108 113e 638a cbbd ad31 21bd 24ee 1bbe
000001e0: 34ab 15be 5c66 e43d 0c11 893e 5163 fb3d
000001f0: e75b aabd d558 71bd 6f2c 5c3d 6a4f b6bc
00000200: b910 2f3c cb04 0ebd 2d98 a0bd 98d5 ba3c
00000210: 8a28 aabc d411 8fbe 689e 9d3c 2e62 ce3d
00000220: 852c a23d 6be2 383e c6c3 173e 85a2 b6bd
00000230: 8201 b0bd d146 4dbd 7da0 1ebd 6c81 b53e
00000240: 61fc b0be 15c9 87be 55f9 163d 2898 8fbc
00000250: baba 8a3d 67ed 35bd 5ae0 5cbe f109 213e
00000260: 766c 223e e14e 12bb 30f9 763e 4745 d93d
00000270: 15ea d9bd af99 ec3d e49f 6e3d 8f3e 09be
00000280: fe44 993d e8f3 1a3d 0bcf c2bd 62b1 bfbd
00000290: 60fb 3a3d 7995 38bd 9007 26be a040 c13d
000002a0: d633 b6bd 3de7 b93d 9329 0ebd c07f 513e
000002b0: 31c7 fe3d bafa 933e 176c 203e c8e8 8bbe
000002c0: e919 cabd 07f0 99bd 8485 b93c f16d 5b3e
000002d0: 9f25 8f3e 961d 4dbd 34f2 b63d 4f8f 993e
000002e0: 433a 023d 3c5c ecbd fb44 6f3d d24e 0ebe
000002f0: 480e b8bd 6185 053e 0572 193e f57f 8ebd
00000300: 45b5 00be 408a 47bc 664e 1ebe f116 1fbe
00000310: 181a c4bd 88de 863d 09ad c7bd 0b2a 5abe
00000320: c166 6ebd 03d3 c83d 86fb febc d66a 51bd
00000330: 2af3 a9be b20f 863d cdf3 1d3e fae4 3abd
00000340: fecb 1ebc 402a 33be 2bab 04be 32c4 9bbd
00000350: e19d 97be d6d8 4fbe 1097 133e d44c 3dbe
00000360: c6ae 9abd d64a 893e b50d 19bc cbc7 37be
00000370: 36c3 ad3e f6f1 b6bd b8ed c73c 79c6 983d
00000380: d021 99be 4865 95be 5d46 05be 60b3 acbe
00000390: 3a86 91bd 98bc e8bd 9f9d 8dbd 11d1 2fbe
000003a0: 2d4c 993e 2c03 9c3d ccaf 893e 0567 05be
000003b0: 6155 db3d 12f5 ddbd e4e3 803e 6add 293a
000003c0: 3dc0 af3d 8600 afbd 269a 233c 6c81 0ebe
000003d0: 8ccc d23d 7331 f0bd b77f 963d 2652 0bbe
000003e0: e674 b6bd 4a94 d63d 6bc1 c43d 41d7 c3bc
000003f0: c1be db3c b268 16be 0c3a 08bd 58c6 d2bd
-0.028114235 0.045866363 -0.038944528 0.13536486 -0.117519304 -0.41644078 0.017586343 0.07722846
0.062983796 -0.05100746 0.24558222 -0.21559496 -0.1908869 0.050013896 0.0048222 0.20652153
-0.33231276 -0.11552834 0.12664892 -0.13910559 0.035360184 -0.005692115 -0.092583865 0.11636532
0.223415 -0.025593294 0.163583 0.13791962 -0.26647475 0.21429442 -0.060988415 -0.06588898
0.046980605 0.2672433 -0.08567859 -0.05485117 0.2807595 -0.07550127 -0.050680492 0.09081788
-0.093073845 0.16020185 -0.1003348 0.1412286 -0.056156162 0.36151028 0.16172539 -0.33466947
-0.002844629 -0.0553699 0.07837608 0.16880195 0.1931738 -0.31111026 0.005652258 0.32912433
0.16477355 -0.020138156 -0.14612232 -0.25761 -0.16323823 0.23776655 0.0121361315 -0.1229218
-0.16016503 0.099444546 -0.17653207 -0.1702305 0.03659766 0.11727147 -0.2552188 -0.13768567
0.08780533 0.17900127 -0.12809177 0.020101955 -0.3605328 0.1923858 0.20495744 -0.06888859
-0.056102075 0.10152625 -0.19778818 -0.19673558 -0.25874683 -0.12606068 0.20925628 -0.24175693
0.048069682 0.035555016 -0.06025326 -0.18132162 0.284932 -0.02298342 -0.06570378 0.07919374
-0.12865862 -0.14537914 0.04701004 -0.042216353 -0.20976795 -0.26367125 -0.10324586 -0.23028478
0.17350219 -0.14408624 0.29417264 -0.26894698 0.107856795 -0.14963226 0.29785353 0.09868223
0.14143932 -0.08321393 0.19916399 -0.0409452 0.14163424 -0.099385045 -0.039354015 -0.15227562
-0.1461609 0.11152336 0.26770818 0.122748025 -0.0831831 -0.058922607 0.053753313 -0.022254664
0.010685139 -0.03467254 -0.07841525 0.022806928 -0.020771284 -0.2794329 0.019240573 0.1007732
0.07918648 0.18055122 0.14820775 -0.08917717 -0.085940376 -0.050116364 -0.038727272 0.35450304
-0.3456755 -0.265206 0.036858875 -0.017528608 0.067738965 -0.044415858 -0.21569958 0.15726449
0.15861687 -0.0022324848 0.24118495 0.10608917 -0.10640351 0.1155275 0.058257952 -0.1340277
0.07483862 0.037830263 -0.095121466 -0.09360005 0.045649886 -0.045064423 -0.16213822 0.09436154
-0.08896606 0.09077308 -0.034707617 0.20458889 0.124403365 0.28902227 0.15666233 -0.27326035
-0.09868223 -0.07516485 0.022646673 0.21428658 0.2795839 -0.050077043 0.08932915 0.29992148
0.031793844 -0.1154103 0.058415394 -0.13897255 -0.08987099 0.13039161 0.14984901 -0.069579996
-0.12569149 -0.012178957 -0.15459594 -0.15536095 -0.095752895 0.06585413 -0.09749801 -0.213051
-0.058203463 0.09805872 -0.031125795 -0.051127277 -0.33193332 0.065459624 0.15425034 -0.045628525
-0.00969219 -0.17496586 -0.1295592 -0.07605781 -0.2961264 -0.2029756 0.14413095 -0.18486339
-0.07552867 0.26814908 -0.009341647 -0.17947309 0.33937997 -0.08932869 0.024405345 0.07459731
-0.2990861 -0.29178834 -0.13015123 -0.33730602 -0.0710568 -0.113640964 -0.069148295 -0.17169596
0.2994093 0.076177925 0.26891935 -0.1302758 0.10709644 -0.10837759 0.25173867 0.00064798316
0.085815884 -0.08545022 0.009985482 -0.13916558 0.102929205 -0.11728182 0.073485784 -0.13605556
-0.08909015 0.10477503 0.09607204 -0.023906352 0.026824357 -0.14688376 -0.033258483 -0.10291737

mu_head.0.bias f4 [3]
00000000: a6dc 3b3e ceee 9c3d 7d0a 7abd
0.1834589 0.07662736 -0.06104516

sigma_head.0.weight f4 [3, 128]
00000000: de27 7c3d bf01 9b3c fbd0 0d3e f497 84bd
00000010: c87f e2bd a6d9 e7bc fb45 fcbd c7d3 a23d
00000020: c10d c53d 7be8 c93d d414 443b 6193 6f3d
00000030: 22c7 103c 605e 8cbd 608a 0cbd 2b07 9a3d
00000040: dee7 d73d 53ac ff3d e26e 45bd 7e4c 853d
00000050: 5c1a b3bd 624f 43bb f71a 543c fef0 21bd
00000060: ec68 47bd 8d2a a63d 7624 8abd 126e 2c3d
00000070: 8bd5 ccbc 15cb 8e3d 6f25 e1bd be07 f33c
00000080: 93dc b1bc 11c8 bebd 6190 a5bd 30db 6c3d
00000090: 4166 c7bd a61e dabd 1ba0 ad3d c344 06bd
000000a0: c968 b5bd 4607 9bbd 8398 843b 48cf ddbd
000000b0: 8663 603c 1069 f9bb 0a02 f83c 2897 cbbc
000000c0: eb06 123d e0e7 7dbb 0e33 c2bb 5334 ca3d
000000d0: 2a71 cabd 8eab 423d 4d4a 873d 350d 873c
000000e0: d5a0 44bd 2c02 4c3d f15e a7bc 591d 133e
000000f0: 4d4d 2dbd ba62 02be 9667 99bc 6a61 1e3b
00000100: 9096 463c e7b4 013e 9c48 ce3d aebb 2e3c
00000110: 9f19 e2bd 872d df3d ff37 9a3d 6dc3 f33d
00000120: 974f f9bd efbb 573d 09ec 85bd 5c17 26bb
00000130: b724 e13d a576 0cbe 76ea bcbd a718 8b3d
00000140: 690a 113e 06ad 34bb f8a1 ab3d df3b 363d
00000150: 489b 2b3c 8c12 ff3d 8d42 433d 46d5 233b
00000160: 17dd d2bc 6c20 7dbd 08fe ae3b 232a a33d
00000170: 1292 0f3d 1285 a9bd 6ca8 21bd 82f4 7ebd
00000180: 5579 24bd 9391 22bc 2948 8f3d be01 81bd
00000190: 0862 c8bc 156a 03bd 2068 673b 9c7e cd3c
000001a0: 84a1 03bd b310 943d d377 dabd ba0f 1d3e
000001b0: aaf8 12bd f825 f8bc b2d9 4ebd 6a3c c6bd
000001c0: 088b 7cbd 61dc 5c3c cd4d 913b 7dc5 713d
000001d0: 9849 47bd f814 8c3d 42a9 9abd e95e 613d
000001e0: e0d4 2e3b 1db8 823d 7e81 bf3c eefe 023c
000001f0: ba6c c9bd cbc6 d33d 7744 96bc 9016 24bd
00000200: 9d0a dcbd 8947 dabd 4a4c 823d cca8 c3bd
00000210: 421f 9dbd 9a0d 4b3d a8fe d53c 3022 923c
00000220: f79e d43d 0c92 98bd 51d9 01be bf53 f03c
00000230: 41d7 603d 2860 023d 2913 553d 207c dbbc
00000240: 35eb 51bd 630e e43d b0ba 46bd 647d 803c
00000250: 194a dfbb 9ae6 4cbd 24cb c13c 4c87 04bd
00000260: b934 acbd 3f9b 513d 996f 19bd 97e5 a53c
00000270: aa28 ee3b 0bca 0a3d bd8d ab3c 0bf2 6e3d
00000280: f483 133d 2ae7 343d b130 04bd 52bf 963c
00000290: b423 d8bd 17cd 1bbd 7cb4 a13c e1d5 18bd
000002a0: 848f 2fbd 98f6 cfbd 458d 21bd 6cc0 1dbe
000002b0: 1ba6 85bd 58f1 d93d 7adb 64bd 9b59 b63d
000002c0: 82a2 59bc d948 633d 7b77 5cbd 6f7b e23c
000002d0: 94ab ccbd d45f 83bd 994f e33d 5f69 acbd
000002e0: 73c3 58bd 49b9 023e 96c9 aebd ba98 fc3d
000002f0: 5799 5bbd 0c29 47bd 29b7 78bc 5aa5 7e3d
00000300: 9dd1 9f3c 98ce 773d f814 353c 2c8f 393d
00000310: ce6e 4f3d c692 103e 065c d83d 64e8 c53a
00000320: cc68 c1bb 4a97 c3bd 30cb 79bc 8d4c ae3c
00000330: 7368 533d 12a4 aabd a4c4 23bd 03f5 73bd
00000340: 380e c23d 6ca2 6c3d c776 923d bd97 303d
00000350: c6d6 f03c 38ba 2b3e 1fd9 463d 6a58 e73d
00000360: 344c df3c d4fb c5bc 0bce bbbd 90ad 2c3d
00000370: d7f6 f43c 70d9 83bd 9b5b 403d 47cf e2bc
00000380: aef0 153c 7a37 c23d 469e 0a3d 3f7b 533d
00000390: eaad 5c3d 30bd 7ebc db98 a8bd ab0d a63d
000003a0: 1a8d 323d 2650 bcbd f0f8 e6bc de1f 49bd
000003b0: 00e1 82bc 4ad5 87bd 884c e4bc ddb5 33bd
000003c0: fbfa 023e b09a 3a3d 3d00 e7bb 656d 883d
000003d0: c773 a03c 65aa 613d 2317 93bd 262c fe3c
000003e0: b2d4 acbd 6b24 95bd fe0d 59bb b8b4 a8bd
000003f0: 938b febc 1439 00bd 0276 e4bd 62c8 7ebd
0.061561458 0.018921731 0.13849251 -0.06474295 -0.110595286 -0.028302025 -0.12318035 0.079505496
0.09621764 0.09858795 0.002991964 0.05849016 0.008836539 -0.06853938 -0.034311652 0.075208984
0.10542272 0.1248404 -0.04820145 0.0650873 -0.08745262 -0.0029801955 0.012945882 -0.03953647
-0.048684046 0.08113585 -0.067452356 0.04209716 -0.025004169 0.069723286 -0.10993468 0.029666778
-0.021711623 -0.093155034 -0.08084179 0.05782622 -0.097363 -0.10650377 0.08477803 -0.03278042
-0.08857877 -0.07569747 0.004046501 -0.108305514 0.013695603 -0.0076114014 0.03027441 -0.02485235
0.03565113 -0.0038742945 -0.0059264963 0.09873261 -0.098848656 0.04752689 0.066059686 0.01648579
-0.048004944 0.04980676 -0.020431014 0.14366664 -0.042310048 -0.12732974 -0.018726151 0.002416695
0.012120858 0.12666665 0.10072443 0.0106648635 -0.11040043 0.108973555 0.07530212 0.11902509
-0.12173384 0.05266946 -0.06539161 -0.0025343513 0.10993331 -0.13717134 -0.092244074 0.067918114
0.14164127 -0.002756895 0.083805025 0.04449069 0.010474034 0.124547094 0.04767089 0.0024998947
-0.02574019 -0.061798498 0.0053403415 0.07967021 0.035051413 -0.08277334 -0.03946726 -0.0622449
-0.040154774 -0.009922403 0.06996185 -0.062991604 -0.024460807 -0.03208359 0.0035309866 0.025084786
-0.032136455 0.072297476 -0.10667386 0.1533803 -0.035881676 -0.030291542 -0.05050058 -0.09679492
-0.061656028 0.013480277 0.0044343234 0.05902623 -0.04865417 0.06839937 -0.075518146 0.055022154
0.0026677176 0.06382773 0.023377176 0.00799535 -0.09835191 0.10340651 -0.018343193 -0.04006058
-0.10744212 -0.106581755 0.06362207 -0.0955368 -0.076719776 0.04957352 0.026122406 0.017838567
0.10381883 -0.07449731 -0.12680556 0.029336808 0.054892782 0.031829983 0.052020226 -0.026792586
-0.0512497 0.111355565 -0.048517883 0.01568479 -0.006814253 -0.050024606 0.023656435 -0.03235559
-0.084084935 0.051173445 -0.037459943 0.020251079 0.007268031 0.03388409 0.02094161 0.0583363
0.036014512 0.044165768 -0.032273 0.018401776 -0.10553685 -0.038037386 0.019739382 -0.037313346
-0.042861477 -0.10154456 -0.039441366 -0.15405434 -0.06525823 0.10641736 -0.05587337 0.0890381
-0.013283374 0.055489395 -0.053824883 0.027646748 -0.099936634 -0.06414762 0.110991664 -0.084185354
-0.05292077 0.12765993 -0.08534543 0.12333818 -0.053613033 -0.04862313 -0.0151803875 0.06216941
0.019509131 0.060499758 0.011052363 0.045302555 0.05064278 0.1411849 0.10564427 0.0015099165
-0.0059023853 -0.095503405 -0.015246198 0.021276737 0.051613282 -0.08332075 -0.039982453 -0.059559833
0.09475368 0.057772085 0.07151561 0.04311346 0.029399287 0.16770256 0.048546907 0.112961605
0.027258016 -0.024167933 -0.09170159 0.04215771 0.029902859 -0.06437957 0.04696236 -0.027686728
0.009151621 0.094832376 0.033842348 0.05163121 0.053876795 -0.0155480355 -0.0823228 0.08108076
0.043591596 -0.091949746 -0.028194875 -0.049102657 -0.015976429 -0.066324785 -0.027868524 -0.04387461
0.12791054 0.045557678 -0.007049589 0.0666149 0.019586457 0.05509414 -0.07182147 0.031026911
-0.08439006 -0.07282337 -0.0033119912 -0.08237594 -0.031072414 -0.031304434 -0.11155321 -0.06220282

sigma_head.0.bias f4 [3]
00000000: 9117 07be a83f 4f3c fa6b 0dbe
-0.13192584 0.012649454 -0.13810721
