算法对比/PPO/model/critic_model.ckpt (torch, 82903 bytes, 5 tensors)

critic.0.weight f4 [128, 27]
-0.085018046 0.009670609 0.08962144 0.08365338 -0.12297897 0.1712522 0.08342257 0.18882532
-0.017027607 -0.056027062 0.04338794 0.15811503 0.16146155 -0.018022528 -0.104107 0.13916646
0.17389183 0.09386457 0.05667974 0.14895636 -0.11348865 0.07750269 0.15442494 0.15109278
0.095207356 -0.017236417 -0.060034573 0.033124108 -0.03238561 -0.0015982051 -0.016338862 -0.01352307
-0.026526004 -0.034122214 -0.03259554 -0.04520444 -0.04668752 -0.029438483 -0.013333735 -0.009170733
-0.01353172 -0.03060431 -0.013061002 -0.039591126 -0.024753807 -0.028428553 -0.007944684 -0.037727967
-0.020750808 -0.032707162 -0.008553155 -0.14329152 0.09131793 -0.03285616 0.0015589698 -0.017234538
-0.031962793 -0.002937733 0.0045801476 -0.032854423 -0.029069616 -0.02055768 -0.022352267 -0.01636455
0.0006765545 -0.016021244 -0.0026302563 -0.019358406 0.009656081 -0.0052062087 -0.034661792 -0.020387853
-0.046219256 -0.022584189 -0.014209051 -0.0031368318 -0.012844472 0.001145052 -0.07791734 0.06714016
0.01384254 -5.4452e-41 -2.664e-42 -2.0189e-41 -3.1078e-41 -2.7652e-41 5.2818e-41 -2.7153e-41
2.7663e-41 2.0156e-41 -2.0969e-41 -2.8336e-41 -1.6528e-41 -2.5533e-41 1.2889e-41 6.677e-42
-2.8682e-41 -2.9839e-41 -1.925e-42 -4.9286e-41 -3.0379e-41 -4.0867e-41 -5.8269e-41 -5.2089e-41
3.9647e-41 1.0182e-41 2.54e-43 2.6522e-41 0.15993854 -0.089052394 0.061324567 0.153109
0.0023939922 0.017449012 0.012597444 -0.05490937 -0.013951966 0.20906824 0.16458036 0.20070888
0.12347362 0.03458279 0.17271544 0.09566952 0.11100167 -0.0268131 0.12515451 0.16844012
0.17426898 0.12397935 0.019070124 0.03735579 -0.09137862 0.12815633 -0.06532544 -0.018014753
-0.0323146 -0.043982226 -0.03707214 -0.017570123 -0.016123453 -0.014975164 -0.015078639 -0.0064065377
-0.035026684 -0.031368632 -0.01722466 -0.015649727 -0.00046863625 -0.0019361725 -0.006887185 -0.0050276355
0.011777413 0.0028671997 0.013941681 -0.0018449517 -0.007953849 -0.019070538 -0.030930264 0.045434967
-0.0608614 0.009242323 -1.1961702e-24 -3.0913378e-24 -5.0472613e-22 -3.8446313e-21 -6.585468e-18 -2.7740364e-18
-1.0707456e-17 -1.3231259e-17 -1.2858562e-16 -5.3407644e-17 -3.4404067e-18 -1.0352079e-17 -3.4906931e-19 -4.1575805e-17
-3.3958017e-17 -7.690739e-15 -4.3569244e-17 -1.7547628e-17 -3.0342239e-19 -1.371421e-18 -1.932165e-19 -8.91151e-19
-2.1754593e-20 -8.6313424e-27 -0.0003585593 -7.183777e-05 -8.797527e-11 2.1426762e-14 -5.6283e-41 3.8772194e-10
4.8694716e-12 -6.8048497e-13 1.2540901e-18 1.2184191e-20 7.312361e-12 2.6127e-41 -1.5555424e-15 3.4681236e-07
-9.403959e-12 2.6920286e-09 4.0136803e-20 1.7533715e-07 1.242e-41 -5.2852334e-20 -1.1574225e-15 -5.731097e-20
-2.2868764e-20 -5.5661e-41 3.8895377e-14 3.1605664e-19 1.7150048e-06 -1.8565918e-16 -1.9639797e-17 5.625e-41
0.015941208 -0.05277214 -0.08719675 0.17257415 0.16527638 0.065082334 0.071017355 0.18370704
0.19407257 0.009863761 0.18559586 0.17253911 -0.045639418 -0.03401842 0.038977586 0.14672853
0.15237965 0.14867602 0.14225991 -0.06605668 0.025381638 0.07505741 0.21132235 0.036010593
0.06675709 -0.096861064 -0.033730622 0.060834758 -0.15166149 -0.009010556 -0.08228249 0.044597022
0.1146778 0.10274651 -0.075179584 0.041699875 0.015677553 0.028155698 -0.047380667 -0.02611076
00000000: f11d aebd 7971 1e3c 728b b73d 7752 ab3d
00000010: 66dc fbbd bd5c 2f3e 74d9 aa3d 6d5b 413e
00000020: 7b7d 8bbc a27c 65bd 8db7 313d e8e8 213e
00000030: 2d56 253e fba3 93bc 0d36 d5bd a781 0e3e
00000040: b310 323e 113c c03d 0429 683d 0488 183e
00000050: bd6c e8bd bbb9 9e3d 9221 1e3e 11b8 1a3e
00000060: 13fc c23d 6333 8dbc d0e6 75bd 25ad 073d
00000070: c6a6 04bd dd7a d1ba 14d9 85bc de8f 5dbc
00000080: 104d d9bc bcc3 0bbd e782 05bd 4a28 39bd
00000090: 6a3b 3fbd f928 f1bc bd75 5abc d840 16bc
000000a0: 26b4 5dbc e4b5 fabc d0fd 55bc 4e2a 22bd
000000b0: 7fc8 cabc ffe2 e8bc 6b2a 02bc a488 1abd
000000c0: 99fd a9bc f2f7 05bd 8822 0cbc 03bb 12be
000000d0: e504 bb3d 2e94 06bd 5956 cc3a 722f 8dbc
000000e0: 6beb 02bd fb86 40bb 1015 963b 5c92 06bd
000000f0: 6723 eebc 9468 a8bc 1a1c b7bc f30e 86bc
00000100: ce5a 313a fc3e 83bc 6160 2cbb 8595 9ebc
00000110: 8a34 1e3c d898 aabb 86f9 0dbd 6d04 a7bc
00000120: 6750 3dbd 7a02 b9bc 14cd 68bc 4e93 4dbb
00000130: 9f71 52bc 9215 963a 2093 9fbd c880 893d
00000140: d2cb 623c ca97 0080 6d07 0080 4738 0080
00000150: a256 0080 154d 0080 3c93 0000 b14b 0080
00000160: 1d4d 0000 3038 0000 743a 0080 fd4e 0080
00000170: 132e 0080 2d47 0080 ee23 0000 9d12 0000
00000180: f44f 0080 2e53 0080 5e05 0080 6489 0080
00000190: af54 0080 ec71 0080 6ea2 0080 3491 0080
000001a0: 856e 0000 621c 0000 b500 0000 ef49 0000
000001b0: eec6 233e 1a61 b6bd 782f 7b3d 9bc8 1c3e
000001c0: 86e4 1c3b 3bf1 8e3c 8265 4e3c a6e8 60bd
000001d0: c996 64bc fc15 563e c187 283e a186 4d3e
000001e0: bddf fc3d afa6 0d3d 51dc 303e 62ee c33d
000001f0: d854 e33d 25a7 dbbc 8128 003e 917b 2c3e
00000200: 9173 323e e3e8 fd3d f338 9c3c 6302 193d
00000210: b724 bbbd 6a3b 033e 58c9 85bd ad93 93bc
00000220: 505c 04bd b526 34bd f5d8 17bd 38ef 8fbc
00000230: 5515 84bc 645a 75bc 650c 77bc efed d1bb
00000240: 2478 0fbd 657c 00bd bb1a 8dbc db33 80bc
00000250: 4bb3 f5b9 2bc7 fdba e5ad e1bb ddbe a4bb
00000260: 0df6 403c a1e7 3b3b a66b 643c 4ed2 f1ba
00000270: dc50 02bc d139 9cbc 7761 fdbc 041a 3a3d
00000280: ce49 79bd 1d6d 173c 2f19 b997 412e 6f98
00000290: 4b8b 189c fe3e 919d fdf5 f2a2 11b0 4ca2
000002a0: 8884 45a3 db12 74a3 c73f 14a5 9e4c 76a4
000002b0: 72db 7da2 50f6 3ea3 dd0d cea0 0cbc 3fa4
000002c0: 8d9a 1ca4 468b 0aa8 7ced 48a4 2ad9 a1a3
000002d0: e51b b3a0 d262 caa1 1b1c 64a0 bc82 83a1
000002e0: 6177 cd9e 1bf6 2a94 04fd bbb9 9ca7 96b8
000002f0: ad75 c1ae c0fe c028 e59c 0080 0327 d52f
00000300: 4d54 ab2c 1c8a 3fab 2f12 b921 2227 661e
00000310: f2a3 002d d548 0000 632d e0a6 8731 ba34
00000320: ab6f 25ad abfe 3831 6b8a 3d1f 4f44 3c34
00000330: 9f22 0000 8d96 799f 5acd a6a6 5b52 879f
00000340: 47fd d79e 299b 0080 512b 2f29 2191 ba20
00000350: 1e2f e635 eb0c 56a5 2925 b5a3 cd9c 0000
00000360: 2397 823c 9927 58bd 3694 b2bd 47b7 303e
00000370: 363e 293e e349 853d 8c71 913d b31d 3c3e
00000380: f6ba 463e 9d9b 213c d70c 3e3e 18ae 303e
00000390: 66f0 3abd e656 0bbd f6a6 1f3d 0140 163e
000003a0: 6909 1c3e 873e 183e 95ac 113e ba48 87bd
000003b0: 27ed cf3c b3b7 993d e364 583e d87f 133d
000003c0: f1b7 883d 185f c6bd 1f29 0abd de2d 793d
000003d0: 264d 1bbe 03a1 13bc b983 a8bd 5eab 363d
000003e0: 32dc ea3d c36c d23d c1f7 99bd 7dcd 2a3d
000003f0: 366e 803c c7a6 e63c 3b12 42bd 3ce6 d5bc

critic.0.bias f4 [128]
0.17186372 -0.0018858993 -0.10113819 -0.17205219 -0.051034007 0.021678766 0.0035875367 -0.18265009
0.074205086 -0.04590847 -1.4410294e-05 0.01915839 -0.0132858725 -0.10378477 0.0810666 -0.22406788
-0.21477449 0.19159187 0.049036827 -0.17646238 -0.05110441 -0.109651834 0.020710833 0.18423222
0.06688586 -0.00660065 -0.0016106099 -0.065908134 0.051518332 -0.0005808485 -0.10903632 0.045119736
-0.18937066 0.023440696 -0.1234376 -0.08930844 -0.10530421 -0.081036955 -0.012474594 -0.001951684
-0.06331672 -0.05804707 -0.046681825 -0.1294673 0.13330306 0.19503823 0.016284242 -0.0046416083
0.18861708 0.11419649 0.07273527 -0.020351272 -0.05732961 0.013780547 -0.058772527 -0.18487127
-0.023619207 0.13071243 0.12184462 0.026387697 -0.11133553 -0.025250752 0.014606448 0.034000397
-0.15212396 0.18257558 -0.09273763 -0.028509326 0.06344911 0.10434586 -0.071841285 -0.013182839
0.14298883 0.12662303 0.12272804 -0.08703427 0.118244775 0.09280858 0.06268916 -0.16286862
0.020147668 -0.0152130425 -0.11246424 -0.13172127 -0.018273642 -0.108257346 -0.28098145 -0.19387938
0.07819945 -0.030976132 -0.14080356 0.16347945 -0.14640474 0.08702826 -0.043336246 -0.0046114377
-0.01838778 0.060202353 0.032709252 -0.0035987485 -0.011763172 -0.16800326 0.059757546 -0.007896255
0.11863541 0.14538379 -0.14552397 0.17290947 -0.02234955 -0.2841218 -0.056892723 0.03080672
-0.058898278 -0.18527491 -0.081672005 -0.002233203 -0.19327101 0.017836783 -0.07124315 0.109534785
0.0068940637 -0.092982344 -0.1326411 0.001671076 -0.053929273 0.17895035 -0.20324041 -0.15272385
00000000: 0bfd 2f3e 4830 f7ba 8a21 cfbd 732e 30be
00000010: 0909 51bd ab97 b13c e11c 6b3b a008 3bbe
00000020: d6f8 973d 850a 3cbd bec3 71b7 0ef2 9c3c
00000030: fdac 59bc 1c8d d4bd 3f06 a63d 0d72 65be
00000040: d8ed 5bbe a930 443e d7da 483d 8eb2 34be
00000050: dc52 51bd 2491 e0bd c4a9 a93c 5fa7 3c3e
00000060: 74fb 883d 444a d8bb 1a1b d3ba d8fa 86bd
00000070: e304 533d 1544 18ba 6f4e dfbd 79cf 383d
00000080: 62ea 41be b406 c03c dacc fcbd 58e7 b6bd
00000090: bca9 d7bd b4f6 a5bd 3d62 4cbc a6cf ffba
000000a0: 32ac 81bd c4c2 6dbd 7135 3fbd 1393 04be
000000b0: 9980 083e 1ab8 473e 8866 853c a218 98bb
000000c0: d624 413e d9df e93d 3bf6 943d b6b7 a6bc
000000d0: 74d2 6abd cec7 613c 76bb 70bd e54e 3dbe
000000e0: 117d c1bc 7bd9 053e ac89 f93d 032b d83c
000000f0: e203 e4bd aada cebc e24f 6f3c 0044 0b3d
00000100: 62c6 1bbe 18f5 3a3e 3aed bdbd 648c e9bc
00000110: 9bf1 813d 48b3 d53d 8621 93bd d6fc 57bc
00000120: aa6b 123e 78a9 013e d758 fb3d 063f b2bd
00000130: 512a f23d 6d12 be3d 2d63 803d 08c7 26be
00000140: b90c a53c 2040 79bc a753 e6bd f1e1 06be
00000150: 9bb2 95bc 07b6 ddbd cddc 8fbe 5188 46be
00000160: 0927 a03d a8c1 fdbc cf2e 10be 2867 273e
00000170: 20eb 15be df3b b23d 5981 31bd 8b1b 97bb
00000180: f8a1 96bc be96 763d 23fa 053d fbd8 6bbb
00000190: 52ba 40bc 0c09 2cbe 54c4 743d 4b5f 01bc
000001a0: 1ff7 f23d 7ddf 143e 3c04 15be 2e0f 313e
000001b0: 6716 b7bc 6a78 91be 5808 69bd 605e fc3c
000001c0: 523f 71bd b5b8 3dbe a743 a7bd ee5a 12bb
000001d0: d6e8 45be 721e 923c eee7 91bd c653 e03d
000001e0: 99e7 e13b 876d bebd 12d3 07be 0208 db3a
000001f0: f1e4 5cbd c33e 373e 411e 50be a463 1cbe

critic.2.weight f4 [128, 128]
-7.735164e-06 3.411e-42 -1.365e-42 -5.1280157e-27 -1.0188631e-05 -4.148e-42 -2.0394e-41 1.3702702e-07
-3.0097044e-07 -1.875148e-22 -2.5715e-41 -3.2270517e-12 -4.228752e-05 7.02e-43 -5.3810595e-06 -2.668238e-18
1.0117e-41 -1.0313734e-05 -2.5564e-41 -2.7897206e-06 -2.2812436e-09 3.932e-42 1.7548e-41 -1.4425458e-05
-5.9501057e-05 -2.3358876e-07 1.3964e-41 4.266e-42 -6.8520917e-06 1.3335e-41 5.651e-42 -4.2162293e-07
-3.514e-42 -4.3762743e-06 8.534e-42 3.252e-42 -6.583116e-07 -2.5567753e-16 -7.748567e-19 -1.4166e-41
1.1e-44 -6.4186763e-09 -8.7476515e-09 -1.4185083e-06 1.4e-44 -4.5393294e-12 -3.5853767e-09 -2.7677e-41
-7.1842257e-09 -7.289537e-12 2.3194722e-26 -7.72489e-09 -7.002911e-16 -1.3843e-41 -2.7904829e-05 -1.9939763e-16
-1.680712e-11 -1.671707e-11 -2.9943548e-12 -2.1501224e-07 -3.370249e-05 -1.486727e-39 4.322e-42 -4.658824e-05
-2.7788e-41 3.8e-43 -4.4451413e-31 -3.279786e-05 -1.1564642e-06 -1.4568218e-11 -5.111785e-06 -5.288134e-07
-8.2926886e-07 -1.0053578e-08 -2.0586869e-08 -2.8316607e-12 -1.7488879e-09 -6.299722e-08 3.57e-43 -4.131e-42
-9.449391e-05 -8.836872e-06 1.994e-41 -1.9283783e-11 -2.3212527e-13 -6.897311e-16 3.178e-42 1.1302698e-11
2.042e-42 2.8473e-41 -1.219e-42 -5.9561266e-17 -4.0627114e-07 -4.8078157e-21 -6.2505507e-07 1.0998765e-06
1.3726e-41 -2.7418746e-11 -2.5055944e-05 4.993e-42 -2.6349593e-12 -9.193078e-16 4.702e-41 -1.255635e-18
-5.719e-42 -2.6005544e-08 -1.3663158e-07 -1.0109141e-14 -8.119456e-06 -6.348e-42 -8.73261e-21 1.398e-42
-1.7317707e-14 -4.557e-42 -9.376682e-21 -1.7222e-41 2.9818e-41 -1.156916e-06 4.781632e-07 -3.7341366e-09
-7.938958e-06 -1.1434508e-06 2.5823e-41 -2.5963793e-09 -6.8567493e-07 -1.4565191e-05 3.631e-42 -5.185984e-10
-0.026776085 -0.0024672702 -0.0027410358 7.774e-42 -0.020420708 0.003544339 -9.68e-43 3.4379702e-12
0.03810379 -0.009285402 -1.95e-43 -0.030000437 0.016689915 0.003928205 -0.055051427 0.0017154883
1.1625e-41 -0.019148756 2.67822e-15 0.009246191 -1.1036237e-12 4.665e-42 2.2273703e-08 0.056361552
-0.027328284 -0.06257706 -3e-45 0.004819852 0.021402668 -6.928e-42 6.87e-42 0.03668502
-0.0012005128 0.03786289 2.0360572e-07 0.0036895692 -0.029723106 5.8390686e-17 0.015182602 7.3939486e-21
-0.0014038334 -0.03174676 0.042254042 0.051077273 0.0016491446 -0.029433213 0.017978515 6.837e-42
0.032874066 -0.025882673 -0.023786789 -0.00972738 1.985075e-16 -2.6008227e-09 0.04806783 3.5171455e-10
0.033185363 0.038081653 0.02338722 0.02915682 -0.03287701 0.0025901152 -0.002147677 0.06421596
-5.607e-41 0.010794774 -0.00013112879 0.021922471 0.052160874 -0.03352181 0.048398722 0.029523857
-0.033720907 -0.02211829 -0.06400925 -0.0007974721 -0.056570925 -0.052255932 -1.8706265e-21 0.0005462509
-0.039056227 0.028846966 6.06e-42 1.9604852e-17 0.003639218 0.026681107 0.0005909548 -5.8570634e-17
0.0019665442 1.6849678e-09 -0.009432492 -0.011972858 -0.07357334 0.0043803635 -0.065240175 4.621082e-18
-2.9977287e-10 0.023208687 0.041067157 8.942e-42 -0.009404453 -9.464909e-20 -1.7426336e-09 0.030080685
1.7e-42 -0.01605038 -0.015221994 -0.008063706 0.047811598 0.0014540218 3.9275557e-20 -0.00011260945
0.032849155 -9.728e-42 3.6445243e-18 1.2585e-41 -0.00033909205 0.013018477 1.9258799e-19 -0.031098602
0.010441951 0.016396903 8.3065645e-11 -0.03450551 -0.010906184 -0.05059243 -0.0009537651 -3.9339867e-20
00000000: 47c6 01b7 8209 0000 ce03 0080 4224 cb93
00000010: d6ef 2ab7 900b 0080 da38 0080 b321 1334
00000020: 1095 a1b4 05b1 629b af47 0080 6515 63ac
00000030: e15d 31b8 f501 0000 f38e b4b6 97e1 44a2
00000040: 341c 0000 2609 2db7 4347 0080 0937 3bb6
00000050: 10c4 1cb1 f60a 0000 eb30 0000 df04 72b7
00000060: c690 79b8 64d0 7ab4 ed26 0000 e40b 0000
00000070: 05eb e5b6 2c25 0000 c10f 0000 6a5b e2b4
00000080: cc09 0080 e9d7 92b6 ca17 0000 1109 0000
00000090: d4b6 30b5 5863 93a5 84b2 64a1 7d27 0080
000000a0: 0800 0000 468b dcb1 9448 16b2 9363 beb5
000000b0: 0a00 0000 a5b6 9fac 9d62 76b1 274d 0080
000000c0: 1ed9 f6b1 283d 00ad 9bb5 e514 6db6 04b2
000000d0: 5dd8 49a6 9726 0080 2a15 eab7 cbe3 65a5
000000e0: 45d6 93ad 7f0b 93ad 80b5 52ac 1dde 66b4
000000f0: c65b 0db8 6430 1080 0c0c 0000 be67 43b8
00000100: 764d 0080 0f01 0000 ca40 108d 6f90 09b8
00000110: cf37 9bb5 b624 80ad e685 abb6 c8f3 0db5
00000120: ec9a 5eb5 1bb8 2cb2 01d7 b0b2 aa42 47ac
00000130: 865d f0b0 1749 87b3 ff00 0000 840b 0080
00000140: 082b c6b8 1442 14b7 9637 0000 389f a9ad
00000150: c7ac 82aa 2ccd 46a6 dc08 0000 d4d6 462d
00000160: b105 0000 5f4f 0000 6603 0080 c456 89a4
00000170: 7b1d dab4 57a2 b59d 75c9 27b5 789f 9335
00000180: 4326 0000 872d f1ad 3b2f d2b7 eb0d 0000
00000190: 356b 39ac 797c 84a6 1383 0000 8d4c b9a1
000001a0: f10f 0080 cc62 dfb2 01b5 12b4 2f1c 36a8
000001b0: cc38 08b7 b211 0080 50f4 249e e603 0000
000001c0: eafb 9ba8 b40c 0080 da1e 319e 0230 0080
000001d0: 1f53 0000 5547 9bb5 205b 0035 d04d 80b1
000001e0: 9131 05b7 ac78 99b5 fc47 0000 fd6b 32b1
000001f0: 390f 38b5 055d 74b7 1f0a 0000 1e8d 0eb0
00000200: 8559 dbbc edb1 21bb f3a2 33bb ac15 0000
00000210: 5449 a7bc 2448 683b b302 0080 f7ec 712c
00000220: b812 1c3d cc21 18bc 8b00 0080 7ac3 f5bc
00000230: 4ab9 883c 2cb8 803b 9b7d 61bd 3cda e03a
00000240: 6820 0000 dadd 9cbc 70fc 4027 567d 173c
00000250: 3c52 9bab 010d 0000 6454 bf32 5fdb 663d
00000260: 91df dfbc 6728 80bd 0200 0080 d9ef 9d3b
00000270: a654 af3c 5013 0080 2713 0000 0843 163d
00000280: 865a 9dba 1e16 1b3d b79e 5a34 b3cc 713b
00000290: df7d f3bc c7a3 8624 73c0 783c f1aa 0b1e
000002a0: d500 b8ba e408 02bd 9312 2d3d 6736 513d
000002b0: 1c28 d83a ec1d f1bc ae47 933c 0f13 0000
000002c0: f5a6 063d e607 d4bc 83dc c2bc 975f 1fbc
000002d0: 13dd 6425 28ba 32b1 c6e2 443d 6c5b c12f
000002e0: 60ed 073d 82fb 1b3d 8e96 bf3c 49da ee3c
000002f0: 0baa 06bd ecbe 293b 0ac0 0cbb a883 833d
00000300: 4d9c 0080 90dc 303c 9e7f 09b9 c196 b33c
00000310: a4a6 553d 2a4e 09bd bd3d 463d 04dc f13c
00000320: ef1e 0abd 6b31 b5bc 4817 83bd 720d 51ba
00000330: eab6 67bd 510a 56bd 2e57 0d9d 4732 0f3a
00000340: 6cf9 1fbd 7950 ec3c e510 0000 a6d2 b423
00000350: f27f 6e3b 5692 da3c 4eea 1a3a 000e 87a4
00000360: 23e1 003b 8994 e730 bd8a 1abc ce29 44bc
00000370: 9fad 96bd 2789 8f3b a49c 85bd e37c aa22
00000380: 48cd a4af 2520 be3c 0936 283d ed18 0000
00000390: 2315 1abc dd7b df9f 7881 efb0 c56b f63c
000003a0: bd04 0000 167c 83bc ac65 79bc a21d 04bc
000003b0: 18d6 433d e094 be3a 3c79 391f bd28 ecb8
000003c0: d68c 063d 1e1b 0080 8f75 8622 1523 0000
000003d0: 2ac8 b1b9 734b 553c 265e 6320 7fc2 febc
000003e0: b814 2b3c cc52 863c cda9 b62e a655 0dbd
000003f0: daaf 32bc 023a 4fbd 1806 7aba fbc6 399f

critic.2.bias f4 [128]
0.0010294721 0.050236292 -0.0054376437 -0.01890418 -0.00096109195 -0.074795716 -0.08821906 -0.0023885595
-0.006005612 -0.012092002 -0.06705358 -0.023515983 0.07214864 -0.006416023 -0.059306037 -0.010722253
-0.00078698737 0.068641655 -0.011269942 -0.009896738 -0.01944929 -0.06912008 -0.0030306983 0.09519018
-0.024482204 -0.00027289795 0.045016043 -0.002771683 0.064915836 -0.0021052258 -0.09531112 -0.035901796
-0.060624786 -0.0049557583 -0.07241146 -0.00069120957 0.11495751 -0.005816877 -0.0005172905 -0.015463844
-0.050028645 0.054799482 -0.003088249 -0.0019915842 0.05077446 -0.08804858 -0.018801697 0.094711885
0.06259299 -0.039282538 -0.011042856 -0.011086792 -0.015086725 0.06945267 0.0123397065 -0.024374947
-0.031046538 -0.0049994444 -0.031822484 -0.026870254 0.00503306 -0.05255873 -0.0029123055 -0.074372016
0.059421867 0.089134 0.022245744 0.0459354 -0.013944832 -0.08807124 -0.097148806 -0.020272838
-0.0007287273 -0.0044085803 0.018319383 -0.0065515125 -0.03739301 -0.054973908 -0.024625296 -0.004106841
-0.023595508 -0.042853195 -0.0014606337 -0.005959256 0.0811785 -0.06427261 0.0025830972 0.0071774917
-0.03556025 -0.10196842 -0.03176028 -0.002449646 0.021279717 -0.0068758926 0.019490086 0.025943628
-0.07542358 -0.0022729053 -0.000914547 -0.00047062957 -0.0034077286 -0.08539216 -0.0015579894 -0.006120674
-0.095336795 -0.031773455 0.05607157 -0.0048123505 -0.015772851 -0.004470351 -0.0038441403 -0.0055960845
-0.016856605 0.0800107 -0.033276323 -0.0059217103 0.021802088 0.065646626 -0.023608547 0.09927883
-0.0053753606 0.058147803 0.08292573 0.059098996 0.044512287 -0.0010861767 -0.024330534 0.06120733
00000000: 5aef 863a 92c4 4d3d 432e b2bb f0dc 9abc
00000010: caf1 7bba 7f2e 99bd 32ac b4bd 6189 1cbb
00000020: baca c4bb 881d 46bc 6353 89bd 97a4 c0bc
00000030: abc2 933d 803d d2bb e3ea 72bd 63ac 2fbc
00000040: d44d 4eba ff93 8c3d 90a5 38bc ee25 22bc
00000050: 1e54 9fbc d48e 8dbd ae9e 46bb 12f3 c23d
00000060: e78e c8bc be13 8fb9 be62 383d 20a5 35bb
00000070: 98f2 843d d4f7 09bb 7a32 c3bd c30d 13bd
00000080: b251 78bd ea63 a2bb 764c 94bd 4a32 35ba
00000090: d86e eb3d 809b bebb c79a 07ba 105c 7dbc
000000a0: d6ea 4cbd 6c75 603d 3864 4abb 3d85 02bb
000000b0: e1f8 4f3d d052 b4bd 0406 9abc 4ef8 c13d
000000c0: c130 803d bae6 20bd 18ed 34bc 60a5 35bc
000000d0: 502e 77bc 343d 8e3d 7b2c 4a3c f8ad c7bc
000000e0: 4f55 febc 61d2 a3bb 4b58 02bd 021f dcbc
000000f0: 5eec a43b d347 57bd 61dc 3ebb 5b50 98bd
00000100: 5864 733d e38b b63d b53c b63c c226 3c3d
00000110: dd78 64bc b25e b4bd f4f5 c6bd 3913 a6bc
00000120: 1008 3fba da75 90bb 8812 963c 12ae d6bb
00000130: 6a29 19bd 522c 61bd fdba c9bc ae92 86bb
00000140: 5e4b c1bc d586 2fbd bc72 bfba dd45 c3bb
00000150: ea40 a63d 5ca1 83bd 2e49 293b 2a31 eb3b
00000160: a0a7 11bd d2d4 d0bd 1117 02bd 3d8a 20bb
00000170: cd52 ae3c 2b4f e1bb aca9 9f3c bb87 d43c
00000180: ae77 9abd 06f5 14bb 36be 6fba d5be f6b9
00000190: 3354 5fbb 16e2 aebd 7335 ccba ef8f c8bb
000001a0: f03f c3bd e224 02bd 4dab 653d ecb0 9dbb
000001b0: 1136 81bc 067c 92bb f9ed 7bbb 5c5f b7bb
000001c0: dd16 8abc a6dc a33d c14c 08bd e80a c2bb
000001d0: 4b9a b23c bd71 863d b666 c1bc b352 cb3d
000001e0: cb23 b0bb 642c 6e3d f7d4 a93d ca11 723d
000001f0: 8452 363d 0b5e 8eba d450 c7bc 8ab4 7a3d

critic.4.weight f4 [1, 128]
0.00010260387 0.005835134 -0.039361365 9.970751e-08 7.4792315e-35 -6.748933e-08 3.8389132e-19 -5.6028e-41
1.1150804e-14 -5.66e-41 2.7266842e-20 3.206e-42 -0.09196646 -2.5494498e-06 -0.10187074 -1.6548e-41
5.499953e-13 0.02106454 3.927409e-15 2.6211e-41 -0.05579127 -3.159975e-36 -2.304642e-18 -0.09503649
-2.1359534e-21 -2.828604e-25 -0.08272119 -4.110075e-18 -0.09254237 1.5240494e-13 5.780144e-20 -1.9097349e-19
-0.08907876 -4.7310544e-16 -2.4053554e-19 7.8606107e-32 -0.06130651 -1.7921e-41 1.687e-42 -8.985494e-08
-5.7083e-41 -0.045071058 -9.281e-42 -1.2613481e-10 -0.048525356 -3.754e-42 2.4879e-41 -0.03128272
-0.06039188 7.61e-43 -0.08517174 1.1503e-41 -0.06451227 -0.061361074 -0.046051566 -1.3555344e-08
-1.5631e-41 -4.874e-42 -0.03860801 8.99357e-08 -0.07439491 4.6760415e-13 4.14961e-06 2.6186044e-21
-0.035444707 -0.024998158 -0.033337526 -0.009616503 -0.06300271 1.045e-42 0.10679588 -6.67e-43
-0.00014069682 -6.38e-43 0.00089094276 -1.342e-42 -1.8011367e-11 -4.3020145e-21 1.7839291e-06 -0.0001366032
4.4259e-41 -0.023825692 -1.39715e-40 -1.4602e-41 -0.11620225 5.6325e-41 -0.0027602615 -0.09830341
-0.09499142 -5.0777025e-11 -0.10156088 0.0015184593 0.08342072 -4.1089334e-20 -0.05975213 -0.0014195656
1.3775961e-17 7.637386e-20 3.446e-42 8.251e-42 -4.759e-42 1.3734332e-18 4.3401e-41 -4.773e-42
-7.882172e-15 -1.3212593e-19 -0.03357761 -8.017256e-12 3.6727876e-08 5.258e-42 2.1887e-41 2.222e-42
-5.691628e-17 -0.12370125 -0.07701278 2.5983e-41 -0.05114757 -0.10614375 -4.3987e-41 -0.04430604
-2.64e-42 -0.09762471 -0.032521687 -0.06880487 -0.014337782 0.0003749179 -5.5877e-41 -0.04771603
00000000: 092d d738 a734 bf3b 6239 21bd c91e d633
00000010: 03d5 c606 a7ee 90b3 049c e220 2f9c 0080
00000020: 02e0 4828 c79d 0080 97c3 001f f008 0000
00000030: e958 bcbd 3717 2bb6 9ba1 d0bd 212e 0080
00000040: 57cf 1a2b 8b8f ac3c f47f 8d27 1149 0000
00000050: 6385 64bd 1569 8684 750d 2aa2 7ea2 c2bd
00000060: 5963 219d 0515 af96 ba69 a9bd 90a2 97a2
00000070: db86 bdbd bc97 2b2a d47a 881f 3276 61a0
00000080: ed6e b6bd 055d 08a6 b4fc 8da0 b812 cc0b
00000090: 891c 7bbd f531 0080 b404 0000 47f6 c0b3
000000a0: 209f 0080 6e9c 38bd df19 0080 cbaf 0aaf
000000b0: 86c2 46bd 770a 0080 5a45 0000 4f22 00bd
000000c0: 7a5d 77bd 1f02 0000 856e aebd 1120 0000
000000d0: 021f 84bd c055 7bbd 91a0 3cbd 09e1 68b2
000000e0: 932b 0080 960d 0080 6f23 1ebd ad22 c133
000000f0: 5c5c 98bd 6e9e 032b e13c 8b36 2ddb 451d
00000100: 782e 11bd f0c8 ccbc ee8c 08bd 898e 1dbc
00000110: 9107 81bd ea02 0000 ccb7 da3d dc01 0080
00000120: 0488 13b9 c701 0080 288e 693a be03 0080
00000130: fe6d 9ead 8886 a29d 566f ef35 243d 0fb9
00000140: 607b 0000 192e c3bc 7885 0180 b428 0080
00000150: 72fb edbd 039d 0000 81e5 34bb 4c53 c9bd
00000160: dd8a c2bd d951 5fae 27ff cfbd 0a07 c73a
00000170: 7cd8 aa3d f509 429f a6be 74bd b810 baba
00000180: 231f 7e23 2a55 b41f 9b09 0000 0017 0000
00000190: 440d 0080 d7ae ca21 fc78 0000 4e0d 0080
000001a0: 1afe 0da8 9dfc 1ba0 ad88 09bd 830a 0dad
000001b0: babe 1d33 a80e 0000 033d 0000 3206 0000
000001c0: 713d 83a4 1557 fdbd e0b8 9dbd 6e48 0000
000001d0: 1d80 51bd e561 d9bd 9e7a 0080 407a 35bd
000001e0: 5c07 0080 77ef c7bd 7635 05bd 91e9 8cbd
000001f0: 04e9 6abc a190 c439 c39b 0080 e271 43bd
